src/VAE/vae_models/user_10_vae.pth (torch, 22320 bytes, 10 tensors)

fc1.weight f4 [64, 11]
0	0x3e20d6b6	0.15706906
1	0x3cfbf7ef	0.030757872
2	0xbd55bce4	-0.052182093
3	0x3df05d60	0.1173656
4	0x3e8cb823	0.27484235
5	0xbe17ed17	-0.14836536
6	0x3cf735ed	0.030177081
7	0x3e7b15ad	0.24519987
8	0x3e05a6e4	0.13051945
9	0xbe16f0e9	-0.14740337
10	0x3e8cda4d	0.275103
11	0x3e48d1f4	0.19611341
12	0x3e28a4ae	0.1646907
13	0x3d6643f4	0.05621715
14	0xbdbc1680	-0.09183979
15	0xbe7c3b09	-0.24631895
16	0x3a98c12f	0.0011654253
17	0xbe7b1217	-0.2451862
18	0xbda550c4	-0.080720454
19	0xbe9a1480	-0.30093765
20	0xbea0b390	-0.31386995
21	0xbd6ed972	-0.05831284
22	0xbe2f3d97	-0.17113338
23	0xbe43641a	-0.19081154
24	0xbd409d47	-0.04702499
25	0xbd06ba90	-0.032892764
26	0xbe6c75b5	-0.23091777
27	0xbe949254	-0.2901789
28	0x3dd66fed	0.10470567
29	0x3d6e7038	0.05821249
30	0x3d1e730a	0.03868393
31	0xbe8afd96	-0.27146596
32	0x3ca0ab93	0.019613063
33	0x3e1a737a	0.15083113
34	0x3e6bc03e	0.23022553
35	0xbe45251d	-0.19252439
36	0x3e9d332b	0.307031
37	0xbd29ebcc	-0.04148464
38	0x3d3511dc	0.044206485
39	0xbe3be0af	-0.18347429
40	0x3d502fe4	0.050826922
41	0x3e4ce2ad	0.20008345
42	0xbe607765	-0.21920545
43	0x3dc15d60	0.09441638
44	0xbdb68b5b	-0.08913299
45	0x3d61009d	0.054932225
46	0xbda2a1aa	-0.07940991
47	0xbc977cee	-0.018492188
48	0xbe24b9c0	-0.16086483
49	0x3e54b4bb	0.20772068
50	0x3e03ebb0	0.12882876
51	0xbe3cb734	-0.18429261
52	0x3e2dde62	0.16979364
53	0x3ea1a1ae	0.31568664
54	0xbda6c712	-0.081434384
55	0x3e1d686a	0.15371862
56	0x3d562f94	0.052291468
57	0x3e3c8999	0.18411864
58	0xbe3339d6	-0.17502531
59	0xbe1832a6	-0.14863071
60	0x3e918b2e	0.28426498
61	0xbd8f3687	-0.06992822
62	0xbd043c71	-0.032284204
63	0xbe522968	-0.20523608
64	0xbd797f4a	-0.060912408
65	0xbd90c111	-0.070680745
66	0xbe3df2d9	-0.1854967
67	0xbe20ad84	-0.15691191
68	0xbd74e188	-0.059785396
69	0x3ca78398	0.020448491
70	0xbcf3dcf2	-0.02976844
71	0xbc4e8111	-0.012604014
72	0xbe79fca4	-0.24412781
73	0x3e31a794	0.17349082
74	0x3e7e2407	0.24818431
75	0x3e51845d	0.20460649
76	0xbdb9de9c	-0.090756625
77	0x3e31cc03	0.1736298
78	0x3cc3ead1	0.02391568
79	0xbbb0ed6b	-0.005399396
80	0xbdcde1bd	-0.10052822
81	0xbe14dfa9	-0.14538445
82	0xbc85e397	-0.016343875
83	0xbe7a3c8d	-0.24437161
84	0xbea9bc22	-0.33151346
85	0xbe69f2b2	-0.22846487
86	0x3e36fbec	0.17869538
87	0xbd951ba2	-0.07280661
88	0xbd823c6e	-0.06359182
89	0xbdefa50a	-0.117014006
90	0x3ea2fa6d	0.31831685
91	0x3e4ebf7c	0.20190233
92	0xbe0c8d36	-0.13725743
93	0x3e0f8ccf	0.14018558
94	0x3d5b21dd	0.05349909
95	0xbdcd8a20	-0.10036111
96	0x3de35fe1	0.11102272
97	0x3e2f9ecb	0.17150418
98	0x3de505bc	0.11182734
99	0xbd9b85d7	-0.07593887
100	0xbd03ea1d	-0.03220569
101	0xbe8c351f	-0.27384278
102	0xbd7efc94	-0.062252596
103	0xbe5637ba	-0.20919695
104	0xbd704321	-0.05865777
105	0xbd92c2e8	-0.07166082
106	0x3d638948	0.055550843
107	0x3e6bb2f3	0.23017482
108	0x3de7026a	0.11279757
109	0xbe25fb65	-0.1620918
110	0x3e757c1f	0.2397313
111	0x3d1b4268	0.037905127
112	0xbe8fd766	-0.28094023
113	0x3c87f79f	0.016597567
114	0xbe1ed732	-0.15511778
115	0xbbf0e362	-0.007351325
116	0xbdf76854	-0.12080446
117	0x3e087660	0.13326406
118	0xbd719cfd	-0.058987606
119	0xbe89d363	-0.26919088
120	0xbe9b4bb6	-0.303312
121	0xbdcf6ca2	-0.10128142
122	0xbe59addc	-0.21257728
123	0x3cf1dc48	0.029523984
124	0xbe3bb343	-0.18330102
125	0x3d004ce9	0.031323347
126	0x3e32286f	0.17398237
127	0x3e1af22b	0.15131442
128	0x3d4efd9e	0.050534837
129	0x3e528e7e	0.20562169
130	0x3e872a01	0.26399234
131	0x3e2c6a11	0.16837336
132	0x3c63175c	0.01386055
133	0x3e76acaf	0.24089311
134	0x3cdcb2eb	0.026940783
135	0xbe10f3cd	-0.14155503
136	0xbe26233c	-0.16224378
137	0x3cb78bca	0.022405524
138	0x3dc6d1f9	0.09708018
139	0x3e765f86	0.24059877
140	0x3dc25533	0.09488907
141	0x3da9b533	0.08286514
142	0x3e665880	0.22494698
143	0xbb163efe	-0.002292573
144	0xbd383838	-0.04497549
145	0xbd61dad6	-0.05514034
146	0xbe1e69f2	-0.15470102
147	0x3d8f86d5	0.07008139
148	0xbd205913	-0.039147448
149	0x3e6436e6	0.22286567
150	0xbe288f01	-0.16460802
151	0x3d72fc30	0.059322536
152	0x3c6a9b53	0.014319259
153	0xbcad95b1	-0.021189542
154	0x3e5614b4	0.20906335
155	0x3e896d44	0.26841176
156	0x3dec570f	0.115400426
157	0x3e07d0d9	0.13263263
158	0x3e80bbde	0.2514333
159	0x3d0e1f02	0.03469754
160	0x3d807ccf	0.06273805
161	0xbea0dc6e	-0.31418175
162	0x3e2e0620	0.16994524
163	0x3e304d31	0.17216946
164	0xbe04b8d1	-0.12961127
165	0xbe5ac745	-0.21365078
166	0xbdcda3a3	-0.10040977
167	0xbd8aa36e	-0.06769453
168	0x3de9ccba	0.114160016
169	0x3db5f55a	0.08884688
170	0xbbf9cccc	-0.0076232906
171	0xbd70eb23	-0.058817994
172	0x3e96c2f7	0.2944562
173	0xbd774787	-0.06037095
174	0x3e51ac5a	0.20475903
175	0xbe31e670	-0.17373061
176	0x3d83f382	0.0644293
177	0x3d8afb6e	0.06786238
178	0xbe7fe63b	-0.2499017
179	0x3eed7797	0.46380302
180	0x3d072f81	0.033004288
181	0x3e41da2e	0.18930885
182	0x3d66c6ed	0.056342054
183	0xbd2af81d	-0.041740526
184	0x3b6720c6	0.0035267337
185	0x3e1633d0	0.14668202
186	0x3e2c8615	0.16848023
187	0x3e2df8e4	0.16989475
188	0xbd2bc7f3	-0.041938733
189	0xbe25f79b	-0.16207735
190	0x3e204e2c	0.1565482
191	0xbe46a62d	-0.19399329
192	0x3e577847	0.21041976
193	0xbe2cd03e	-0.16876313
194	0x3d71011b	0.058838945
195	0x3de91c0f	0.11382305
196	0x3d959140	0.07303095
197	0x3e45b4b2	0.19307211
198	0xbdb27a84	-0.08714774
199	0x3e4fa3eb	0.20277373
200	0xbcc72dbc	-0.0243138
201	0x3e6c8659	0.23098125
202	0xbe1f2b4c	-0.1554386
203	0x3e1007f5	0.14065535
204	0xbe179ea0	-0.14806604
205	0xbd38d5cf	-0.04512578
206	0xbcbe384f	-0.02322021
207	0x3d079d30	0.03310889
208	0x3e17291d	0.14761777
209	0xbcf3a349	-0.029740946
210	0x3e60af12	0.21941784
211	0x3e46d1e0	0.19415998
212	0xbbf6af40	-0.0075282156
213	0x3d6a2f28	0.057173878
214	0x3de01460	0.10941386
215	0xbbd1ad59	-0.0063988385
216	0xbdf6e95b	-0.12056228
217	0xbe6dda9e	-0.23227927
218	0xbddeec0d	-0.10884867
219	0x3e5b5985	0.21420868
220	0xbe1fe4c7	-0.15614615
221	0xbe5cdab9	-0.21567811
222	0x3e330747	0.17483245
223	0xbe9b3703	-0.30315408
224	0x3e14b059	0.14520396
225	0x3d5acd14	0.053418234
226	0xbe898980	-0.26862717
227	0xbd27aa17	-0.040933695
228	0x3e64923b	0.22321407
229	0xbe916dee	-0.28404182
230	0xbd93b587	-0.07212358
231	0x3d16aa87	0.03678372
232	0xbcfbe11e	-0.030746993
233	0x3db40538	0.08790058
234	0x3e8aa3e1	0.27078155
235	0xbd0c5795	-0.034263212
236	0x3e900304	0.281273
237	0xbd69fb03	-0.05712415
238	0x3da48661	0.08033443
239	0x3e1518a5	0.14560182
240	0xbe4c3b5b	-0.19944517
241	0x3d8df283	0.06931021
242	0x3b59b869	0.003322149
243	0xbe74baaf	-0.23899339
244	0xbd250b57	-0.040294018
245	0xbe9820a4	-0.29712403
246	0x3cde3bf3	0.027128195
247	0x3e72dff9	0.23718251
248	0xbdd04a1d	-0.10170386
249	0xbe9451eb	-0.28968748
250	0xbde00253	-0.10937943
251	0xbdb226ad	-0.08698783
252	0xbcecc4b8	-0.028902397
253	0x3e1b9441	0.15193273
254	0xbe14f077	-0.14544855
255	0x3e6f88e8	0.2339207

fc1.bias f4 [64]
0	0xbdb6f41b	-0.08933278
1	0x3d62e427	0.055393364
2	0xbd5f023b	-0.054445487
3	0x3e7aba25	0.24485071
4	0x3e8dca7c	0.27693546
5	0xbe6630f2	-0.22479609
6	0xbe7f47b4	-0.24929696
7	0x3dc77d0c	0.09740648
8	0xbdecf442	-0.11570026
9	0xbc90a960	-0.01765889
10	0xbd2d4eb3	-0.04231138
11	0x3c847bb8	0.016172275
12	0xbded29d7	-0.11580246
13	0x3e93dfeb	0.28881773
14	0xbd396878	-0.045265645
15	0x3e6d87b4	0.23196298
16	0xbe103d1a	-0.14085808
17	0x3d3f6549	0.046727452
18	0x3e5c6c04	0.2152558
19	0x3d421493	0.047382902
20	0xbd7f43e7	-0.062320616
21	0xbd95a839	-0.073074766
22	0x3e254968	0.16141284
23	0xbe94cf91	-0.2906461
24	0xbe81197d	-0.2521476
25	0xbe554b0e	-0.20829412
26	0x3e46b0dc	0.19403404
27	0x3e21fc27	0.15818845
28	0xbb98c871	-0.0046625664
29	0xbe27902d	-0.16363592
30	0xbd92697d	-0.071490265
31	0x3df761c2	0.12079193
32	0x3da83721	0.0821364
33	0xbdee370d	-0.11631594
34	0xbe6935ea	-0.22774473
35	0xbd386ed6	-0.045027576
36	0xbbb5c81e	-0.0055475375
37	0x3e7c51ef	0.2464063
38	0x3e379d34	0.17931062
39	0xbe05c144	-0.13062006
40	0xbe183919	-0.14865531
41	0x3e7a0808	0.24417126
42	0xbe10a416	-0.14125094
43	0x3e17e249	0.14832415
44	0xbe36c6b7	-0.17849241
45	0xbe2ff637	-0.17183767
46	0xbd12bf16	-0.035826765
47	0x3e463c14	0.19358855
48	0x3e7bc494	0.24586707
49	0xbd7e3947	-0.062066343
50	0xbe5954ab	-0.21223705
51	0xbdda33f0	-0.106544375
52	0xbde756ad	-0.11295829
53	0x3e193e29	0.14965118
54	0xbe2dff4b	-0.16991918
55	0xbe557304	-0.20844656
56	0x3e250d26	0.16118297
57	0x3e35f8f8	0.17770755
58	0x3e694a30	0.22782207
59	0x3e50e38b	0.20399301
60	0xbde3e1dd	-0.111270644
61	0x3d89233a	0.06696172
62	0xbe94a418	-0.29031444
63	0xbdc76dbe	-0.097377285

fc2_mean.weight f4 [16, 64]
0	0x3ba812a7	0.0051291767
1	0x3d4fafb7	0.050704684
2	0x3c231d40	0.009955704
3	0x3ce858ed	0.028362716
4	0x3a54cb22	0.00081174274
5	0xbd233c36	-0.039852343
6	0x3d559619	0.052145097
7	0x3d1f0561	0.03882349
8	0xbd57e652	-0.052709885
9	0xbd73449a	-0.059391595
10	0xbda190b9	-0.07888932
11	0xbd0e1d71	-0.034696046
12	0x3dc5b290	0.09653199
13	0x3d3d203f	0.04617333
14	0x3d51869a	0.051153757
15	0x3e24248f	0.16029571
16	0xbd13a625	-0.03604712
17	0xbdbabbac	-0.09117827
18	0xbd9b50d9	-0.0758378
19	0xbc5ad666	-0.013356781
20	0x3d7bae2e	0.061445408
21	0x3da1be41	0.07897616
22	0x3ca5d0b3	0.020241117
23	0x3caf7148	0.021416321
24	0xbd611f67	-0.05496159
25	0x3cb12e86	0.02162863
26	0xbcd03c54	-0.025419392
27	0x3d21b1f9	0.03947637
28	0xbc1af203	-0.009457114
29	0x3d37a0ce	0.04483109
30	0x3bcbc153	0.0062181144
31	0x3ad5ebeb	0.0016320919
32	0xbdd283a6	-0.10279016
33	0xbd15a61b	-0.036535364
34	0xbd956754	-0.07295099
35	0x3d88c68c	0.06678495
36	0xbd2ef92b	-0.042718094
37	0xbd30bf03	-0.043150913
38	0x3dbbb474	0.09165278
39	0x3be0a8d8	0.0068560652
40	0xbd258b1c	-0.04041587
41	0x3dc1c900	0.09462166
42	0xbdef4df1	-0.11684788
43	0x3da7716d	0.08175931
44	0x3d7df962	0.062005408
45	0x3d003071	0.031296197
46	0x3dbfd1c1	0.09366179
47	0xbd65ee67	-0.05613556
48	0x3af66151	0.0018797313
49	0xbda4ad5a	-0.08040877
50	0xbd89ae13	-0.06722655
51	0x3e03873c	0.12844557
52	0xbdafd572	-0.08585633
53	0xbd2488ba	-0.040169455
54	0xbdfc5ad0	-0.123220086
55	0xbdf1094c	-0.11769351
56	0x3c42bb5f	0.011885493
57	0xbccb4fc5	-0.02481831
58	0xbd9cd5db	-0.07657977
59	0x3dd88abd	0.10573337
60	0xbd70216a	-0.058625616
61	0xbd2da186	-0.04239037
62	0x3cb33a58	0.021878406
63	0x3d385b5c	0.045009002
64	0x3cfc3512	0.030787025
65	0x3c296087	0.010337955
66	0x3d7872d4	0.060656384
67	0xbd2df968	-0.04247418
68	0xbd87215e	-0.06598161
69	0x3c80879b	0.015689662
70	0x3d066b31	0.03281707
71	0xbcf5cd46	-0.030005109
72	0xbc21c12e	-0.009872718
73	0xbd6ae9c1	-0.05735183
74	0x3c99a8e6	0.018757295
75	0x3c60ea52	0.013727741
76	0x3dae26ed	0.08503518
77	0xbdae90d6	-0.08523719
78	0xbdbc5734	-0.0919632
79	0xbd50cbf9	-0.050975773
80	0x3c50cb9f	0.01274386
81	0x3cd71785	0.026256332
82	0x3d5f470d	0.05451112
83	0x3cb35eca	0.021895785
84	0xbd822528	-0.06354743
85	0xbd36061f	-0.04443943
86	0xbc392d5a	-0.011302317
87	0xbcd3e470	-0.025865763
88	0x3d6a8d10	0.057263434
89	0xbc64b8b7	-0.013960055
90	0x3da20ed2	0.07912983
91	0x3d64cbea	0.05585853
92	0xbc2e5a24	-0.010641608
93	0xbdadd81d	-0.08488486
94	0xbbea61ea	-0.0071527855
95	0xbd8d9588	-0.069132864
96	0xbd969030	-0.0735172
97	0x3da51976	0.08061497
98	0xbdc6cd9e	-0.09707187
99	0x3c5c0fc6	0.013431495
100	0xbdac806a	-0.084229305
101	0x3d7ebda8	0.06219259
102	0xbd12815f	-0.03576791
103	0x3d02d890	0.03194481
104	0x3da8931e	0.082311854
105	0xbd1e7cd9	-0.038693283
106	0x3db05032	0.08609046
107	0xbd512e30	-0.05106944
108	0xbe0fa038	-0.14025962
109	0xbb3da6bd	-0.0028938495
110	0x3d6a960a	0.057271995
111	0x3c39d0f1	0.011341319
112	0xbc2f969a	-0.010717059
113	0x3deb4bcf	0.11489069
114	0xbdf8d95e	-0.121508345
115	0xbd9729e9	-0.073810406
116	0x3c96a2c3	0.018388158
117	0xba12531c	-0.0005581842
118	0x3d78f0a1	0.060776357
119	0x39d8e600	0.00041370094
120	0x3d7d9dbc	0.061918005
121	0xbd30c1c4	-0.04315354
122	0xbd83dbad	-0.06438384
123	0xbbe01372	-0.0068382556
124	0xbe0e66e9	-0.13906445
125	0xbc6bc896	-0.014391085
126	0xbd8c4584	-0.068491966
127	0xbab1aed0	-0.0013556127
128	0xbcbeeaaf	-0.023305265
129	0x3d3a1c94	0.04543741
130	0x3d7f6910	0.062356055
131	0x3c971b3e	0.018445607
132	0xbdb39ca4	-0.08770111
133	0x3be153dc	0.006876452
134	0xbd04e769	-0.032447252
135	0x39930616	0.0002804256
136	0xbcef2973	-0.02919457
137	0x3d282b81	0.041057114
138	0xba9bc96d	-0.0011885591
139	0x3d4f15aa	0.05055777
140	0xbcbf9acb	-0.02338924
141	0x3ded51a5	0.11587838
142	0xbbcd6c1f	-0.0062689926
143	0xbd25eb93	-0.040507864
144	0x3aaf83b0	0.0013390686
145	0x3b249f2a	0.0025119283
146	0x3d8eb6b8	0.069684446
147	0x3c992341	0.018693568
148	0xbd8c7386	-0.06857972
149	0x3c9ad947	0.018902434
150	0xbc13dd28	-0.009024896
151	0x3bb2a120	0.0054513365
152	0x3d72e2a3	0.05929817
153	0xbd0a76f6	-0.033804856
154	0xbd04f551	-0.032460514
155	0xbc969f0a	-0.018386383
156	0x3b81374f	0.003943361
157	0x3ce27295	0.027642528
158	0xbc574508	-0.013139017
159	0xbd2b9728	-0.0418922
160	0xbd873223	-0.0660136
161	0xbba6b7d7	-0.0050878334
162	0xbcacdb30	-0.02110061
163	0x3b3b90a3	0.0028620146
164	0x3c7b9e9b	0.015357639
165	0x3d3d80d1	0.046265427
166	0x3d068cbc	0.03284906
167	0x3c29ffe4	0.0103759505
168	0xbd9f7f88	-0.077879965
169	0xbd447747	-0.047965314
170	0xbcd014d6	-0.02540056
171	0x3c0b6638	0.008508258
172	0xbca001a8	-0.01953204
173	0x3d35d722	0.04439462
174	0x3d9aa9d7	0.07551926
175	0xbadd7093	-0.0016894512
176	0xbd682081	-0.056671623
177	0x3d7f4c0e	0.06232839
178	0xbb7d577e	-0.0038656886
179	0xbd6734e4	-0.056446925
180	0xbb9fdc80	-0.0048785806
181	0x3c8661c0	0.016404033
182	0x3bc49377	0.0059990245
183	0xbdb8a5b8	-0.09015983
184	0xbd447b6e	-0.047969274
185	0x3c00d154	0.007862408
186	0x3ddba4ad	0.10724769
187	0x3db920ab	0.09039434
188	0xbccbf807	-0.024898542
189	0x3dc53126	0.09628515
190	0x3cae6328	0.021287516
191	0xbd84f720	-0.06492448
192	0xbcdbf7e3	-0.0268516
193	0xbd820f16	-0.06350534
194	0x3df5a702	0.11994745
195	0x3c122c7d	0.00892174
196	0x3c980979	0.018559204
197	0x3cc8771e	0.024470862
198	0xbd6615a6	-0.05617299
199	0xbd0245e1	-0.031804923
200	0x3b0967bc	0.0020966372
201	0x3db54c7c	0.08852479
202	0xbd6a7994	-0.057244852
203	0x3c3be12b	0.011467258
204	0xbdc36e05	-0.09542469
205	0xbd53de6b	-0.051725786
206	0xbc6f5f89	-0.01461018
207	0xbd90793e	-0.07054375
208	0xbda6b824	-0.08140591
209	0x3d12c9f7	0.03583714
210	0xbcf0a320	-0.029374659
211	0xbd5a2c2c	-0.05326478
212	0x3d8e1e61	0.06939388
213	0xbce0e59c	-0.027453236
214	0x3cbebd63	0.023283666
215	0xbdde86d6	-0.10865562
216	0xbd7afc48	-0.06127575
217	0x3c6c0516	0.014405509
218	0x3a1831c5	0.0005805756
219	0x3d345210	0.044023573
220	0xbbef8899	-0.007309985
221	0xbd4d182f	-0.05007189
222	0xbceb2ed1	-0.028708847
223	0x3da00c7d	0.07814882
224	0x3d7909fc	0.060800537
225	0x3cd0ef1f	0.025504647
226	0xbcad0708	-0.021121517
227	0xbc53eae0	-0.0129344165
228	0xbc472afb	-0.012156243
229	0x3cabece2	0.020986978
230	0xbd93fa6d	-0.07225499
231	0x3e03ebbd	0.12882896
232	0x3dec1fc6	0.11529498
233	0xbd257ca4	-0.04040207
234	0x3db5df89	0.088805266
235	0xbd7fd1f1	-0.062456075
236	0x3c9936ec	0.018702947
237	0xbcd631c6	-0.02614678
238	0x3da3c2ed	0.079961635
239	0xbd857657	-0.06516712
240	0xbd06abbb	-0.03287862
241	0xbded3ce7	-0.11583882
242	0xbd795b19	-0.060877893
243	0x3c55e3a7	0.013054765
244	0x3cb89f8f	0.022537021
245	0xbc4ce6d0	-0.012506202
246	0xbd9cff69	-0.07665903
247	0xbc8528e8	-0.016254857
248	0xbd948a0d	-0.072528936
249	0x3c02616e	0.007957799
250	0xbcf12aba	-0.029439319
251	0x3c587ec2	0.013213815
252	0x3decb3a2	0.115577
253	0x3d9a49a7	0.07533579
254	0x3d998e8a	0.0749789
255	0x3d62d147	0.055375364

fc2_mean.bias f4 [16]
0	0xbd55b43d	-0.05217384
1	0x3daaa2e5	0.08331851
2	0xbd87607b	-0.06610199
3	0x3d76e518	0.060277075
4	0xbd126d1d	-0.03574859
5	0xbc82f359	-0.015985178
6	0xbd1d29e2	-0.03837002
7	0xbdcac747	-0.099012904
8	0x3dcc8e0c	0.09988031
9	0x3d4de59b	0.050267797
10	0xbd8d6f80	-0.069060326
11	0xbccd5d72	-0.025068972
12	0xbd2d39dd	-0.04229151
13	0x3cf7310a	0.03017475
14	0xbda7e99d	-0.08198855
15	0xbd4cac2c	-0.049968883

fc2_logvar.weight f4 [16, 64]
0	0xbce0603d	-0.02738964
1	0x3d7b2b55	0.06132062
2	0x3ca810e8	0.020515874
3	0xbd553868	-0.052055746
4	0x3cffbbc8	0.03121747
5	0xbbdd0ef3	-0.006746167
6	0xbc1da0c3	-0.009620848
7	0xbc96bc29	-0.018400269
8	0x3d0427d2	0.032264538
9	0xbc052eaf	-0.008128806
10	0xbd01a949	-0.031655584
11	0x3b1f3e56	0.002429863
12	0x3d7c1129	0.061539803
13	0xbd6abc85	-0.057308692
14	0x3d9c7190	0.07638848
15	0xbd67026b	-0.05639879
16	0x3c5837f2	0.013196932
17	0x3d0f13b7	0.03493091
18	0xbcee7f32	-0.029113386
19	0x3c4b7ffb	0.01242065
20	0xbc4af5d6	-0.012387713
21	0x3b7195f4	0.003686306
22	0xbb882548	-0.004154835
23	0x3da5e654	0.08100572
24	0x3d807f03	0.062742256
25	0xbd303d2e	-0.043027095
26	0x3c7971ce	0.015224887
27	0xbdad9470	-0.08475578
28	0x3bb2d75c	0.0054578017
29	0xbdb1c0ca	-0.0867935
30	0x3bd64eda	0.0065401616
31	0xbc4bd5f1	-0.012441144
32	0xbd8cf8b4	-0.06883374
33	0xbc5205e1	-0.012818784
34	0x3d5a9b18	0.053370565
35	0x3b16ba4e	0.002299923
36	0xbb9c2b59	-0.0047659096
37	0x3ca9c245	0.020722518
38	0x3da7f13a	0.08200307
39	0xbcd64160	-0.02615422
40	0x3cdd0e10	0.026984245
41	0xbd0ee4ce	-0.034886174
42	0x3da34fcc	0.079742044
43	0xbc612521	-0.013741762
44	0x3c23deaf	0.010001822
45	0x3cdf07ba	0.027225364
46	0x3defc1c5	0.117068805
47	0x3d6b9477	0.057514634
48	0xbdd1f8fe	-0.102525696
49	0x3dd2db98	0.102957904
50	0x3d97559b	0.07389375
51	0xbcd31d3a	-0.025770772
52	0x3d575e5e	0.05258023
53	0x3d86a4f8	0.06574434
54	0xbbb77f25	-0.0055998736
55	0xbda133da	-0.07871218
56	0xbda01140	-0.0781579
57	0x3cb74872	0.022373412
58	0x3dd4f219	0.10397739
59	0x3d768532	0.06018562
60	0x3d3c59f0	0.04598421
61	0xbd81dd71	-0.06341065
62	0x3d6cee3c	0.057844386
63	0xbcf2f7ec	-0.029659234
64	0x3d24d4d7	0.040242042
65	0x3ceb9120	0.028755724
66	0x3ca7d970	0.020489424
67	0xbc4b5f5e	-0.012412874
68	0x3d2103e6	0.03931036
69	0xbd6138c9	-0.054985795
70	0x3cbc5dbb	0.022993913
71	0xbd312c71	-0.043255273
72	0xbbd114d5	-0.006380657
73	0xbdbf6529	-0.09345467
74	0x3b91504b	0.0044346205
75	0xbda52904	-0.08064464
76	0xbc9add74	-0.018904425
77	0x3c6a9d0c	0.014319669
78	0x3d355389	0.04426912
79	0xbcd8c68d	-0.026461864
80	0xbd99bec7	-0.07507091
81	0x3d2ea7c4	0.042640463
82	0x3d1179af	0.035516437
83	0x3c7b6601	0.015344144
84	0xbdc4b80c	-0.09605417
85	0xbdcc3779	-0.09971518
86	0x3c929916	0.017895263
87	0xbddb9aca	-0.10722883
88	0xbd7ae67a	-0.061254956
89	0xbc832560	-0.016009033
90	0xbdc65ea1	-0.09686018
91	0xbd494efa	-0.049147584
92	0xbca7e665	-0.020495603
93	0x3dc6eada	0.09712763
94	0xbd2369d7	-0.03989586
95	0xbb9b1751	-0.004733004
96	0xbdff00c8	-0.12451321
97	0xbbab1c48	-0.0052218772
98	0xbd765048	-0.060135156
99	0x3e109cb5	0.14122279
100	0x39ec8d7e	0.00045118848
101	0x3d380b5a	0.0449327
102	0x3d111be7	0.035427
103	0x3e365d45	0.17809017
104	0xbdaf5ade	-0.085622534
105	0x3c6db5c5	0.014508669
106	0xbe00bc76	-0.12571892
107	0x3d6acf77	0.05732676
108	0x3d9f686f	0.07783591
109	0x3c85c9e4	0.01633162
110	0x3db54e13	0.08852782
111	0xbd8e5674	-0.069500834
112	0xbd40b708	-0.047049552
113	0x3de2d9d9	0.110767074
114	0x3d81a92b	0.06331094
115	0x3d2bed63	0.041974436
116	0xbd367f4b	-0.04455499
117	0xbc3fb6c3	-0.011701289
118	0xbca5a555	-0.020220438
119	0x3da5bae4	0.08092287
120	0xbdafdc24	-0.0858691
121	0xbd8c12d6	-0.0683953
122	0xbd8fe5b3	-0.070262335
123	0xbd3d9288	-0.04628232
124	0x3e2029fb	0.15641014
125	0xbda9ce67	-0.08291321
126	0xbdb1dfbc	-0.08685252
127	0x3dce1624	0.10062817
128	0xbcbad87d	-0.022808308
129	0xbd277291	-0.040880743
130	0xbc8a26f0	-0.01686427
131	0x3d82984e	0.06376706
132	0x3d2def18	0.042464346
133	0x3ae0927c	0.00171335
134	0x3d205738	0.03914568
135	0x3c11dfa8	0.008903421
136	0x3d6fec99	0.058575246
137	0xbd13e3cb	-0.036105912
138	0xbc9dfb53	-0.01928488
139	0xbd10f00f	-0.035385188
140	0xbc053f8b	-0.008132826
141	0xbda847ec	-0.08216843
142	0xbcd78e09	-0.026312845
143	0xbd2da1f6	-0.042390786
144	0x3c5e18f6	0.013555756
145	0xbd5de3b8	-0.054172248
146	0xbded0c88	-0.11574656
147	0xbbcb7f45	-0.00621024
148	0xbdc5d6bc	-0.09660098
149	0x3d3778ff	0.044793125
150	0x3b372bc8	0.002794968
151	0x3d5aa2c8	0.053377897
152	0xbc997e51	-0.01873699
153	0x3b9be9fd	0.004758118
154	0xbd0c4e44	-0.034254327
155	0x3c934862	0.01797885
156	0x3c0d5ae3	0.008627626
157	0x3c97d4a9	0.018534021
158	0x3c6b73ff	0.014370917
159	0xbd02fb9d	-0.03197824
160	0xbd30d886	-0.043175243
161	0xbce09067	-0.027412606
162	0x3dec896a	0.11549647
163	0x3d82d33c	0.06387946
164	0xbdae0aac	-0.08498129
165	0xbdbf1ebe	-0.093320355
166	0x3cfc53d9	0.0308017
167	0x3d5462b4	0.051851943
168	0xbd52e864	-0.051491156
169	0x3d838c68	0.06423265
170	0xbddffe18	-0.109371364
171	0xbb1a4210	-0.0023537911
172	0x3c967a19	0.018368768
173	0x3c59b4f8	0.013287775
174	0xbcae7612	-0.021296535
175	0xbdd1f3da	-0.10251589
176	0x3cd6528b	0.026162406
177	0x3d3a00cd	0.04541092
178	0xbd9666ff	-0.07343864
179	0xbb796eb5	-0.0038060371
180	0x3c866b3d	0.016408557
181	0x38a1930d	7.7044686e-05
182	0x3ad6a604	0.0016376381
183	0x3b293f80	0.0025825202
184	0x3dc01d27	0.0938056
185	0x3c3c7d80	0.011504531
186	0x3caa25eb	0.020770034
187	0xbd8cfcc1	-0.068841465
188	0x3d73076e	0.059333257
189	0x3cc08683	0.02350164
190	0x3b225240	0.0024768263
191	0x3d55d3b8	0.052203864
192	0x3cc35696	0.023844998
193	0x3d8c6fe3	0.06857278
194	0xbdeec7e2	-0.11659218
195	0xbd4dd1f8	-0.05024907
196	0xbe089e53	-0.13341646
197	0xbddc3f05	-0.107542075
198	0x3c5c6c1f	0.013453512
199	0x3d9ab81a	0.07554646
200	0xbd23bfac	-0.039977714
201	0x3d880bc7	0.06642871
202	0x3dbd9a6b	0.092579685
203	0xbd9fecef	-0.07808863
204	0x3daf1198	0.085482776
205	0xbd6fc23e	-0.058534853
206	0x3d98dac8	0.07463604
207	0xbe1a133a	-0.15046397
208	0x3cde8982	0.027165178
209	0xbc6fad45	-0.014628713
210	0x3dbf7422	0.093483225
211	0xbdb59ef8	-0.088682115
212	0xbe0c3112	-0.13690594
213	0x3de6cbb4	0.11269322
214	0x3d0fa7c2	0.035072096
215	0xba526800	-0.00080263615
216	0xbbd579a2	-0.006514744
217	0x3d3a72f1	0.045519773
218	0xbce0b666	-0.027430724
219	0xbceee188	-0.029160276
220	0x3d2b5e89	0.041838203
221	0x3da35bb0	0.079764724
222	0x3d29e7ba	0.041480757
223	0xbd0a96a3	-0.033835065
224	0x3d93efc7	0.07223468
225	0xbe076239	-0.13221063
226	0xbdc7d798	-0.09757918
227	0x3dc5e12a	0.09662087
228	0xbd9c5f6d	-0.076353885
229	0x3d5f241f	0.054477807
230	0x3cb92df3	0.022604918
231	0x3b53f6f7	0.0032343247
232	0x3bef02e0	0.007294044
233	0x3c126291	0.008934633
234	0x3d06d2c5	0.03291585
235	0x3abf62bc	0.0014601569
236	0x3cdb1dfc	0.026747696
237	0x3dbd1d34	0.09234086
238	0xbd1d47c8	-0.038398534
239	0xbd902a96	-0.070393726
240	0xbcd1bdd3	-0.02560321
241	0xbc0519a8	-0.008123793
242	0x3d7f4a03	0.062326442
243	0xbe1a589f	-0.15072869
244	0x3cfd5826	0.030925822
245	0xbc11eb5f	-0.0089062145
246	0xbaac23bb	-0.0013133207
247	0x3bf0dee0	0.0073507875
248	0x3d398166	0.04528942
249	0xbddad749	-0.10685594
250	0x3d80fa76	0.06297772
251	0x3db17300	0.08664513
252	0xbdaeb690	-0.08530915
253	0x3d26e790	0.04074818
254	0x3d51c550	0.051213562
255	0x3bf0f86c	0.007353833

fc2_logvar.bias f4 [16]
0	0x3c976e0b	0.01848509
1	0x3dae5661	0.08512569
2	0x3d930154	0.07177988
3	0x3d8a320b	0.06747826
4	0x3d4943d6	0.04913696
5	0x3c2ac580	0.010423064
6	0x3cb26787	0.021777881
7	0xbdaba555	-0.08381144
8	0x3c7a530a	0.015278587
9	0x3c35b0f0	0.0110895485
10	0x3d8b619b	0.06805726
11	0xbdbe33c2	-0.09287216
12	0xbc831b9e	-0.01600438
13	0x3cefe2d1	0.02928296
14	0x3dbe542d	0.09293399
15	0x3b6994b7	0.003564162

fc3.weight f4 [64, 16]
0	0x3dd1f763	0.102522634
1	0x3e63d44a	0.2224895
2	0x3e175875	0.14779837
3	0x3d52b409	0.051441226
4	0xbe07a370	-0.1324594
5	0x3e58d98d	0.21176739
6	0x3dad958d	0.0847579
7	0x3cb8a843	0.022541171
8	0xbd6dc8fe	-0.05805301
9	0xbc81eb74	-0.015859343
10	0xbe075cfd	-0.13219066
11	0x3daba483	0.083809875
12	0x3e596663	0.21230464
13	0xbe2dd5c9	-0.16976084
14	0xbc762e22	-0.015025647
15	0xbd401e4e	-0.0469039
16	0xbe817093	-0.252812
17	0x3d4d6ced	0.050152708
18	0x3e4c0f9b	0.19927828
19	0xbb53b7a3	-0.00323055
20	0x3e35ec83	0.17766003
21	0xbe96f929	-0.2948697
22	0xbe05f76c	-0.13082665
23	0x3d9e5df1	0.07732762
24	0xbd4d4dd8	-0.050123066
25	0x3c438636	0.011933854
26	0x3c82cf54	0.015968002
27	0xbd40b54e	-0.047047906
28	0xbd3e80d3	-0.046509575
29	0x3d82514c	0.063631624
30	0x3db1f3cf	0.08689081
31	0x3c0402d8	0.008057319
32	0x3d8f352b	0.06992563
33	0x3e48be4c	0.19603842
34	0x3e242b8e	0.1603224
35	0xbe187671	-0.14888932
36	0x3e3085e0	0.1723857
37	0x3da185aa	0.078868225
38	0xbe57a0f2	-0.2105749
39	0xbe8a6ed4	-0.2703768
40	0x3de05c8b	0.10955151
41	0x3e5d0ff1	0.21588112
42	0xbcd7e6ca	-0.026355166
43	0xbe14a2c1	-0.1451521
44	0xbd87fa8b	-0.06639584
45	0x3e33dcdb	0.17564718
46	0xbe5ae680	-0.21376991
47	0x3c5b3c10	0.013381019
48	0x3df59d74	0.119929224
49	0xbd55a2ed	-0.05215733
50	0x3e32b03e	0.17450044
51	0x3e0386cf	0.12844394
52	0xbc00f358	-0.007870518
53	0xbdee2696	-0.116284534
54	0xbe30417b	-0.17212479
55	0xbdb862a3	-0.090031885
56	0xbe25b7f1	-0.1618345
57	0x3e0a5596	0.13509211
58	0x3deb1e61	0.11480404
59	0x3dc098fa	0.09404178
60	0xbdaf39b2	-0.085559264
61	0x3e13fd5a	0.14452115
62	0xbe2aff93	-0.16699056
63	0x3dbcb094	0.09213367
64	0x3ceaa166	0.028641414
65	0x3df45bde	0.11931585
66	0x3e5b5bb6	0.21421704
67	0xbe56a28a	-0.20960441
68	0x3da2ccd0	0.07949221
69	0x3d072009	0.032989535
70	0xbd4226da	-0.047400333
71	0xbd08ded0	-0.033415616
72	0xbcd52edc	-0.02602332
73	0x3da2eeeb	0.07955726
74	0xbe141cbb	-0.14464085
75	0x3dfd19b3	0.12358417
76	0xbd6bac43	-0.05753733
77	0xbdd9920e	-0.10623561
78	0xbdc9533a	-0.09830327
79	0xbe643087	-0.22284137
80	0x3cb301f8	0.021851525
81	0x3de3be4f	0.11120283
82	0x3e5a8ca7	0.21342717
83	0x3e8827b7	0.265928
84	0x3e09e0bb	0.13464634
85	0x3e0d37d2	0.13790825
86	0x3e6c7b57	0.23093925
87	0x3dbb92db	0.0915887
88	0x3e064d98	0.13115537
89	0xbe10aec6	-0.14129171
90	0xbe7a631f	-0.24451874
91	0xbd1a999a	-0.037744142
92	0xbe0fc649	-0.14040484
93	0x3c11a862	0.008890243
94	0x3dea5553	0.114420556
95	0xbe335738	-0.1751374
96	0x3dcae719	0.0990736
97	0xbc57a8d3	-0.013162809
98	0x3e3fe319	0.18738975
99	0x3dc5fd05	0.096674
100	0x3e54f3ef	0.20796178
101	0x3e17a150	0.1480763
102	0xbe761a7e	-0.24033543
103	0xbdcdf2ff	-0.100561135
104	0xbdcdc6da	-0.100476936
105	0x3e4297c6	0.1900321
106	0xbd164125	-0.03668322
107	0xbe5aec0e	-0.2137911
108	0xbcb61673	-0.022227501
109	0x3dd965ff	0.10615157
110	0xbe3ed751	-0.18636824
111	0xbda8052c	-0.082041115
112	0xbda7e763	-0.081984304
113	0xbe398514	-0.18117172
114	0xbe200990	-0.15628648
115	0x3d52b870	0.051445425
116	0x3d6d3325	0.057910103
117	0xbe131ed8	-0.14367235
118	0xbb9b70fb	-0.004743693
119	0xbe062f92	-0.13104084
120	0xbe23eb5b	-0.1600775
121	0x3da9e961	0.082964666
122	0xbe737ea2	-0.23778775
123	0x3e47319d	0.1945252
124	0x3b0e93b6	0.0021755523
125	0xbd812b64	-0.06307104
126	0x3da55744	0.08073285
127	0xbd73f488	-0.059559375
128	0xbe21ff50	-0.1582005
129	0xbe3a65bb	-0.1820287
130	0xbddc3a61	-0.107533224
131	0xbe0fa55b	-0.14027922
132	0x3e7e0a92	0.2480872
133	0xbe10d8d8	-0.1414522
134	0x3d512865	0.051063914
135	0x3db60ae4	0.08888796
136	0x3de3b8d0	0.111192346
137	0x3dff2038	0.12457317
138	0xbd882185	-0.06647018
139	0x3e4555ff	0.19271086
140	0x3e3177f7	0.17330919
141	0xbce40c5b	-0.027837923
142	0x3e5067ca	0.20352092
143	0xbe16474d	-0.14675637
144	0xbda75f73	-0.08172502
145	0x3d0f4b80	0.03498411
146	0x3ddbeb93	0.107382916
147	0x3d7d36ed	0.06181996
148	0x3d393361	0.045215014
149	0x3dfcf6f9	0.12351794
150	0x3dba75c9	0.09104497
151	0xbcc1ea42	-0.023671273
152	0xbcde6d98	-0.027151868
153	0xbc618166	-0.013763761
154	0xbe0a5e52	-0.13512543
155	0x3d41313b	0.04716609
156	0xbdc35ba3	-0.09538963
157	0xbcfbf192	-0.030754838
158	0xbdaf2096	-0.08551137
159	0x3dc7e293	0.097600125
160	0xbdf1e1ce	-0.11810647
161	0xbdcc40f8	-0.09973329
162	0x3d295c6f	0.041347917
163	0x3dc814a8	0.09769565
164	0x3e34ddb1	0.17662694
165	0x3dee3ce5	0.116327085
166	0xbe48a7f4	-0.19595319
167	0x3c0e737e	0.008694528
168	0xbd9ed28f	-0.077550046
169	0x3d344eaf	0.04402035
170	0xbdfc97bd	-0.12333629
171	0xbdcb3c66	-0.099236295
172	0xbe3c1ad7	-0.18369614
173	0x3d95fd77	0.07323735
174	0x3e167694	0.14693671
175	0x3e2f7361	0.17133857
176	0x3e66522e	0.22492287
177	0x3d5b0591	0.053472105
178	0x3d26b263	0.040697467
179	0x3e18d151	0.14923598
180	0x3bd9ff74	0.006652767
181	0x3e040134	0.12891084
182	0x3cd73657	0.026271028
183	0x3e1162b2	0.14197806
184	0xbcc2826f	-0.023743836
185	0x3d62259d	0.055211652
186	0xbd140500	-0.03613758
187	0xbd2a4297	-0.04156741
188	0xbd07bd69	-0.03313962
189	0xbc6d3bf1	-0.014479623
190	0x3dfd0677	0.12354749
191	0xbe17b586	-0.1481534
192	0x3d1bd595	0.038045485
193	0xbe59de4c	-0.21276206
194	0xbd813d4e	-0.06310521
195	0x3de7aebf	0.11312627
196	0xbdf42fa9	-0.11923153
197	0xbd677d9e	-0.056516282
198	0x3dfbdc3d	0.122978665
199	0x3c974d30	0.018469423
200	0xbd81c6bf	-0.06336736
201	0x3e127cbe	0.14305398
202	0x3e5c118e	0.21491072
203	0xbdfbfa3a	-0.12303586
204	0x3e026a78	0.12735927
205	0xbd6cde04	-0.057828918
206	0xbd1d3fc1	-0.03839088
207	0xbd252871	-0.04032177
208	0x3e29e772	0.16592196
209	0xbdec98ee	-0.115526065
210	0xbdab60de	-0.08368085
211	0x3ca7c1d0	0.02047816
212	0xbdd456ca	-0.10368116
213	0x3d906a63	0.07051542
214	0x3d89c0fd	0.06726263
215	0x3e2e5133	0.17023163
216	0x3e74a125	0.23889597
217	0x3e49fa37	0.19724356
218	0x3d8b0ffc	0.06790158
219	0x3e1afc2a	0.15135255
220	0x3e278f42	0.16363242
221	0xbda17a5c	-0.07884666
222	0x3e0793e5	0.13240011
223	0x3cf28a6a	0.029607017
224	0xbd0150cc	-0.031571195
225	0xbcd6b5f8	-0.026209816
226	0x3dc2b310	0.0950681
227	0xbe088e58	-0.1333555
228	0x3d8126c7	0.06306224
229	0x3de46bd7	0.11153381
230	0xbd6830ff	-0.05668735
231	0xbd6a09ca	-0.05713824
232	0xbda56125	-0.080751695
233	0xbd644a46	-0.055734895
234	0x3d95927c	0.0730333
235	0xbdb39ddd	-0.087703444
236	0xbe0584bc	-0.13038915
237	0xbdb10c42	-0.08644916
238	0x3dc4c896	0.09608571
239	0x3dc96e58	0.098354995
240	0x3d0d59f3	0.03450961
241	0x3d8085be	0.06275509
242	0xbd3c8923	-0.04602922
243	0x3da93584	0.082621604
244	0x3e5267bf	0.20547388
245	0x3da99221	0.08279825
246	0xbdf7bc1a	-0.120964244
247	0xbd9fd639	-0.078045316
248	0xbe01622c	-0.12635106
249	0x3d930038	0.07177776
250	0x3de168e4	0.110063344
251	0xbd73b685	-0.059500236
252	0x3dcade82	0.09905721
253	0xbe142dde	-0.14470622
254	0xbe7eb02a	-0.24871889
255	0xbd55a2c8	-0.052157193

fc3.bias f4 [64]
0	0xbe5b685e	-0.21426532
1	0xbc9c2c16	-0.01906399
2	0x3e359ece	0.1773636
3	0xbe96cd8d	-0.29453698
4	0x3ebe29ec	0.3714136
5	0x3e7f7f47	0.24950896
6	0x3d721014	0.059097365
7	0xbd90e719	-0.070753284
8	0x3ca01500	0.019541264
9	0x3e08ac48	0.1334697
10	0xbe6a7d57	-0.22899376
11	0x3e1570ac	0.14593762
12	0x3e904138	0.28174758
13	0x3e9df45e	0.308505
14	0x3ea6df64	0.3259231
15	0x3e97e098	0.2966354
16	0xbc720396	-0.014771363
17	0xbe7c3234	-0.24628526
18	0x3e7806fb	0.24221413
19	0xbd9e4afd	-0.07729147
20	0x3e7bab9a	0.2457718
21	0x3e0297fc	0.1275329
22	0x3e3551e3	0.17707019
23	0x3e27e6bc	0.16396612
24	0x3e19f9ef	0.15036748
25	0x3dfc1a27	0.12309676
26	0x3eb8a173	0.36060676
27	0xbe4dd805	-0.20101936
28	0x3e5a856b	0.21339957
29	0x3db114ed	0.086465694
30	0x3da75f05	0.081724204
31	0x3e4415b8	0.1914891
32	0xbe10db43	-0.14146142
33	0x3e454638	0.19265068
34	0x3e23b188	0.15985692
35	0x3eb62912	0.3557821
36	0xbdc1a0cf	-0.094545
37	0xbcdf6767	-0.027270986
38	0xbd72031d	-0.059085
39	0x3ea96766	0.330867
40	0xbd8f1687	-0.069867186
41	0xbd866fc2	-0.06564285
42	0x3e7745b5	0.24147685
43	0x3e11487c	0.14187807
44	0x3e22bcd8	0.1589235
45	0xbe25652f	-0.1615188
46	0x3d7f5e41	0.062345747
47	0xbe5cbdfa	-0.21556845
48	0x3d0a1fd7	0.03372177
49	0xbb8d22ce	-0.0043071276
50	0xbc2f3430	-0.010693595
51	0x3a9079de	0.0011022647
52	0x3eaae6be	0.33379167
53	0x3e529fec	0.20568818
54	0xbd19e4b5	-0.037571628
55	0x3e7a3c47	0.24437056
56	0x3e41d06b	0.18927161
57	0x3d41caa0	0.04731238
58	0x3e971f79	0.295162
59	0x3e4c86c6	0.19973287
60	0xbb8d2e30	-0.0043084845
61	0x3e382772	0.17983797
62	0x3e23c167	0.15991746
63	0xbd68c1c2	-0.056825407

fc4.weight f4 [11, 64]
0	0xbd11514a	-0.035477914
1	0xbd627a91	-0.05529267
2	0xbd93ca07	-0.07216268
3	0xbdb7d738	-0.089765966
4	0x3d467489	0.04845098
5	0xbc10cad8	-0.008837424
6	0x3d0aeb5f	0.033915874
7	0x3a193315	0.00058440986
8	0x3cc005a3	0.023440188
9	0xbd7492f7	-0.05971047
10	0x3c52ae6f	0.012858971
11	0xbcddde43	-0.027083522
12	0x3b6ad2f0	0.0035831295
13	0x3c152624	0.009103332
14	0xbcfea00c	-0.031082176
15	0x3d04ccbc	0.032421812
16	0x3b46d86c	0.00303414
17	0xbd22cb24	-0.03974451
18	0xbcd048fc	-0.025425427
19	0x3c70f45c	0.014706697
20	0xbc4cbebf	-0.012496649
21	0x3c720875	0.014772524
22	0xbd030554	-0.031987503
23	0x3d0c2226	0.034212254
24	0xbc23262c	-0.009957831
25	0xbc16cf4d	-0.009204698
26	0xbbaec454	-0.0053334627
27	0x3bc85014	0.0061130617
28	0xbb8bb1c3	-0.004263134
29	0x3c72e005	0.014823918
30	0xbc0dfe7a	-0.008666629
31	0x3cd8a6c5	0.02644671
32	0x3c176036	0.009239247
33	0xbc246e62	-0.010036083
34	0xbba5b11d	-0.005056514
35	0xbd42a773	-0.047522973
36	0x3c40f73f	0.011777698
37	0x3b99716e	0.0046827113
38	0x3d12f344	0.035876527
39	0x3c739f2f	0.014869495
40	0x3dbf2df1	0.093349345
41	0x3c486eca	0.012233445
42	0x3d10b11e	0.035325162
43	0xbb85f75b	-0.004088325
44	0x3cb71432	0.022348497
45	0xbd07e571	-0.033177797
46	0x3c970a5d	0.018437559
47	0x3c19bd45	0.009383504
48	0x3d9c3295	0.07626835
49	0xbce5a746	-0.028033864
50	0x3d3501e8	0.04419127
51	0x3d33db11	0.04391009
52	0xbd86371b	-0.06553479
53	0xbd51f1cb	-0.051255982
54	0x3ce4c749	0.027927058
55	0xbc828d6b	-0.015936574
56	0x3c0fe60f	0.008782878
57	0xbd87da8e	-0.06633483
58	0x3c085f4f	0.008323505
59	0x3d36b835	0.044609267
60	0xbd95e873	-0.07319727
61	0xbc9c4bf4	-0.019079186
62	0x3c744a88	0.014910348
63	0xbc6b269d	-0.014352468
64	0xbcd641bb	-0.02615439
65	0x3d0f8e74	0.035047963
66	0x3d925635	0.07145349
67	0x3cf3909a	0.029732037
68	0x3bb4e3c5	0.0055203163
69	0x3be7bad3	0.0070718317
70	0xbd1fb3b3	-0.038989734
71	0x3c69673c	0.014245804
72	0x3d3996a3	0.045309674
73	0x3d8980f1	0.06714047
74	0xbda66c0b	-0.08126076
75	0x3d7631c5	0.060106058
76	0x3d8a1302	0.06741907
77	0xb9c569eb	-0.00037653683
78	0xbd4b4dc0	-0.049634695
79	0xbd3bc505	-0.04584219
80	0xbc4c264b	-0.012460302
81	0x3d429c8b	0.047512572
82	0x3c5ab374	0.013348449
83	0x3ca9640f	0.020677594
84	0xbc701341	-0.014653028
85	0xbd363a33	-0.044489097
86	0xbd5806ef	-0.052740987
87	0xbc93fb8e	-0.018064287
88	0x3cfe6c34	0.031057455
89	0x3db590e2	0.08865525
90	0x3d6fc8c8	0.05854109
91	0x3c27dd92	0.010245698
92	0xbcb2d9b8	-0.021832332
93	0xbc3e62bc	-0.01162022
94	0x3dc75a15	0.09733979
95	0x3b9e9f61	0.004840777
96	0xbd0afd48	-0.033932954
97	0xbc550421	-0.013001473
98	0x3d22397b	0.0396056
99	0x3dc166ae	0.09443413
100	0x3cfa4c04	0.030553825
101	0x3cf51d3b	0.029921165
102	0x3bcc4875	0.0062342235
103	0xb9f35c38	-0.0004641728
104	0xbc556f49	-0.013027021
105	0x3c5c076c	0.013429504
106	0xbcd993ef	-0.026559798
107	0xbd563928	-0.052300602
108	0xbd771995	-0.06032713
109	0xbca59d14	-0.020216502
110	0xbcd41799	-0.025890158
111	0xbd9baa05	-0.07600788
112	0xbd04df34	-0.032439426
113	0x3cae6b40	0.021291375
114	0x3ce98ada	0.028508592
115	0xbb255c2c	-0.002523194
116	0x3d090a15	0.03345688
117	0xbc699e75	-0.0142589705
118	0x3c98389f	0.018581687
119	0x3d989f11	0.074522145
120	0x3c3c5ecd	0.011497212
121	0xbd7243ff	-0.059146877
122	0xbc2748fc	-0.010210272
123	0x3c2e4a9e	0.010637907
124	0x3d31ca8e	0.04340606
125	0xbb33ca32	-0.002743375
126	0x3beca971	0.0072223474
127	0x3d00ffe5	0.03149404
128	0xbd1236e8	-0.035696894
129	0x3c6fb8a6	0.014631426
130	0x3ce8afdf	0.028404174
131	0x3bf3c145	0.007438811
132	0x3da913bb	0.082557164
133	0x3c926072	0.017868254
134	0xbd00b906	-0.031426452
135	0xbbdc0a08	-0.006715063
136	0xbd61aaff	-0.055094715
137	0x3cf508cc	0.029911421
138	0xbc9f86ce	-0.01947346
139	0xbc72598a	-0.014791856
140	0xbd401f4a	-0.04690484
141	0xbd2eab0b	-0.042643588
142	0xbdb0c83f	-0.08631944
143	0x3ccf5e97	0.025313659
144	0x3d9b480b	0.075821005
145	0xbd830e82	-0.063992515
146	0x3d913bd8	0.070914924
147	0xbdac7adc	-0.08421871
148	0x3d829810	0.0637666
149	0xbcf937af	-0.03042206
150	0x3d80b706	0.06284909
151	0xbdb471e7	-0.08810788
152	0x3d77fda1	0.060544614
153	0x3bd0c6bb	0.006371347
154	0x3dc81394	0.09769359
155	0x3d7b9579	0.061421845
156	0x3d1cb62f	0.03825968
157	0xb9746435	-0.00023306983
158	0xbd6c743b	-0.057728034
159	0xbc8db687	-0.01729895
160	0x3b656591	0.0035003165
161	0xbc7e4ad9	-0.015520775
162	0x3d09dce9	0.033657942
163	0x3c0ae82e	0.0084782075
164	0x3d4deae4	0.050272837
165	0x3cc1f15b	0.023674658
166	0xbcfa5be8	-0.030561402
167	0x3daf83b1	0.0857004
168	0xbd86e2a9	-0.06586201
169	0x3d744cb3	0.05964346
170	0x3cbbcfd4	0.022926249
171	0x3d057b11	0.03258807
172	0xbd5bf364	-0.053698912
173	0xbd1b3437	-0.037891593
174	0xbc79b327	-0.015240467
175	0xbd8bef13	-0.06832709
176	0xbb549fe0	-0.0032443926
177	0x3dd84ef8	0.10561937
178	0xbb4cc319	-0.0031244217
179	0xbd897022	-0.06710841
180	0xbdcca81a	-0.09993
181	0xbd80f8ed	-0.06297479
182	0x3d33e731	0.043921653
183	0xbceeaea0	-0.029136002
184	0x3cf16ef5	0.029471854
185	0x3d7968cc	0.060890958
186	0xbd57fd40	-0.052731752
187	0x3cc6c303	0.02426291
188	0x3d8d2d5d	0.06893418
189	0x3d6baeb4	0.057539657
190	0xbc0869cf	-0.008326008
191	0xbd662e0f	-0.05619627
192	0x3d494577	0.049138512
193	0x3ca1470b	0.019687196
194	0x3b04937d	0.0020229511
195	0xbbc25ec5	-0.0059317076
196	0xbd3e14ab	-0.04640643
197	0x3d860e22	0.06545664
198	0x3d0ed659	0.034872387
199	0xbd181f55	-0.037139256
200	0xbb735bea	-0.0037133642
201	0xbd911359	-0.070837684
202	0x3c826609	0.015917795
203	0xbd9ac7e0	-0.075576544
204	0x3a512d7f	0.0007979497
205	0xbb9feb22	-0.004880325
206	0x3d6045ed	0.054754186
207	0xbd5e4870	-0.0542683
208	0x3d47ab34	0.048747256
209	0x3d1ff3b2	0.039050765
210	0x3d587517	0.05284604
211	0xb95624c8	-0.00020422332
212	0x3ca9d614	0.020731963
213	0x3d7c6c1f	0.06162655
214	0xbbf3bbde	-0.007438167
215	0xbcd9edfe	-0.026602741
216	0x3d878df6	0.06618874
217	0x3c29ef82	0.0103720445
218	0x3bb30653	0.0054634004
219	0x3d80386f	0.06260764
220	0xb9930cc2	-0.0002804753
221	0xbc000fc7	-0.007816262
222	0x3bf4ad5b	0.0074669546
223	0x3ce11496	0.027475636
224	0x3b44523a	0.0029956237
225	0x3d71893f	0.05896878
226	0xbd4525ea	-0.04813186
227	0x3d45d1dc	0.04829584
228	0xbc219ee1	-0.00986454
229	0x3bcfa3e8	0.006336678
230	0x3bd989d7	0.0066387462
231	0x3dd89f75	0.10577289
232	0xbd019c34	-0.031643108
233	0xbaf91faf	-0.0019006635
234	0x3cd70305	0.026246557
235	0xbcd6c6b2	-0.026217792
236	0xbc99c713	-0.018771684
237	0x3d70a74b	0.058753293
238	0xbd73ae80	-0.059492588
239	0xbc6e3fe7	-0.014541603
240	0x3d02770b	0.03185181
241	0xbd6c527d	-0.057695854
242	0xbcb1fe06	-0.021727573
243	0xbcd03d6c	-0.025419913
244	0x3b3ae239	0.0028516187
245	0x3d64aaaa	0.05582682
246	0xbd1e0f80	-0.038589
247	0x3d163e2f	0.036680397
248	0xbd1567b1	-0.03647584
249	0x3d0f451a	0.03497801
250	0xbc9abd9e	-0.018889245
251	0x3c2a5860	0.010397047
252	0xbc256ccd	-0.010096741
253	0x3c4caad5	0.012491901
254	0x3afc37e1	0.0019242727
255	0xbd1e0399	-0.03857765

fc4.bias f4 [11]
0	0xbd4e9c35	-0.05044194
1	0x3d2238cd	0.03960495
2	0x3d325aee	0.04354375
3	0xbdc7a245	-0.09747747
4	0xbe6adc01	-0.22935487
5	0x3baa3da8	0.0051953383
6	0x3ba52a11	0.005040415
7	0xbdbd1b79	-0.092337556
8	0xbd78d949	-0.060754094
9	0xbb9ee658	-0.0048492365
10	0xbe2a2eeb	-0.1661946
