src/VAE/vae_models/user_2_vae.pth (torch, 22306 bytes, 10 tensors)

fc1.weight f4 [64, 11]
000000 af 3e 02 3e 35 11 50 3e da 3b 1d be e3 5c 6b bd
       0.12719224 0.20319064 -0.15354863 -0.05746163
000010 cb 2d c2 bd f4 6d 96 be 92 5a 97 bc c9 08 56 be
       -0.094813906 -0.29380763 -0.018475804 -0.20901789
000020 de 58 59 be 57 5d 8c 3e b5 2f 2a 3d 6d fd 34 3e
       -0.21225306 0.27414963 0.041549403 0.176748
000030 90 4e 15 3e 13 8f 53 3e 92 a8 40 3e ce e8 81 3e
       0.1458075 0.20660047 0.18814304 0.25372928
000040 59 0f ac bd dc 3f 44 be e8 cd c3 bd 40 98 8c bd
       -0.08401365 -0.19164985 -0.09560758 -0.06864977
000050 ae 0d 3d 3b 6f 8e 08 3e 23 52 47 3d 30 12 06 be
       0.0028847265 0.13335584 0.048662316 -0.13092875
000060 84 35 8f 3e 04 81 45 3e d2 ab 0d 3e 4b fc 45 bc
       0.27970517 0.19287497 0.13835075 -0.012084077
000070 1b 21 8e bd 63 3a fe 3d 1a df f3 3a 5a e1 48 3e
       -0.06939908 0.1241348 0.0018605918 0.19617215
000080 d8 bd 19 3e b1 47 2e 3c 38 3d c2 bd bc d0 d6 3d
       0.15013826 0.01063721 -0.09484333 0.10489032
000090 a3 56 4b be 72 f2 fa bd 48 4d 87 be c8 bb 5f 3d
       -0.19857268 -0.12253274 -0.26426148 0.05462244
0000a0 53 59 f1 3d 4d 6f 84 be d5 21 3b 3e e4 21 77 3d
       0.11784615 -0.25866166 0.18274625 0.060335055
0000b0 fe 83 1b be a4 37 3b be 85 53 31 be b0 d0 91 bd
       -0.1518707 -0.18282944 -0.17317016 -0.07119882
0000c0 77 b4 94 bd b2 1a 5c be 98 2e d6 3d 73 9f 2e be
       -0.072609834 -0.21494558 0.10458106 -0.17053013
0000d0 7c 28 9b bd 89 9a 15 be 44 3f 0c 3e 56 c7 44 bd
       -0.07576081 -0.14609732 0.13696009 -0.048041664
0000e0 b0 84 05 be f8 27 74 be 9e 18 35 be 6e 79 49 3c
       -0.13038898 -0.23843372 -0.17685172 0.0122970175
0000f0 2b 46 63 3e 73 92 08 be 47 f9 d5 3d b4 81 66 3d
       0.22194736 -0.13337116 0.104479365 0.05627604
000100 95 b4 e7 bd 75 47 4d 3d b0 a7 26 be df 6d 11 3e
       -0.1131374 0.050116975 -0.16274905 0.14202069
000110 3d 27 89 3e 26 cd 3a 3e 0b 8e 8a 3e 2c 7d d5 bd
       0.2678775 0.1824232 0.27061495 -0.10424265
000120 c5 6e 97 3e 65 c2 3c be 13 c2 40 be 08 47 79 be
       0.29576698 -0.1843353 -0.18824033 -0.24343503
000130 86 5c bf 3d 66 19 29 3d d9 01 2d be 6c b0 86 3e
       0.09343819 0.041283987 -0.16895236 0.26306474
000140 37 fa c9 bd 58 41 b0 3d 56 29 fa bc 3f 04 44 3d
       -0.09862178 0.08606213 -0.030537289 0.047855612
000150 d4 5c 8d 3e 4b 5d 3b 3e a7 48 10 be 46 3b d3 3c
       0.27609885 0.18297307 -0.14090215 0.0257851
000160 a5 9f 8f 3b 5b cd 20 be f4 17 a5 bd 1f eb 08 be
       0.004383045 -0.15703337 -0.08061209 -0.13370942
000170 c0 cc 08 bd a4 01 3a 3e ea 7e 1d 3e 20 a7 a4 3d
       -0.03339839 0.18164688 0.15380445 0.08039689
000180 dc d0 8e 3e f4 64 83 3e 26 11 74 3c a1 53 36 be
       0.27893722 0.2566296 0.014896667 -0.1780534
000190 65 f1 63 be 52 4a 47 3d 2d 6f 80 3d 93 d7 8f bc
       -0.22260053 0.04865486 0.06271205 -0.017558848
0001a0 5c 84 0e be 66 b4 8e bd 9b 43 d2 3d 84 6f fc 3d
       -0.13917679 -0.06968002 0.10266801 0.123259574
0001b0 1a c9 26 bd 1c 3b 88 3d 17 67 46 3d 39 2a 71 be
       -0.04071913 0.06651899 0.048438158 -0.23551263
0001c0 c6 f2 68 be a3 b4 ff bd 2e b2 3c be 65 4b 34 3d
       -0.2274886 -0.124856256 -0.18427345 0.044017214
0001d0 38 fa 4f 3e 8d c9 51 3b bc 27 11 be 86 1d be 3d
       0.20310295 0.0032011003 -0.14175314 0.09282975
0001e0 e4 3b 49 3e 9d f9 76 be 96 ce 6a be 41 5b 12 be
       0.19651753 -0.24118657 -0.22930369 -0.14292623
0001f0 a9 2d 92 3e 8e 18 22 3e 0d e5 91 be 65 0c 06 3c
       0.2855046 0.1582968 -0.28495064 0.008181666
000200 98 a7 67 3d 1e f1 03 be 85 11 7e bd 87 3c 29 3e
       0.056556314 -0.12884948 -0.062028427 0.16526996
000210 c9 4c 83 3d 22 ea 52 be fc 61 80 be c5 bd 08 3d
       0.0641113 -0.20597127 -0.25074756 0.033384103
000220 c0 01 21 be a7 10 44 be e8 ef 56 be ca 60 41 3e
       -0.15723324 -0.19146977 -0.20989954 0.18884578
000230 de 93 91 be ac a7 7e be d5 dc e2 bd 9e fd 21 3e
       -0.28433126 -0.24868649 -0.110772766 0.15819404
000240 d4 e1 0b be 4e 2b 03 3e 1d b7 6e 3d 2d 1f 2a be
       -0.13660365 0.12809488 0.0582801 -0.16613455
000250 74 04 00 3c 7a aa 90 3d 1a c3 3a 3e ff a0 88 3d
       0.007813562 0.07063766 0.18238488 0.066713326
000260 1c a0 89 bd d5 d9 86 3e 1f ce 05 3e 0d 13 03 3e
       -0.067199916 0.26338068 0.1306691 0.12800236
000270 ac a7 30 3e b3 f1 19 3e a3 99 65 3e e7 40 c0 bb
       0.17251462 0.15033607 0.22421889 -0.005867112
000280 d1 b1 77 3d 18 d9 81 3e bd b0 49 3e 45 23 55 be
       0.060472313 0.25360942 0.19696327 -0.20814236
000290 02 7c 75 bc 05 be 71 be 94 a3 44 3e 08 cb 52 3e
       -0.014983179 -0.23607643 0.19203025 0.20585263
0002a0 0a 5b 3a be 90 19 c7 bc 72 d8 2f 3b 09 e1 89 bd
       -0.18198791 -0.024304181 0.0026831892 -0.06732375
0002b0 6c fd 8b 3e db 8c f4 3d a2 37 1f be 06 99 1a be
       0.27341783 0.119409285 -0.15548566 -0.15097436
0002c0 c5 5b db bc 10 13 4c be 1b 17 8e be 50 43 74 3e
       -0.026777158 -0.19929147 -0.27752003 0.23853803
0002d0 ba ab 9b bd b4 8b 6b be a9 a1 07 be b4 fe 72 be
       -0.076011136 -0.23002511 -0.13245262 -0.23729974
0002e0 f7 03 a2 3d d9 2a 14 3e 2f a8 5d be 89 56 f5 bc
       0.079109125 0.1446947 -0.21646188 -0.02994849
0002f0 d4 07 ff 3d ea a6 13 bc 20 ea 74 3d db 9d de bd
       0.12452665 -0.009011963 0.05979359 -0.10869952
000300 67 0b a2 3c 7f bd 4d 3e 1a cf 79 3e a8 4e d6 bd
       0.019780828 0.20091818 0.24395409 -0.10464221
000310 39 c7 d5 3d 18 62 a5 bd bd 86 3c be 0a 89 3b 3e
       0.10438389 -0.080753505 -0.18410774 0.18313995
000320 c6 a4 47 3d 43 4d 75 bd c7 91 32 be ae c2 3b be
       0.048741125 -0.059888136 -0.17438422 -0.18335983
000330 43 56 28 be 05 0b 54 3e 33 11 20 bb b1 24 aa 3c
       -0.16439156 0.20707329 -0.0024424314 0.020769449
000340 0a 3b 77 bc f3 38 59 bd ef 51 af bc a7 9e 1a be
       -0.01508976 -0.053032827 -0.021401374 -0.15099584
000350 d7 9a 67 bd bc 44 fe 3c 97 b8 3f 3e 70 1f a9 bd
       -0.05654415 0.031038634 0.18722759 -0.08257949
000360 2d 73 06 3e 76 77 73 3e fb 5a 82 3e 6a 9c a5 3e
       0.13129874 0.2377604 0.25460038 0.32345897
000370 f4 b0 3b 3e 76 a6 93 bd 53 67 47 be 60 6b 50 3e
       0.18329221 -0.07209484 -0.19473009 0.2035346
000380 a0 5c 00 bd 0e 32 0f 3e eb c0 39 3e e4 ec 36 3e
       -0.031338334 0.13983938 0.18139999 0.17863804
000390 ea be c1 bd 94 f5 50 be bc 4a 70 3d e2 0b 39 3e
       -0.09460242 -0.2040618 0.058665022 0.18070939
0003a0 2d ce 41 be 40 56 2b bd 6c 7b 57 be 25 0e 89 be
       -0.18926306 -0.0418303 -0.21043175 -0.26768604
0003b0 9d 49 14 be ac 13 88 bd 50 86 cb 3d 4e d8 9d 3d
       -0.14481206 -0.06644377 0.099377275 0.077072725
0003c0 a3 f5 4a be ea bd d5 bd f0 d0 09 3d 28 1c b6 3d
       -0.19820265 -0.10436614 0.033646524 0.08892089
0003d0 5c fe 86 be 30 3a 4b be 48 56 8c bb 66 23 13 be
       -0.26365936 -0.19846416 -0.0042827465 -0.14368972
0003e0 c5 0b fe bd ba ad 99 bd 9f fc 57 3e ae 96 39 be
       -0.124045886 -0.07503839 0.21092461 -0.18123886
0003f0 25 0f 6f be 21 f7 34 bd be 03 0f 3e a9 ff 91 be
       -0.23345621 -0.044180993 0.13966271 -0.28515366

fc1.bias f4 [64]
000000 be 0f 76 be 8a f6 0a 3e 79 6c df bd 60 ca 1d be
       -0.24029443 0.1357061 -0.109093614 -0.15409231
000010 c8 8a 0b 3e 9d 19 39 be 99 3a 78 be 82 aa d6 3c
       0.1362716 -0.18076177 -0.24241103 0.026204351
000020 68 bc d7 3d 2b 7c 94 bd f5 e0 2f be 97 13 40 be
       0.105339825 -0.07250246 -0.17175658 -0.18757473
000030 24 cf bf 3d 6b 9c 53 bd 5e 71 82 be f6 b6 80 3e
       0.09365681 -0.051662844 -0.25477117 0.25139588
000040 1d 34 0b 3c d0 f6 59 3d a5 c7 2c be 4a b0 32 3d
       0.0084963115 0.053213894 -0.16873033 0.043625154
000050 38 4d 1b 3e ab e8 06 3e 73 4c 17 3c 5b 5a e0 bd
       0.15166175 0.13174693 0.0092345355 -0.10954734
000060 b8 ab 64 3d 83 ce 8c 3d 4b aa 8d bd 01 4d 36 3d
       0.055827826 0.068753265 -0.069172464 0.04450703
000070 77 f5 7c 3c 33 95 be ba a4 f6 e4 bc d9 50 ca 3d
       0.015439383 -0.0014540314 -0.027949639 0.09878702
000080 f6 ed 5e ba 17 ed 82 be b5 13 b1 3d 66 b1 5f ba
       -0.0008504087 -0.2557151 0.08646337 -0.00085332093
000090 49 c1 7e be 52 35 1b bd 81 53 bd 3c 73 61 5e be
       -0.2487842 -0.037892647 0.023111107 -0.21716861
0000a0 bc 67 b2 bc e9 f2 6d be 56 26 68 3e 99 a8 4f be
       -0.02177798 -0.23237194 0.22670874 -0.20279159
0000b0 e4 9a 52 3e ff e3 18 bd 30 81 23 3e c4 a4 4e be
       0.20566899 -0.03732681 0.1596725 -0.2018004
0000c0 8c 0c 14 be 4d e8 92 3e da f7 d8 bd 64 6c 19 3e
       -0.14457911 0.28692856 -0.10594149 0.14982754
0000d0 99 78 f3 bd 40 4e 19 be bd 3e 84 3e d9 20 9a 3c
       -0.118882366 -0.14971256 0.25829116 0.018814491
0000e0 25 0f d1 bd 7d fe c8 3e 45 ed 82 3d b8 7f b7 3d
       -0.10207967 0.3925666 0.06392912 0.08959907
0000f0 1e e0 ad be 04 76 12 bd 9e 6a 99 be d0 ba 23 3e
       -0.3396005 -0.03575708 -0.29964155 0.15989232

fc2_mean.weight f4 [16, 64]
000000 41 62 a9 3d 8f 52 7f 3c 9d 12 c2 3c 7a 63 ec 3b
       0.082706936 0.015583648 0.023690516 0.007214007
000010 38 87 bf 3c 2d d7 97 bc 01 4d 17 b8 16 eb ad bc
       0.023379907 -0.018535221 -3.607292e-05 -0.021230262
000020 56 33 bc 3c 89 cf 9a ba 58 06 a5 bc 5f ca 44 bd
       0.022973698 -0.0011811118 -0.020144626 -0.04804456
000030 68 e0 ba bc 73 9d fe bd 9c f2 30 3d af 7f 9f bc
       -0.022812083 -0.12432375 0.04320012 -0.019470064
000040 b1 3b bd 3d 49 72 4e 3d 88 ea 97 bc 9c 15 c9 bc
       0.09239901 0.05040196 -0.01854445 -0.024546437
000050 fb 9a ef 3c 7e bc 47 bd da d3 be bd 7a a0 c7 bd
       0.029248705 -0.048763745 -0.09317751 -0.09747405
000060 20 65 7d 3c ae 2a 70 bd 3e 18 95 3d de eb bf 3d
       0.015466005 -0.058634453 0.072800145 0.0937116
000070 0d 35 97 bc 6f 4a a3 bc a0 b4 d5 3c 9e b1 ac 3c
       -0.018457914 -0.019932954 0.026087105 0.021080788
000080 e0 cd 2c bd 21 6d aa 3d 83 80 36 3d de 71 66 ba
       -0.042188525 0.08321596 0.044556152 -0.0008790771
000090 d6 34 25 bd 8d 34 a3 bd 87 4e 5b 3d 3c f0 6d bd
       -0.04033359 -0.07969008 0.053541686 -0.058090433
0000a0 52 44 57 bd 75 b5 4d 3d f4 a6 27 bd 62 db c5 bd
       -0.05255539 0.05022188 -0.040930703 -0.096609846
0000b0 ad b1 52 3b 57 75 81 bb fd 8a 0e 3d 06 36 8d 3d
       0.003214936 -0.0039507556 0.03480052 0.0689507
0000c0 3a f9 1c 3d 15 fb ba bc ae fe ad 3d a9 50 57 bc
       0.03832362 -0.022824803 0.08495842 -0.0131417895
0000d0 35 06 03 bd fa 84 50 bc dc ae ba 3c 40 18 5f bc
       -0.03198834 -0.012727017 0.022788458 -0.0136166215
0000e0 c2 34 6d 3d be 4f 5e bc cd 36 bc 3c da c5 14 bd
       0.057911642 -0.013568817 0.02297535 -0.0363215
0000f0 9a 6c 71 bc ba ec d2 bd a8 e1 a2 3d 63 a7 1d 3c
       -0.014735365 -0.10299058 0.07953197 0.009622428
000100 6b e9 d1 bd e7 6b 36 3c a9 88 d8 3c 32 70 73 3d
       -0.10249599 0.011134124 0.026432352 0.05943317
000110 ee 3b da 3d 7a d0 e0 bd ca 6d b1 ba 70 66 15 bb
       0.10655962 -0.10977264 -0.0013536748 -0.0022796653
000120 ec 9f 28 3c 5c 6b 38 bd 00 c8 3d 3c db 0f f9 bd
       0.010292035 -0.04502426 0.011583328 -0.12161227
000130 fc 2c a0 3d 3a d4 0e bd b6 62 9f 3d 59 fe 21 bd
       0.0782108 -0.034870364 0.077824995 -0.039549205
000140 31 70 74 3d fb 84 d6 bd e1 f6 c4 3c 34 e9 b9 bb
       0.059677307 -0.10474583 0.024043502 -0.005673552
000150 65 a1 b4 bd 7f cc ea bc dc 30 17 3d 04 5b 9d bd
       -0.08819846 -0.028661964 0.03691183 -0.076833755
000160 24 a0 30 bd a6 fe 45 3d 60 05 fa 3b eb 7d ae 3d
       -0.043121472 0.048338555 0.0076300353 0.08520111
000170 8d 68 1a bd 43 57 10 bd db 58 5d 3d 4d 78 0a 3d
       -0.037697364 -0.03523947 0.054039817 0.033806134
000180 a5 a8 ea 3b 43 68 cb 3d 85 93 93 bd 98 e4 c8 bc
       0.0071612173 0.09931996 -0.072058715 -0.024523064
000190 95 eb 01 be 15 79 9e 3d da bf d3 3d 5a ce 9d 3d
       -0.12687524 0.07737938 0.10339327 0.07705374
0001a0 8f 57 77 3d 0a 42 0c be 7d 71 36 bc 98 59 a0 3c
       0.060386237 -0.13697067 -0.011135456 0.019573972
0001b0 ea f2 8a 3d 15 e3 00 bc 81 ce 41 bd 02 99 45 3d
       0.067846134 -0.007866641 -0.047316078 0.048241623
0001c0 9c 3e e8 bd db f9 47 3c ff 26 98 3d b7 8e e1 3d
       -0.11340067 0.012205566 0.07429313 0.11013549
0001d0 2b 96 ba 3d c4 e6 10 be 5a 93 60 bd 85 88 c7 bd
       0.091106735 -0.1415053 -0.054828025 -0.09742836
0001e0 3a cc ab 3d 7e 7b 02 3e 26 76 83 3d da 2b 2d bd
       0.083885625 0.12742421 0.064190194 -0.04227815
0001f0 2e 9c ba 3d d5 b7 9b 3d 46 91 ec 3d ce 0a 67 3d
       0.0911182 0.076034226 0.11551146 0.05640679
000200 a5 6d 04 bd fd a1 bb bd 1f c4 e0 bd 1d 7b 87 3d
       -0.032331128 -0.09161756 -0.10974907 0.06615279
000210 4a 0b 98 bd ba 28 8a 3c 85 91 68 3b 82 44 29 bd
       -0.07424028 0.016865123 0.0035487127 -0.0413251
000220 e8 da 6c 3c 52 79 1c 3d c6 66 40 bd 28 08 d4 3d
       0.014456488 0.038201638 -0.046973012 0.10353118
000230 c0 18 db bb 0d 1d d8 bc de 87 e6 3d 04 8d a7 bd
       -0.0066863 -0.02638104 0.11256383 -0.081811935
000240 09 d9 35 3c 31 5d ea bd 11 25 ad bd d3 93 60 bd
       0.0110991085 -0.11443556 -0.084543355 -0.054828476
000250 24 b8 05 3d 91 bb 9e 3c 98 6d 5e bd a7 69 41 3c
       0.032646313 0.019376548 -0.054303735 0.011804975
000260 c0 d1 94 3d e8 85 8a bd a0 94 be 3b c1 1a 0c bd
       0.07266569 -0.06763822 0.0058160573 -0.034205202
000270 95 17 fc bc 27 f8 9d bd 24 66 07 be c7 2e 1e 3d
       -0.030772964 -0.07713347 -0.13222557 0.03861883
000280 c7 2f ae 3c c8 76 5a bd e0 91 a8 3d 46 5b 39 bb
       0.021263016 -0.053335935 0.082309484 -0.0028283163
000290 d9 44 f4 bc a6 28 4d bd e1 48 14 3d 40 b0 f2 bb
       -0.029817985 -0.050087593 0.036202315 -0.0074062645
0002a0 6a 06 b5 bb 03 8c dd bc 88 c3 24 bd 60 69 8b 3b
       -0.0055244463 -0.027044302 -0.040225536 0.004254505
0002b0 3c c7 87 bd 20 a4 a4 bd 59 f4 cb 3d 81 c9 36 3d
       -0.06629798 -0.08039117 0.09958715 0.044625763
0002c0 20 23 da 3d 07 d8 6a 3d 8a 4c 2f 3d 73 66 e2 bd
       0.10651231 0.057334926 0.042797603 -0.11054697
0002d0 f0 93 58 bd 25 83 44 3d 85 a5 7f 3c cd a7 25 bd
       -0.05287546 0.04797663 0.015603428 -0.04044323
0002e0 93 3f bb bc 97 56 26 bd 8a 85 c1 3d 7b 85 aa 3d
       -0.022857463 -0.040609922 0.09449299 0.08326241
0002f0 1e f6 31 3d 0e 82 6a bc dc 51 3b bd a9 8a ad 3c
       0.043447606 -0.014313234 -0.045732364 0.021184282
000300 6e c4 f4 3c 9a f2 e2 bd 96 2f c1 bd bf 78 af 3d
       0.029878821 -0.11081429 -0.094329044 0.08567952
000310 a8 9f aa bc e3 62 11 3d 9a bb 66 3b ce 3d 28 3d
       -0.020828083 0.035494696 0.0035207034 0.041074567
000320 77 8d d6 bd 6a b4 3d bd e6 43 7e 3d 42 70 e3 3c
       -0.10476201 -0.046314634 0.06207647 0.02776349
000330 f2 82 f7 3d 13 3a d9 bb 40 85 32 bd 27 69 b8 bc
       0.12085523 -0.0066292374 -0.04358411 -0.022511078
000340 d9 26 92 bd 6f ea 37 bc e3 6f 0c 3d d9 cf 56 3d
       -0.07136316 -0.011225327 0.03428639 0.052444313
000350 73 8a 5e bd 57 95 bf 3c e0 b3 94 bc 5b 45 9a 3d
       -0.054331254 0.02338664 -0.018152177 0.0753276
000360 51 9d a0 bd f1 bf 70 bc 52 5f e2 3d 18 9c 1f bd
       -0.07842506 -0.0146942 0.11053337 -0.038967222
000370 ee 7a bb 3c 5b a9 e3 3c 16 51 9b 3a 85 a2 de 3d
       0.022885766 0.027790716 0.0011849727 0.10870842
000380 21 33 47 bc cf cc d6 bd c2 ff 3f 3c 63 ab 08 bd
       -0.012158186 -0.10488283 0.011718692 -0.033366572
000390 5f f7 74 3c 4a d8 41 bd f8 15 80 bd 94 1d b3 3d
       0.014951556 -0.04732541 -0.0625419 0.08745876
0003a0 7f a8 df 3d 62 18 85 bd 27 60 d3 bc e4 df 0f 3d
       0.1092081 -0.06498791 -0.025802685 0.035125628
0003b0 e9 24 f0 3b 5a c9 83 3d 00 e2 af bb c8 b8 2e 3d
       0.007328619 0.06434889 -0.0053675175 0.04265669
0003c0 e8 28 ce bc 8b f0 ca bd e9 11 28 3d b0 5d 47 bd
       -0.02516599 -0.09909161 0.041032705 -0.04867333
0003d0 f8 88 06 3e 65 7a 38 3e cf 83 43 bd cf 61 ca bc
       0.13138187 0.1801544 -0.047733124 -0.024704842
0003e0 1d 1c 65 3d 56 be 55 3c 79 ff 9d bd 33 27 aa 3d
       0.055935014 0.013045868 -0.07714743 0.08308258
0003f0 73 55 b6 3d e6 08 49 bd 24 02 af 3d e6 6f 7d 3d
       0.08903017 -0.04908075 0.0854533 0.061874293

fc2_mean.bias f4 [16]
000000 27 44 11 3d 08 af 31 bd ad 9b 66 3d f7 6c c5 3d
       0.035465386 -0.043379813 0.056300808 0.09639924
000010 d8 2e 36 3c 91 33 a2 3d 4e 2f 99 3d 35 8f 65 3d
       0.011119567 0.07919992 0.07479726 0.056044776
000020 45 63 02 3e af 7b 3b 3d db 74 98 bc 01 18 28 3d
       0.12733181 0.04577225 -0.018610409 0.041038517
000030 da a8 7b bd 8b 25 19 3d c7 e5 ca 3c f5 2d b5 3c
       -0.061440326 0.03738932 0.02476777 0.02211664

fc2_logvar.weight f4 [16, 64]
000000 de 8d db bd 26 75 68 bc 8f 7a c7 bc 04 ef c8 bc
       -0.107204184 -0.014188087 -0.024350433 -0.024528034
000010 88 f4 cd bc ee ab e2 bd 79 cd 45 ba 20 55 1f bd
       -0.025141016 -0.11067949 -0.00075455714 -0.03889954
000020 ae 5c 26 3d e4 dc 59 bc 39 ac 1f bc 42 74 88 3d
       0.04061573 -0.013297293 -0.009745651 0.066627994
000030 9c e6 fa bd 20 e9 84 3b 81 c4 e2 3c 1a a3 02 3b
       -0.122510165 0.004056111 0.027681591 0.0019933642
000040 0c 81 50 3c 23 68 38 bc 59 d7 71 bd d1 b9 45 bd
       0.01272608 -0.011255297 -0.059043262 -0.04827291
000050 23 8c b4 3c 88 20 d1 bd ac 7e c9 3d b2 e2 53 3d
       0.022039479 -0.10211283 0.09838614 0.051729865
000060 14 e0 69 bd e6 3f c7 bc c0 72 71 bb 57 41 ea 3c
       -0.057098463 -0.024322461 -0.0036842078 0.02859561
000070 47 e1 41 3d ba 49 25 bd 52 d9 bb 3c b2 c7 67 bd
       0.04733398 -0.040353514 0.022930775 -0.05658693
000080 50 29 fb 3c 3f 35 ee bc a3 05 39 3c a3 75 2e bc
       0.030659348 -0.029078124 0.011292848 -0.010648164
000090 94 52 6c bd db e9 5c bd 1f 5d 84 bc ec 99 09 bd
       -0.05769594 -0.05393396 -0.016157685 -0.033594057
0000a0 dd 1a db bd f2 b8 87 3d ff f7 99 bd 46 19 f7 3d
       -0.10698483 0.066270724 -0.075180046 0.120653674
0000b0 68 0e 41 3d 8b a1 21 bd 55 63 fd 3c 86 87 e0 3c
       0.04713288 -0.0394607 0.030931154 0.027408373
0000c0 5b 10 73 3d e6 f0 e6 bd db 6b 33 bd 23 00 6f 3d
       0.05934177 -0.112764165 -0.04380403 0.05834974
0000d0 3b 29 a7 bd ad fc c6 3b eb b2 c1 3c 51 98 e2 3c
       -0.08162161 0.006072602 0.023644885 0.02766052
0000e0 01 2e 35 bd f7 27 16 bd 34 8c c3 3c 15 09 d6 3d
       -0.044233326 -0.036659207 0.023870565 0.10450951
0000f0 e3 ec ca 3c d3 4d 7b 3d 28 9c a1 3d 12 f5 0a 3d
       0.02477116 0.061353516 0.078911126 0.033925124
000100 40 1a ca 3c fb 25 b0 3d 70 78 93 bc 92 16 ff 3c
       0.02467072 0.08600994 -0.018001765 0.031138692
000110 1c c7 fb 3d 41 b7 cb bd 8f d9 48 ba 92 c6 b6 bc
       0.122938365 -0.09947062 -0.0007661813 -0.022311483
000120 8a 7e 9a 3c e0 8e 1d 3c a9 57 27 3a e2 93 d9 3c
       0.018859167 0.009616584 0.0006383607 0.026559774
000130 46 9c ae bd 93 32 95 bd c0 5b e3 3c 91 53 36 bc
       -0.085259005 -0.07285037 0.02775371 -0.011128322
000140 1a ac c4 3b 17 3f d9 bb 47 56 f7 3d 24 a0 94 3c
       0.0060019614 -0.0066298353 0.12077003 0.018142767
000150 de cb 58 3d fe 71 9c 3c 08 ba f6 3d 93 d8 48 3d
       0.052928798 0.019097324 0.120472014 0.049034666
000160 fb ad 0b bc 11 f6 d6 bc 70 33 fc 3c af 53 c1 3d
       -0.008525367 -0.02624038 0.030786246 0.094397895
000170 99 f6 02 3b 36 84 9a 3d e2 7a 88 bd 11 b6 65 bd
       0.001998341 0.075447485 -0.06664063 -0.056081835
000180 33 e9 83 3d 6f 65 eb 3c f3 18 49 3c bc 14 eb ba
       0.064409636 0.02873489 0.012274015 -0.0017935256
000190 21 c9 b2 bd da 19 d4 3b 73 dc e3 3b bc b4 cc 3d
       -0.087297685 0.0064728083 0.00695377 0.0999541
0001a0 6c f9 85 3c eb c3 41 3d 52 11 11 bd 1e 74 b1 bd
       0.016354285 0.047305983 -0.03541691 -0.08664726
0001b0 80 0f 5f bc e0 0b d0 bd 73 38 80 3d 84 c4 f4 bd
       -0.013614535 -0.10158515 0.06260767 -0.11951545
0001c0 c4 4b df 3c 5e 3e 66 3d b3 ce c9 bc ae 58 00 be
       0.027257808 0.05621182 -0.024634695 -0.12533829
0001d0 a4 82 4b bc 82 d6 ac bc 05 88 45 3c bc 41 6b 3c
       -0.012421284 -0.021098379 0.012056355 0.014358934
0001e0 b1 db b5 bb fc aa c5 3c 75 81 f3 3d a7 49 00 bd
       -0.005549871 0.024129383 0.11889926 -0.03132024
0001f0 c0 7a 40 bc 31 f9 c0 bc 34 0c 15 3d c2 62 7c bb
       -0.011748016 -0.023556324 0.03638859 -0.0038511013
000200 1f 7a 8f bd 3c 9b c2 bd 83 e5 83 3d bc b1 f7 3b
       -0.070057146 -0.09502265 0.0644026 0.0075590294
000210 14 bb f4 3d 33 31 c4 bd 8b 6a f6 b8 d6 01 91 3c
       0.11949745 -0.095796965 -0.00011750039 0.01770107
000220 b2 fb 84 bd 62 93 1d 3c ad b2 03 bd 9d e7 ae 3d
       -0.064933196 0.009617658 -0.03215282 0.085402705
000230 ac f2 bb 3d bb 90 ba bc 48 c2 10 3d 83 88 f5 bb
       0.09177145 -0.022774091 0.03534153 -0.00749308
000240 28 c6 aa 3d 1e 9f 44 bd c1 87 04 3d eb 0b b0 3c
       0.083385766 -0.04800331 0.032356028 0.021490058
000250 99 ca ab bb 73 84 4e 3d 50 cf fe 3d 13 63 74 bd
       -0.0052426574 0.050419282 0.124418855 -0.059664797
000260 b1 0c 58 3d 80 16 49 bc 00 60 f5 b8 14 3c 89 3d
       0.05274648 -0.012273431 -0.00011700392 0.06700912
000270 62 40 de 3c c4 48 c8 3c 97 51 8a bd d8 7d 74 bb
       0.02713031 0.02444876 -0.06753843 -0.0037306454
000280 5d 5c 79 bc cf 36 a8 bd ca 5f 68 bd d5 d9 c2 ba
       -0.015219775 -0.08213579 -0.056731977 -0.0014865944
000290 8d 73 b6 3d 13 b8 b7 3c 33 0e 49 39 68 ba dc bc
       0.08908758 0.02242664 0.00019174143 -0.026944354
0002a0 46 8e fb 3b 3e 6a 95 bc c9 ca c9 3c 2c e8 2f bd
       0.0076768724 -0.018239137 0.024632828 -0.042946026
0002b0 a3 ef f9 bc 58 a3 b6 bd b9 ef 46 bc ad b0 ae 3d
       -0.030509776 -0.08917874 -0.012142115 0.08529792
0002c0 00 c9 50 bd e1 1f f4 3c 19 dc dd bc 30 3b cc 3c
       -0.05097294 0.029800357 -0.02708249 0.024930567
0002d0 0e 58 05 3d b4 ad 7f bd e1 9d ee 3c ac 76 08 3d
       0.03255468 -0.062421516 0.029128017 0.0333163
0002e0 a9 0b f0 3d 0d 42 35 3d 2c 2c 17 bd b2 f3 99 bd
       0.11720974 0.044252444 -0.03690736 -0.07517184
0002f0 69 ee 0c 3b f3 f4 21 3b 6c c4 89 bd c8 d9 b6 3b
       0.0021504408 0.0024712652 -0.067269176 0.0055801608
000300 69 a7 89 3d 49 2d aa bd 71 0f 90 3d ad aa ba 3d
       0.06721384 -0.08309419 0.07034195 0.09114585
000310 68 52 90 3c dd f3 c7 3d 02 81 71 b6 49 a5 9d 3d
       0.01761742 0.0976331 -3.598689e-06 0.07697541
000320 8f 80 b2 bd 7d 93 0c 3d b4 aa 75 bd 26 c0 09 be
       -0.08715927 0.034320343 -0.05997725 -0.13452205
000330 18 eb 74 bd a3 67 f0 3c 2f 8a 21 bd e1 38 bb bb
       -0.059794515 0.029346293 -0.039438423 -0.0057135676
000340 81 fd 8c 3d d6 27 76 bd da 97 dc 3d 0a 05 c7 bc
       0.068842895 -0.060096584 0.10771151 -0.024294395
000350 55 8b 56 3d f6 c6 64 3d 3c e8 15 3d 21 b9 11 3c
       0.05237897 0.055853806 0.03659843 0.008894236
000360 0a 19 84 3d c5 db 7a 3d 00 8f e5 bc c4 d3 93 bd
       0.06450088 0.061244745 -0.02802229 -0.072181255
000370 3c 1d 45 3c 30 2f b0 3d 93 35 63 3d 9d a0 17 bd
       0.012030896 0.0860275 0.055471014 -0.037018407
000380 f9 d5 da 3d 9f 8c ab 3d ca 36 b2 3d 52 2d 15 bc
       0.10685343 0.08376431 0.087018564 -0.0091050435
000390 f3 72 92 3d 41 28 f2 3d d8 f5 1a bd 16 f7 fb 3d
       0.07150831 0.11824084 -0.03783211 0.12302987
0003a0 11 b1 33 bd fb 73 91 3d 5b 83 2e 3d 30 ae a0 3c
       -0.043870036 0.071022 0.04260574 0.01961431
0003b0 ff d7 09 bd ad 91 2d 3c 49 87 dc bc d0 db 64 bd
       -0.033653256 0.010593814 -0.026919978 -0.055873692
0003c0 05 0c 5c bd be bb b6 3d bc 5f 98 bd 5f 2a 1b 3c
       -0.0537224 0.08922528 -0.07440135 0.009470551
0003d0 03 c4 98 bd 13 31 03 bd ca ad f8 3c 7d db bd 3c
       -0.07459261 -0.032029223 0.030356307 0.02317595
0003e0 c0 f9 74 bc d9 e7 f6 3d a7 ba 52 bd 33 db 30 bc
       -0.014952123 0.1205594 -0.051447537 -0.010794449
0003f0 50 00 9d 3c df 30 e8 3d f0 67 a5 3c 3b a5 92 bc
       0.019165188 0.113374464 0.020191163 -0.017901054

fc2_logvar.bias f4 [16]
000000 bb af 49 3d a2 8b 27 bd 5b 9f a6 3c 55 fa 8c bd
       0.049239855 -0.04090465 0.020339658 -0.068836845
000010 6f 13 f8 3c a5 a5 12 3d 78 bd 80 3d d4 f7 89 3c
       0.030282704 0.035802502 0.06286138 0.016841806
000020 e9 34 70 3c 82 d7 01 bc c5 d4 9c bc a7 88 bd 3c
       0.014661052 -0.007924916 -0.019144425 0.02313645
000030 5c 47 bf bb 17 72 1e 3d 56 78 65 bd b1 24 87 3d
       -0.005837364 0.038683023 -0.056022964 0.06598795

fc3.weight f4 [64, 16]
000000 2f b7 b9 3d c1 03 1c be 6a 3e 42 3d 24 81 e7 bd
       0.090681426 -0.15235807 0.047422804 -0.113039285
000010 e9 1b fb 3d 9d 9a da bd 78 e7 40 3e af 28 1f 3e
       0.12261183 -0.106740214 0.18838298 0.15542863
000020 f0 11 7d 3d 27 8d 5f 3e 3f c9 f1 3d bb 6c 9e bd
       0.061784685 0.21831189 0.11805963 -0.077355824
000030 aa fb 3e 3d 9f 2f 20 3e 4c 70 8b 3c da cf 0e bd
       0.046626724 0.15643166 0.01702132 -0.03486619
000040 69 6e a9 bd 09 58 09 3e 20 96 cb bd 4b 50 b3 bd
       -0.08273012 0.13412489 -0.099407434 -0.08755549
000050 df d9 2a be 89 a2 b2 3d 1c c0 c5 3d 52 3b 9c bd
       -0.16684674 0.08722407 0.096557826 -0.07628502
000060 9d 8d ca 3d f9 04 27 be 30 b1 f2 3d a2 f6 d7 3d
       0.09890292 -0.1631049 0.11850202 0.10545088
000070 e3 4b 39 3d ff 8d f9 bd 5d 0f 56 bc 9c 0f d4 3c
       0.045238387 -0.12185287 -0.013065186 0.02588635
000080 1e 15 84 3d e4 b6 b1 bd 51 81 2d bd 48 41 49 be
       0.0644934 -0.08677462 -0.042359654 -0.19653809
000090 0d 21 38 3e aa 98 03 be 15 1a c5 3d af 49 4e 3e
       0.17981358 -0.12851205 0.096241154 0.20145296
0000a0 99 5c 72 3e 46 22 37 be 6c 94 e5 bd 51 28 00 bd
       0.23668136 -0.17884168 -0.1120995 -0.03128845
0000b0 81 dd ed bd 56 80 04 be a3 4e f0 bd d7 6f ea bd
       -0.11614514 -0.12939581 -0.11733749 -0.11447113
0000c0 d5 20 44 be e2 1e 5d be 1a ec f9 3d bd e2 fc 3d
       -0.1915315 -0.21593812 0.12203236 0.123479344
0000d0 67 25 3f be 32 ee b2 bd c6 5b 0a 3c aa a9 3b be
       -0.18666612 -0.087368384 0.008444732 -0.1832644
0000e0 a3 ec 4f 3e e4 7f ba bd ba c8 2f 3e 1a 75 35 3e
       0.20305113 -0.091064245 0.17166415 0.17720452
0000f0 c4 3c 29 3d 19 99 2c 3e d7 68 2a be 1d 7e 12 3e
       0.041317716 0.16855277 -0.16641556 0.14305921
000100 1b b2 31 be 55 ca 27 3e 8c 5f 92 bd 54 7c f2 3d
       -0.17353098 0.16385777 -0.0714713 0.1184012
000110 6c 51 b0 bd 25 7b c2 3d cd ea c4 bd 3b 85 3b 3d
       -0.0860928 0.09496144 -0.09615097 0.045781355
000120 3a 48 5c 3d 6e fd 49 be f3 d8 01 bd 9d 2f 36 be
       0.053779818 -0.19725582 -0.03170104 -0.177916
000130 51 10 de 3d c6 bd 4d 3c 7c 2a e7 3a a9 82 50 3d
       0.10842956 0.012557453 0.0017636563 0.050905857
000140 5a 21 44 bd 39 4c 77 bd c1 14 b1 3d d7 f4 fb 3d
       -0.04788337 -0.060375426 0.086465366 0.12302559
000150 4d 78 21 3e 2a 14 5c 3d f2 5f 57 bd 38 c8 ea 3d
       0.15768547 0.053730167 -0.052581735 0.1146397
000160 82 ee 2d bc 91 10 0c 3e 96 8c dc bc 89 98 06 bd
       -0.010615947 0.13678195 -0.026922505 -0.032860313
000170 ea 3b e3 bd 46 04 58 3e e6 33 d1 bd 73 4d 3f be
       -0.11095412 0.2109538 -0.10214977 -0.18681888
000180 c0 d6 3c bd 55 f4 a0 bb ea c9 51 bd 50 94 22 3e
       -0.04610324 -0.004911939 -0.05121795 0.15876889
000190 36 9d c3 bb b5 78 8f bd f1 c8 5f bd b3 48 e5 3c
       -0.0059696687 -0.07005445 -0.054634992 0.027988767
0001a0 b7 a3 92 bd 53 d5 16 3e 73 3d ea bc dc 40 38 3e
       -0.071601324 0.14729814 -0.028593754 0.17993492
0001b0 df 67 79 bd bc 90 20 bd 1b 32 3a 3e c8 e8 62 3d
       -0.060890075 -0.03920053 0.18183176 0.05539778
0001c0 cd 01 58 3e 1b d3 a1 3d 14 16 b0 3d f6 7b 28 3d
       0.21094437 0.07901593 0.08597961 0.041133843
0001d0 33 66 7a 3e 0f fa 5b 3c 9d 79 2c 3e 3a 3c dc 3d
       0.24453048 0.013426318 0.16843267 0.10753675
0001e0 12 23 d3 3d 91 61 a9 bc 92 97 07 3e db 68 c6 bd
       0.103094235 -0.020676406 0.13241413 -0.09687968
0001f0 a5 9d e9 3d e6 d7 0e 3e c2 bd 73 bd 41 c3 5a be
       0.114070214 0.13949546 -0.05950714 -0.21363546
000200 e0 7a 6b 3e 26 5a 9a 3b c7 8f 78 be 05 b2 7e 3e
       0.22996092 0.0047104536 -0.24273597 0.24872597
000210 11 ea 30 be 58 8e df 3d 3f 30 4b 3e 84 f6 78 b9
       -0.17276789 0.10915822 0.19842623 -0.00023742957
000220 eb 3c 1a bc 3e 66 02 3e d2 b8 5b 3e c2 97 61 be
       -0.009413938 0.12734315 0.21457222 -0.22030547
000230 67 ad 5d 3e e6 6e 15 bd b2 fc 40 3e 35 da 1e be
       0.21648179 -0.036482714 0.18846396 -0.15512927
000240 d5 ca 95 bd d9 d7 26 be 64 d8 17 bd 50 e9 82 bd
       -0.07314078 -0.16293277 -0.0370716 -0.06392157
000250 23 31 84 bd cb 95 27 be eb 39 e5 bd b6 96 c6 bd
       -0.064546846 -0.16365735 -0.111926876 -0.096967146
000260 f4 66 68 3e c5 a1 51 3e ee 5e 86 3d 69 e8 03 bd
       0.22695524 0.20471866 0.06561075 -0.032204065
000270 a7 37 ff bd f2 59 18 3e c9 bb 52 be 9b 73 27 be
       -0.12461787 0.14878061 -0.20579447 -0.16352694
000280 3d 3d cb bd 44 f1 10 be 4d 5b b4 3c 5a ea 14 3e
       -0.0992379 -0.14154536 0.022016192 0.14542523
000290 f1 d5 1a 3e 60 bf 89 bd 1c 79 19 be 50 04 c9 3d
       0.15120675 -0.06725955 -0.14987606 0.09815276
0002a0 b1 ff 37 3e f0 fa 41 be 72 31 ab 3d 99 59 81 bd
       0.17968632 -0.18943381 0.0835904 -0.063159175
0002b0 24 0c 05 3e 84 62 d0 bd 2b b8 0f 3d 5f 42 00 3e
       0.12992913 -0.1017504 0.035087746 0.12525319
0002c0 9b 78 ba 3d 65 34 09 3e 04 2a fc bd 40 8c ea 3d
       0.09105035 0.13398893 -0.12312701 0.11452532
0002d0 ce d6 d3 3d 00 df c3 3c ff ea af 3d af 80 2a be
       0.10343705 0.023910046 0.08589744 -0.16650651
0002e0 c7 0b 80 bc 9f d7 11 be 78 f3 dc bb 16 2f 1e 3e
       -0.015630616 -0.14242409 -0.006742891 0.1544765
0002f0 1d 67 9f 3b fe 71 81 3c 69 33 3b be a8 08 9d bc
       0.004864587 0.015801426 -0.1828133 -0.019169167
000300 fb 9c 0d bd 19 99 c1 bd 83 fa 14 3e bc 7a 4d 3e
       -0.034573536 -0.09453029 0.14548688 0.2006635
000310 da 45 0e 3e d8 6b 1c bd a5 ad 1d 3e 64 d1 09 be
       0.13893834 -0.038188785 0.15398271 -0.13458782
000320 3a 69 2d 3d 65 29 a8 3c b2 be 2f 3e a4 74 47 bd
       0.04233668 0.020527551 0.17162588 -0.04869522
000330 64 e0 81 bd 48 6f 0f be 18 78 8d bd 87 d4 49 be
       -0.06341627 -0.14007294 -0.06907672 -0.19709979
000340 be b0 82 3d 08 52 14 3c 5d dd 68 be 7b ab 1d 3e
       0.06381367 0.009052761 -0.22740693 0.15397446
000350 3d 52 41 bd 2d 95 25 be fd 4c d7 bd 59 03 92 bd
       -0.04719757 -0.16170187 -0.10512731 -0.07129545
000360 65 ef 3b be 9b 01 7e 3c 1d 7e bb 3c b3 c7 25 3e
       -0.1835304 0.015503312 0.022887284 0.1618946
000370 32 97 0d be 2f fa 58 3d 8f 16 b1 bd e8 aa 14 3e
       -0.13827208 0.05297297 -0.08646881 0.1451832
000380 f3 e7 69 3d f9 52 88 3d 53 2b 4f bd d2 6c db 3b
       0.05710597 0.06656451 -0.050578427 0.006696322
000390 90 c7 38 3d 60 96 8b 3c b5 7e d7 3d 0c a2 b0 3d
       0.045112193 0.017039478 0.10522214 0.08624658
0003a0 ad ee 38 3d 3c 79 a1 3d d9 85 bf bc e5 87 f6 3c
       0.045149494 0.07884452 -0.023379253 0.030094096
0003b0 a7 34 1c 3d da b3 66 3d 08 4b 9f 3d be 88 e4 bc
       0.03813615 0.056323864 0.07777983 -0.027897235
0003c0 7a 0c 33 be b7 ac fd 3d c2 b8 14 be 32 b3 d0 3d
       -0.17485228 0.12386458 -0.14523605 0.10190429
0003d0 dd c9 50 3d 50 ca 9a bd 52 ac 88 bd e1 93 3b 3e
       0.05097376 -0.07558119 -0.066734925 0.1831813
0003e0 7c f3 41 3e 58 12 35 3e a8 1d 80 bd eb cf 53 be
       0.18940538 0.17682779 -0.062556565 -0.20684783
0003f0 03 93 25 3e 11 10 95 3d d4 e9 0b be 27 33 03 3d
       0.16169362 0.07278455 -0.13663417 0.032031205

fc3.bias f4 [64]
000000 7c 05 f7 bd 1b ce 14 3e 06 34 94 3d 09 88 82 bd
       -0.12061593 0.14531748 0.07236485 -0.06373603
000010 c4 3a 86 3e 31 36 eb 3d 18 1e 75 3d 11 00 69 be
       0.2621671 0.114849456 0.059843153 -0.22753932
000020 c2 b3 0b 3c e3 5a 24 bd d5 d5 b4 3d bf d4 27 3e
       0.008526744 -0.04012574 0.08829848 0.1638975
000030 d9 f9 a0 3d 4e 8e de 3a d3 fe b6 3e 5e a7 dc 3d
       0.07860155 0.0016979666 0.3574129 0.1077411
000040 f0 6e 3c 3e 84 bc b0 bd a4 67 13 bd 05 b1 80 3e
       0.18401694 -0.086297065 -0.03598751 0.25135055
000050 4f 4a 33 3e 99 5b fb bc 1c ee 53 3e cc 02 82 be
       0.17508815 -0.030683326 0.206963 -0.2539276
000060 8c d2 9c be a5 2c 47 3e d0 4d 91 bd 23 08 11 be
       -0.30629385 0.19450624 -0.0709492 -0.1416326
000070 c2 e7 bd bd 67 12 b5 3e 84 14 96 3e 7f da af 3d
       -0.0927272 0.35365602 0.29312527 0.08586597
000080 99 37 f4 3d 1b 44 24 3e 86 73 da 3d 00 f7 5f 3e
       0.11924667 0.16041605 0.106665656 0.21871567
000090 7c f1 b9 bd 5a 71 97 be c8 f6 bf 3d 7e 37 d1 3c
       -0.090792626 -0.29578668 0.09373242 0.025539156
0000a0 f1 09 81 3e 2c ac 9d 3d 84 58 37 be a8 17 38 3d
       0.25202897 0.07698855 -0.1790486 0.044944435
0000b0 9d 1c cc 3e e1 84 25 bd b4 82 79 3e c3 06 00 3e
       0.3986558 -0.040409926 0.24366266 0.1250258
0000c0 da f9 c0 3d 6a d5 83 bd ee 5b a7 3e 29 35 e6 bd
       0.094226554 -0.0643719 0.32687324 -0.11240608
0000d0 26 42 ae 3e ce 73 40 3e 59 7f 39 3e 10 20 0d 3d
       0.34034842 0.18794176 0.18114986 0.034454405
0000e0 f4 9e 81 be eb b5 23 be b1 78 e3 3d 70 4b 10 bd
       -0.25316584 -0.15987365 0.111070044 -0.035228193
0000f0 62 31 c4 bd 43 6c 94 3e 75 aa 13 3e 37 04 c0 bd
       -0.095797315 0.28988847 0.14420493 -0.09375804

fc4.weight f4 [11, 64]
000000 1a aa 1f bd 58 6a d7 bc 35 3c 9b bb 04 fb 33 3d
       -0.03898058 -0.026295826 -0.004737402 0.04394056
000010 a2 68 0d bd 68 dd ba bc 76 b0 94 3c e3 5d f3 bc
       -0.034523614 -0.022810653 0.01815055 -0.029707855
000020 d2 56 86 bc e8 9f 65 3c e7 b0 66 3d e3 9d 32 3d
       -0.016398821 0.014015175 0.05632105 0.043607604
000030 36 de 23 bd 34 76 dd 3b 1c 60 91 bd 2e 3e 71 3c
       -0.04000684 0.0067584757 -0.070984095 0.014724297
000040 cd 19 46 3d 46 7e dc bc d8 68 fa bc f8 dd cf 3c
       0.04836445 -0.02691568 -0.030567572 0.025374398
000050 34 ba 77 38 12 18 cd 3c cf 2a 24 bd e4 75 5d 3d
       5.9062804e-05 0.025035892 -0.040079888 0.054067507
000060 c4 04 53 bd 2f 67 8a 3d 92 48 12 bd 37 0e 9b 3c
       -0.051518217 0.06757962 -0.03571374 0.018927677
000070 7a 67 3b bc e3 72 62 bc a2 e1 90 3d 2c 04 05 3b
       -0.011438245 -0.013821336 0.07074286 0.0020296676
000080 84 42 bb 3b 30 ee eb ba 5e bc a0 3c 1b 6a 60 3b
       0.0057147164 -0.0018000063 0.01962107 0.0034242931
000090 aa 8c 6c 3d eb 28 a7 3d d9 da 1d bc 1b a3 17 bd
       0.057751335 0.08162101 -0.009634697 -0.037020784
0000a0 6b b9 af bd ec 73 e4 bc 1c 6d 33 3d ff ae ab bd
       -0.085802875 -0.027887307 0.043805227 -0.08382987
0000b0 ae 02 29 bd 6b 44 83 3c cc 84 99 bd d7 e3 eb bc
       -0.04126232 0.016023835 -0.07496032 -0.028795166
0000c0 17 00 8f bb 4a 8e ad 3c 68 ad e9 3c e2 70 92 3c
       -0.0043640244 0.021186013 0.02852507 0.017876092
0000d0 0e 85 89 bc 8b 2a 84 b8 8b ff 9a bd c7 4e ae bc
       -0.016787078 -6.302175e-05 -0.07568272 -0.021277798
0000e0 d6 2e 1a 3d 51 d3 22 bd 80 d0 ef 3c f8 9e 1b bd
       0.037642322 -0.03975231 0.029274225 -0.0379934
0000f0 f4 01 b3 3d e6 42 b9 bc e8 83 11 bd e9 4f d5 bc
       0.08740607 -0.022614907 -0.035526186 -0.02603908
000100 cc aa c4 bb 65 c4 4e bd 71 81 36 3c b4 ed 4e bc
       -0.006001806 -0.050480265 0.01113926 -0.012629915
000110 19 8e ad 3d aa 39 3c bd be b5 25 bd 1b 47 89 bd
       0.084743686 -0.04595343 -0.040456526 -0.067030154
000120 0f f7 94 3c 54 c7 91 3d be 8f 10 3b d3 ef b5 3d
       0.018184213 0.07118097 0.0022058333 0.088836335
000130 ab 61 88 bd f9 19 53 bc fb 12 02 3e 77 b6 81 bd
       -0.06659254 -0.01288461 0.12702553 -0.063336305
000140 fd d4 0e bd 37 7f 76 bc f8 8e 0f 3c a9 25 ad 3b
       -0.03487109 -0.015044979 0.008762114 0.0052840305
000150 05 5f 02 3d b7 e6 30 3d f4 8b 4b 3d b1 fa f2 bd
       0.0318289 0.043188777 0.049694017 -0.11864222
000160 e5 03 1a bd 52 1a 73 3d 60 27 a0 3c d6 ed 48 bd
       -0.03760137 0.059351273 0.019550025 -0.049054943
000170 d9 6e a5 bc dc 8b 79 3d f0 85 f0 3c d0 4d 14 3c
       -0.020194458 0.060924396 0.029360741 0.009051755
000180 15 c2 29 3d dc f9 38 3d 20 47 ee bc 79 aa ad bc
       0.041444857 0.04516016 -0.02908665 -0.021199452
000190 c1 d2 89 3d 3a 3d 9f bd 78 07 90 bd ba ae d7 b9
       0.06729651 -0.0777535 -0.070326746 -0.00041138177
0001a0 15 40 3f bd 83 c4 06 bd 92 43 ff ba fc b1 64 3d
       -0.046691973 -0.032902252 -0.0019475094 0.0558338
0001b0 99 79 95 3d 6f b5 a8 3d 68 60 02 bc 89 40 2a bc
       0.072985835 0.08237731 -0.007957555 -0.010391363
0001c0 d1 f7 9d bd c5 8e 2e bd b8 9d 51 3d 31 6e 0a 3c
       -0.07713283 -0.042616624 0.051175803 0.008449123
0001d0 eb 7d 80 3d 78 2b 96 bc 78 64 3d 3d 43 e4 79 bc
       0.06274017 -0.018331274 0.046238393 -0.015252176
0001e0 b6 80 74 bd a8 eb 22 bd b0 04 5b 3d 26 4a 36 bc
       -0.05969306 -0.03977552 0.053471267 -0.011126077
0001f0 6a 8d 20 bb d3 3a 90 3d 8a ec 21 3d 93 07 02 3c
       -0.0024498352 0.0704247 0.03953222 0.007936376
000200 67 bf 3e 3b 50 41 55 bd ec 9b 9a 3c 31 3a 9f 3c
       0.0029105784 -0.05206424 0.018873177 0.019436928
000210 54 ca 95 3c 03 29 bb 3d 1a 2f 2f 3c 85 dc c5 bc
       0.018284954 0.09138682 0.010692382 -0.024153003
000220 8a af f9 3c 3d 4a ac bd 2e 58 1f bc ec 1d f3 bc
       0.030479211 -0.08412597 -0.0097256135 -0.029677354
000230 c0 bb 13 bd aa d2 fd bc e6 e2 1e 3d 5e 19 03 3c
       -0.036067724 -0.030984242 0.038790606 0.0080016535
000240 86 1f 0b 3d 61 96 2a 3b bb 78 df bc 04 bd 04 3c
       0.03396561 0.0026029574 -0.027279248 0.008101705
000250 da 90 29 bd f6 4b 4d 3b fa 2d 92 bd 7b 20 22 3d
       -0.041397907 0.0031325794 -0.071376756 0.039581757
000260 54 93 2b bd 09 c6 89 bc 38 69 9c bc 97 f5 83 bd
       -0.04188855 -0.016818063 -0.019093141 -0.06443327
000270 6b d1 08 bd e8 96 1b 3d 1a 9b ec 3c b9 89 7a 3d
       -0.03340284 0.037985712 0.028882552 0.0611665
000280 4d 9c 7c bc 8d d5 66 bc c7 d9 ef 3c 31 a9 3e bb
       -0.015418124 -0.014089 0.029278649 -0.0029092545
000290 e0 46 06 bd ba 86 ca 3c b6 71 55 3d e5 1b 44 3d
       -0.032782435 0.024722446 0.052110396 0.047878165
0002a0 68 da e6 3d cc 63 78 3d 6c 92 87 bc aa a9 0a 3d
       0.112721264 0.06064205 -0.016549312 0.03385321
0002b0 3a c8 b3 3d f8 19 28 bd b5 7e ee 3c 93 9f 17 bd
       0.087784246 -0.04104039 0.029113153 -0.037017416
0002c0 40 60 ef 3d 39 08 51 3d f8 a3 d2 3d 67 05 cd 3c
       0.1168828 0.051033232 0.10285181 0.02502699
0002d0 82 63 83 bd 61 da 76 bc 3e 75 65 bd 9c 6a a5 3c
       -0.06415464 -0.015066714 -0.056020014 0.020192437
0002e0 48 02 b5 bc 50 fb 0a bc cc 88 c2 3c 82 16 46 bc
       -0.022095814 -0.008482769 0.02374687 -0.012090327
0002f0 a5 b2 00 3d 97 10 41 bd 56 01 52 3d fc 24 93 bd
       0.03142037 -0.047134962 0.051270805 -0.071847886
000300 16 28 a6 3d ec a4 a0 3d a6 38 b1 3c 8d f9 9f bc
       0.081131145 0.07843956 0.021633457 -0.019528175
000310 6e 84 2c bc 00 21 1e 3d ee 5e ed bc 3b f2 e7 bc
       -0.010529621 0.03860569 -0.02897593 -0.028313747
000320 cf 66 48 3c 10 7d a4 bc 88 84 3e 3b 54 7d e4 bc
       0.012231543 -0.020079166 0.0029070694 -0.027891792
000330 d1 26 34 3c d7 1b 29 3d 6b be f1 3d 6b d0 cf 3c
       0.010995583 0.041286316 0.118038975 0.025367936
000340 18 d1 a3 3b a7 b1 18 bc 3a 99 56 bb e3 78 07 3d
       0.004999291 -0.009319699 -0.0032745139 0.03307427
000350 54 93 77 bc 38 11 b0 3c ef 58 d6 3d a3 3c 82 bd
       -0.015110809 0.021492586 0.104661815 -0.06359222
000360 28 2a 78 3d 3a 90 2a 3c 15 b6 bb 3d 79 3f 9f bd
       0.06058708 0.010410363 0.09165589 -0.07775778
000370 ec 39 aa 3b a6 77 b6 bc a0 b8 81 3c 12 38 3d 3d
       0.005194893 -0.02227385 0.015835106 0.04619605
000380 49 9b 7d bd d9 21 31 3d 0b f0 2c bd ba e1 34 bc
       -0.06191567 0.04324517 -0.04222111 -0.0110401455
000390 9d 09 d9 3c bf 57 00 bd c9 a5 cc bc d6 74 a4 bc
       0.026493842 -0.03133368 -0.024981396 -0.020075243
0003a0 71 9c 96 3d b7 ee 59 3d ce b9 d1 bc 57 9d ab 3d
       0.073540576 0.05320617 -0.025601294 0.083796196
0003b0 c2 16 13 3e eb bc 3d bc 53 cb 8c bc 09 20 d2 bc
       0.1436415 -0.011580686 -0.017186796 -0.025650041
0003c0 3d e2 ed 3c 95 90 3f bc 81 c0 8f 3d c0 86 63 bd
       0.029038543 -0.011692186 0.07019139 -0.05554843
0003d0 54 1b a2 3d 6b 05 87 3c 06 68 3f 3d 7e 16 82 3c
       0.07915369 0.016482076 0.046730064 0.015879866
0003e0 b7 14 c2 bd 83 d5 a4 3b 38 c1 9d 3c 3a ee b8 ba
       -0.09476607 0.0050303354 0.019257173 -0.0014109083
0003f0 05 fc 35 3d d1 b9 b4 bc 53 35 12 3d 9b a8 ab bc
       0.044429798 -0.02206126 0.035695385 -0.02095442

fc4.bias f4 [11]
000000 25 ce 12 3d 89 15 8a 3c af 3a f5 3c 7f ce cf 3c
       0.035841126 0.016855972 0.02993521 0.02536702
000010 fb 56 1c be 80 5b ad bc 35 2f 1d be 1c 46 39 bd
       -0.15267555 -0.021161795 -0.1535004 -0.045232877
000020 c7 73 b0 bd 07 93 65 3d a1 e5 2d bd
       -0.08615833 0.05604842 -0.04245532
