src/VAE/vae_models/user_8_vae.pth (torch, 22306 bytes, 10 tensors)

fc1.weight f4 [64, 11]
0	0xbe3bf166	-0.18353805
1	0xbe1ebe01	-0.15502168
2	0x3e582e6e	0.21111462
3	0xbdad6d02	-0.08468057
4	0x3e45f576	0.19331917
5	0x3e27b95a	0.163793
6	0xbe0e75e4	-0.13912159
7	0xbbc4d41e	-0.0060067317
8	0x3cd8f28e	0.026482847
9	0xbd5a031d	-0.053225625
10	0x3e6669c8	0.2250129
11	0xbeae4970	-0.34040403
12	0x3c135393	0.008992094
13	0xbe2c0a55	-0.16800816
14	0xbe71dac9	-0.23618616
15	0xbddefa2e	-0.10887562
16	0x3d3bb870	0.04583019
17	0x3d972562	0.07380177
18	0xbded189b	-0.11576959
19	0xbe71e952	-0.23624161
20	0xbe7ad121	-0.24493839
21	0x3cba5121	0.022743763
22	0x3dbd97db	0.0925748
23	0xbcac56ff	-0.021037577
24	0x3d106233	0.0352499
25	0xbcbc7cb2	-0.023008678
26	0xbd99c31c	-0.07507917
27	0xbe2af9f0	-0.16696906
28	0x3dd3cc59	0.103417106
29	0x3e5c8d42	0.2153826
30	0x3e00b2c1	0.12568189
31	0xbddcd9fb	-0.10783764
32	0xbd69cd9f	-0.05708086
33	0x3e8e25ae	0.27763122
34	0xbe710a7c	-0.23539156
35	0x3da0ebeb	0.07857498
36	0xbe9bcc26	-0.3042919
37	0xbcca9669	-0.024729924
38	0x3b18f288	0.002333792
39	0xbe7da6ac	-0.24770612
40	0xbe9752ce	-0.29555362
41	0x3e178d3a	0.14799967
42	0x3b06cd30	0.0020569079
43	0xbe06e220	-0.13172197
44	0xbe4834e4	-0.19551426
45	0x3d47ded4	0.04879649
46	0x3e42302e	0.18963692
47	0x3e8a587f	0.27020642
48	0xbe5d2ebb	-0.21599858
49	0x3e368f26	0.17828044
50	0xbd9d4f38	-0.076811254
51	0xbe03910c	-0.128483
52	0xbd72c19c	-0.05926667
53	0x3db13530	0.08652723
54	0x3d30262b	0.04300515
55	0xbe1b602f	-0.1517341
56	0x3e12d060	0.14337301
57	0xbe66af4a	-0.22527805
58	0xbdf91195	-0.12161557
59	0xbe115837	-0.14193808
60	0x3c94bc94	0.018156327
61	0x3e091cbe	0.1338987
62	0xbdd92a9d	-0.10603831
63	0xbe5f577a	-0.21810713
64	0xbe975f94	-0.29565108
65	0x3dc4c6d2	0.096082345
66	0xbdc4bc74	-0.09606257
67	0xbe7a904b	-0.24469106
68	0x3e0c8b9c	0.13725132
69	0x3e06d223	0.13166098
70	0x3e1c8144	0.15283686
71	0x3e5f3e22	0.21801046
72	0xbd69019a	-0.056886293
73	0xbe6396f7	-0.22225557
74	0xbe57ad44	-0.2106219
75	0xbda73a92	-0.08165468
76	0xbe372975	-0.17886908
77	0x3d9ffb17	0.078115635
78	0xbd9d1386	-0.076697394
79	0x3e671a67	0.22568665
80	0xbd959a73	-0.073048495
81	0x3bc7658c	0.0060851034
82	0x3e903678	0.28166556
83	0xbe02f1ec	-0.12787598
84	0x3e345706	0.17611322
85	0x3e1b17e2	0.1514583
86	0xbdc0bd04	-0.09411052
87	0x3e9ce011	0.306397
88	0x3e46676e	0.19375393
89	0xbd5475a1	-0.051869992
90	0xbe003ee3	-0.1252399
91	0x3e26901a	0.16265908
92	0xbe156b88	-0.14591801
93	0xbdc35ebf	-0.09539556
94	0x3e338d30	0.17534328
95	0x3e6cb246	0.23114881
96	0x3d8b19ab	0.06792005
97	0xbdecca5d	-0.11562035
98	0xbd838666	-0.06422119
99	0xbe9903d3	-0.2988573
100	0xbe5f9787	-0.21835147
101	0xbe7ba915	-0.24576218
102	0xbc5a5e8a	-0.013328204
103	0x3ca64667	0.020297242
104	0xbd940747	-0.072279505
105	0xbd02056a	-0.031743445
106	0x3d058579	0.032597993
107	0x3e96953b	0.2941073
108	0x3e022733	0.12710266
109	0x39e91232	0.0004445478
110	0x3e1c0d84	0.15239531
111	0xbd69274b	-0.05692224
112	0xbe70b7d3	-0.23507623
113	0x3e1dd401	0.15412904
114	0x3dddbc90	0.10826981
115	0xbbbd83ee	-0.0057835495
116	0x3de5e744	0.11225751
117	0x3e9721cd	0.29517975
118	0x3e13ae31	0.14421917
119	0x3e12f0a0	0.14349604
120	0xbe601143	-0.21881585
121	0xbe7634ab	-0.24043529
122	0xbe2085f9	-0.15676107
123	0x3e5b24a7	0.214007
124	0x3e637e59	0.22216167
125	0x3ca9f1e7	0.02074523
126	0xbe2e279b	-0.17007296
127	0xbe85576b	-0.26043257
128	0xbd3a4175	-0.04547258
129	0x3d98a5b8	0.07453483
130	0x3d006681	0.031347755
131	0xbe55cc24	-0.20878655
132	0xbe5f940a	-0.21833816
133	0xbcf79e6d	-0.03022691
134	0xbe826009	-0.25463894
135	0x3dfaaae3	0.12239625
136	0x3e337c27	0.17527829
137	0xbe8f0473	-0.27933082
138	0xbe19ad19	-0.15007438
139	0xbe35ac44	-0.17741495
140	0xbe763abc	-0.24045843
141	0x3e1a2f80	0.15057182
142	0xbd109e17	-0.035307016
143	0x3df7327c	0.12070176
144	0x3b7feacc	0.0039049862
145	0xbe81576e	-0.25262016
146	0xbdc3f454	-0.09568086
147	0x3e36dc2e	0.1785743
148	0xbe7b03fc	-0.24513239
149	0xbe0e2a96	-0.13883433
150	0x3e4bcfbd	0.19903465
151	0xbe06be1f	-0.13158463
152	0xbe0be537	-0.13661657
153	0xbe2978be	-0.16549966
154	0x3e268b42	0.1626406
155	0x3e41e158	0.18933618
156	0x3cc539a3	0.024075335
157	0x3e43d730	0.19125056
158	0xbe3bc76e	-0.18337795
159	0xbe5eb87e	-0.21750066
160	0x3e08d411	0.13362147
161	0xbe62a63b	-0.22133724
162	0x3e2c2933	0.16812591
163	0xbe617fac	-0.22021359
164	0x3e67f075	0.22650321
165	0x3e2c733b	0.16840832
166	0xbe4c93a4	-0.19978195
167	0xbcb4dd7c	-0.022078268
168	0x3dd496d8	0.10380334
169	0x3b5529e9	0.00325262
170	0xbdfa0fa4	-0.122100145
171	0x3d0cd4cd	0.03438263
172	0xbeacd142	-0.337534
173	0x3d909312	0.070593014
174	0xbc83eff1	-0.016105624
175	0xbe7cf54b	-0.24702947
176	0xbe87ad83	-0.26499566
177	0xbe6ecb5a	-0.2331976
178	0xbe0fc7d6	-0.14041075
179	0x3de6a3d6	0.11261718
180	0x3d667f51	0.056273762
181	0xbe451998	-0.19248044
182	0xbcb48dea	-0.022040326
183	0x3c7ccecf	0.015430166
184	0xbe94b573	-0.29044685
185	0xbd932b63	-0.0718601
186	0x3da4918a	0.08035572
187	0xbe67f4c3	-0.22651963
188	0x3dd37dd1	0.10326732
189	0xbe8df429	-0.27725342
190	0xbe293a1e	-0.16526076
191	0xbd49cf71	-0.049270097
192	0x3ca1377c	0.019679777
193	0xbdde9711	-0.108686574
194	0x3e8c20b6	0.27368706
195	0xbe517a35	-0.20456775
196	0x3c72d0ab	0.014820258
197	0xbe6f8281	-0.23389627
198	0x3c70581f	0.014669447
199	0x3e5112d9	0.20417346
200	0x3e64e587	0.22353183
201	0xbe388a09	-0.18021406
202	0x3e150411	0.14552332
203	0xbcc0c98d	-0.023533607
204	0x3e566d77	0.20940195
205	0x3e0c73be	0.13716027
206	0xbd295b9b	-0.041347127
207	0x3dcd8d1a	0.100366786
208	0xbd8aa3cb	-0.06769522
209	0xbe813f48	-0.25243592
210	0x3e582855	0.21109135
211	0x3e3dcce4	0.18535191
212	0xbe26d323	-0.1629148
213	0x3def95ec	0.11698517
214	0xb943ba6c	-0.00018666097
215	0xbe74a3fa	-0.23890677
216	0xbd0b7622	-0.034048207
217	0xbe60f176	-0.2196711
218	0x3d885390	0.06656563
219	0x3b1b78c0	0.0023723096
220	0xbdf20324	-0.11817005
221	0x3bc2b6d9	0.0059422073
222	0xbbcf4088	-0.0063248314
223	0x3e01481c	0.12625164
224	0xbdd1d914	-0.102464825
225	0xbdbe2fe5	-0.09286479
226	0xbdbc577d	-0.091963746
227	0x3e9e2446	0.3088705
228	0xbc3d6c68	-0.011561491
229	0x3e3b51f9	0.18292989
230	0x3e33cf5c	0.1755957
231	0xbb92beb1	-0.0044782986
232	0x3ded3e66	0.11584167
233	0xbe51b06a	-0.20477453
234	0xbd1160b2	-0.035492606
235	0xbdb2caed	-0.08730111
236	0xbe6d4592	-0.2317107
237	0xbe2b5e76	-0.16735253
238	0x3c9baae7	0.019002391
239	0x3e456a36	0.19278798
240	0x3e08fcac	0.13377637
241	0xbdbdf650	-0.09275496
242	0xbe67e793	-0.22646932
243	0x3df6b846	0.12046866
244	0xbe3a6da0	-0.18205881
245	0xbb781f21	-0.003786035
246	0xbe0365a2	-0.12831739
247	0x3e3b2547	0.18275939
248	0x3e173491	0.14766146
249	0xbd5a843b	-0.05334876
250	0xbe8ca45f	-0.27469155
251	0xbe342a5e	-0.17594287
252	0xbd23cb73	-0.039988946
253	0x3e4c960b	0.19979112
254	0xbe36a83f	-0.17837618
255	0xbda12dfc	-0.07870099

fc1.bias f4 [64]
0	0x3e60d056	0.21954474
1	0x3e2ebbf4	0.17063886
2	0x3e30cc53	0.17265444
3	0xbd1718df	-0.036888953
4	0x3d44d6de	0.048056476
5	0x3e00a717	0.1256374
6	0xbddfde6d	-0.10931096
7	0xbd72dc20	-0.05929196
8	0xbe812c4b	-0.25229105
9	0xbdc738ca	-0.097276285
10	0x3beaba36	0.0071633114
11	0xbe922e2e	-0.28550857
12	0xbc588b93	-0.013216871
13	0xbd9997fb	-0.07499691
14	0x3e46c218	0.19409978
15	0xbc357cd5	-0.011077126
16	0xbe956283	-0.2917672
17	0x3d2b9b02	0.041895874
18	0xbe432097	-0.19055401
19	0xbe339d34	-0.17540437
20	0x3d966364	0.07343176
21	0xbe0393b9	-0.1284932
22	0xbe031db7	-0.12804304
23	0x3dddbd31	0.10827101
24	0x3e25b5ba	0.16182604
25	0x3c94934d	0.018136645
26	0xbcc4d4a1	-0.02402717
27	0x3d5f3e56	0.054502808
28	0xbd77658c	-0.060399577
29	0xbe72c3c8	-0.23707497
30	0x3e5a8de1	0.21343185
31	0x3e1e51de	0.15460917
32	0x3e8c09a9	0.2735112
33	0xbe6396f6	-0.22225556
34	0xbdcdbe6b	-0.10046085
35	0xbcfb635e	-0.03068703
36	0xbe41a91b	-0.18912165
37	0x3e1dc19b	0.15405886
38	0x3d26fdb9	0.040769313
39	0xbdb0ac96	-0.08626668
40	0x3d570719	0.052497003
41	0x3d4e5141	0.05037046
42	0xbe992ff2	-0.29919392
43	0x3d7ae8a0	0.061257005
44	0x3ec87439	0.3915117
45	0x3ca3ba63	0.019986337
46	0x3d6303c1	0.055423502
47	0xbc9fa5bb	-0.019488206
48	0xbcd63f53	-0.026153242
49	0xbe9ff1e7	-0.31239244
50	0xbcfa4989	-0.030552642
51	0x3d91a74a	0.07111986
52	0x3e2b845c	0.1674971
53	0xbd8e8eb9	-0.06960816
54	0xbe683a0f	-0.22678398
55	0x3dcfdaf1	0.10149182
56	0x3e005799	0.12533416
57	0x3ad35e47	0.0016126119
58	0xbe342be5	-0.1759487
59	0x3da36cc4	0.0797973
60	0xbe82a36d	-0.2551531
61	0xbe3b9927	-0.18320142
62	0xbddc4646	-0.10755591
63	0x3c14e81d	0.009088543

fc2_mean.weight f4 [16, 64]
0	0xbc0fa167	-0.008766509
1	0xbd379976	-0.044824086
2	0xbd54c1a7	-0.051942494
3	0x3d8fbd76	0.07018559
4	0x3dace108	0.08441359
5	0x3d3fed1f	0.046856996
6	0x3dcbaf94	0.09945598
7	0x3d35a94a	0.0443509
8	0xbc46a353	-0.0121239005
9	0x3d9fed90	0.07808983
10	0x3dd197b0	0.1023401
11	0xbdf87c7e	-0.1213312
12	0xbd972264	-0.07379606
13	0xbd82a4cc	-0.06379089
14	0x3d65b468	0.056080252
15	0x3d8942a9	0.067021675
16	0xbda332c8	-0.0796867
17	0x3c5c34ae	0.013440294
18	0x3d0fdb0b	0.035121005
19	0x3db9775f	0.09055971
20	0xbd9cd0a1	-0.0765698
21	0xbbce752e	-0.00630059
22	0xbd738738	-0.059455127
23	0xbd250d41	-0.040295843
24	0xbc83aa3b	-0.016072383
25	0xbd0a4aef	-0.03376287
26	0xbd8f4a36	-0.069965765
27	0x3e0bcb05	0.13651665
28	0xbcc24b57	-0.023717565
29	0xbd4bf81b	-0.04979716
30	0x3e2997c5	0.16561802
31	0xbdaa972d	-0.08329616
32	0x3adff19d	0.0017085556
33	0x3b0cd8ff	0.0021491644
34	0xbcc25603	-0.023722654
35	0x3d8b6820	0.0680697
36	0xbd424d30	-0.047436893
37	0x3d75cea7	0.060011532
38	0xbd66b0a9	-0.05632082
39	0x3bc46dc0	0.0059945285
40	0x3c420b21	0.011843474
41	0x3ba57bd8	0.0050501637
42	0xbd1e82aa	-0.03869883
43	0xbdbbaba6	-0.09163599
44	0x3c9c6f12	0.019095931
45	0xbcc54e78	-0.024085268
46	0x3d300080	0.042969227
47	0xbc9fbf73	-0.01950047
48	0x3dc8dab4	0.09807339
49	0x3d24c438	0.04022619
50	0x3da0049a	0.07813378
51	0xbca9b91c	-0.02071815
52	0x3c0a3e93	0.00843777
53	0x3d5af190	0.05345303
54	0xbd756d8d	-0.05991893
55	0x3dac37b7	0.08409064
56	0x3b56b5d6	0.0032762191
57	0xbd00d45d	-0.031452525
58	0xbc7848c0	-0.015154064
59	0xbd378a9d	-0.044809926
60	0x3bf1f320	0.007383719
61	0xbc6e95b2	-0.014562057
62	0x3cddd983	0.027081257
63	0x3c9adac4	0.018903144
64	0xbd47eb68	-0.048808485
65	0x3da13cf3	0.07872953
66	0xbde09856	-0.10966556
67	0x3be51f25	0.006992238
68	0x3de34db7	0.11098807
69	0xbc86b562	-0.016443912
70	0x3d36abf3	0.044597577
71	0x3d25f081	0.040512566
72	0xbcae537d	-0.021280045
73	0x3d4775a4	0.048696175
74	0x3d7d2eb7	0.06181213
75	0xbdf2430c	-0.118291944
76	0x3d9985c2	0.074962154
77	0x3d882606	0.066478774
78	0x3d5a8d16	0.053357206
79	0xbbe00e9f	-0.0068376805
80	0xbdcd1f54	-0.10015741
81	0xbe250926	-0.16116771
82	0xbd8b06f3	-0.06788435
83	0x3d980459	0.07422704
84	0xbd9e5476	-0.077309534
85	0xbd9f419c	-0.07776186
86	0xbdb62811	-0.08894361
87	0x3cb7ae58	0.022422
88	0xbdb04404	-0.08606723
89	0x3ced92e8	0.029000714
90	0x3cf6c6df	0.030124126
91	0x3df435f6	0.11924355
92	0x3dac61ae	0.084170684
93	0x3d483f85	0.048888702
94	0x3de8bed1	0.1136452
95	0x3d81c58b	0.063365065
96	0xbd87edbc	-0.06637141
97	0xbdb63f14	-0.0889875
98	0x3d815736	0.06315462
99	0x3bc1f526	0.0059191165
100	0x3cb3afc8	0.021934405
101	0xbb2565c7	-0.0025237666
102	0xbc00a20b	-0.007851134
103	0x3bf6a100	0.007526517
104	0x3c169032	0.009189652
105	0xbd318bc5	-0.043346185
106	0xbcd6cc7b	-0.02622055
107	0x3cc84350	0.02444616
108	0x3dbd5537	0.09244769
109	0xbd9ae856	-0.07563846
110	0xbd042f44	-0.03227164
111	0x3de1030a	0.10986908
112	0xbd82915a	-0.0637538
113	0xbd4aae98	-0.04948291
114	0xbdd95bf3	-0.10613241
115	0x3d08824a	0.03332738
116	0x3d353e56	0.0442489
117	0xbdc2cb05	-0.09511379
118	0x3d66d95e	0.05635964
119	0xbdb61b2a	-0.088919
120	0x3c3392e1	0.010960312
121	0x3c5f3a88	0.013624795
122	0xbd83521a	-0.06412144
123	0x3d4f12a0	0.05055487
124	0x3d981394	0.07425609
125	0x3c307133	0.010769176
126	0xbd4d47ad	-0.050117183
127	0x3d9a0a9b	0.07521554
128	0xbbde2b38	-0.0067800544
129	0xbb77f143	-0.0037833012
130	0x3c75a0bf	0.014991938
131	0x3c46e810	0.012140289
132	0xbcc71f29	-0.02430685
133	0x3c85c7e1	0.016330661
134	0x3d8b8ecc	0.06814346
135	0xbd60b28d	-0.05485778
136	0xb9efc71d	-0.00045733983
137	0xbe0105ca	-0.12599865
138	0xbdd61919	-0.10454006
139	0xbb78f080	-0.0037985146
140	0xbc469ed0	-0.012122825
141	0xbde48dba	-0.11159845
142	0xbd0796b4	-0.033102706
143	0x3d416b68	0.04722157
144	0xbd014968	-0.031564146
145	0x3d86cb09	0.06581695
146	0xbb61d656	-0.003446003
147	0xbce8a670	-0.028399676
148	0x3d4b2891	0.049599234
149	0x3db08cdd	0.086206175
150	0x3d9db722	0.077009454
151	0x3bcae09e	0.0061913272
152	0xbb28d0e8	-0.0025759283
153	0x3cd04105	0.025421629
154	0xbb51a095	-0.0031986583
155	0x3d5d6907	0.05405524
156	0x3da83ca0	0.08214688
157	0xbd3533e8	-0.044238955
158	0x3d877665	0.06614379
159	0xbdf5f1bc	-0.12008998
160	0xbb891312	-0.0041831816
161	0x3dcdfbaa	0.10057767
162	0xbd2496e3	-0.04018296
163	0x3d56be48	0.05242756
164	0xbca76990	-0.020436078
165	0xbd9b2546	-0.07575469
166	0xbc53627b	-0.012901898
167	0x3c3a8cc0	0.0113860965
168	0x3d3fcfed	0.046829153
169	0xbd34d228	-0.044145733
170	0x3c29a881	0.010355116
171	0xbdca5b28	-0.09880668
172	0xbd90316f	-0.07040679
173	0xbda7d147	-0.08194213
174	0xbd917cce	-0.07103883
175	0xbd10cc04	-0.035350814
176	0xbcf860f0	-0.03031966
177	0xbd00ea1f	-0.031473275
178	0x3d00c793	0.03144033
179	0xbd44f019	-0.048080537
180	0xbcab18bd	-0.02088582
181	0x3d0527d8	0.0325087
182	0x3d1d2f14	0.038374975
183	0x3d32e2a8	0.043673187
184	0x3da01081	0.07815648
185	0xbd00fea7	-0.031492855
186	0xbc8b7cda	-0.017027307
187	0x3d982fb7	0.07430976
188	0x3d4947cc	0.049140736
189	0xbd95849c	-0.07300684
190	0x3d44632b	0.047946136
191	0xbd8c87ec	-0.068618625
192	0xbb06534d	-0.0020496428
193	0x3d8a6fa6	0.067595765
194	0xbb1ef556	-0.0024255118
195	0xbddaa49a	-0.106759265
196	0xbc8ce488	-0.017198816
197	0x3d27a002	0.04092408
198	0xbdc223e1	-0.094794996
199	0x3c01f337	0.007931522
200	0x3ae31689	0.0017325442
201	0x3d521f4a	0.05129937
202	0xbce934a3	-0.028467482
203	0xbd83f91a	-0.06443997
204	0xbcc92e60	-0.024558246
205	0xbdf77b8e	-0.12084113
206	0xbba21f48	-0.0049475767
207	0x3de901ef	0.11377322
208	0xbdf02420	-0.1172564
209	0x3d16d89d	0.036827672
210	0x3ccb8670	0.024844378
211	0xbd8e6368	-0.06952554
212	0xbd911c0b	-0.07085427
213	0x3c34bf42	0.011031928
214	0xbdc6a5c2	-0.096995845
215	0x3c8388c8	0.016056433
216	0x3d11d06b	0.035599153
217	0xbca1eb28	-0.019765452
218	0xbd8c6021	-0.06854273
219	0xbcfefe16	-0.031127017
220	0x3c110d32	0.008853244
221	0x3d362c26	0.044475697
222	0xbd0027a9	-0.031287823
223	0xbc7f54d9	-0.015584194
224	0xbda1e211	-0.07904447
225	0x3d94572f	0.072431915
226	0xbd80a121	-0.06280733
227	0x3c8e9471	0.017404767
228	0xbdd1ec50	-0.10250151
229	0xbd9f17f5	-0.07768241
230	0xbaf0c617	-0.0018369582
231	0xbc827c90	-0.015928537
232	0x3ba43a70	0.005011849
233	0xbd554c27	-0.052074578
234	0x3d854e58	0.065090835
235	0x3d7b20cd	0.06131058
236	0xbd3c66b6	-0.04599639
237	0x3cfce749	0.030872004
238	0x3cb53973	0.02212212
239	0x3d270b5d	0.04078232
240	0x3d662c98	0.05619487
241	0x3cd4d5fc	0.025980942
242	0x3c81fc52	0.015867386
243	0xbbcd66f8	-0.0062683783
244	0x3d28aa53	0.04117806
245	0xbd1dbd0d	-0.03851037
246	0xbc658318	-0.014008306
247	0xbd039d46	-0.03213241
248	0xbdaba8d2	-0.08381809
249	0xba9c4925	-0.0011923654
250	0xbcc48ac0	-0.023991942
251	0x3b631e03	0.003465534
252	0xbd8a69f2	-0.06758489
253	0x3c30de7d	0.010795233
254	0x3d3c2b6f	0.04593986
255	0x3cf6a97d	0.030110115

fc2_mean.bias f4 [16]
0	0xbc8c8226	-0.017151903
1	0xbd837780	-0.06419277
2	0x3d4bb00f	0.04972845
3	0x3d56ad22	0.052411206
4	0xba43329f	-0.0007446203
5	0xbc13e79b	-0.009027387
6	0x3d422159	0.047395084
7	0xbd6cbdc8	-0.057798177
8	0xbcb815fc	-0.02247142
9	0xbdb61b47	-0.088919215
10	0x3d94a280	0.07257557
11	0xbc352c5d	-0.01105794
12	0x3db7483f	0.08949327
13	0xbd48de97	-0.049040403
14	0x3d2a8727	0.041632798
15	0x3ab929bd	0.0014126819

fc2_logvar.weight f4 [16, 64]
0	0x3d9ef2e8	0.077611744
1	0x3c5ae415	0.013360043
2	0xbcf91ed2	-0.030410204
3	0xbd1eb21c	-0.038744077
4	0x3b89d2e4	0.0042060483
5	0x3ce420c0	0.027847648
6	0x3c2d4e8f	0.010577812
7	0xbdf061bc	-0.11737391
8	0xbd25ce06	-0.040479682
9	0xbd8fb726	-0.07017355
10	0x3d11b1d1	0.03556997
11	0x3bd05160	0.006357357
12	0x3c965128	0.018349245
13	0x3df31ac0	0.118703365
14	0x3d2b4e22	0.04182256
15	0xbcc252ed	-0.023721183
16	0x3d91f894	0.07127491
17	0x3cf53fed	0.029937709
18	0xbbc80ad5	-0.006104807
19	0x3dac52ac	0.08414206
20	0xbd8b2815	-0.067947544
21	0x3d0119a2	0.031518586
22	0xbc7454f0	-0.014912829
23	0xbcaada7c	-0.020856135
24	0x3b9341ef	0.004493944
25	0x3d861980	0.065478325
26	0x3dfea4b7	0.124337606
27	0x3d56456f	0.05231231
28	0x3bcf4884	0.006325783
29	0xbc2e541a	-0.010640169
30	0x3d7a1cc8	0.061062604
31	0xbd520862	-0.051277526
32	0xbdc3bb91	-0.0955726
33	0xbd361d49	-0.044461522
34	0x3d9988ee	0.074968204
35	0xbd8fa31a	-0.07013531
36	0x3d500304	0.050784126
37	0x3c2ba0bd	0.010475335
38	0x3d361778	0.044455975
39	0xbd9059c6	-0.07048373
40	0x3ce2ad95	0.027670661
41	0xbd9423da	-0.07233401
42	0x3da4050a	0.080087736
43	0x3cf84475	0.03030608
44	0x3ca16d93	0.01970557
45	0x3d01e21e	0.031709783
46	0x3da8c91d	0.08241484
47	0xbdbca454	-0.092110306
48	0xbdda19d0	-0.106494546
49	0x3d92f5c0	0.07175779
50	0xbd2ea7a3	-0.04264034
51	0xbb90c698	-0.0044182055
52	0x3b28006d	0.002563502
53	0x3d928632	0.07154502
54	0x3cc072e6	0.023492288
55	0x3da722df	0.08160948
56	0x3d3bd5fa	0.04585836
57	0x3d91dcdf	0.07122206
58	0xbc0e7317	-0.008694432
59	0x3e00d524	0.12581307
60	0x3de401f0	0.11133182
61	0xbc819b5a	-0.015821148
62	0xbd86c417	-0.0658037
63	0x3ba81f64	0.005130695
64	0xbc857fb9	-0.016296254
65	0x3d543e0a	0.051816978
66	0xbcc42713	-0.023944413
67	0x3d95ea4c	0.07320079
68	0xbd0e2654	-0.03470452
69	0xbbcdab14	-0.0062764976
70	0xbd232830	-0.039833248
71	0x3bc3681c	0.0059633385
72	0xbd53e6f8	-0.05173394
73	0x3b042d0a	0.0020168447
74	0x3d185a86	0.037195705
75	0x3d8cf17e	0.068819985
76	0x3db289b2	0.087176695
77	0xbdb96e78	-0.09054273
78	0x3bb6218e	0.0055581992
79	0x3d5c3826	0.053764485
80	0xbdafda3a	-0.08586545
81	0x3ba46d66	0.005017924
82	0xbcbc7770	-0.023006171
83	0xbcdacb12	-0.02670816
84	0x3d4c2537	0.04984018
85	0xbb81d1b9	-0.0039617685
86	0xbd406fe4	-0.046981707
87	0xbd9be734	-0.07612458
88	0xbd1d204f	-0.03836089
89	0xbd37e78f	-0.044898566
90	0x3d41ed78	0.04734561
91	0xbb8fd531	-0.004389428
92	0x3d39c6c5	0.045355577
93	0xbc5aef2b	-0.013362686
94	0x3bcd41b2	0.006263935
95	0x3d62dcf0	0.055386484
96	0x3ac20bbe	0.0014804525
97	0x3d127ca1	0.035763387
98	0xbdcb7658	-0.09934682
99	0xbb4b604f	-0.0031032746
100	0x3d1b7b90	0.037959635
101	0xbda7a994	-0.08186641
102	0x3c79eab9	0.015253716
103	0x3d814d0c	0.06313524
104	0x3db24b20	0.08705735
105	0xbd38914d	-0.045060445
106	0x3dcf2755	0.10114924
107	0x3c9c8432	0.019106004
108	0x3c06118f	0.008182897
109	0xba1f330a	-0.0006072974
110	0x3af9b7ac	0.0019051931
111	0x3bdc7087	0.0067272815
112	0x3d666b38	0.056254596
113	0x3c848063	0.0161745
114	0xbdbbb4d2	-0.09165348
115	0x3bb9c74e	0.005669511
116	0x3d366b77	0.04453608
117	0xbc1e652f	-0.009667679
118	0xbd5eab42	-0.054362543
119	0xbd5248c8	-0.05133894
120	0x3c89632a	0.016770918
121	0x3ced5404	0.028970726
122	0xbd8f9620	-0.07011056
123	0xbd652c80	-0.05595064
124	0xbc6d6720	-0.014489919
125	0x3ce7b901	0.028286459
126	0x3cad641b	0.021165898
127	0x3d8808d3	0.06642308
128	0xbe19bc05	-0.1501313
129	0x3d7c1ec4	0.061552778
130	0xbe5ce98a	-0.21573463
131	0xbbf064ea	-0.0073362486
132	0xbdb0fce2	-0.086419836
133	0xbd148403	-0.03625871
134	0x3dba2bed	0.090904094
135	0x3e0a576a	0.13509908
136	0x3dc29966	0.09501915
137	0xbdde105a	-0.108429626
138	0xbcc06120	-0.023483813
139	0xbd49beb4	-0.049254134
140	0x3b220dc0	0.0024727434
141	0xbc2c64c0	-0.010522068
142	0x3d018f31	0.0316307
143	0xbd908858	-0.070572555
144	0xbd068948	-0.032845765
145	0xbd11c881	-0.035591606
146	0xbc2b604b	-0.01045997
147	0xbd7e41e9	-0.062074576
148	0x3bff048d	0.007782525
149	0xbcd737b3	-0.026271677
150	0x3cc90686	0.024539243
151	0xbd712bac	-0.05887954
152	0x3dc6d518	0.09708613
153	0x3cefb6f3	0.029262042
154	0xbbf28e4f	-0.0074022184
155	0x3c0edcf3	0.008719671
156	0xbd91dba1	-0.07121969
157	0x3cc3c981	0.023899795
158	0x3d896e37	0.06710475
159	0xbdc8a0a1	-0.097962625
160	0x3d871a62	0.06596829
161	0xbdaab32e	-0.08334957
162	0x3d1913e5	0.03737249
163	0xbbfb2d83	-0.0076653375
164	0x3bda13a0	0.0066551715
165	0xbdd573b0	-0.10422456
166	0x3b8ec6a0	0.004357174
167	0x3d79c3a4	0.060977593
168	0xbbd02912	-0.006352552
169	0xbd9b2a1f	-0.07576393
170	0x3dbfb254	0.09360185
171	0xbded9ef4	-0.116025835
172	0xbbbe735a	-0.005812091
173	0xbdc60abc	-0.09670016
174	0xbd0c5464	-0.03426017
175	0x3d59b7e3	0.053153884
176	0x3db2406e	0.08703695
177	0x3d96525c	0.073399276
178	0xbd32a8a4	-0.04361786
179	0x3d07ad49	0.033124242
180	0xbcac2fd9	-0.02101891
181	0x3d1907b4	0.037360862
182	0xbbc9a81c	-0.0061540734
183	0xbcb3fa14	-0.021969832
184	0x3cf70180	0.030152082
185	0x3d4884d0	0.048954785
186	0x3c544401	0.0129556665
187	0x3dc27196	0.09494321
188	0xbd441858	-0.04787478
189	0x3c0cb6ee	0.008588536
190	0xbdcf1a9b	-0.101124965
191	0x3bbac63c	0.005699901
192	0xbd435375	-0.047687013
193	0x3e0726c6	0.13198385
194	0x3d03a19f	0.032136556
195	0xbc247df9	-0.0100398
196	0x3db74af8	0.08949846
197	0x3cc9fe20	0.024657309
198	0x3d88c8cf	0.06678926
199	0x3c1332c0	0.008984268
200	0xbc18ba1b	-0.009321715
201	0x3e1969fb	0.14981835
202	0xbcf0585e	-0.029339012
203	0xbdf90354	-0.12158838
204	0x3ba9eae0	0.00518547
205	0xbdd26294	-0.102727085
206	0x3d14e4f6	0.036351167
207	0xbd9598ad	-0.07304511
208	0xbd35fa08	-0.0444279
209	0x3d5c0fe2	0.053726085
210	0x3cc7eacd	0.024403954
211	0x3dbb8293	0.091557644
212	0xbd93d30d	-0.07217989
213	0x3d94f813	0.07273879
214	0xbd80398f	-0.062609784
215	0x3cea9161	0.028633775
216	0x3df584d5	0.11988226
217	0x3d16d4a6	0.03682389
218	0xbd99a9e0	-0.07503104
219	0x3d04bd08	0.032406837
220	0x3d252b31	0.040324394
221	0x3dc7d623	0.0975764
222	0x3e624299	0.22095717
223	0xbd634055	-0.055481274
224	0x3bacc79c	0.0052728187
225	0x3c481d43	0.012214008
226	0xbc972538	-0.018450364
227	0xbd5ddc77	-0.05416533
228	0xbce944e8	-0.02847524
229	0xbaf83ed0	-0.0018939618
230	0xbc31d961	-0.01085505
231	0x3d3a8744	0.045539156
232	0x3d716860	0.05893743
233	0xbd0a34b1	-0.033741657
234	0xbcf2ac46	-0.029623162
235	0xbc34b549	-0.01102955
236	0x3d69c27d	0.057070244
237	0xbd828ccc	-0.06374511
238	0xbd9a70bf	-0.07541036
239	0x3d01ad8a	0.03165964
240	0xbd48dc24	-0.049038067
241	0x3d1fc7e4	0.03900899
242	0xbdca1c71	-0.09868706
243	0x3be3b5bc	0.0069491547
244	0x3be0a5f5	0.006855721
245	0xbd61ad8b	-0.055097144
246	0x3cd6d890	0.026226312
247	0x3d953d7f	0.0728712
248	0xbd66ff83	-0.05639602
249	0x3d07b87a	0.033134915
250	0x3cfa6537	0.030565841
251	0x3c6e5255	0.014545997
252	0xbd91ad38	-0.07113117
253	0xbd0c5447	-0.03426006
254	0x3deddcb0	0.116143584
255	0xbd046737	-0.032324996

fc2_logvar.bias f4 [16]
0	0xbd31b0ec	-0.043381616
1	0xbcdb94d8	-0.026804373
2	0x3d85f8cb	0.06541594
3	0xbd90ca32	-0.07069816
4	0xbdb013d9	-0.08597536
5	0x3d9d515e	0.07681535
6	0xbd9c1fe8	-0.07623273
7	0x3c9b2c40	0.018941998
8	0x3d4b645c	0.049656257
9	0xbbcc9d10	-0.0062443092
10	0xbd801f99	-0.06256027
11	0xbc93a23e	-0.018021699
12	0xbd7e1c17	-0.062038507
13	0xbc2be32f	-0.0104911765
14	0xbd2f507b	-0.04280136
15	0xbd21e74e	-0.03952723

fc3.weight f4 [64, 16]
0	0xbc65d314	-0.014027376
1	0x3e2f9738	0.17147529
2	0xbe24ad65	-0.1608177
3	0xbe4cd502	-0.20003131
4	0xbdb40c4c	-0.08791408
5	0xbd8f98ad	-0.070115425
6	0xbd40f4e9	-0.047108565
7	0x3e0ae0aa	0.13562265
8	0xbda30be3	-0.079612516
9	0x3e4b6f40	0.19866657
10	0x3d10b948	0.035332948
11	0x3cd00afb	0.02539586
12	0x3e4b6ce0	0.19865751
13	0x3d9d8832	0.07691993
14	0x3d804f4d	0.062651254
15	0xbde6dd78	-0.112727106
16	0x3e23b359	0.15986384
17	0x3d986e53	0.07442918
18	0x3dcee15b	0.10101577
19	0xbe45c2c2	-0.19312575
20	0x3e0cae3b	0.13738339
21	0x3df107ce	0.11769067
22	0x3e0e4bb2	0.13896063
23	0x3d2691db	0.040666442
24	0xbd95f2b1	-0.0732168
25	0xbd8d3dc6	-0.06896548
26	0x3df8db8b	0.121512495
27	0x3e264579	0.16237439
28	0xbbc789b8	-0.0060894154
29	0x3ddf30c3	0.108979724
30	0xbe502894	-0.2032798
31	0xbd30849b	-0.043095212
32	0xbe734ab7	-0.2375897
33	0x3e30cd1f	0.17265747
34	0x3e2fb41d	0.17158552
35	0x3d648513	0.055790972
36	0x3d423d86	0.047421955
37	0x3de64388	0.11243349
38	0xbe388c3f	-0.1802225
39	0x3dbfe7ca	0.09370382
40	0xbe2ace8d	-0.16680355
41	0x3d147c65	0.036251444
42	0x3c1e70ed	0.009670478
43	0xbcc6120b	-0.024178525
44	0x3e37dd9e	0.17955634
45	0xbe69d98e	-0.22836897
46	0x3d8d73b9	0.06906838
47	0x3dd58279	0.10425276
48	0x3d97eaa4	0.07417801
49	0x3e2cc024	0.16870171
50	0xbcb89959	-0.02253406
51	0x3dd78ab6	0.10524504
52	0x3e1d7b79	0.15379132
53	0xbd254bbe	-0.040355437
54	0x3d46acbe	0.048504584
55	0xbddbd8d5	-0.10734717
56	0xbe8bb00a	-0.27282745
57	0x3dc01959	0.09379835
58	0xbdc8dbea	-0.0980757
59	0x3c3f113c	0.011661824
60	0x3df4e3d0	0.11957514
61	0x3e1c6530	0.15272975
62	0xbd807a13	-0.06273284
63	0x3e6c961f	0.23104142
64	0xbe2d31dc	-0.16913551
65	0x3e58c45d	0.21168657
66	0xbe03753e	-0.12837693
67	0xbe545aeb	-0.20737807
68	0xbe21673f	-0.15762042
69	0x3e77b4d7	0.24190079
70	0x3bff2808	0.0077867545
71	0xbe0e5b01	-0.13901903
72	0xbc44343e	-0.011975346
73	0xbca0d435	-0.019632438
74	0xbe2bcdd8	-0.16777742
75	0xbca1940f	-0.01972392
76	0x3d0fac6d	0.035076547
77	0x3e26f466	0.16304168
78	0x3d8a1814	0.06742874
79	0xbdb89c87	-0.0901423
80	0xbd189ba9	-0.037257824
81	0xbe109506	-0.14119348
82	0xbdf55177	-0.11978429
83	0x3dd09b96	0.10185926
84	0x3e32c1bb	0.17456715
85	0xbdbd21e6	-0.09234981
86	0x3c964ef6	0.018348198
87	0xbc299dd5	-0.0103525715
88	0x3d9277c0	0.07151747
89	0xbe2244f5	-0.15846618
90	0xbe20e71b	-0.1571316
91	0x3d4c36ce	0.049856953
92	0x3e680a05	0.22660072
93	0x3ce426c5	0.027850518
94	0xbdf38120	-0.11889863
95	0x3dcbe156	0.09955089
96	0x3d2a9779	0.04164836
97	0xbe6fe7bf	-0.23428248
98	0x3e2f662b	0.17128818
99	0x3d99a97a	0.07503028
100	0xbd6fa40b	-0.058506053
101	0x3e22e4a3	0.1590753
102	0x3e5b523a	0.21418086
103	0xbd818c2d	-0.063255645
104	0xbd9494bb	-0.072549306
105	0x3e231dc6	0.15929326
106	0x3dd749c4	0.105121166
107	0x3e3e5b75	0.18589576
108	0x3de355a0	0.11100316
109	0x3e3267a1	0.17422344
110	0xbcc98523	-0.024599617
111	0xbe29f78b	-0.16598336
112	0xbd37e928	-0.04490009
113	0xbde62ab6	-0.11238615
114	0x3d75cd94	0.060010508
115	0xbe2ab7e0	-0.16671705
116	0xbde0b79b	-0.1097252
117	0xbe35da3f	-0.17759036
118	0x3e25cd56	0.1619161
119	0x3e123415	0.1427768
120	0x3d5705ac	0.052495643
121	0xbde26d74	-0.11056033
122	0xbd7bcc86	-0.061474346
123	0x3e5aad9e	0.21355292
124	0x3e114a01	0.14188386
125	0x3e1ebde5	0.15502127
126	0x3d019ec6	0.03164556
127	0xbd36542d	-0.04451387
128	0xbe2db85e	-0.16964862
129	0xbc79a264	-0.015236471
130	0xbcb9a989	-0.022663848
131	0x3e0a9424	0.13533074
132	0x3db720cf	0.089418046
133	0x3a9db41b	0.0012031825
134	0xbdf1ccd2	-0.118066445
135	0xbe65fecc	-0.22460479
136	0x3d3b61b7	0.045747485
137	0xbd9a467a	-0.075329736
138	0xbdca35a6	-0.09873514
139	0xbdc3dc52	-0.09563507
140	0x3df3efba	0.119109586
141	0xbcc92e6a	-0.024558265
142	0xbdf107bd	-0.11769054
143	0xba823168	-0.0009932937
144	0xbd466f6a	-0.048446096
145	0xbd8f7d65	-0.07006339
146	0xbd24e2f0	-0.040255487
147	0xb9ff49a6	-0.00048692262
148	0xbd56d8d0	-0.052452862
149	0x3caeb085	0.021324405
150	0x3d97a5c0	0.07404661
151	0xbdd37d95	-0.10326687
152	0xbe35bf86	-0.17748842
153	0x3d512a17	0.05106553
154	0xbc57c1f5	-0.013168802
155	0x3e388645	0.1801997
156	0xba3ec173	-0.0007276751
157	0x3d3d3d0d	0.0462008
158	0x3dc2ddd8	0.095149696
159	0x3ace42c5	0.0015736452
160	0x3dadbf04	0.08483699
161	0x3e27a761	0.16372444
162	0x3df5b52e	0.11997448
163	0xbd9fb872	-0.07798852
164	0xbcbd5a17	-0.023114247
165	0x3dd9bedc	0.10632107
166	0x3e7ec92c	0.24881428
167	0xbcfb7f29	-0.030700283
168	0xbdaefe12	-0.08544554
169	0x3e61d976	0.22055611
170	0x3d780b02	0.060557373
171	0x3e7bbe78	0.24584377
172	0xbe2505fd	-0.16115566
173	0xbe2df7bb	-0.16989033
174	0xbdde73e6	-0.108619496
175	0x3daa246e	0.0830773
176	0x3c05e680	0.008172631
177	0x3dbb30fe	0.09140204
178	0xbdedd97e	-0.11613749
179	0xbe42ac2f	-0.19010995
180	0x3e6856ab	0.22689311
181	0xbda1b481	-0.078957565
182	0xbd70e984	-0.058816448
183	0xbe09c5e9	-0.13454403
184	0x3decef65	0.115690984
185	0xbd39cab2	-0.04535932
186	0xbe41fe2c	-0.18944615
187	0xbe203b77	-0.15647684
188	0xbdcff114	-0.10153404
189	0xbd8fd79a	-0.070235446
190	0xbda6143f	-0.081093304
191	0x3bffc93d	0.007805972
192	0xbdff7ee1	-0.12475372
193	0x3e0e414c	0.13892096
194	0x394c3bb6	0.000194772
195	0xbd8626c5	-0.065503635
196	0x3dde0dd9	0.10842485
197	0x3c29499a	0.010332489
198	0x3d9ce6f7	0.076612405
199	0xbde1125d	-0.10989831
200	0xbd8c78bd	-0.068589665
201	0x3dfbbb47	0.1229158
202	0x3d4131d1	0.04716665
203	0x3e27450a	0.1633493
204	0x3ca904e0	0.020632207
205	0xbdf002c4	-0.117192775
206	0xbc48b1ae	-0.012249393
207	0x3c5a8e69	0.013339617
208	0xbe135779	-0.14388837
209	0x3e0c259e	0.13686225
210	0x3e0c258f	0.13686202
211	0xbe1eb997	-0.15500484
212	0x3ca992a5	0.020699808
213	0xbe01f87b	-0.12692444
214	0x3dc5bd2f	0.096552245
215	0xbdebf38d	-0.11521063
216	0xbd9cf7a2	-0.0766442
217	0x3e01c0c8	0.12671196
218	0x3da50082	0.080567375
219	0xbdc4bc34	-0.096062094
220	0x3e19087c	0.14944643
221	0xbc8a975b	-0.016917875
222	0xbe01263d	-0.12612243
223	0xbdbd7980	-0.0925169
224	0x3e19c3b6	0.15016064
225	0xbe2026ce	-0.15639803
226	0x3d26bca2	0.040707238
227	0x3e2bf5c0	0.16792965
228	0xbe437038	-0.19085777
229	0xbe34a4e3	-0.17641024
230	0xbdbaec97	-0.09127157
231	0xbd8da10f	-0.06915485
232	0xbd69be11	-0.057066027
233	0xbc8c89a7	-0.017155482
234	0x3d94c520	0.07264161
235	0xbe64fd3e	-0.22362229
236	0xbe2e8d17	-0.17046009
237	0x3d94cf2e	0.07266079
238	0x3dead4ba	0.114663556
239	0x3e1ca02f	0.1529548
240	0xbd0f67d5	-0.03501113
241	0x3d75ec6a	0.060039915
242	0x3e1bfa28	0.15232146
243	0x3e1f6be9	0.15568508
244	0x3e04e74a	0.12978855
245	0x3d7fa2f4	0.062411264
246	0x3cced3aa	0.025247414
247	0xbdf95a3d	-0.12175415
248	0xbd673bed	-0.056453634
249	0xbe2b37e6	-0.16720542
250	0xbc661823	-0.014043841
251	0x3dffbbee	0.124870166
252	0x3d59076b	0.05298559
253	0xbdc52d03	-0.09627726
254	0xbde2a6f6	-0.110670015
255	0x3cea6bac	0.028615795

fc3.bias f4 [64]
0	0xbe80e85d	-0.2517728
1	0x3e05beb4	0.13061029
2	0x3eb6c808	0.35699487
3	0x3e153434	0.14570695
4	0x3d409363	0.04701556
5	0xbe53a554	-0.20668536
6	0x3ebe61d0	0.37184
7	0x3e42ae17	0.19011723
8	0x3ebd7f0f	0.37011
9	0x3ebc7580	0.36808395
10	0xbd14c626	-0.03632178
11	0xbe840012	-0.25781304
12	0xbe9a1ba3	-0.3009921
13	0xbd0d7d15	-0.034543116
14	0x3e1942f5	0.14966948
15	0x3e9d431d	0.30715266
16	0xbe4868b2	-0.19571188
17	0xbd1bebfb	-0.038066845
18	0xbe816750	-0.25274134
19	0xbe835429	-0.25650147
20	0x3e0b9574	0.1363123
21	0x3e17cc11	0.14823939
22	0x3ec68da6	0.38779944
23	0x3eafdd29	0.3434842
24	0x3e2de470	0.16981673
25	0x3ebe19ca	0.3712905
26	0x3d1c5d1a	0.038174726
27	0xbcc228ad	-0.023701036
28	0xbe9b082a	-0.30279666
29	0xbdbfd462	-0.09366681
30	0x3ed0281e	0.40655607
31	0x3e5fe941	0.21866323
32	0xbe1175ac	-0.14205045
33	0x3e00e702	0.12588122
34	0xbb9b75ba	-0.0047442587
35	0xbe802796	-0.25030202
36	0xbe1c62c4	-0.15272051
37	0x3ec9fa18	0.3944862
38	0xbdf0ba9f	-0.11754345
39	0xbe914a32	-0.2837692
40	0xbcd6abc5	-0.026204953
41	0x3e97f78e	0.29681057
42	0x3e9213cd	0.28530732
43	0x3e91f664	0.28508294
44	0x3e0f8bd5	0.14018185
45	0xbdc0591e	-0.09391998
46	0xbe208a33	-0.15677719
47	0xbe02c72a	-0.12771288
48	0x3d0085fc	0.031377777
49	0xbd587ef6	-0.052855454
50	0x3e54c7d4	0.20779353
51	0xbe03b207	-0.12860881
52	0xbd0eaa77	-0.034830537
53	0x3dff46f7	0.12464707
54	0xbd76a5db	-0.060216766
55	0xbdb065b6	-0.0861315
56	0xbe2a73dd	-0.16645761
57	0xbe98a232	-0.29811245
58	0xbdb001fe	-0.0859413
59	0x3edc6d9f	0.43052384
60	0x3dad4fb6	0.08462469
61	0xbd8fc720	-0.07020402
62	0x3bd61b7d	0.0065340386
63	0xbe5638e7	-0.20920144

fc4.weight f4 [11, 64]
0	0x3d89c5d7	0.06727188
1	0xbce13fa2	-0.027496163
2	0xbd4e8ef7	-0.05042931
3	0x3c40f910	0.011778131
4	0x3cb1434f	0.02163854
5	0xbd6dc687	-0.05805066
6	0x3d0b753e	0.034047358
7	0x3aa1a407	0.0012332209
8	0x3d827504	0.06369975
9	0xbcb7c05c	-0.022430591
10	0xbca3c99c	-0.019993596
11	0x3cf81741	0.030284526
12	0x3d4fd8e1	0.05074394
13	0x3cecf613	0.028925931
14	0x3ab48874	0.0013773576
15	0x3c895b1c	0.016767077
16	0xbd1f75a2	-0.038930543
17	0xbbb6a62d	-0.005574009
18	0xbd65f4d7	-0.0561417
19	0xb923016c	-0.00015545421
20	0x3c5b72bd	0.013394055
21	0x3d123fd6	0.03570541
22	0xbcf2a10b	-0.029617807
23	0xbcd6f37f	-0.026239155
24	0x3c4ffe46	0.012694901
25	0xbd5784f5	-0.052617032
26	0xbae823b4	-0.0017710836
27	0xbcdb70b3	-0.026787138
28	0xbc0d462f	-0.00862269
29	0x3d876027	0.066101365
30	0x394b70e1	0.0001940164
31	0x3d40b55b	0.047047954
32	0xbcdcb32b	-0.026940903
33	0xbcdc3b74	-0.026883818
34	0xbd8b8d91	-0.06814111
35	0x3d2c6d74	0.04209657
36	0x3c3b8164	0.011444423
37	0xba4c01b7	-0.0007782238
38	0xbce4b0b0	-0.027916282
39	0x3ce06d50	0.027395874
40	0xbcae2097	-0.021255774
41	0xbd17731b	-0.036975008
42	0x3b0c199d	0.0021377571
43	0xbcf50cd5	-0.029913345
44	0xbd596bd1	-0.053081337
45	0x3c482657	0.012216172
46	0x3d7b5973	0.061364602
47	0xbd2bb486	-0.041920207
48	0x3d02cb24	0.03193201
49	0x3c99e526	0.018786024
50	0xbc79576a	-0.015218595
51	0x3c8301ff	0.015992163
52	0x3d3b816d	0.045777727
53	0x3d7824ca	0.06058196
54	0xbc4f49e3	-0.012651893
55	0xbd3aa11e	-0.04556381
56	0xbc17eb10	-0.009272352
57	0xbd90a7e8	-0.070632756
58	0xbc3c0236	-0.0114751365
59	0xbce1c9bf	-0.02756202
60	0xbbbcd7b9	-0.005763021
61	0x3a3e17de	0.00072514813
62	0x3c953e47	0.018218173
63	0x3cf48b7d	0.02985167
64	0x3bd0b68c	0.0063694175
65	0x3c269581	0.01016748
66	0x3d9ca0f6	0.07647888
67	0xbcdaf18a	-0.026726503
68	0xbd2e585a	-0.042564727
69	0xbd063064	-0.032760993
70	0x3d2ac4f2	0.041691728
71	0x3d617e7f	0.055052277
72	0xbd5e2051	-0.054230038
73	0x3de8010f	0.11328327
74	0xbcb333b5	-0.021875242
75	0x3c5df008	0.013545997
76	0x3d92c5c1	0.07166625
77	0xbc042b71	-0.008066998
78	0xbbffca3b	-0.00780609
79	0xbcd04951	-0.025425585
80	0xbd8b34f4	-0.067972094
81	0xbc0b306a	-0.0084954295
82	0xbdea49ad	-0.11439834
83	0x3d6411a2	0.05568088
84	0x3da90d2c	0.082544655
85	0x3c7b1510	0.015324846
86	0x3cdcb05a	0.02693956
87	0x3d379b66	0.044825934
88	0xbbc7ac17	-0.0060935128
89	0x3c7262d3	0.014794069
90	0x3d0be067	0.034149554
91	0x3cd384b2	0.02582011
92	0xbd9c6a26	-0.07637434
93	0x3d34f35e	0.044177406
94	0x3d0b0756	0.033942543
95	0x3cf828f4	0.030292965
96	0x3d90fb31	0.07079161
97	0x3d979014	0.074005276
98	0x3db0f140	0.08639765
99	0x3d2e91c3	0.042619478
100	0xbdc636f1	-0.09678448
101	0x3c2411ea	0.010014037
102	0x3d4f17f1	0.05055994
103	0xbd6a0aae	-0.05713909
104	0x3c236077	0.0099717295
105	0x3d2f0d7b	0.042737465
106	0x3d5254fc	0.05135058
107	0x3dc9ff21	0.09863115
108	0xbc085ab0	-0.008322403
109	0x3cd8b4db	0.026453426
110	0xbd25c298	-0.040468782
111	0xbd3ca893	-0.046059202
112	0x3b949eb9	0.004535523
113	0xbb01d869	-0.0019812828
114	0xbd2045b9	-0.039128993
115	0xbc00f471	-0.007870779
116	0xbd298326	-0.04138484
117	0xbd802a6d	-0.06258092
118	0xbc56f3c1	-0.013119639
119	0x3b9b1c02	0.0047335634
120	0xbc97f8d6	-0.018551271
121	0xbcda8370	-0.026674002
122	0xbd4d3fbc	-0.05010961
123	0xbd0a74b8	-0.033802718
124	0x3d9ad6c5	0.07560495
125	0x3a832fb8	0.0010008728
126	0x3d70697b	0.058694344
127	0xbd652890	-0.055946887
128	0xbd018b01	-0.031626705
129	0x3cb42b4d	0.021993304
130	0xbd2d9c81	-0.042385582
131	0x3cbdd5b8	0.023173198
132	0xbd53b531	-0.05168647
133	0x3d64c4c4	0.055851713
134	0x3b3527a6	0.002764204
135	0x3c476e87	0.012172348
136	0x3d9a0722	0.07520892
137	0x3da68b77	0.081320696
138	0x3c90b2a8	0.017663315
139	0xbcf86794	-0.030322827
140	0x3db797f6	0.08964531
141	0xbd4d14f3	-0.050068807
142	0xbd5a7e78	-0.053343266
143	0xbd8eb8e0	-0.06968856
144	0xbb6a6e48	-0.00357713
145	0x3d17a1ef	0.037019666
146	0xbd0b2991	-0.033975188
147	0x3cd22106	0.025650512
148	0x3d39ff13	0.045409273
149	0xbce5e40b	-0.02806284
150	0xbce5092a	-0.027958471
151	0xbda58dcb	-0.080836855
152	0x3d96e818	0.07368487
153	0x3dbbd26a	0.09170993
154	0xbcacd46d	-0.021097386
155	0xbcef34de	-0.029200014
156	0xbd2bd96a	-0.04195539
157	0x3dbb3d60	0.09142566
158	0x3d77d838	0.060508937
159	0x3da8450b	0.08216294
160	0xbd1d2cd6	-0.038372837
161	0xbc397c79	-0.0113211805
162	0x3d4e08d6	0.050301395
163	0xbd77cea1	-0.06049979
164	0xbc3f2fdb	-0.0116691245
165	0x3d7be0b0	0.061493576
166	0x3cf84025	0.030304024
167	0xbd6b4509	-0.057438884
168	0xbc27d937	-0.010244659
169	0xbc94e7a1	-0.018176856
170	0x3db99f7e	0.09063624
171	0xbd41fc32	-0.047359653
172	0xbcb126ac	-0.021624885
173	0xbb5c0701	-0.003357351
174	0x3d814883	0.06312659
175	0xbb36132c	-0.0027782423
176	0xbd8dca9d	-0.06923411
177	0x3d4cced9	0.050001953
178	0xbaf23586	-0.0018479086
179	0x3d1a5fc7	0.037688997
180	0x3d92da89	0.071705885
181	0xbb242800	-0.0025048256
182	0x3cdc391e	0.026882704
183	0x3d1fbd3e	0.038998835
184	0xbdba2478	-0.09088987
185	0x3c8458a9	0.016155558
186	0x3d9b0041	0.07568408
187	0xbc3bdf86	-0.011466866
188	0x3c4ac6d6	0.012376508
189	0x3d486ca3	0.04893173
190	0x3d23f9f9	0.040033314
191	0x3d6164c3	0.055027734
192	0x3d6f42a6	0.05841317
193	0xbc5997bb	-0.013280804
194	0x3d07304f	0.033005055
195	0x3d8a6c7d	0.06758974
196	0xbd1e3513	-0.038624834
197	0xbcffb67b	-0.031214943
198	0x3d882441	0.0664754
199	0x3b3458c2	0.0027518724
200	0x3d8bd096	0.06826894
201	0xbc8bef44	-0.017081864
202	0x3ce6d600	0.028178215
203	0xbd0b536c	-0.034015104
204	0x3d8a0dc0	0.06740904
205	0xbd1e08f5	-0.03858276
206	0xbc8e7ddb	-0.017393997
207	0x3c9d4c7d	0.019201512
208	0x3c5c54dc	0.013447966
209	0xbcb3232a	-0.021867353
210	0xbd467006	-0.048446678
211	0xbdc68b42	-0.0969453
212	0xbcc8be5c	-0.024504833
213	0x3cab51df	0.020913063
214	0xbc9e674b	-0.019336363
215	0xbd0f1a88	-0.03493741
216	0x3d30a780	0.04312849
217	0x3d7e1fa7	0.062041905
218	0x3d9f4b2e	0.07778011
219	0xbc19d418	-0.009388946
220	0xbc9aa76a	-0.018878657
221	0xbd83f410	-0.064430356
222	0x3c40653a	0.011742884
223	0x3ca1d276	0.019753676
224	0xbc71a2ea	-0.014748314
225	0x3d295539	0.04134104
226	0xbcaa1950	-0.020764023
227	0x3d4471fd	0.04796027
228	0x3d853079	0.06503386
229	0x3d4f71d4	0.050645664
230	0x3c345c9f	0.011008411
231	0xbca5fa30	-0.0202609
232	0x3d23ef26	0.04002299
233	0x3cf133fc	0.029443733
234	0x3cc3581f	0.02384573
235	0xbc6e8177	-0.014557234
236	0x3c57ffd7	0.013183556
237	0x3d24dace	0.04024773
238	0xbd8527be	-0.06501721
239	0x3d56fedc	0.052489147
240	0x3c1e6363	0.00966725
241	0x3ccad3d0	0.024759203
242	0xbc16488f	-0.009172573
243	0x3dbeae74	0.09310618
244	0xbb7a59f9	-0.00382006
245	0x3c9f3e28	0.019438818
246	0xbd5c4797	-0.05377921
247	0xbbac9359	-0.0052665886
248	0xbd8a312b	-0.06747659
249	0xbdf2b7bb	-0.1185145
250	0x3cbb2587	0.022845043
251	0x3d81de70	0.06341255
252	0xbd3c277c	-0.045936093
253	0x3d64aeeb	0.055830877
254	0x3b34b936	0.0027576215
255	0xbd9fa3cf	-0.07794916

fc4.bias f4 [11]
0	0xbdaeb8a3	-0.085313104
1	0x3da2c71e	0.07948135
2	0x3cf69caa	0.030104
3	0x3d97bbb0	0.074088454
4	0xbe002e2d	-0.12517615
5	0xbb793518	-0.003802603
6	0xbe0c9e59	-0.1373228
7	0xbe1367a1	-0.14395
8	0xbdba1ed6	-0.09087913
9	0xbe063c95	-0.13109048
10	0xbdc1dea8	-0.094662964
