src/VAE/vae_models/user_5_vae.pth (torch, 22306 bytes, 10 tensors)

fc1.weight f4 [64, 11]
-0.13731511 0.008577867 0.11782556 0.05411141 -0.047238782 0.12693444 0.062025223 0.18953046
-0.13565496 -0.12005983 0.05517299 0.15098692 -0.107653275 0.360729 0.02880589 -0.09467206
-0.028266685 -0.10289491 0.105949596 -0.21690542 -0.20694228 0.196759 0.058342703 0.11820059
-0.016369848 -0.10610164 0.068234004 0.00097314373 -0.21458149 -0.120142825 -0.21640605 -0.3297558
-0.119393215 0.1916467 -0.21003945 -0.0880225 -0.19670731 0.17349453 0.009647759 -0.14058019
0.03880342 -0.17892309 0.06258505 0.19812664 0.033374134 0.27858326 -0.12958126 0.000565387
-0.14787142 -0.17507516 -0.14744239 0.18025857 0.03456206 0.17450882 -0.16616319 0.15045021
0.26029536 0.01562001 0.047935046 0.101438485 0.10811482 0.13767081 0.16912559 -0.10363799
-0.15530758 -0.08196743 -0.07169645 -0.26797596 -0.16805509 0.05183984 0.19475916 0.022211524
-0.12956382 -0.27958226 0.18213257 -0.12919676 -0.19158266 0.31239668 0.14641246 0.12522027
0.106123015 -0.10447085 -0.014498208 -0.15872853 0.0794456 0.039433632 0.18532975 0.09512225
-0.12837002 0.057609793 0.025799474 0.1015015 0.12124778 0.126952 0.0929885 -0.06964425
-0.06234274 0.20747946 0.21850933 0.06418 0.24390422 -0.0058338167 -0.06818213 0.018911041
0.16588408 0.014141873 -0.12569346 0.10937505 -0.10526171 0.08951111 0.095444284 0.20056714
-0.31486204 0.13365307 0.19252995 -0.12251125 0.10484923 -0.11586268 -0.1211891 -0.064688705
-0.1100287 -0.113669865 0.12505361 -0.12825288 -0.24713297 0.06728155 -0.03324993 -0.08927832
0.1978511 -0.067294516 0.1459068 0.21580829 0.26634434 0.005764463 0.096611 0.23696765
0.056756303 0.14104524 -0.15540731 0.24293524 0.2136019 -0.0651126 -0.05968269 -0.21831168
0.12645666 0.18799873 0.15093787 -0.09856284 -0.03822141 0.08266513 -0.19982255 -0.11123798
-0.2857163 0.048791375 -0.12655278 0.07045428 -0.17610808 0.2217898 -0.11626978 0.11706688
0.035797972 -0.17118226 -0.06836597 0.26755565 0.1569649 -0.04734203 -0.15371287 0.009434893
-0.031951457 0.1481525 0.14304069 -0.14833042 0.26115075 0.1448447 0.2534245 0.075068146
-0.029580195 -0.22971687 -0.18921044 0.11979672 -0.06511212 -0.22895706 0.009574983 0.24590133
0.19461405 0.1277435 -0.008421971 -0.14231087 0.07493241 0.33761787 -0.23350339 0.18454517
0.18007861 0.1432288 0.33743063 0.055068724 0.02890264 -0.21518895 0.1827217 0.27202308
0.15614593 -0.28676847 -0.10240363 0.22271329 0.21210805 0.18040542 -0.008051517 -0.05712367
0.12125571 -0.1733261 -0.016650729 0.19871369 0.12520893 0.085252255 -0.019171976 0.13429184
-0.14025296 -0.12981495 0.27545655 0.2577342 -0.19183783 0.08813191 0.1198653 -0.076236546
0.13843992 0.15575781 0.08490493 -0.14110664 0.104097836 0.25947815 -0.08463531 -0.02992222
0.12338997 -0.2659613 -0.07938878 -0.2622548 -0.061104063 0.0102201635 -0.1831025 0.13133523
-0.2822711 -0.21772088 0.17531614 0.028625503 -0.2624135 -0.0015802193 0.10090882 0.21004823
0.20052491 0.023278903 0.2088174 -0.018068776 -0.011626756 0.0890356 0.22857088 -0.22146533
00000000: 559c 0cbe 2f8a 0c3c 874e f13d eda3 5d3d
00000010: 747d 41bd 1afb 013e 290e 7e3d 4614 423e
00000020: 22e9 0abe eee1 f5bd 13fd 613d 519c 1a3e
00000030: 5279 dcbd 79b1 b83e 54fa eb3c 6de3 c1bd
00000040: 898f e7bc 91ba d2bd 1afc d83d 741c 5ebe
00000050: ade8 53be 317b 493e c2f8 6e3d 2713 f23d
00000060: 0f1a 86bc d14b d9bd 45be 8b3d 921a 7f3a
00000070: 40bb 5bbe 710d f6bd 8c99 5dbe c1d5 a8be
00000080: 6e84 f4bd 083f 443e 9514 57be 2445 b4bd
00000090: a46d 49be 8da8 313e a211 1e3c 41f4 0fbe
000000a0: 56f0 1e3d 9d37 37be 972c 803d b6e1 4a3e
000000b0: 51b3 083d 77a2 8e3e f3b0 04be 7b36 143a
000000c0: 9b6b 17be e746 33be 23fb 16be b495 383e
000000d0: f290 0d3d 71b2 323e af26 2abe 9f0f 1a3e
000000e0: 6f45 853e 12eb 7f3c 8a57 443d fbbe cf3d
000000f0: 4e6b dd3d 94f9 0c3e 422f 2d3e 2840 d4bd
00000100: f308 1fbe 8ade a7bd 97d5 92bd 2534 89be
00000110: a216 2cbe 0356 543d f26e 473e f1f4 b53c
00000120: 61ac 04be 6825 8fbe f680 3a3e 284c 04be
00000130: 3f2e 44be 75f2 9f3e 26ed 153e be39 003e
00000140: 0657 d93d d0f4 d5bd e489 6dbc bb89 22be
00000150: 60b4 a23d 2985 213d 15c7 3d3e 74cf c23d
00000160: 6e73 03be 3ff8 6b3d 6b59 d33c 05e0 cf3d
00000170: c250 f83d b5ff 013e c170 be3d a5a1 8ebd
00000180: 1a5b 7fbd 7f75 543e e9c0 5f3e ce70 833d
00000190: 07c2 793e 9a29 bfbb 13a3 8bbd 54eb 9a3c
000001a0: 84dd 293e 51b3 673c c9b5 00be 0700 e03d
000001b0: 7493 d7bd 9a51 b73d 4b78 c33d 7961 4d3e
000001c0: 9935 a1be 5adc 083e 9226 453e 2ee7 fabd
000001d0: 31bb d63d 6a49 edbd fe31 f8bd 837b 84bd
000001e0: ba56 e1bd bfcb e8bd 0e0e 003e b954 03be
000001f0: 6d10 7dbe e9ca 893d 1431 08bd 8dd7 b6bd
00000200: 7b99 4a3e b5d1 89bd 9868 153e d9fc 5c3e
00000210: 495e 883e d2e3 bc3b fddb c53d a6a7 723e
00000220: 4c79 683d 2a6e 103e 1823 1fbe 04c4 783e
00000230: 75ba 5a3e c159 85bd d675 74bd 198d 5fbe
00000240: db7d 013e bd82 403e 758f 1a3e 50db c9bd
00000250: 0e8e 1cbd 564c a93d 489e 4cbe bdd0 e3bd
00000260: 6849 92be 77d9 473d 0d97 01be 554a 903d
00000270: ad55 34be de1c 633e da1e eebd c3c0 ef3d
00000280: e5a0 123d 674a 2fbe 7503 8cbd 0efd 883e
00000290: 68bb 203e b7e9 41bd e866 1dbe cf94 1a3c
000002a0: 88df 02bd 4ab5 173e 4279 123e eee3 17be
000002b0: 8db5 853e 2b52 143e dbc0 813e 54bd 993d
000002c0: 2a52 f2bc e63a 6bbe 62c0 41be fc57 f53d
000002d0: 8159 85bd b873 6abe 64e0 1c3c 8fcd 7b3e
000002e0: e848 473e 31cf 023e 4ffc 09bc f1b9 11be
000002f0: 2a76 993d 40dc ac3e 831b 6fbe 69f9 3c3e
00000300: 8766 383e 92aa 123e b5c3 ac3e be8f 613d
00000310: 3bc5 ec3c 7e5a 5cbe 661b 3b3e 9c46 8b3e
00000320: b8e4 1f3e 51d3 92be ffb8 d1bd f40e 643e
00000330: da32 593e 33bc 383e 83ea 03bc 82fa 69bd
00000340: ea54 f83d 667c 31be 1c67 88bc 9a7b 4b3e
00000350: c536 003e bc98 ae3d 8c0e 9dbc cd83 093e
00000360: 799e 0fbe 36ee 04be a408 8d3e bdf5 833e
00000370: 2371 44be 817e b43d f07b f53d e821 9cbd
00000380: 32c3 0d3e fa7e 1f3e a3e2 ad3d 427e 10be
00000390: 3f31 d53d 52da 843e 4755 adbd 721f f5bc
000003a0: e1b3 fc3d 142c 88be 9696 a2bd 4346 86be
000003b0: 4148 7abd 7972 273c 397f 3bbe be7c 063e
000003c0: d685 90be 39f2 5ebe 1386 333e 0880 ea3c
000003d0: 105b 86be 5c1f cfba 49a9 ce3d e216 573e
000003e0: 6756 4d3e 66b3 be3c 3ad4 553e f804 94bc
000003f0: 267e 3ebc 4c58 b63d 7c0e 6a3e cfc7 62be

fc1.bias f4 [64]
0.13902147 0.29850447 0.11206523 -0.07860862 0.26848853 -0.13412896 -0.06432739 -0.053212382
0.24926509 0.038320683 -0.20395158 0.26914418 -0.13066287 -0.2634644 0.24848317 0.0013083451
-0.26469448 -0.0063155456 0.09703965 0.027997611 0.17947982 -0.17978601 0.17611219 0.2789632
0.061793778 -0.1396441 -0.25287667 0.098777436 -0.25694203 -0.10547215 0.16624583 0.229781
-0.20635037 -0.064952016 -0.20331466 0.29540145 0.27024132 -0.124499455 -0.0870272 0.2061471
-0.30031967 -0.16937993 0.27005887 -0.2264432 0.26325 0.016041858 -0.21720943 -0.30147174
0.023348387 0.1779334 0.06533854 0.008265477 -0.053100448 -0.13856788 -0.1161802 -0.22801894
0.2792577 -0.061065577 -0.1585185 -0.2627779 0.12844892 0.19347006 0.2593045 0.1105498
00000000: a55b 0e3e 94d5 983e 7582 e53d 8efd a0bd
00000010: 5477 893e 1a59 09be 14be 83bd 3af5 59bd
00000020: 593f 7f3e 26f6 1c3d afd8 50be 44cd 893e
00000030: 7dcc 05be cee4 86be 5f72 7e3e c77c ab3a
00000040: 0986 87be a3f2 cebb b9bc c63d 3f5b e53c
00000050: 8fc9 373e d319 38be c156 343e 44d4 8e3e
00000060: 791b 7d3d ddfe 0ebe 0d79 81be d34b ca3d
00000070: e88d 83be c801 d8bd 593c 2a3e b64b 6b3e
00000080: 834d 53be 9005 85bd b831 50be dc3e 973e
00000090: 125d 8a3e 92f9 febd 513b b2bd 3a18 533e
000000a0: 80c3 99be ef71 2dbe 2845 8a3e bae0 67be
000000b0: b4c8 863e 376a 833c 266c 5ebe 815a 9abe
000000c0: 1e45 bf3c 2c34 363e 36d0 853d ec6b 073c
000000d0: db7f 59bd bde4 0dbe e2ef edbd cc7d 69be
000000e0: defa 8e3e e61f 7abd ac52 22be d38a 86be
000000f0: 1d88 033e 041d 463e 8fc3 843e ef67 e23d

fc2_mean.weight f4 [16, 64]
0.10063379 -0.009895246 0.104499854 0.053822577 -0.08241044 -0.052078057 -0.06857997 0.029835012
0.0278067 -0.062997125 -0.10746099 0.010982583 -0.05782363 -0.0096761435 -0.008859573 0.03385477
-0.020762114 -0.09515706 0.07324838 -0.06552461 0.055260368 -0.06370196 -0.047377057 0.11297758
0.03126424 0.02328378 -0.06644926 -0.04519226 0.023845866 0.01695337 0.08429764 0.0036277699
-0.037239 0.020975646 -0.11255546 -0.0045706504 -0.06354992 -0.1157192 0.102874294 0.05560721
0.06399879 -0.035633 -0.058554698 0.07554774 0.09691376 -0.01986627 -0.052002754 0.0699072
0.06858006 -0.0029442678 0.08843683 0.03146843 0.12462913 -0.0072983857 7.026777e-05 0.055410624
0.03573047 -0.08799022 0.10758506 0.08405547 0.05371741 0.06843911 -0.003749388 0.132204
0.02944532 0.04168305 -0.051078632 -0.0089426 -0.015251563 0.007834574 -0.014119595 0.035870723
0.039032567 -0.07813838 -0.044676047 0.018014815 0.07878606 0.05717863 -0.08083267 -0.05516686
0.08255038 -0.047462747 0.12249016 -0.05918593 0.08074954 -0.12318234 -0.064624995 -0.003054043
0.0330237 0.04557636 0.030671034 0.0077143405 -0.03751489 -0.008318485 -0.0913336 0.04562738
-0.016429463 -0.009140967 0.09243305 0.009506568 0.028732833 0.059295326 0.028585985 -0.12060539
-0.05864604 -0.08122535 -0.0032717253 -0.08267531 0.032979637 -0.0025986591 0.0042462936 -0.012785457
-0.0523748 0.06065219 0.106720254 0.01152031 -0.003961407 0.0076059946 -0.114547685 -0.06713764
0.09278344 0.021580555 -0.061449945 -0.01250166 0.03168347 0.00010738198 -0.05436518 -0.0048482693
0.04000298 0.1489314 0.09084665 -0.025272172 0.14035735 -0.06638267 -0.015553683 -0.04912923
-0.040932875 0.07101438 -0.021549279 -0.008276615 0.025941 -0.07760729 -0.02419588 -0.03619067
-0.08352066 -0.056989074 0.0289822 0.10508695 0.0145087205 0.115906835 0.084268086 -0.082365036
0.071655236 -0.008232947 0.052684657 0.018555362 -0.06672526 0.022992654 -0.062378377 -0.058305226
0.03311135 -0.08834552 -0.09765197 -0.0927274 0.10552714 -0.078469485 -0.014788672 -0.08556104
-0.06799953 0.04644307 -0.040090736 -0.08618899 0.054796834 0.019912088 -0.104969405 -0.040404476
0.06756254 0.06805772 0.052144166 -0.026323466 -0.07398806 -0.09765845 0.0788953 -0.09005886
-0.081905045 0.014777299 0.06293978 -0.00812655 -0.067749895 0.013886921 0.076705 -0.011811303
0.05645423 -0.051099326 0.04168346 -0.11692902 0.07587055 0.008971576 -0.075105116 -0.061841104
0.060077775 0.05686516 0.083920896 -0.035822 -0.11090551 -0.079377845 -0.13643163 0.020763943
-0.13570337 -0.16141991 0.04893816 -0.022645656 0.077637084 0.10918443 0.060943544 -0.1520571
-0.08279545 -0.042337507 0.03918065 0.071006976 0.03125958 0.09340681 0.081313476 -0.09990875
0.07270877 0.07475423 0.09256412 -0.10737266 -0.040974375 -0.052447766 0.08314 -0.120359346
-0.12204151 -0.02085018 0.055990458 0.10929456 -0.01961983 -0.096140236 0.069684245 -0.035270892
0.07185279 0.017035818 0.015720451 0.008499096 -0.010625434 -0.0055526723 -0.018607266 0.02025205
-0.108444914 -0.09113255 -0.037285417 -0.00895075 0.07314245 0.08545356 0.060364094 0.06468583
00000000: 1719 ce3d ab1f 22bc 0504 d63d 1075 5c3d
00000010: cec6 a8bd cd4f 55bd a873 8cbd 8e68 f43c
00000020: e0ca e33c a304 81bd 8214 dcbd 4bf0 333c
00000030: 78d8 6cbd b088 1ebc be27 11bc 4dab 0a3d
00000040: 4f15 aabc b4e1 c2bd 3f03 963d c431 86bd
00000050: b258 623d 2c76 82bd 720e 42bd ca60 e73d
00000060: ef0e 003d a0bd be3c 8d16 88bd 851b 39bd
00000070: 6858 c33c cbe1 8a3c 3ea4 ac3d e1bf 6d3b
00000080: ec87 18bd 1ed5 ab3c 7a83 e6bd 65c5 95bb
00000090: 7626 82bd 30fe ecbd c2af d23d 63c4 633d
000000a0: cc11 833d e9f3 11bd 0dd7 6fbd c6b8 9a3d
000000b0: b97a c63d 96be a2bc d700 55bd 822b 8f3d
000000c0: b473 8c3d 9ef4 40bb 5e1e b53d 0ae5 003d
000000d0: 8f3d ff3d 4c27 efbb b95c 9338 40f6 623d
000000e0: 1d5a 123d 3734 b4bd 8e55 dc3d 4625 ac3d
000000f0: c906 5c3d ce29 8c3d 4bb8 75bb 7c60 073e
00000100: 5037 f13c d9bb 2a3d d437 51bd fc83 12bc
00000110: b1e1 79bc 965c 003c e055 67bc 2eed 123d
00000120: 9de0 1f3d 0407 a0bd 3bfe 36bd ce93 933c
00000130: 965a a13d 2434 6a3d 998b a5bd a5f6 61bd
00000140: 2c10 a93d 4c68 42bd 1fdc fa3d f26c 72bd
00000150: 0460 a53d 0647 fcbd 1c5a 84bd 5726 48bb
00000160: dc43 073d 47ae 3a3d d241 fb3c 94c8 fc3b
00000170: 37a9 19bd 414a 08bc 1c0d bbbd c7e3 3a3d
00000180: 1597 86bc ffc3 15bc 8a4d bd3d 70c1 1b3c
00000190: 1e61 eb3c a8df 723d 282d ea3c f5ff f6bd
000001a0: d436 70bd 7a59 a6bd 716a 56bb ac51 a9bd
000001b0: a815 073d 444e 2abb 7e24 8b3b 187a 51bc
000001c0: f586 56bd 6e6e 783d 2690 da3d afbf 3c3c
000001d0: b1ce 81bb b53b f93b fa97 eabd 767f 89bd
000001e0: 3f05 be3d b4c9 b03c f0b2 7bbd c3d3 4cbc
000001f0: 87c6 013d 4332 e138 06ae 5ebd 3bde 9ebb
00000200: 2ada 233d 7981 183e cf0d ba3d 9607 cfbc
00000210: d6b9 0f3e a3f3 87bd e0d4 7ebc bb3b 49bd
00000220: 3ba9 27bd fd6f 913d 1d88 b0bc a49a 07bc
00000230: 3882 d43c 92f0 9ebd 7036 c6bc ab3c 14bd
00000240: e10c abbd 606d 69bd 146c ed3c d437 d73d
00000250: fcb5 6d3c 9060 ed3d bf94 ac3d 00af a8bd
00000260: fbbf 923d 7ce3 06bc decb 573d 6a01 983c
00000270: 41a7 88bd 175b bc3c 7880 7fbd 76d1 6ebd
00000280: c49f 073d 7fee b4bd c2fd c7bd dde7 bdbd
00000290: 9d1e d83d 9cb4 a0bd 304c 72bc a03a afbd
000002a0: 5643 8bbd 173b 3e3d 2f36 24bd da83 b0bd
000002b0: a572 603d ad1e a33c 33fa d6bd 2a7f 25bd
000002c0: 3b5e 8a3d d961 8b3d 1f95 553d 4fa4 d7bc
000002d0: 0d87 97bd 2701 c8bd dc93 a13d c870 b8bd
000002e0: d5bd a7bd 7c1c 723c 92e6 803d 3925 05bc
000002f0: 75c0 8abd f885 633c 8317 9d3d 3284 41bc
00000300: 8d3c 673d 874d 51bd 47bc 2a3d 7b78 efbd
00000310: 0562 9b3d 84fd 123c b6d0 99bd 194d 7dbd
00000320: 1d14 763d 71eb 683d b8de ab3d 17ba 12bd
00000330: 6e22 e3bd da90 a2bd bcb4 0bbe 2519 aa3c
00000340: d3f5 0abe 434b 25be 6173 483d 6283 b9bc
00000350: 3100 9f3d 169c df3d f09f 793d dbb4 1bbe
00000360: a990 a9bd 186a 2dbd e47b 203d 1b6c 913d
00000370: 0c0a 003d 124c bf3d ae87 a63d f59c ccbd
00000380: 56e8 943d bf18 993d 4292 bd3d 32e6 dbbd
00000390: bfd4 27bd 78d3 56bd 4e45 aa3d f67e f6bd
000003a0: e6f0 f9bd ffcd aabc 4056 653d d4d5 df3d
000003b0: c4b9 a0bc 2ce5 c4bd 9db6 8e3d 3678 10bd
000003c0: 8e27 933d b38e 8b3c 2dc8 803c cb3f 0b3c
000003d0: 4d16 2ebc 31f3 b5bb 446e 98bc a1e7 a53c
000003e0: 5e18 debd b4a3 babd 98b8 18bd 2ba6 12bc
000003f0: b5cb 953d 4702 af3d 5740 773d 017a 843d

fc2_mean.bias f4 [16]
-0.08454127 -0.041073985 -0.07094951 0.07438954 0.048845895 -0.015020605 0.02338894 -0.09250804
0.09574823 -0.019416964 0.09426658 0.04943102 0.086109325 -0.09540432 0.044191137 0.044500336
00000000: f923 adbd 323d 28bd fa4d 91bd 8b59 983d
00000010: a212 483d fc18 76bc 2a9a bf3c db74 bdbd
00000020: a617 c43d 5310 9fbc d60e c13d 2e78 4a3d
00000030: 165a b03d 5763 c3bd c401 353d fc45 363d

fc2_logvar.weight f4 [16, 64]
-0.059227686 -0.10287884 -0.11980401 0.007858924 0.013658486 0.0028156878 -0.107444495 0.065010644
-0.011800852 -0.055810016 0.08457888 0.026405647 -0.053466234 0.10346195 -0.07124053 -0.047690324
0.022830494 0.07106365 0.09507931 0.024650253 0.02871079 0.04979752 -0.07868987 -0.08301931
-0.03465878 -0.008500928 0.055300094 -0.050292145 -0.015819952 0.0038143895 -0.0032875538 -0.018650863
-0.01894679 0.026477037 0.11774169 0.077543266 -0.021422146 -0.0927372 0.048327148 -0.058084443
-0.09089729 0.016656699 -0.0023479257 0.042786762 0.01709393 0.008811735 -0.12458181 0.07037589
0.034930643 0.019607197 -0.007568154 -0.036457293 -0.0063320627 0.040254176 0.03722844 -0.008710708
0.06519972 0.058941443 0.11452916 0.028292118 0.005708255 -0.009935934 -0.08918934 0.068742946
-0.13505363 0.012916285 -0.012353753 -0.023089029 -0.050772138 -0.033069544 0.004342228 -0.049122013
-0.028154258 -0.035440568 0.029816123 0.0073972563 0.08273717 0.040464103 0.028245784 -0.069758214
-0.019800624 -0.031695314 0.054015584 0.008764112 -0.07857224 0.09329353 0.024635052 0.022692814
0.120134965 0.024622465 0.05775096 -0.0056399247 -0.05600853 -0.02081715 0.015980825 0.022418858
0.021793185 -0.04979825 -0.01864326 -0.07645206 0.058979414 -0.074490696 0.0136898905 -0.05187795
-0.004124865 -0.08900831 -0.01976646 0.0090966225 -0.005703892 -0.027522286 -0.041728593 -0.064425215
-0.0014359298 0.08991363 -0.00982499 0.022476906 0.05199396 0.08721355 0.06553384 0.03297107
0.050713804 -0.0027594168 -0.012356222 -0.08773318 0.094393805 -0.081073485 -0.021697916 -0.073422424
0.0384925 -0.005946177 0.12001468 -0.018207928 0.013527559 0.011974713 0.10332057 0.026591865
-0.011194102 -0.03647887 -0.073828585 -0.035479512 0.03895843 0.08947882 -0.07025197 -0.08744949
0.042653643 -0.06904982 -0.05238859 -0.03885912 0.119863026 -0.11072241 0.085467264 0.06920517
0.007176238 0.014332234 0.007258797 0.05291964 -0.05579759 -0.070595816 -0.027968615 -0.007529231
0.052698046 0.0458478 -0.11472027 -0.05867906 -0.07474079 -0.07958095 -0.03228903 -0.007170937
0.10984963 0.0020347636 -0.059045933 0.08311418 -0.03455179 -0.03560708 -0.05475707 -0.033854775
-0.0105982935 0.13071299 -0.035309914 -0.030323377 0.055908054 -0.08748317 0.021324549 -0.09655152
0.06566102 -0.053213485 0.08460845 -0.055737194 0.037554942 0.01446078 0.03636513 0.0532735
-0.05161608 -0.00976237 0.022786936 0.01580712 0.009029029 0.0029388778 -0.015607148 0.018873775
0.010692161 -4.075944e-05 -0.08675757 0.012442025 0.028663497 -0.0011471361 0.004302636 0.046112258
-0.077228375 -0.05735239 -0.10379179 -0.041001115 0.07188887 0.08083549 0.012513695 0.092741676
0.0168581 0.013963845 0.024984853 0.009523024 -0.0336123 0.01603441 -0.09956026 -0.0001664279
-0.030709213 0.0071348073 -0.059363782 -0.059469104 -0.03800519 0.11705752 0.101284176 0.084646985
0.087853536 0.038247623 -0.04536593 -0.12216163 -0.025632272 0.011378979 -0.07667556 -0.04520028
0.016256299 -0.024032222 0.0012857744 -0.052011702 0.03367193 0.019299436 -0.047908135 0.12801722
0.02431377 0.032002836 -0.045763403 0.04373968 0.018387536 0.052657627 -0.07036607 -0.026573073
00000000: bb98 72bd 24b2 d2bd ce5b f5bd b7c2 003c
00000010: d8c7 5f3c 6787 383b dc0b dcbd 4d24 853d
00000020: 5c58 41bc 0b99 64bd b137 ad3d a850 d83c
00000030: 69ff 5abd dce3 d33d 8ee6 91bd ee56 43bd
00000040: 0407 bb3c d289 913d f1b8 c23d 54ef c93c
00000050: e432 eb3c 7cf8 4b3d 2828 a1bd 0706 aabd
00000060: 5df6 0dbd 7a47 0bbc 5a82 623d 23ff 4dbd
00000070: d898 81bc d6fa 793b 0074 57bb b2c9 98bc
00000080: 4c36 9bbc 5fe6 d83c 8e22 f13d 01cf 9e3d
00000090: 7f7d afbc 00ed bdbd b0f2 453d f4e9 6dbd
000000a0: 5c28 babd a173 883c a8df 19bb 2c41 2f3d
000000b0: 9208 8c3c 185f 103c bf24 ffbd 3c21 903d
000000c0: 6f13 0f3d 469f a03c 47fe f7bb 3e54 15bd
000000d0: 317d cfbb 90e1 243d d97c 183d 5bb7 0ebc
000000e0: 6e87 853d 956c 713d 448e ea3d dfc4 e73c
000000f0: 500c bb3b 54ca 22bc e7a8 b6bd 1ac9 8c3d
00000100: 804b 0abe d39e 533c 6567 4abc 3425 bdbc
00000110: 72f6 4fbd ee73 07bd 4049 8e3b 2a34 49bd
00000120: c2a3 e6bc 212a 11bd f140 f43c af64 f23b
00000130: 1b72 a93d b0bd 253d b463 e73c 65dd 8ebd
00000140: eb34 a2bc f2d2 01bd 723f 5d3d 5a97 0f3c
00000150: 7cea a0bd ae10 bf3d 73cf c93c 48e6 b93c
00000160: 5209 f63d 0db5 c93c 458c 6c3d 1ecf b8bb
00000170: 3369 65bd ba88 aabc 38ea 823c c1a7 b73c
00000180: 9f87 b23c 40f9 4bbd c0b9 98bc e692 9cbd
00000190: 6694 713d 948e 98bd 904b 603c f97d 54bd
000001a0: e029 87bb fd49 b6bd 45ed a1bc 000a 153c
000001b0: b7e7 babb 6b76 e1bc 9aeb 2abd 5ef1 83bd
000001c0: cf35 bcba a324 b83d fff8 20bc 7d21 b83c
000001d0: 9ef7 543d 059d b23d 9b36 863d ac0c 073d
000001e0: 47b9 4f3d 55d7 34bb c071 4abc 74ad b3bd
000001f0: 8a51 c13d db09 a6bd d4bf b1bc 7f5e 96bd
00000200: 50aa 1d3d 26d8 c2bb 42ca f53d cb28 95bc
00000210: b2a2 5d3c 9631 443c bc99 d33d 2fd7 d93c
00000220: 7767 37bc de6a 15bd 7133 97bd f752 11bd
00000230: e092 1f3d ac40 b73d 44e0 8fbd b818 b3bd
00000240: 96b5 2e3d fe69 8dbd 6b95 56bd be2a 1fbd
00000250: bf7a f53d 6ec2 e2bd 7609 af3d 71bb 8d3d
00000260: a626 eb3b bfd1 6a3c 34db ed3b 44c2 583d
00000270: 048c 64bd 8a94 90bd 701e e5bc c4b7 f6bb
00000280: e8d9 573d e7ca 3b3d 76f2 eabd 7459 70bd
00000290: b311 99bd 56fb a2bd 8041 04bd 2efa eabb
000002a0: d8f8 e03d ab59 053b 26da 71bd c437 aa3d
000002b0: 2e86 0dbd bbd8 11bd f348 60bd 4eab 0abd
000002c0: 77a4 2dbc a0d9 053e 21a1 10bd bb68 f8bc
000002d0: d8ff 643d 602a b3bd d2b0 ae3c cebc c5bd
000002e0: 4979 863d 62f6 59bd 3247 ad3d af4c 64bd
000002f0: 36d3 193d e8ec 6c3c 9af3 143d 5035 5a3d
00000300: 626b 53bd 59f2 1fbc abab ba3c ef7d 813c
00000310: 7eee 133c 309a 403b 20b5 7fbc 2d9d 9a3c
00000320: 2c2e 2f3c 1ef5 2ab8 f4ad b1bd a3d9 4b3c
00000330: b6cf ea3c 805b 96ba 20fd 8c3b 35e0 3c3d
00000340: e929 9ebd 57ea 6abd ca90 d4bd c9f0 27bd
00000350: 793a 933d 148d a53d 3e06 4d3c 59ef bd3d
00000360: 001a 8a3c 9cc8 643c 09ad cc3c 7506 1c3c
00000370: 0dad 09bd 985a 833c 40e6 cbbd 2683 2eb9
00000380: e391 fbbc 1acb e93b 7027 73bd e095 73bd
00000390: 55ab 1bbd dabb ef3d 146e cf3d 665b ad3d
000003a0: 8eec b33d 8aa9 1c3d a0d1 39bd e02f fabd
000003b0: c5fa d1bc e66e 3a3c 1308 9dbd ee23 39bd
000003c0: ee2b 853c 39df c4bc 6e87 a83a 390a 55bd
000003d0: 94eb 093d da19 9e3c 523b 44bd f216 033e
000003e0: ac2d c73c 6815 033d 6872 3bbd 6128 333d
000003f0: 75a1 963c 86af 573d 161c 90bd c6af d9bc

fc2_logvar.bias f4 [16]
0.06589475 0.024697293 -0.02660681 0.027643373 -0.013212846 -0.039253246 -0.0085024275 -0.021257669
-0.015261417 -0.0069665876 0.016727343 0.045747317 -0.050335787 0.05394779 0.060811963 -0.04262195
00000000: d4f3 863d fa51 ca3c 86f6 d9bc 5b74 e23c
00000010: b17a 58bc 03c8 20bd c44d 0bbc 9024 aebc
00000020: 060b 7abc f947 e4bb c807 893c 8a61 3b3d
00000030: e62c 4ebd 5cf8 5c3d f715 793d 5b94 2ebd

fc3.weight f4 [64, 16]
0.064222135 0.02785682 0.03434987 -0.13962227 0.17968002 -0.06418774 0.073830865 0.032190874
0.10740656 0.030264648 -0.1492396 0.13066989 -0.07671936 0.089541696 0.07903757 0.026815662
-0.07167665 -0.10568501 0.104353614 -0.054898944 0.015732588 0.06298935 0.16984385 0.06926377
-0.1647099 -0.109751716 -0.061085038 0.03189171 -0.03669368 -0.0020324741 -0.09214443 0.0765151
-0.08203868 -0.08858538 0.075155325 -0.20429449 0.1380982 0.052101094 0.052898124 -0.064966016
0.18939416 0.12513702 -0.07429179 0.13814473 -0.17268497 0.12972192 0.022283105 0.12760146
-0.120486505 0.0045626573 0.14792371 -0.07383512 -0.04639651 -0.13490371 -0.16214462 0.11818149
0.19757827 -0.135469 0.13422845 0.17327195 0.03600487 0.01608657 -0.0775552 0.10195615
0.101827644 0.05200883 -0.19814482 0.15143657 -0.0004367599 -0.17634696 -0.11806966 -0.16802895
-0.05917997 0.07189414 9.5486816e-05 0.16002697 0.043344025 0.15680808 0.0931686 0.032267023
-0.14227502 0.021051792 -0.010975055 0.19363865 0.07079176 0.22633876 0.050722428 -0.055091
0.025856744 0.055995096 0.09047646 -0.012603507 0.10584124 -0.13274573 -0.008659415 -0.008769505
0.17854196 0.018410752 0.111268386 0.08377628 -0.007843896 0.18565336 0.18579265 0.103268646
-0.23723215 0.11521174 -0.12243494 -0.18082047 -0.055093285 0.023547765 -0.15969133 0.16174942
-0.065236606 0.09569748 -0.13239379 0.113246806 -0.18455245 0.10571438 0.18750177 -0.013239049
0.038246322 -0.1373742 0.022641886 0.019256286 0.15542316 0.12417 -0.20063217 0.008883242
-0.047842223 -0.13161191 -0.032442026 -0.16874899 -0.015556547 0.08602003 0.17308941 -0.089726985
-0.026330322 -0.1311655 -0.07568387 0.045100126 0.12478704 0.0367268 0.054480612 0.18150768
-0.16925485 -0.106046386 -0.113137074 -0.07081421 0.07599273 0.17315392 0.051148236 0.16519137
0.011740251 0.17059481 0.19313763 -0.15074816 -0.0036445444 0.1716979 -0.037712976 -0.0034285204
-0.10943574 -0.114937335 -0.13960361 0.17444597 0.006251046 0.017738065 -0.06690937 0.14644718
-0.038095284 -0.05603934 -0.18498352 0.0241342 -0.0025816958 -0.14208084 -0.1045574 0.10393587
-0.06721774 0.13406692 0.09497249 -0.18177798 -0.13744226 0.057350725 -0.03347243 -0.06453644
0.19120736 -0.06716249 0.0916824 0.0915625 0.1195125 0.044730086 0.03734835 0.21484883
-0.035160355 0.011963344 -0.073709406 -0.070661284 0.04040463 0.115809076 -0.05188279 0.08584433
-0.08568789 -0.04940289 -0.06955795 -0.18438171 -0.16377413 0.11658986 -0.0060219904 0.050160892
-0.0829494 0.05029147 -0.16700895 0.1459148 0.15274452 0.0069655115 -0.07622774 -0.02699735
-0.05359277 0.04498258 -0.1733012 0.103854515 -0.1901239 0.025675654 -0.09910358 0.05994074
-0.06198762 -0.11856282 -0.010640346 -0.083018765 0.08608746 -0.078311555 -0.10991672 0.02939874
-0.07002658 -0.14774027 0.08595099 0.12899202 0.0836531 0.16675028 -0.019059367 -0.10472926
0.114162065 -0.10406086 0.13219164 0.024451107 0.21908864 0.030976636 -0.049938016 0.07489071
-0.00028103119 -0.032570712 -0.078092694 0.004160992 0.08617077 -0.03487123 -0.21140139 -0.17619798
00000000: e586 833d fc33 e43c 73b2 0c3d 24f9 0ebe
00000010: 0afe 373e dd74 83bd a334 973d 94da 033d
00000020: f8f7 db3d 91ed f73c 44d2 18be 54ce 053e
00000030: 0a1f 9dbd a361 b73d 73de a13d 85ac db3c
00000040: 35cb 92bd 6271 d8bd 59b7 d53d b7dd 60bd
00000050: a1e1 803c 8f00 813d 8ceb 2d3e 2ada 8d3d
00000060: b6a9 28be 82c5 e0bd 4e34 7abd e2a0 023d
00000070: 1d4c 16bd 4233 05bb 38b6 bcbd f3b3 9c3d
00000080: e503 a8bd 406c b5bd 09eb 993d 9332 51be
00000090: 9d69 0d3e f567 553d b4ab 583d e70c 85bd
000000a0: 8bf0 413e eb23 003e 4b26 98bd d075 0d3e
000000b0: 54d4 30be d3d5 043e 0f8b b63c f5a9 023e
000000c0: a1c1 f6bd 5882 953b 5079 173e de36 97bd
000000d0: 440a 3ebd 3324 0abe 3d09 26be 2309 f23d
000000e0: f551 4a3e 63b8 0abe 2f73 093e 346e 313e
000000f0: d879 133d fcc7 833c 43d5 9ebd 63ce d03d
00000100: 038b d03d 3607 553d 7ae6 4abe 3012 1b3e
00000110: ecfc e4b9 4c94 34be 82ce f1bd c80f 2cbe
00000120: b266 72bd 3c3d 933d 1840 c838 1cde 233e
00000130: 8189 313d 4c92 203e 2ecf be3d 6d2a 043d
00000140: 8bb0 11be cf74 ac3c b8d0 33bc 3649 463e
00000150: 45fb 903d 59c5 673e 52c2 4f3d 1aa7 61bd
00000160: 86d1 d33c 1d5b 653d b94b b93d f17e 4ebc
00000170: 4bc3 d83d 7fee 07be 38e0 0dbc f8ad 0fbc
00000180: b4d3 363e 25d2 963c aee0 e33d e692 ab3d
00000190: af83 00bc ea1b 3e3e 6e40 3e3e 837e d33d
000001a0: fcec 72be 22f4 eb3d 2bbf fabd 0029 39be
000001b0: 7fa9 61bd 3ee7 c03c 2086 23be a4a1 253e
000001c0: c59a 85bd 0afd c33d 3d92 07be f1ed e73d
000001d0: 51fb 3cbe c880 d83d 7700 403e 99e8 58bc
000001e0: 2da8 1c3d d3ab 0cbe 7a7b b93c 5cbf 9d3c
000001f0: 4027 1f3e d74c fe3d 8572 4dbe 048b 113c
00000200: 35f6 43bd 46c5 06be eee1 04bd 89cc 2cbe
00000210: e3e0 7ebc 452b b03d 5a3e 313e c8c2 b7bd
00000220: b0b2 d7bc 4050 06be 2500 9bbd e9ba 383d
00000230: 5990 ff3d d76e 163d 1027 5f3d 26dd 393e
00000240: 2551 2dbe d92e d9bd 69b4 e7bd 0a07 91bd
00000250: 14a2 9b3d 434f 313e d080 513d ed27 293e
00000260: 2f5a 403c 68b0 2e3e dfc5 453e ba5d 1abe
00000270: 4fd9 6ebb 93d1 2f3e ec78 1abd 07b1 60bb
00000280: d81f e0bd 4464 ebbd 40f4 0ebe f7a1 323e
00000290: 93d5 cc3b 6b4f 913c c807 89bd 40f6 153e
000002a0: cd09 1cbd 8289 65bd 526c 3dbe 16b5 c53c
000002b0: ab31 29bb a47d 11be 3122 d6bd 54dc d43d
000002c0: 74a9 89bd d748 093e f080 c23d 0224 3abe
000002d0: aabd 0cbe 98e8 6a3d 631a 09bd ae2b 84bd
000002e0: ddcb 433e 7d8c 89bd fbc3 bb3d 1f85 bb3d
000002f0: f8c2 f43d e536 373d 95fa 183d 5501 5c3e
00000300: 4e04 10bd e701 443c f5f4 96bd ddb6 90bd
00000310: 537f 253d 4f2d ed3d 0c83 54bd 27cf af3d
00000320: 227d afbd af5a 4abd 6674 8ebd 8fce 3cbe
00000330: 68b4 27be aac6 ee3d 1e54 c5bb 8275 4d3d
00000340: 60e1 a9bd 6efe 4d3d 6504 2bbe b06a 153e
00000350: 0f69 1c3e f23e e43b 4a1d 9cbd 8c29 ddbc
00000360: 1884 5bbd a73f 383d df75 31be adb1 d43d
00000370: d7af 42be c055 d23c d1f6 cabd 6c84 753d
00000380: bbe6 7dbd 10d1 f2bd d954 2ebc be05 aabd
00000390: 9f4e b03d cf61 a0bd 041c e1bd a0d5 f03c
000003a0: 186a 8fbd 3a49 17be 1307 b03d 7c16 043e
000003b0: 5152 ab3d 96c0 2a3e 6422 9cbc 4b7c d6bd
000003c0: cdcd e93d dc1d d5bd 3f5d 073e b04d c83c
000003d0: c658 603e b7c2 fd3c ce8b 4cbd 4d60 993d
000003e0: 5e57 93b9 de68 05bd 10ef 9fbd ee58 883b
000003f0: 4d7a b03d 23d5 0ebd 9b79 58be 3e6d 34be

fc3.bias f4 [64]
-0.2306489 -0.23829934 0.25525242 -0.05904558 0.19947863 -0.0987561 -0.21089272 0.061785102
-0.22707419 0.14982525 -0.2108293 0.2575896 0.16971645 0.09454246 0.3379027 0.3064968
0.13571422 -0.11227106 -0.16873975 0.12317651 0.33756778 0.35927403 0.41345808 0.3144324
0.097090855 -0.26757494 -0.08612785 -0.058267858 0.028879322 -0.0055142897 -0.0018136076 0.16538644
-0.07298056 0.16279152 -0.06144854 -0.13346197 -0.16612414 -0.02491324 -0.08507806 -0.07990996
-0.2340773 0.33258906 0.17644462 -0.28441006 0.295403 0.12476786 0.07884521 0.2328286
-0.27758202 0.2055327 -0.2198015 0.42925045 0.22903779 -0.16299097 0.11897638 0.1312823
0.38171324 0.33418897 0.17816192 -0.26233327 -0.13701722 0.13175873 0.12794554 0.16973577
00000000: 3a2f 6cbe be04 74be 72b0 823e c7d9 71bd
00000010: 2044 4c3e a340 cabd 43f4 57be 6012 7d3d
00000020: 2386 68be ca6b 193e a3e3 57be c9e2 833e
00000030: 26ca 2d3e 7a9f c13d 9501 ad3e 26ed 9c3e
00000040: abf8 0a3e 5fee e5bd 1dca 2cbe f743 fc3d
00000050: afd5 ac3e c4f2 b73e c7b0 d33e 49fd a03e
00000060: 92d7 c63d 95ff 88be cc63 b0bd 47aa 6ebd
00000070: 5494 ec3c 37b1 b4bb 93b6 edba 105b 293e
00000080: d576 95bd d2b2 263e 77b1 7bbd 41aa 08be
00000090: 721c 2abe da16 ccbc 683d aebd d5a7 a3bd
000000a0: f6b1 6fbe 1d49 aa3e e6ad 343e 329e 91be
000000b0: 103f 973e 4b86 ff3d 9979 a13d 9f6a 6e3e
000000c0: 3b1f 8ebe 2a77 523e a513 61be b7c6 db3e
000000d0: e288 6a3e 1be7 26be e3a9 f33d de6e 063e
000000e0: eb6f c33e d11a ab3e 1470 363e 8c50 86be
000000f0: 3e4e 0cbe c3eb 063e 2804 033e 37cf 2d3e

fc4.weight f4 [11, 64]
-0.00032062514 0.029050933 -0.021372879 -0.062742 -0.026684932 -0.0061457246 -0.005658626 0.015388381
-0.017446816 0.032515712 -0.0019697403 0.02226345 0.021101963 -0.02408316 -0.03599998 -0.029801372
0.029026844 0.010899456 -0.037779197 0.008855688 -0.034657076 0.014833027 0.03681182 -0.053198155
-0.020609029 0.012124819 0.02228819 0.0049523483 0.031136058 0.029480679 -0.0058521344 0.022849621
0.022504024 0.030175364 -0.0070413277 -0.047449008 0.0005113447 0.009763864 0.01768229 0.06549862
-0.047027912 -0.063674346 -0.0156147145 0.007404017 -0.015245214 0.0400784 -0.005206485 -0.041651253
0.028271018 -0.046391033 -0.008963472 -0.056037135 0.093807034 -0.0057395 -0.043806363 0.05130213
0.015792593 -0.0057187495 0.009153492 -0.040002678 0.06680227 -0.036295637 0.042965896 -0.0072889873
0.021571063 0.024962807 0.045980588 -0.0063708206 -0.062582865 -0.026353834 0.060531218 0.061484177
0.08799509 -0.023851298 0.101810865 -0.030050302 0.009652559 -0.005922151 -0.020600086 -0.020637497
0.038459986 -0.03088039 0.014095546 -0.022327928 0.0012658361 0.041905686 -0.03876962 0.015114192
-0.005849235 0.05913226 0.024451144 0.007982788 0.030689482 -0.026666427 0.017022701 0.060483046
0.039921764 -0.053192414 -0.0077577815 0.037307717 0.059956353 -0.06211719 0.01814259 -0.04533141
-0.057008814 0.018138565 -0.045913793 -0.014564815 -0.022104641 0.0020936031 0.02641385 -0.018805705
-0.0007025751 -0.0031152205 -0.017507948 0.01869769 0.048289686 -0.08124523 0.014934014 -0.0052987696
0.005142888 -0.0055373474 -0.043616857 -0.0692957 0.04064287 -0.038701363 -0.03172631 -0.004561101
0.06366947 0.027518114 0.019198572 -0.074081704 -0.07552735 0.038677562 0.006915115 -0.040560972
0.028472178 0.025685642 -0.058536854 0.0070974124 -0.039922442 -0.019330854 -0.06990504 0.06277527
0.08120486 0.06335319 0.02806719 0.081407145 -0.029227698 0.025841342 0.05770484 0.027226409
-0.056048308 0.064792514 0.03361258 -0.07736787 -0.01045816 -0.019744577 0.0044014268 0.042782806
-0.043766737 0.036306866 0.0708394 -0.01692342 0.045460824 0.024985068 0.0005173867 0.043097604
0.009841233 -0.05261471 -0.021572964 0.022202326 0.07254169 -0.049612336 0.027044864 -0.060724538
-0.041398484 0.061505515 -0.0026800293 0.015565159 0.07936633 -0.0345288 0.02949976 0.011725734
-0.0293435 -0.021907216 0.053579673 0.04390303 0.059333462 -0.008804836 -0.075120986 0.05459762
-0.086297005 0.027757153 0.022439087 0.023411471 -0.0008022462 -0.008491205 -0.017988384 -0.0033562707
-0.10607411 0.056380738 -0.010568573 0.037307467 0.08716734 0.06477545 -0.006072356 0.0008776721
-0.016293634 -0.02332078 0.030749299 -0.03963595 0.08411311 0.026324576 0.07525298 -0.014013737
0.07178638 0.051211458 -0.0069622253 0.043763362 0.036902234 -0.017403528 -0.029112305 0.09581497
-0.0134668965 0.009124112 -0.0070066513 0.047410157 -0.05275629 -0.016428245 -0.0020491648 -0.082843445
0.0012643595 -0.048910692 0.04013902 -0.059117552 -0.04685785 -0.029610189 0.052662045 0.02148321
-0.08439841 0.068641566 -0.054868735 -0.00091238366 -0.009662547 0.113001704 0.041342225 0.00041725402
0.067432515 0.08700068 -0.022170391 -0.0142823355 0.020351684 0.0812832 0.06606651 -0.00033091917
00000000: 9419 a8b9 39fc ed3c 2d16 afbc e17e 80bd
00000010: 5c9a dabc 1362 c9bb ff6b b9bb 8c1f 7c3c
00000020: a0ec 8ebc 322f 053d c216 01bb d761 b63c
00000030: 06de ac3c 0c4a c5bc b774 13bd 0222 f4bc
00000040: b4c9 ed3c a293 323c 5cbe 1abd 7317 113c
00000050: 94f4 0dbd 3906 733c fec7 163d 4fe6 59bd
00000060: 44d4 a8bc 2da7 463c b995 b63c 4f47 a23b
00000070: 0c11 ff3c 7781 f13c 43c3 bfbb 212f bb3c
00000080: 5c5a b83c 5332 f73c f0ba e6bb e459 42bd
00000090: c30b 063a 9df8 1f3c 73da 903c 2424 863d
000000a0: 57a0 40bd b267 82bd dcd4 7fbc 659d f23b
000000b0: 10c7 79bc 4029 243d 299b aabb 819a 2abd
000000c0: 9f98 e73c 8604 3ebd 87db 12bc 3287 65bd
000000d0: e71d c03d 6a12 bcbb 4d6e 33bd 2f22 523d
000000e0: 785f 813c 5964 bbbb 87f8 153c d9d9 23bd
000000f0: a1cf 883d bcaa 14bd 02fd 2f3d 75d8 eebb
00000100: ccb5 b03c cd7e cc3c 2456 3c3d 51c2 d0bb
00000110: 722b 80bd ffe3 d7bc 95ef 773d d5d6 7b3d
00000120: c536 b43d cc63 c3bc 3782 d03d 0d2c f6bc
00000130: c425 1e3c 9a0e c2bb 83c1 a8bc f80f a9bc
00000140: 3888 1d3d dff8 fcbc 01f1 663c 0fe9 b6bc
00000150: 69ea a53a 4ca5 2b3d e5cc 1ebd 84a1 773c
00000160: f1aa bfbb ab34 723d c44d c83c 3dca 023c
00000170: 8268 fb3c 8d73 dabc 3173 8b3c 12bd 773d
00000180: 0185 233d 4ae0 59bd fd34 febb facf 183d
00000190: cb94 753d 986e 7ebd c59f 943c 6ead 39bd
000001a0: 1382 69bd 5497 943c 1a10 3cbd 43a1 6ebc
000001b0: cb14 b5bc d534 093b dc61 d83c 6c0e 9abc
000001c0: 042d 38ba ba28 4cbb d46c 8fbc e62b 993c
000001d0: 68cb 453d e663 a6bd cbad 743c 4da1 adbb
000001e0: ac85 a83b a372 b5bb 97a7 32bd e7ea 8dbd
000001f0: 2379 263d 5285 1ebd 72f3 01bd 4a75 95bb
00000200: 2465 823d ab6d e13c 5346 9d3c 26b8 97bd
00000210: 15ae 9abd 5d6c 1e3d 3098 e23b 4323 26bd
00000220: 7c3e e93c b26a d23c 57c4 6fbd 6991 e83b
00000230: b785 23bd bd5b 9ebc 602a 8fbd 5290 803d
00000240: bc4e a63d 51bf 813d 2aed e53c cab8 a63d
00000250: ed6e efbc 39b1 d33c e95b 6c3d eb09 df3c
00000260: e992 65bd f0b1 843d 58ad 093d 0c73 9ebd
00000270: b458 2bbc 61bf a1bc d839 903b 063d 2f3d
00000280: c044 33bd 82b6 143d 3f14 913d fca2 8abc
00000290: 2135 3a3d 7cad cc3c 3ca1 073a 1d87 303d
000002a0: 1f3d 213c 8682 57bd c9b9 b0bc a7e1 b53c
000002b0: bd90 943d 4e36 4bbd 318d dd3c 4bba 78bd
000002c0: 7591 29bd 35ed 7b3d 6ea3 2fbb 0205 7f3c
000002d0: d08a a23d 126e 0dbd 7ba9 f13c 4b1d 403c
000002e0: c861 f0bc c376 b3bc 5c76 5b3d aad3 333d
000002f0: a507 733d 2942 10bc 08d9 99bd c1a1 5f3d
00000300: 7cbc b0bd f862 e33c 2dd2 b73c 6ac9 bf3c
00000310: d54d 52ba b21e 0bbc 605c 93bc e1f4 5bbb
00000320: 623d d9bd 7def 663d cf27 2dbc b7cf 183d
00000330: ca84 b23d fea8 843d 9dfa c6bb 9413 663a
00000340: 3a7a 85bc 380b bfbc f4e5 fb3c 4e59 22bd
00000350: 7f43 ac3d a3a6 d73c 3c1e 9a3d e099 65bc
00000360: bd04 933d 1bc3 513d 6123 e4bb 3641 333d
00000370: cc26 173d d891 8ebc ee7c eebc a43a c43d
00000380: 42a4 5cbc 4d7d 153c 0d98 e5bb 2731 423d
00000390: fb16 58bd 8794 86bc 484b 06bb d3a9 a9bd
000003a0: ddb8 a53a 9456 48bd d068 243d 3f25 72bd
000003b0: 04ee 3fbd 1191 f2bc 28b4 573d 8ffd af3c
000003c0: 13d9 acbd f393 8c3d 0abe 60bd 082d 6fba
000003d0: a94f 1ebc 706d e73d 7756 293d e3c2 da39
000003e0: 0f1a 8a3d 6a2d b23d ae9e b5bc 7500 6abc
000003f0: 93b8 a63c ce77 a63d e14d 873d 387f adb9

fc4.bias f4 [11]
-0.06632406 0.13261136 -0.0046004215 0.020094382 -0.0921518 -0.08088841 -0.11118189 -0.20922522
-0.13230076 -0.09228602 -0.13556647
00000000: e9d4 87bd 46cb 073e 22bf 96bb f99c a43c
00000010: 15ba bcbd d3a8 a5bd 55b3 e3bd 233f 56be
00000020: da79 07be 7400 bdbd f0d1 0abe
