src/VAE/vae_models/user_1_vae.pth (torch, 22306 bytes, 10 tensors)

fc1.weight f4 [64, 11]
00000000: a128 6e3d 61c7 a3bd 34f5 80be f1eb 5bbe
00000010: 270a cd3b 83ad dcbd afed a8bd 8ddd 173e
00000020: 71e5 6cbe 7f4e 4d3d 1ef5 7f3e 323e 093c
00000030: 9bfe d5bd 5e04 2fbe 6a25 3d3d 440e 5ebe
00000040: 2bd4 dd3d 1e43 e83d 880b 1f3e b8e1 bebd
00000050: fd77 89bd 5fb6 5b3e 4781 083e 2e8c 843d
00000060: 1ccf 183e 5ca2 16be 4808 43be c9f3 8cbe
00000070: 49ec 24be 68e6 4fbd f8c1 cabd 1454 1bbe
00000080: d9ce 733e bf06 5fbe 5a64 853d f752 8d3d
00000090: cde5 3e3e f311 98bd b1ef 513a 1ad4 cabc
000000a0: 1afb 42bd 7f3c a63d 1d70 3fbe af23 37be
000000b0: 7862 c9bb 8e8f 89be d205 86be deab 433c
000000c0: 9421 2bbe fdcb 49be 7f0f 633e c4d6 57bd
000000d0: 8a26 0abe ba6d 74bd 0953 93be 5466 773d
000000e0: 0d0b fcbc ad22 1c3e 7559 1e3e 9e6d 03be
000000f0: cd02 26be ff68 9a3d ebf1 c13d bfec 21be
00000100: 7e2d 363d 3f51 263e 1783 8abd 369c 5b3e
00000110: 4e61 023b 445d 8fbe 1a34 173d 66e8 47be
00000120: 9a79 c8bd 14d8 8abe 0ff7 73bb d4eb e9bd
00000130: e011 9dbd 408b fb3d 1a58 8d3e 4f59 38be
00000140: d9da 873e 14de a5bd 40f0 933d 9a1e 0b3e
00000150: 67ee 67be 22e0 34bd 12c8 6fbd 66d2 193e
00000160: 0d24 813e bbf2 50be ed69 403d aefe e3bd
00000170: 437f a4bc d713 ddbd a101 a43d 3fbf 553b
00000180: 0a55 bbbd 5ee7 f2bc d3d0 783e 434c 813e
00000190: 1f95 03be c443 8d3e 72c2 513e 34e7 abbd
000001a0: 8cfd 733d ebf6 203e a5c9 7f3e 148b c53d
000001b0: a60d 063e d09c 4cbd 220f 793d bb24 0c3e
000001c0: 76d7 58be f490 c33d d701 843e 13b8 133e
000001d0: 1c91 273b ca47 cdbb 42c3 45be c61f 233e
000001e0: 2483 8dbe 490a e4bd a094 803d 6078 a8be
000001f0: 094e 6e3e b39a 75be 5c83 12be 1dd9 80be
00000200: a324 263e b02c 093e 5c2f 0cbe 1124 4c3e
00000210: 15df 1abe f6d1 5c3e 7098 99be 572c 3fbe
00000220: be33 8e3e 4cee 223d 9193 5f3e e895 eb3b
00000230: a650 13bd 2e83 603d f1e8 833e 3580 2cbe
00000240: 2ec2 4dbe 9c09 4c3e 7165 8a3e 9c23 573e
00000250: f4df 933d adb1 b33c 28da a4bc 7ae2 d23b
00000260: c725 4bbe 829b e73d 8961 f63d 7830 f7bd
00000270: e090 9f3e 290f 923e 0742 5f3e e4eb 293d
00000280: 6176 743e 6100 ebbd 6494 9a3e e73b fcbd
00000290: 40e3 7fbe 7b2a 183e 7869 3ebe fa5d 063e
000002a0: 7675 82be 8403 0cbe 8f8e 923d eb87 9bbd
000002b0: 77ad 47be 1629 51be 10c0 183b 1646 6f3e
000002c0: 93f8 30bd f74f 82be b30a 85be b4e7 053d
000002d0: d524 0f3d 8308 97bd 3cbb 713e 8355 9bbe
000002e0: 455e 123e 4232 46be e8d7 32bd f0fa 03be
000002f0: 9edc 84be 60f1 093e ef66 f1bd 2317 3dbe
00000300: 3037 4d3c e53b 39bc 71af 8ebd 87c4 3d3d
00000310: 3e4f 0fbe 5d3e 8ebe e726 183e 2969 57bd
00000320: e287 5b3e 5cc0 7cbe a7d8 cbbd 06c7 073e
00000330: b551 ff3d 61f2 ee3c 568e 0dbe 5abc 5fbe
00000340: 5464 3f3e acea 163e 41e0 523e eaf1 743d
00000350: b28e e23d 47b3 39be 074f 823e dd6c 133c
00000360: 2fcf 0ebd cd03 393c bd89 a23e 7d4b 0ebe
00000370: 42e9 2bbe 6859 873e a2a3 413e 9f73 17be
00000380: da24 66be d09a d03d 9380 963e 6c10 913e
00000390: 3693 983e 73ff b1bd dfd0 823e 3fc7 c63d
000003a0: 6fa7 953e acc6 17be ef95 4dbe b6dc 0a3e
000003b0: d466 31be f64a 9d3d 58ec 813e c387 74be
000003c0: 7977 693d bc33 383e 91ec 6d3e c6f1 4cbd
000003d0: 1409 a53e 572b 0d3e c8d1 27be 1fdd 5e3d
000003e0: f3d8 c03d 8ddc 853e 6e0f 333e 2343 17be
000003f0: 5262 da3d 676a 83be a814 16be c2a4 5f3e
0.058144215 -0.07997013 -0.25187075 -0.21476723 0.006257314 -0.10775282 -0.082484595 0.14830609
-0.231344 0.050123688 0.24995849 0.008376645 -0.10448953 -0.1709151 0.04617826 -0.2168513
0.108314835 0.113409266 0.15531743 -0.09320396 -0.06712339 0.21456288 0.13330565 0.0647205
0.14922756 -0.14710373 -0.19046128 -0.27529743 -0.1610576 -0.050756842 -0.09900278 -0.15168792
0.23809375 -0.21779917 0.06513281 0.0690059 0.1864235 -0.074252985 0.0008008434 -0.024759341
-0.04760275 0.081170075 -0.18695112 -0.17884706 -0.0061457716 -0.26867336 -0.26176316 0.011942832
-0.16712028 -0.19706722 0.2217388 -0.05269505 -0.13491264 -0.059674956 -0.28774288 0.060400322
-0.030766988 0.15247603 0.15463813 -0.12834784 -0.16212006 0.07539558 0.0946997 -0.15812968
0.04447698 0.1624193 -0.06763285 0.21446308 0.0019894424 -0.28000844 0.036914922 -0.19522247
-0.09788819 -0.2711798 -0.0037226116 -0.11421934 -0.07669425 0.12282419 0.2760628 -0.18002819
0.26534155 -0.08098999 0.072235584 0.13585892 -0.22649537 -0.044159062 -0.05854041 0.15021667
0.25222817 -0.20405094 0.04697602 -0.11132561 -0.020080214 -0.107948 0.08008123 0.0032615212
-0.09147079 -0.02965134 0.2429841 0.25253496 -0.12849854 0.27590764 0.20484331 -0.08393708
0.059567973 0.15719192 0.24979265 0.09645668 0.13091144 -0.049954236 0.060805447 0.13685887
-0.21175942 0.09549132 0.25782654 0.14425687 0.002556867 -0.0062646614 -0.19312766 0.1593009
-0.27639115 -0.11134774 0.06278348 -0.3290434 0.23271956 -0.23984794 -0.14307922 -0.25165644
0.16224913 0.13395953 -0.13689941 0.19935633 -0.15124162 0.21564469 -0.29999113 -0.18669258
0.2777385 0.03977804 0.21833636 0.007189501 -0.035965584 0.054812603 0.25763658 -0.16845782
-0.20093605 0.1992554 0.2703052 0.21009678 0.0722045 0.021935308 -0.020123556 0.0064356895
-0.1983863 0.11308958 0.12030322 -0.120697916 0.31165218 0.2852719 0.21802531 0.04148473
0.23873283 -0.11474682 0.30191338 -0.12316113 -0.24989033 0.14859955 -0.1859492 0.13121787
-0.2548024 -0.13673216 0.07156097 -0.07594284 -0.19499765 -0.2042583 0.0023307838 0.2336658
-0.04320581 -0.25451633 -0.25984725 0.032691672 0.034947235 -0.0737467 0.2360658 -0.30338678
0.14293773 -0.1935511 -0.043662935 -0.12888694 -0.25949568 0.13470984 -0.11787211 -0.18465857
0.012525365 -0.011305784 -0.069670565 0.04633 -0.13995072 -0.27781954 0.1485859 -0.052590523
0.21438554 -0.24682754 -0.099534325 0.13259515 0.12466756 0.02916831 -0.13823828 -0.21849194
0.18690616 0.14737958 0.20593359 0.05980102 0.11062373 -0.18134795 0.25450918 0.008998123
-0.034865554 0.01129241 0.3174571 -0.13895984 -0.167882 0.264354 0.18910077 -0.147902
-0.22474995 0.10185778 0.2939497 0.2833284 0.29799813 -0.08691301 0.2554998 0.09705972
0.29229304 -0.14821881 -0.20076726 0.13560757 -0.17324382 0.07680313 0.25375628 -0.23879914
0.056998704 0.17988485 0.23234774 -0.05003526 0.3223349 0.13786064 -0.16388619 0.054410096
0.0941638 0.2614483 0.17486355 -0.14771704 0.10663284 -0.25667116 -0.14656317 0.21840194

fc1.bias f4 [64]
00000000: 061b bb3d 0b15 a2be f5fc 21be 9434 883e
00000010: 37af c53d bc71 713e 8f15 18bd 0f07 b0bc
00000020: e6f4 76be 563e 90be 62ee 093e 8ed7 c03d
00000030: 84be 673e d693 033e 3f60 1fbe 9f41 53bd
00000040: d51b 18bc c05d 0ebd 9262 8dbe 1d45 14be
00000050: ec9a 90bd dbe2 d13d b3a0 4bbe 0dbd 82be
00000060: 8dff ac3d aa35 89be 8657 37bd 5d35 113e
00000070: 3e8f 13be 217f 153e c571 f2bc c158 0ebc
00000080: 016e a23e 55cb 4dbe 6737 5dbe a304 0c3d
00000090: f97f 64be 6342 24bd 750e af3d c814 e93b
000000a0: 35ad 253e d91b 0b3e ea82 05bd ef79 94be
000000b0: 96fb 41be 194c 46be 7a86 f0bd dbd8 8fbe
000000c0: 539d 0f3e 4a1a 363e e0b6 ed3d 29ed 63be
000000d0: 6825 693b 917f 1a3e a981 54bd 50f4 f23d
000000e0: 705b 853d 2217 a83d 2c1c 1ebe 3821 22be
000000f0: 4495 66be 7f4b 023e 0cd3 7abd c749 af3e
0.09136014 -0.3165668 -0.15819152 0.26602614 0.0965256 0.23578542 -0.037129935 -0.02148774
-0.24116859 -0.2817256 0.13469842 0.09416114 0.2263127 0.12849364 -0.15564059 -0.051576253
-0.009283979 -0.034757376 -0.27614266 -0.1447949 -0.07060799 0.10248347 -0.1988552 -0.2553486
0.0844718 -0.26798755 -0.044761203 0.14180513 -0.14410111 0.14599277 -0.029595265 -0.008688153
0.3172455 -0.20097096 -0.21603166 0.03418411 -0.22314443 -0.040102374 0.08547679 0.007113073
0.16179354 0.13584842 -0.032595553 -0.28999278 -0.18943629 -0.19364966 -0.11744399 -0.28095135
0.14024858 0.17783466 0.11607146 -0.22258438 0.0035575274 0.15087725 -0.051881466 0.11863005
0.06511581 0.08207537 -0.15440434 -0.15832984 -0.22517878 0.12724112 -0.061236426 0.34235975

fc2_mean.weight f4 [16, 64]
00000000: 8cb7 6ebd cc86 5abd 3ebb 90bd a76b 603d
00000010: 830b bc3d f319 193d ba7b d3bd 2eb0 abbb
00000020: 1ff5 473d b8fc 923c 44ff 00be a1c0 833d
00000030: 1578 5b3d 7bf0 b1bd 36c1 e53c 398f 79bd
00000040: d993 2abd 965b 8fbd 0190 c8bc 01d5 0bbc
00000050: 41e7 a1bd 34e4 3abd 6cf5 a4bd a2c0 59bd
00000060: 80fb afbc 6e1d a9ba 1f22 1b3d ab01 0a3d
00000070: 8a94 a73d 1752 793d a4e3 e5bd e15b f53c
00000080: 0e2b ebbd d4ec 1d3d b72b 0cbd 3d26 60bc
00000090: f211 a93d eff7 1cbb 9054 0cbc 90a4 aebc
000000a0: 4cfc 1e3d 9733 9f3d a34c a0bc 365c e83d
000000b0: 58ca c6bc a0fc 01be b842 7fbd 98d9 09bd
000000c0: 4d9e 75bb 0647 ac3d dea6 35bc 016e f63d
000000d0: 5f50 81bb dfc4 50bd 9018 013d 85fd ddbb
000000e0: 1bb6 863d 51e5 4a3d f5c8 4abc 900a bd3c
000000f0: 3cfe 673c ae31 87bd 853f 2dbd 8b1e e3bb
00000100: 1a72 c03c dab5 d33c 2222 c83d 1ec9 47bd
00000110: 0464 1abd bed9 d93b b466 3ebd 8234 1dbd
00000120: 9cde 4dbd f6fe 6f3d 0875 833d d4b0 a63a
00000130: 1712 4abd a09e 1abc 464c 65bd b85c dbbd
00000140: 80ad 593a 00ae 65ba c313 823d e468 dd3c
00000150: d0f6 893d 2090 bc38 7ba0 a03c 4407 d8bc
00000160: b486 143b 6665 ad3d 28d2 31bd 7d2e c1bd
00000170: 5ff8 1abd b6ea e53b 62aa af3c 6977 b33c
00000180: bb05 813d 521e f2bd 56d2 adbd f4a8 74bb
00000190: d899 63bd 2620 813b f6b0 53bd 2835 c53c
000001a0: 8147 0d3d a02c 223d e15d 863a f84c 0f3d
000001b0: 80b8 933a 34cb 93bc 8cc3 193d 7ce6 f93b
000001c0: c850 f1bc e172 7b3d a53b 813b 6f47 eabc
000001d0: 0542 46bd 761a 28bc 7b8b c8bb 5b09 cb3d
000001e0: 3448 f837 b3de b2bc bb19 4cbd 8c81 16bc
000001f0: b57e bf3b 6ce3 fa3c 46b5 eabc f1a2 263e
00000200: 44c1 2b3d cae5 1f3e 627c ad3d c826 753d
00000210: 3207 b23d 2abd 4d3c 20a4 e6bc b3fe 25bd
00000220: 0521 b93d 25a3 21bc cfc8 b43c ad17 91bd
00000230: 08a2 97bd df40 273d 1dd1 96bd 0301 0bbd
00000240: 24a7 1bbd 9428 953d ae05 48bd 9cb7 a83c
00000250: 3c06 40bc 6553 533c 4f72 3bbd 4724 9cbd
00000260: cbbc be3c 4515 6a3d 39fa 96bc 1cd6 53bd
00000270: 0f28 5abd c42c 9abd 5930 fb3d 4b00 4abd
00000280: 6bc7 fa3c 34b3 f73d e6c2 063d 808d 953c
00000290: 28a2 813c 4efa 403b 5185 fc3c 7d62 0c3d
000002a0: ce7d 98bd 18c3 16bd 3eb6 8f3d e8f7 86bc
000002b0: a8a8 83bd 27ee 02bd 4c56 02bd 6f49 db3c
000002c0: 5c46 8c3a 81e8 8fbc 1963 323d fc1b 8d3d
000002d0: d017 80bb 568b 95bd 2615 c63c 9dcd 913b
000002e0: 11fc 90bd dbf9 3d3c 97ce ba3d a423 60bd
000002f0: e039 f43c 1a76 963d 1962 803d 571f f33b
00000300: 3ede 423c 704b 6b3d d81d 60bd 4c75 a1bd
00000310: e74e cbbd 7b7e 0e3e 4eba fc3d 8dd0 e23c
00000320: 345b a9bc 6319 c23d d5ea 5a3d d420 923d
00000330: 86c8 98bd d0cc a13b 7dd9 a3bb 1309 6fbc
00000340: 03b7 093d ccd6 363d f80c 853d c2e9 97bd
00000350: b014 dd3c f9f5 393d f6a0 4ebd 4452 033e
00000360: 1a24 0e3e c2df 3b3d 523d 84bd 4a22 a3bd
00000370: 582b 873b 175b 08bd b01f a1bd 7371 5bbd
00000380: b8a6 153d d841 63bd 69f8 22bc 58a6 4e3d
00000390: 10a0 073d d303 89bb befe c3bd 8398 0d3c
000003a0: afb6 4c3c 027a 22bd a4d0 80bc 82c3 89bd
000003b0: 3855 a0bd b67a b9bd 304b cebc dbf3 d3bc
000003c0: f0c9 00bd 01af f93d 13b2 74ba 9f74 24bd
000003d0: 974a 263d 04b6 ed3d 6237 6e3d e608 be3d
000003e0: e4d0 be3a b341 15bd 927c 58bd 0b9b c6bc
000003f0: b7a2 303d b689 fa3d 1093 973d dbe0 043d
-0.058280513 -0.05335121 -0.070669636 0.054790165 0.09181883 0.037378263 -0.10326333 -0.005239508
0.04881775 0.017942771 -0.12597376 0.064332254 0.053581316 -0.08688446 0.028046232 -0.060927603
-0.041644905 -0.069998905 -0.024482729 -0.008534671 -0.07905436 -0.045627788 -0.08054623 -0.053162225
-0.02148223 -0.0012902447 0.037874337 0.033692997 0.081826285 0.060869303 -0.1122506 0.029951038
-0.114828214 0.038555935 -0.034221377 -0.013680992 0.08255376 -0.002395149 -0.008565083 -0.021318704
0.038814828 0.07773512 -0.019567793 0.11345713 -0.024266407 -0.12694025 -0.062319487 -0.03365478
-0.0037478388 0.08411984 -0.0110871475 0.120327 -0.0039463486 -0.050969 0.031517565 -0.0067746066
0.065777026 0.0495351 -0.012377013 0.023076326 0.014159735 -0.066012725 -0.042296905 -0.0069311312
0.023491908 0.02584355 0.09772135 -0.048775785 -0.03769304 0.0066482713 -0.046484664 -0.038380153
-0.050261125 0.05859276 0.06418806 0.0012717494 -0.049333658 -0.009437233 -0.055980943 -0.10711044
0.00083037466 -0.0008761585 0.063514255 0.027027555 0.06736529 8.991384e-05 0.019607773 -0.026370652
0.0022663297 0.08466606 -0.04341331 -0.09432695 -0.03783452 0.007016505 0.02144355 0.021907525
0.06299921 -0.118221894 -0.08487384 -0.003733215 -0.05556664 0.0039406 -0.051682435 0.024073198
0.03449202 0.03959334 0.0010251367 0.034985512 0.0011270195 -0.01804123 0.037540004 0.007626353
-0.029457465 0.061388854 0.0039438778 -0.028598515 -0.048402805 -0.010260215 -0.006120143 0.09913894
2.9597526e-05 -0.021834707 -0.049829226 -0.00918616 0.005843962 0.030626021 -0.028650891 0.16273095
0.04193236 0.15615001 0.0847099 0.059851438 0.08692779 0.012557307 -0.028154433 -0.040526103
0.09039501 -0.009865557 0.02206841 -0.07084594 -0.07403952 0.04083335 -0.07364104 -0.03393651
-0.038001195 0.0728313 -0.04883354 0.020595364 -0.011720236 0.012898301 -0.04576331 -0.07624107
0.023283383 0.05714919 -0.018429862 -0.051717862 -0.05326086 -0.075280696 0.12265081 -0.049316686
0.030612668 0.12094727 0.032900713 0.018255949 0.015824392 0.0029446068 0.030825289 0.034273613
-0.0744587 -0.03680715 0.07017182 -0.016475633 -0.06428653 -0.0319654 -0.03182058 0.026768414
0.0010702121 -0.017566921 0.04355154 0.06890103 -0.0039090887 -0.07301967 0.024180006 0.00444956
-0.07079328 0.011595215 0.09121435 -0.05472149 0.029812753 0.07346745 0.06268711 0.0074195075
0.011893807 0.05744499 -0.05471596 -0.07883701 -0.09927159 0.13915436 0.12340222 0.027687335
-0.020673372 0.094774984 0.05344661 0.07135168 -0.07460122 0.0049377456 -0.005000292 -0.014589566
0.0336218 0.04463844 0.06496614 -0.07417633 0.026987404 0.045400593 -0.050446473 0.1282435
0.13880959 0.04586769 -0.064570084 -0.079655245 0.00412504 -0.033289995 -0.07867372 -0.05357499
0.03653595 -0.055482715 -0.009946921 0.050451607 0.033111632 -0.004181364 -0.095700726 0.008642319
0.012494727 -0.039667137 -0.015724488 -0.06726743 -0.07828754 -0.090566084 -0.025182337 -0.025873115
-0.031442583 0.121915825 -0.00093343965 -0.04015028 0.04059848 0.11606982 0.058158286 0.09279041
0.0014558104 -0.03643961 -0.052853175 -0.024243852 0.043123927 0.122332975 0.07401097 0.032441

fc2_mean.bias f4 [16]
00000000: 8c99 093d 3e1f 87bd 80a2 dabb 135c 4cbd
00000010: c0cd 84bd 7c88 453d c28b 33bd 4a98 153d
00000020: 3937 85bd 01e3 7cbd e75e 8cbd 7245 bf3c
00000030: a5e9 ff3c cd85 29bd 884f 3bbd fb3a a23c
0.0335937 -0.06597756 -0.0066722035 -0.049892496 -0.06484556 0.048225865 -0.043834455 0.036522187
-0.065046735 -0.061739925 -0.06854039 0.023348544 0.03123934 -0.041387368 -0.045730144 0.019803515

fc2_logvar.weight f4 [16, 64]
00000000: 788a 73bd 5a8c 0bbe 30ec 243d 9e91 353d
00000010: 09fc a53d 491f b63d 2878 4c3d 1b1c 873d
00000020: 61bc a83b 1e83 1fbd 7261 01be 83cf 99bd
00000030: cf13 b3bb 8684 c7ba 9832 863d f678 53bd
00000040: d2a1 bdbd 2ec6 98bd a668 2d3d 9e44 b43c
00000050: 513f 1abd 8d68 59bd f7d2 34be c416 9abc
00000060: db37 a2bd 615d 8b3d a7f3 a93c cab0 c4bb
00000070: 9d79 9b3d e1be 0fbc 9e0d 8d3d 4c8d 47bd
00000080: d9e0 f1bd f031 563c 2146 0cbd 68fe a13c
00000090: d047 5cbd c9ed ea3c 38c6 69bb d0a6 56bd
000000a0: b542 9c3d 3a1e 6b3d d90d 25bd 4888 533d
000000b0: 8069 c6bc d3b3 d13d 1e95 83bd a43b 46bc
000000c0: 1dd4 0abc fa3f 05bd 096b 043d d262 023e
000000d0: 6c4e 9cbd fcf6 a13d 0ae5 04bd ee0d 92bb
000000e0: f935 263d a034 af3d 381e 4d3d 0d41 8ebc
000000f0: 0cd9 9c3c 69c8 febd ff00 bbbd b432 6ebc
00000100: 258c 28bc 9aab b2bd c0c9 303c 6696 b5bd
00000110: 9db9 e7bb 98fc 9c3c 64f7 35bd 7d02 0a3c
00000120: c0af 5cbc 9800 873d 4750 2e3d 0593 023c
00000130: a7cf 13bd 8de8 c2bb 73ba e23c 6b25 d73a
00000140: 4774 e0bd 40be 5bbd 90eb 5e3d a466 e33b
00000150: b902 303d 2452 b8bc 0422 3dbd fa1c 7ebd
00000160: 2d12 00bd 77c7 4e3d 6c13 a4bc 07d2 6abc
00000170: 9214 993a ca63 3ebb d344 d23c 7645 60bb
00000180: e7ac a73c e8a8 863d 5d2e a13d 2677 2d3b
00000190: 5a1b b43d c7be 3bbc 00c6 a0bd ae72 c5ba
000001a0: 4b73 043d 05b7 91bd de0d 3bba babd a0bd
000001b0: 9c0a 8dbd f7ac 1e3d 0e46 e7bd 6a22 de3a
000001c0: 2c50 85bc 9c9a c5bc 8efe 7dbc c2e5 f4bc
000001d0: 8153 efbc 6b34 9c3d 9d10 8f39 15d5 393d
000001e0: 65f7 643c 8a4b 8b3d a8fa 8f3c 29fd 753c
000001f0: 57aa b1ba 28f0 ec3c b231 4cbd f70e ff3c
00000200: 4571 3f3c aadb ad3b a4cd 6c3d dff3 1ebd
00000210: d99f c9bd a3ce 18bd 8c7f 7b3d 56d8 a63c
00000220: 353b 8bbd 69f5 453c 738b 143c 856d abba
00000230: 3bb8 143d c92b 57bd bc0f 0c3d d924 91bd
00000240: 2b6b cf3a ee0d dc3d eb39 4b3d ce1e c63c
00000250: cce8 6e3c c901 67bb e842 dfbb b274 5bbd
00000260: cd10 40bc 1a4b b3bd e0cb 02bc 2274 c83c
00000270: dc48 37bd 9f6f dcbc 39b6 db3c 6fd9 babc
00000280: 3c77 b5bc c473 d13d 53d5 e73c e7a8 1a3c
00000290: b0bf 68bc 7e5f fa3a cf6b 863d 9021 13bd
000002a0: 99b7 1dbd 3068 1dbd 2386 1d3b e024 2dbc
000002b0: 40ac de3b e72b e73d c045 223c 2753 abbb
000002c0: f30c 553d 8fc1 afbc 3c0f 173c cb33 2cbc
000002d0: 7bbe 64bc 53c6 5dbd 9650 903a 6ebf 29bd
000002e0: e26e 973b 7514 31bd 3d7d 073d c284 52bc
000002f0: f964 b7bb 60e9 6e3d 396c 5abd 9738 2f3b
00000300: 9de2 223c 692a 543c b009 cb3c d5c1 683c
00000310: fc35 c73c 79cb 8dbd e68b 85bd a3cb 2e3d
00000320: 76be 70bd 5014 b3bd e8c3 59bb e39c 563d
00000330: a9bc c2bd 693f b4bd 576a 55bd c205 0e3d
00000340: 5914 c7bd 42b8 b23d abfa 363b acbb 6bbc
00000350: 82ca be39 a7fc 3abd 5bdd ee3c 772a e73c
00000360: ab43 8d3c c142 463e 3600 0e3d e31c 1abd
00000370: a4f9 dcba 56e6 8f3c e831 cfbd a9c5 31bd
00000380: 20c4 253d 5e49 cfbd 0340 55bb 1989 c73b
00000390: 0065 333c 731b 493b 8b2c b83d 0f17 19bb
000003a0: b325 223d 6f97 ae3d c76f debc 70bc c6bd
000003b0: 8a94 fc3d f492 983d 801b 98ba 4cdc 80b7
000003c0: 6861 f1bc 924f c4bc d0d5 11bd b06c 293d
000003d0: 5e13 913d 42f1 30bc b146 313c 6d8e 343d
000003e0: 451f 403c ee66 333d 4dea 86bd 3d98 893d
000003f0: 8801 2838 4a12 bb3d 43cd d4bb ef82 a83b
-0.059458226 -0.13627759 0.04026431 0.044328324 0.081047125 0.08892686 0.049919277 0.065971576
0.0051494096 -0.038943402 -0.12634829 -0.07510283 -0.005465008 -0.001522199 0.06552619 -0.05162903
-0.092593804 -0.07459675 0.04233613 0.022005375 -0.03765804 -0.053078223 -0.17658602 -0.018809684
-0.0792081 0.0680492 0.020746065 -0.00600252 0.07591555 -0.008773536 0.06887363 -0.048718736
-0.118104644 0.013073429 -0.034246568 0.01977463 -0.053779423 0.028677838 -0.0035671126 -0.05240518
0.07629911 0.057401873 -0.04029641 0.05164364 -0.024220228 0.10239377 -0.06424926 -0.01209918
-0.008473423 -0.032531716 0.03232864 0.1273301 -0.07632145 0.07908437 -0.03244499 -0.004457227
0.040578816 0.08554959 0.050077647 -0.017365003 0.019146465 -0.12440569 -0.09131049 -0.014538456
-0.010287319 -0.08724137 0.010790288 -0.08866577 -0.0070716874 0.019163415 -0.044425383 0.008423445
-0.013469636 0.0659191 0.042557027 0.0079696225 -0.036086705 -0.0059481324 0.027676797 0.001641435
-0.10959678 -0.053648233 0.05442387 0.006939726 0.042971347 -0.022500105 -0.046175018 -0.062039353
-0.031267334 0.050483193 -0.020028792 -0.014332301 0.0011679104 -0.0029051178 0.025667584 -0.003422109
0.020468188 0.06575185 0.07870171 0.0026468723 0.087942794 -0.011459059 -0.078502655 -0.0015064084
0.032336514 -0.07114986 -0.000713555 -0.078486875 -0.06886789 0.03873917 -0.11292659 0.0016947512
-0.01627358 -0.024121575 -0.015502585 -0.029894713 -0.029214622 0.076271854 0.00027287463 0.045369226
0.013974999 0.06801517 0.017575577 0.015013971 -0.0013554794 0.02892311 -0.04985208 0.031135065
0.01168472 0.005305727 0.0578133 -0.038806792 -0.09844942 -0.03730644 0.061400935 0.020366829
-0.06798402 0.012082436 0.00906645 -0.0013078904 0.03630851 -0.05253199 0.034194693 -0.07087106
0.0015824785 0.107448444 0.04961578 0.02418461 0.01458187 -0.0035248867 -0.006813396 -0.053578086
-0.011722756 -0.08754559 -0.007983178 0.024469439 -0.04474722 -0.026908694 0.026820289 -0.022808759
-0.022151582 0.10227159 0.028299963 0.0094396835 -0.014205858 0.0019101945 0.065635316 -0.03592068
-0.03850517 -0.03842944 0.002403625 -0.010567874 0.006795436 0.112876706 0.009904325 -0.0052284184
0.052014302 -0.0214546 0.009219941 -0.010510395 -0.01396143 -0.054144215 0.0011010345 -0.041442327
0.0046213726 -0.0432324 0.03307842 -0.012849035 -0.0055967537 0.058328032 -0.053325865 0.002673661
0.009941724 0.0129495645 0.024784893 0.014206369 0.024317734 -0.06923575 -0.06520824 0.04267467
-0.058775388 -0.08744109 -0.0033228341 0.052395713 -0.0950864 -0.08801157 -0.052103367 0.03467346
-0.09720678 0.08726551 0.0027920406 -0.014388006 0.00036390504 -0.045651104 0.029158285 0.028218491
0.01724418 0.19361402 0.03466817 -0.037625205 -0.0016859067 0.017565887 -0.10116941 -0.043401394
0.040470243 -0.101214156 -0.0032539375 0.0060893414 0.010949373 0.0030686527 0.08992871 -0.0023359691
0.039586734 0.085249774 -0.027152909 -0.0970391 0.12333019 0.07449904 -0.0011604875 -1.5361373e-05
-0.029465392 -0.023963723 -0.035604298 0.041363418 0.07083772 -0.010799708 0.010820077 0.04408114
0.011726205 0.043799333 -0.06587658 0.0671849 4.0055747e-05 0.09134348 -0.0064941957 0.0051425616

fc2_logvar.bias f4 [16]
00000000: cb6f 383d efc1 b33c 18f7 c73c a3ef dabc
00000010: b491 e5bc 7baa 513d 2e3d 14bc fae7 563d
00000020: 25ba dd3c c6d3 b5bc 5ad5 5dbd e9c5 6d3d
00000030: f503 6739 f5a3 03bd 69d2 e13c d38b c6bb
0.04502849 0.02194306 0.024409816 -0.026725596 -0.028023578 0.051187973 -0.0090477895 0.052467324
0.0270663 -0.022195708 -0.054158546 0.05805007 0.00022031351 -0.032138783 0.027566152 -0.006059149

fc3.weight f4 [64, 16]
00000000: eba0 2dba e111 a4bd cc3a 77bd e61b c83d
00000010: dccd 6bbd a1f1 9abc 4ebb 203c 44db 9b3d
00000020: be8e ebbd 6fd9 a5bd c153 553d 4b97 d1bd
00000030: 0d76 2dbe 8136 1dbd f2e7 c23d 9e60 dbbd
00000040: 1302 fdbd 7853 ac3c 93ae ecbc 3e9b 63bc
00000050: a2b2 023e d055 7b3d 9501 803d a0dc 393d
00000060: 2330 1abe 872b 133d d9e9 893b 27bd 14bd
00000070: 83d7 2abd 5373 b73d aefc e2bd d7ef 283e
00000080: 676e f43d bf23 1e3d 3fcd 223e dc5e a83c
00000090: bf65 a0bd ceec 343e 9eae f03d 7aee 6dbc
000000a0: ce8c 653c 0fef aebc 7e5f cbbd f9ea 163e
000000b0: 6f9e 0fbd daf0 073e 22d4 cf3c d717 e93b
000000c0: b0f1 3c3e 179f c53d 7bdf 14bc e56c ddbd
000000d0: bab3 b63d 1fe9 f53c 5422 d23d 374b 8d3d
000000e0: 95ce 2a3e 3774 36bc d323 9b3d 52f7 02be
000000f0: 6b61 23be 57b5 9fbd 5230 fcbd b605 f6bd
00000100: f180 1dbe 890b 643e f108 473c b7f8 1bbb
00000110: dcce 25bd 7296 9ebd ada1 443e 6a39 303e
00000120: b65e 41be 874e 82be bcd4 1abe 2327 353c
00000130: 16eb 38be 6d0e a23c 1226 b8bd 8ec1 8a3d
00000140: a202 823d 2b6e ffbd f448 b83d 81b1 75bd
00000150: b056 e6bd 5a33 b8bc 4a53 03be 6758 8a3e
00000160: 74c3 1f3d a05f c3bd 36a9 0abd 7262 2e3e
00000170: a253 543e 9cb0 41be 9ae2 2b3e a08e 4fbe
00000180: 8f67 ba3d 2e2b 393d 8c04 5d3e d19d 153d
00000190: 8784 813d 1ff6 073d fc61 4abe cf3b 153d
000001a0: fbb7 c53d 02fd 863d 5c81 a63d 324e 35be
000001b0: 30f6 d63d fa96 68be 59a3 563c 4080 43be
000001c0: efd9 c2ba 7ce3 9c3a e3ab a7bd 2086 0f3e
000001d0: 84b4 0a3e 5538 3dbd e0e0 6e3d e276 45be
000001e0: 4771 fabc 6001 30bd be2a 04be a063 903d
000001f0: 9b37 333e 6942 313d 39f7 fcbd f9a9 4bbc
00000200: 4601 163d c0fb a83d 6632 613e ed2a 353e
00000210: e205 57bd c80b bf3b 6e2e f8bd a268 373d
00000220: 27af 3c3e c442 97bd 11da f73d ed2e 303e
00000230: 5a73 61bc 06af f5bd a3bd d13d 5895 393e
00000240: 53b2 33be 82dd d73d c4ce f7bd a923 f4bd
00000250: 36a6 d6bd d11a 36be 3db8 1ebe a918 343e
00000260: 694a ecbd 092d 603c 7e38 273e 5ae2 64ba
00000270: 7ea9 c13d eb17 053e d96a 1a3e 7b20 70bc
00000280: 03a5 f93d c9bb febd 643a 0b3b 1f4d 513d
00000290: a30e 5dbe c86c 273e 617e 03be 19ad 763c
000002a0: 0401 e4bb c03f 0fbd 59e9 163e 487d e9bd
000002b0: 0ad1 b53d 4daf 873d 0085 3f3e e1a1 e43d
000002c0: 99f8 bc3c 0d55 063d 19ff 30bd 6535 6b3e
000002d0: de79 d43d 38e3 493e 8d82 e33d e647 1e3e
000002e0: 2fe0 1ebd 6949 b73d 9ecd dabd 5528 3e3e
000002f0: fd5a 223e 40ad 553e 3e92 2f3e f193 163d
00000300: f7d6 b23d 9461 82bd d177 493e 5eac e4bd
00000310: e92a ea3c 372a 503d e401 3bbd 0894 eb3c
00000320: 5b7f c03d 9971 26be bddb cbbd 5e13 013e
00000330: 4473 28bd 3021 51bb 04a7 2dbe 88db 05bd
00000340: 8f12 9a3d 5948 aebd c4b2 1dbe 3c1f d7bd
00000350: 0494 d0bd 55db 0f3e 5e73 ee3d 282d 88bd
00000360: 0502 113e e97d 0ebe 9356 2b3d 00c6 1dbe
00000370: 9cf0 f93d a665 e43b 8241 9e3d f59d 4a3e
00000380: 7e9a 313d 0dac f33d 33f9 d33d d146 d73d
00000390: c440 ddbd 29d6 fcbd ed43 cdbd 4fc8 9bbd
000003a0: a5e0 ddbc 7e64 6cbd 553f 19bd e01a 4d3a
000003b0: ca51 9abd a18f 80be be2c 83be 314c 78bb
000003c0: 881d 653e f655 b7bc 490e 96bc 3ad6 adbc
000003d0: 69f0 5cbe b8ec 6b3c 0616 1b3e e402 35be
000003e0: 4996 0ebe 9634 223e f6aa b7bb 7d59 2abc
000003f0: fcda 75be 1c84 7f3e 95bd 48be 4eb5 43bd
-0.0006623405 -0.08011223 -0.060358807 0.09770946 -0.05756937 -0.018914046 0.009810282 0.07610181
-0.11501835 -0.08098113 0.052081827 -0.10233935 -0.16939564 -0.038382057 0.09516896 -0.10711788
-0.12353911 0.021035895 -0.028891837 -0.013891993 0.12763456 0.061361134 0.06250302 0.04537642
-0.15057425 0.035930183 0.004208785 -0.036313202 -0.041709434 0.08957543 -0.11083351 0.16497742
0.1193512 0.03860831 0.15898608 0.020553045 -0.078319065 0.17668459 0.117520556 -0.014522189
0.014010621 -0.021354226 -0.09930323 0.14738072 -0.035063203 0.13275471 0.025369707 0.0071134376
0.18451571 0.096494846 -0.009086485 -0.108117856 0.08920999 0.030018387 0.10260454 0.06899112
0.16680367 -0.011136106 0.07575192 -0.12789658 -0.15955131 -0.0779826 -0.12313904 -0.12012808
-0.15381218 0.22270025 0.012148128 -0.0023799369 -0.04048048 -0.07743539 0.192023 0.17209402
-0.18883786 -0.25450537 -0.15120214 0.011056694 -0.18058428 0.01978227 -0.08991636 0.06775199
0.063481584 -0.12472185 0.0899829 -0.059983734 -0.11247003 -0.022485424 -0.12824741 0.2702057
0.039004758 -0.095397234 -0.03385278 0.17029741 0.20735028 -0.18915027 0.1678566 -0.20269251
0.091017835 0.045207195 0.21583766 0.03652746 0.06324106 0.033193704 -0.1976394 0.03643399
0.09654232 0.06591226 0.08130142 -0.1770561 0.10496175 -0.22713843 0.013100469 -0.19091892
-0.0014865975 0.0011969651 -0.08187082 0.14016008 0.13545424 -0.0461963 0.058319926 -0.19283631
-0.030571593 -0.04297006 -0.1290693 0.07050252 0.1750168 0.043276224 -0.123518415 -0.012430661
0.03662231 0.082511425 0.21991882 0.17692156 -0.052495845 0.005830262 -0.12118231 0.04477752
0.1842619 -0.073857814 0.1210214 0.17205401 -0.013760412 -0.11996274 0.102412485 0.18123376
-0.17548494 0.10540296 -0.12099984 -0.11920864 -0.10480921 -0.17783667 -0.15499969 0.17587532
-0.1153763 0.013682612 0.16330144 -0.0008731239 0.09456156 0.12997405 0.15079822 -0.014656181
0.121896766 -0.12438161 0.002124452 0.05109894 -0.21587615 0.1635009 -0.12841178 0.015055918
-0.006958129 -0.034972906 0.14737453 -0.114008486 0.08877762 0.06625233 0.18703079 0.111636885
0.02306776 0.032795954 -0.04321203 0.22969587 0.10374807 0.19715583 0.11108885 0.15457115
-0.038788017 0.08949549 -0.106837496 0.18570073 0.15855022 0.20866871 0.1714563 0.03676218
0.087324075 -0.06366268 0.19674613 -0.11165689 0.028584914 0.05082151 -0.0456561 0.02875711
0.09399291 -0.16254272 -0.09954021 0.12605044 -0.04112555 -0.003191065 -0.16958243 -0.032680064
0.07523071 -0.08509893 -0.15400225 -0.10504004 -0.10184482 0.14048512 0.11643098 -0.06649238
0.14160927 -0.13915218 0.04183061 -0.15407562 0.12204096 0.0069701253 0.077273384 0.19786818
0.043360226 0.118980505 0.10350265 0.10511554 -0.10803369 -0.12345535 -0.100227214 -0.07606565
-0.027084658 -0.057713024 -0.037413914 0.0007824134 -0.07535131 -0.2510958 -0.25620073 -0.003788721
0.22374547 -0.022379857 -0.018317359 -0.021220315 -0.21576084 0.0143997 0.1514512 -0.17676884
-0.13924517 0.15840372 -0.005605097 -0.010397312 -0.24009317 0.2495274 -0.1960357 -0.047780327

fc3.bias f4 [64]
00000000: a48e 94be 0e6b d3bd 2768 73be 6c99 07be
00000010: e3f0 e8bd 88bc 423d 567d afbd 14a2 52be
00000020: 1624 43be 1e50 863e ad88 8a3e adf8 ce3e
00000030: 061b db3e 5c2b 633e ae28 27be 1ed9 383e
00000040: eae4 4e3e c7a8 f1bd 08a0 68bd f018 933a
00000050: b1ee 773b 9809 1ebd 3f80 89bd 693e 97bd
00000060: b5ca acbc 584e 2abd 3146 9d3c c650 b53e
00000070: 8b49 883e 23c7 05be 1e6f 253e 8142 40be
00000080: fdef a83e 7d6b aabd e8b8 7e3e ec1f 803e
00000090: 0dde 523d d3dc 00bd 37c3 8d3d a035 433d
000000a0: 805c 67bd ab8a cc3e 62c1 58be e7ab 083d
000000b0: 448d ae3d 061d a5bd 5e4a bf3d 3af4 c33e
000000c0: ef2e 1c3e 16d1 853e 0638 f3ba ce87 93be
000000d0: d389 f33c cf6f 753e 6e58 393e 9b18 cd3d
000000e0: 1caf 6b3e 152c 873e 2329 81bd bb85 2b3d
000000f0: 0a21 71bd c1bc 15be 0d53 dd3e 3748 0d3e
-0.29015076 -0.103231534 -0.237702 -0.1324212 -0.113740705 0.04754308 -0.08568828 -0.2056964
-0.19056734 0.26233 0.270574 0.404241 0.42794055 0.22184509 -0.16324112 0.18051574
0.20204511 -0.1179977 -0.056793243 0.0011222642 0.003783148 -0.038583368 -0.06713914 -0.07384951
-0.021092752 -0.04157862 0.019198509 0.35413188 0.2661861 -0.13064246 0.16155669 -0.18775369
0.32995597 -0.08321283 0.24875224 0.25024354 0.051481295 -0.031460594 0.06922 0.047658563
-0.0564847 0.39949545 -0.2116752 0.033367064 0.08523038 -0.080621764 0.09340356 0.38272268
0.15252279 0.26136082 -0.0018556125 -0.28814548 0.029728806 0.23968433 0.1810014 0.10014459
0.23016018 0.2640082 -0.06306674 0.041875582 -0.0588694 -0.14622785 0.43227425 0.13797079

fc4.weight f4 [11, 64]
00000000: 7e85 41bd e1e1 4a3d 0a3d 9e3d 5cfe 82bb
00000010: 2949 49bd 3340 413d 0cdc 15bd bd18 623d
00000020: 2aaa 5cbd 8df4 5fbd 79cc 26bd 1cfa 0ebd
00000030: 36e5 e93b ecdc 2cbd 776a 183d fc4f 67bd
00000040: a3be 0bbd 43e2 363c 566e 323d 65cd 20bc
00000050: 7ae9 da3c 36f4 3a3d 2d32 c6bc 160f af3d
00000060: d552 233d 574b 9abd 0d25 94ba 186f 3ebd
00000070: 5991 b73d d65a 62bd e792 90bc f4d6 923c
00000080: 1b6c 18bd b941 0bbd 881a 1bbd 8e79 4bbd
00000090: 5f82 ddba df49 47bc e316 3e3b e3ac 0cbd
000000a0: cb82 2dbd 9990 aebc 00f3 f1bc 69a0 9c3b
000000b0: a0bc 1fbd 51ae e33c 5820 35bd b3eb 62bc
000000c0: 2518 5e3d d2f5 ed3c 5b37 60bc ed80 25bc
000000d0: 293c ccbc 67f0 8d3d 6092 4d3d 2811 26bd
000000e0: be36 2dbd d3c3 6bbd d812 3bbd 1e35 73bc
000000f0: 08fb 62bd 22c7 373d 489a e83b a59f 96bb
00000100: 0e29 723d e0fa a93c aeee 01bd 247f fe3b
00000110: 6031 e53c 17a7 663d 6de7 26bc ec8a 62bd
00000120: a618 483d 9657 cabc aac5 523d 24fb c83c
00000130: 0a80 973d a647 943c 649e 2dbc ab02 043d
00000140: d026 463c 221e 9bbb 422e 59bd 2edc 47bd
00000150: f157 86bd 8f31 88bc cc48 fbbc 82b9 653d
00000160: 0b11 e8bc 0da7 46bd 8cdd 963c 668a 023d
00000170: c1d9 db3d 9b3a 2e3d 1634 883c 7334 1fbc
00000180: 397c b93c 6cb2 a33d d475 16bd 3f5e 1ebd
00000190: d807 fdbb 5aaa 4a3d 3b10 1b3d 62e9 303d
000001a0: 22c0 80bd 68ab e13c a49d 6bbd 6d65 15bc
000001b0: 1b28 913d 0f9c 383d 12f3 c23d e81a 953d
000001c0: edcc 1c3d f430 bcbc 4c00 49bd 1469 9abb
000001d0: 2a5d f0bc 089d 5f3d 481e 8c3d 28e3 39bc
000001e0: d1c8 fb3c 5d6e f1bc 3788 ffbc 624a 16bd
000001f0: 184f 683d 3bfa 94bc 5489 2e3d 5fa3 86bd
00000200: 3a22 12bd af7c 0ebd 862b 08bd e1f0 a9bb
00000210: b992 0e3d 1c57 943d a6f9 8b3b d434 5d3c
00000220: 2bbe fa3c 8b6d 3fbd c73e 80bd 060c 873c
00000230: 694d da3b 9b65 c93c 915a 27bd 9253 4b3d
00000240: d42f c53c e9b5 3b3c 2dca 2a3b 2fc6 193d
00000250: c97f 683d 64dc d0bc bc18 fcbc cbf0 81bd
00000260: d846 0abc 07f0 02bc bf9d 91bc fe4f 033e
00000270: 83a6 c63d 3764 80bd 7264 263d 4640 8dbd
00000280: 97eb ab3b 7c51 c03c 3816 ba3d 52f9 313d
00000290: c007 d43b b7c2 393d 6596 e83c c92b b53c
000002a0: 742a 383d fe7a 713c 0746 00bd d8db 73bc
000002b0: af24 5bbd 708a 233b eefc ffbc 2da5 843d
000002c0: 8f45 733c b48c a03c 2362 ad3d 3ffe cbbd
000002d0: 5978 da3d 8d97 bebc d26d 8b3d 35d7 1abb
000002e0: a320 c33d e393 ab3b 3aba 22bd 096c 843d
000002f0: 80af bcbb d6a2 09bb a3d1 af3d 76f8 973c
00000300: d03f bc3d 201c 1c3d 581e 393d 8bca 463d
00000310: 1d85 47bd 3cff 0bbd aa51 8c3b f7d1 35bd
00000320: 026e 373c 990a 9d3d 45f5 a4bc 813b b23d
00000330: c316 063e 63ee 753c 3fe8 07bd a09d b23d
00000340: 8d7c c13d e6b4 bf3c 131d 07bd 4e7c 863b
00000350: f844 07bd 861c d8bc 0a76 c43b 40ad b03d
00000360: b2d4 aa3c 8c7f 9ebd bad3 253a fdee dfbb
00000370: 3756 aa3d cc50 a03d 5350 223d 7208 68bd
00000380: 9221 903c 04a4 f138 e45c 8c3d 3d32 f93b
00000390: bca5 b6bd e24f 023d 5760 a0bc bda1 013d
000003a0: e1d6 973d 7187 893b ad9c e8bc 1828 d2bc
000003b0: 7b82 02bc 3d84 ab3d fd05 eebc 81e1 d03d
000003c0: ad21 a73d edba 0f3e 0b5e 1dbd 7f26 f83c
000003d0: ecaf e43c 4fc4 af3d 07ce aa3d d102 84bd
000003e0: 5dbf 5b3d dc67 cf3c a767 dc3a 816d 723b
000003f0: d1b0 24bc ad6a b8bd 653a d13a b30f fabc
-0.04724645 0.04953182 0.07726486 -0.003997607 -0.049142037 0.047180366 -0.036586806 0.055199374
-0.05387322 -0.05467658 -0.040722344 -0.03490649 0.00713792 -0.042202875 0.037210908 -0.056472763
-0.034117352 0.011162343 0.043562256 -0.009814595 0.026722658 0.045643054 -0.024193848 0.08547799
0.039873917 -0.07533901 -0.0011302546 -0.046492666 0.0896327 -0.05526241 -0.017648173 0.017924763
-0.037212472 -0.033998225 -0.0378671 -0.04967647 -0.0016899816 -0.012163608 0.002900534 -0.034344565
-0.042361062 -0.021309184 -0.029534817 0.0047798646 -0.038998246 0.027793081 -0.0442203 -0.01385014
0.054222245 0.02904788 -0.013685073 -0.010101539 -0.02493103 0.06930619 0.050188422 -0.040543705
-0.042288534 -0.0575598 -0.045672268 -0.014844207 -0.055415183 0.044867642 0.00709847 -0.004596668
0.059121184 0.02074951 -0.031721763 0.007766621 0.027977645 0.056311693 -0.010187012 -0.055308267
0.04885163 -0.024699967 0.05145804 0.024533816 0.073974684 0.01810057 -0.010596845 0.032229107
0.012094215 -0.0047338167 -0.05302263 -0.048793964 -0.06559742 -0.016625194 -0.03067436 0.056085117
-0.02832844 -0.048499156 0.018416189 0.03187027 0.10734893 0.04253636 0.016626399 -0.009717095
0.022642242 0.07993016 -0.036733463 -0.0386641 -0.0077218823 0.049478866 0.037857275 0.04319132
-0.062866464 0.027547553 -0.057523385 -0.00911842 0.07087728 0.045070704 0.09519018 0.072805226
0.03828137 -0.022972561 -0.04907255 -0.0047122333 -0.0293413 0.054593116 0.06841713 -0.011345662
0.030735405 -0.02947157 -0.031192882 -0.03669203 0.056716055 -0.018185725 0.042611435 -0.06574129
-0.035677172 -0.034786876 -0.033244632 -0.0051861857 0.034807894 0.07243177 0.004271704 0.013501365
0.030608257 -0.046735328 -0.06261974 0.016485225 0.00666206 0.024584582 -0.040857855 0.049640246
0.024070658 0.011456945 0.0026060448 0.03754252 0.05676249 -0.025495715 -0.030773513 -0.06344756
-0.008439742 -0.007991797 -0.017775415 0.12823483 0.09699728 -0.062691145 0.040623136 -0.06897025
0.0052465904 0.023476355 0.09086269 0.04345066 0.0064706504 0.04535171 0.028392026 0.022115605
0.04496236 0.014738796 -0.031316783 -0.014883958 -0.05350178 0.0024954341 -0.031248536 0.06476817
0.014848127 0.019598342 0.08465984 -0.09960603 0.10667486 -0.023265624 0.06808056 -0.0023626809
0.09527709 0.0052361353 -0.03972838 0.064659186 -0.005758226 -0.0021001599 0.08584907 0.018551093
0.09191859 0.03811276 0.045194954 0.048533004 -0.04871093 -0.034178957 0.004282196 -0.04438969
0.0111956615 0.07668037 -0.020136485 0.08702756 0.1309462 0.015010449 -0.03318047 0.08721471
0.09447584 0.023401689 -0.03298671 0.0041041737 -0.033024758 -0.026380789 0.0059955167 0.08626795
0.020853374 -0.077391714 0.00063258 -0.0068339095 0.083172254 0.07827911 0.039627384 -0.05664868
0.017594133 0.00011522326 0.06853655 0.007604866 -0.0891833 0.031814463 -0.019577188 0.031648386
0.07414032 0.004197054 -0.028395021 -0.025653884 -0.007965679 0.08374832 -0.02905559 0.101992615
0.0816072 0.1403615 -0.038419764 0.030291794 0.027915917 0.08582365 0.08340078 -0.0644585
0.053649295 0.025318079 0.0016815559 0.003699154 -0.010051922 -0.09004722 0.0015962837 -0.030525064

fc4.bias f4 [11]
00000000: 223a 893c 2c0f b93d f4d2 9f3c 3174 5bbc
00000010: 3487 e4bd 19f4 09bd 3dd6 11bd 57ea c8bd
00000020: 9cee 673c 4865 4f3d 364b 08be
0.016751353 0.09036097 0.01950977 -0.013394401 -0.111586004 -0.033680055 -0.035604704 -0.09810322
0.01415601 0.0506337 -0.1330994
