src/VAE/vae_models/user_7_vae.pth (torch, 22306 bytes, 10 tensors)

fc1.weight f4 [64, 11]
-0.05093513 -0.21230982 0.13847418 -0.31575114 -0.23883086 -0.031934798 0.06417486 -0.077619694
-0.18244845 -0.20968068 -0.1372392 -0.22914347 0.21245085 -0.039389066 -0.124451555 0.24438699
0.19490953 0.15253402 0.06485626 0.27572736 0.15514992 0.12907524 0.18919365 -0.24457471
-0.13388193 0.14505729 -0.005361337 0.067213334 -0.04225988 0.121741995 0.081094086 -0.030410876
0.048060246 -0.15989916 0.11908694 -0.12230728 -0.077221535 -0.13487871 -0.07588722 -0.0015518626
0.19913416 0.0016802683 0.17189412 0.15833096 0.19382311 0.19560641 0.2884044 -0.23840295
0.077079326 -0.1095803 -0.16062607 0.24633594 -0.18713176 0.2701961 -0.11053216 0.21115077
0.13956305 0.21061377 0.21836469 0.06624001 -0.060707215 0.20411311 0.17837267 0.26540038
-0.27159527 -0.24601053 -0.3367286 0.1971026 -0.06315921 0.24431013 -0.23621695 -0.065961994
-0.18273562 0.23192687 -0.25010002 -0.14190903 -0.024127029 -0.036839705 -0.23982821 0.12628855
0.17687027 0.14780712 -0.13358423 -0.12558298 -0.033489272 -0.048204407 -0.028191956 0.10710172
-0.1644394 -0.25329834 0.076121576 -0.06412741 -0.034064908 0.25329039 0.14320375 -0.048530113
-0.224266 -0.10341468 -0.091695696 -0.122001715 0.26216453 0.08100092 -0.09926768 0.06215839
-0.16804796 0.29045975 -0.061344866 0.034325153 -0.14101392 0.10145974 -0.22203958 0.062711366
0.17616926 -0.15550879 0.17506333 -0.27130982 -0.31040868 0.08716351 -0.036487184 -0.27162486
-0.25896567 0.026536051 -0.14258873 -0.044709012 -0.17551266 0.07214073 0.14404869 0.26861048
-0.13654701 -0.07282583 -0.09676257 -0.15298493 -0.0076249256 -0.19478345 0.104638755 0.2513202
0.006380524 0.09278632 0.02000209 0.21481906 -0.063271195 0.141156 -0.16095048 0.061672613
-0.19200584 0.19070631 0.2795233 0.1496307 0.24225694 0.020904606 0.119775936 -0.11649757
-0.012047684 0.19604103 0.25607094 0.27540904 0.03861699 -0.027371028 0.13544771 0.19479838
-0.10588254 0.03765313 -0.058204774 0.033546068 -0.018127222 -0.2698777 0.10135162 -0.21966094
-0.24527407 0.046869215 -0.2788999 0.16164815 -0.004340435 0.18339565 -0.17645301 -0.087335125
-0.17042375 -0.1524895 -0.27534872 0.26519543 0.0016383298 0.025221769 0.17606032 0.2124931
-0.05880516 -0.15015261 -0.31751114 -0.1279699 -0.12372526 0.11631481 -0.22310048 0.10602899
-0.07026759 0.24096611 0.044333883 0.073986 0.031420477 0.29369998 -0.012144937 0.0050788517
-0.18363594 -0.18128698 0.24511696 0.08368701 0.123125754 0.014345044 0.2153915 0.11480312
0.13152273 -0.10610597 0.1539902 0.28892797 -0.116402015 0.2865657 0.025497494 0.053410802
-0.0102503095 0.10539815 -0.06454218 0.21680513 0.2252657 0.08432616 -0.037847497 0.26132524
0.2576654 -0.1787206 0.06403162 -0.11411859 -0.18788232 -0.04475142 -0.13167925 0.004083099
0.07876842 -0.13462852 0.09035607 0.079896346 0.00085737184 -0.192839 0.18721509 0.043367453
0.023515584 -0.17492716 -0.036446847 0.08112747 -0.1360781 0.28289166 -0.09306259 -0.053965174
-0.040673546 0.09216083 -0.16267195 0.19624078 -0.062032953 -0.24057841 -0.18828389 0.22297587
00000000: 5ba1 50bd bf67 59be 2dcc 0d3e 22aa a1be
00000010: 1490 74be 10ce 02bd 1c6e 833d 13f7 9ebd
00000020: c4d3 3abe 88b6 56be 6f88 0cbe 96a4 6abe
00000030: b78c 593e 6e56 21bd 75e0 febd 9540 7a3e
00000040: 5d96 473e e131 1c3e 5cd3 843d 232c 8d3e
00000050: 9fdf 1e3e 4d2c 043e fbbb 413e cb71 7abe
00000060: 5818 09be e689 143e 28ae afbb 25a7 893d
00000070: b218 2dbd de53 f93d a814 a63d 3b20 f9bc
00000080: d2da 443d 9bbc 23be dbe3 f33d 3d7c fabd
00000090: 5326 9ebd a51d 0abe c26a 9bbd de67 cbba
000000a0: d3e9 4b3e 733c dc3a 0305 303e 8321 223e
000000b0: 9179 463e 0c4d 483e bea9 933e e71f 74be
000000c0: c4db 9d3d a36b e0bd 297b 24be 7d3f 7c3e
000000d0: 789f 3fbe 2557 8a3e af5e e2bd e837 583e
000000e0: 9ee9 0e3e 23ab 573e fe9a 5f3e d8a8 873d
000000f0: 21a8 78bd 0703 513e 53a7 363e 8fe2 873e
00000100: 890e 8bbe 2fea 7bbe b167 acbe 44d5 493e
00000110: 9e59 81bd 6f2c 7a3e dbe2 71be 1517 87bd
00000120: 0c1f 3bbe 3d7e 6d3e 1c0d 80be 9a50 11be
00000130: 0ca6 c5bc 3be5 16bd 8795 75be c951 013e
00000140: 7b1d 353e c05a 173e 4eca 08be d398 00be
00000150: 0c2c 09bd fc71 45bd d1f2 e6bc 2658 db3d
00000160: cd62 28be 52b0 81be a1e5 9b3d 3b55 83bd
00000170: a587 0bbd 47af 813e 01a4 123e 83c7 46bd
00000180: fca5 65be 13cb d3bd f4ca bbbd 09dc f9bd
00000190: 6e3a 863e cfe3 a53d da4c cbbd cc99 7e3d
000001a0: c414 2cbe 24b7 943e c144 7bbd 8898 0c3d
000001b0: f465 10be 20ca cf3d 585e 63be d16e 803d
000001c0: b765 343e b23d 1fbe cd43 333e 1fe9 8abe
000001d0: e3ed 9ebe c882 b23d 9673 15bd 6a12 8bbe
000001e0: 2697 84be 2262 d93c c802 12be cc20 37bd
000001f0: 97b9 33be 85be 933d 8081 133e 5087 893e
00000200: fbd2 0bbe b525 95bd 742b c6bd 15a8 1cbe
00000210: 83da f9bb 5075 47be d84c d63d 0bad 803e
00000220: b713 d13b c106 be3d 6cdb a33c 87f9 5b3e
00000230: 5494 81bd 338b 103e 34d0 24be 6c9c 7c3d
00000240: 2e9d 44be 8448 433e ae1d 8f3e ca38 193e
00000250: 3412 783e 2340 ab3c 164d f53d 4796 eebd
00000260: a663 45bc fbbe 483e bb1b 833e 6a02 8d3e
00000270: d92c 1e3d 3539 e0bc ceb2 0a3e 3a79 473e
00000280: f2d8 d8bd 2b3a 1a3d 2168 6ebd 9a67 093d
00000290: 8a7f 94bc 692d 8abe 7091 cf3d ccee 60be
000002a0: 2029 7bbe eff9 3f3d f8cb 8ebe 1887 253e
000002b0: 353a 8ebb 12cc 3b3e 19b0 34be c2dc b2bd
000002c0: 9083 2ebe 3526 1cbe 82fa 8cbe b2c7 873e
000002d0: 3abd d63a e29d ce3c 2849 343e cb97 593e
000002e0: aedd 70bd 9bc1 19be d290 a2be 8b0a 03be
000002f0: ab63 fdbd 7636 ee3d 7474 64be ba25 d93d
00000300: 74e8 8fbd d2bf 763e 7297 353d f985 973d
00000310: c2b2 003d d85f 963e 8ffb 46bc 7f6c a63b
00000320: 0f0b 3cbe 4ba3 39be f1ff 7a3e 1864 ab3d
00000330: 5b29 fc3d 7a07 6b3c 978f 5c3e e61d eb3d
00000340: e5ad 063e 164e d9bd 9baf 1d3e 5eee 933e
00000350: 2e64 eebd bdb8 923e 1fe0 d03c 49c5 5a3d
00000360: eaf0 27bc fcda d73d b12e 84bd 2a02 5e3e
00000370: 0dac 663e 32b3 ac3d fa05 1bbd 6ccc 853e
00000380: b8ec 833e 8802 37be 0323 833d 02b7 e9bd
00000390: 3964 40be 444d 37bd edd6 06be 84cb 853b
000003a0: 5651 a13d 0fdc 09be 9a0c b93d b2a0 a33d
000003b0: 40c1 603a 9677 45be 50b5 3f3e 12a2 313d
000003c0: c1a3 c03c 1b20 33be 4a49 15bd 2926 a63d
000003d0: 0f58 0bbe 2dd7 903e 9997 bebd 960a 5dbd
000003e0: 4e99 26bd d1be bc3d 7a93 26be 58f3 483e
000003f0: 4416 7ebd 305a 76be 7ecd 40be c953 643e

fc1.bias f4 [64]
0.13913298 -0.21515761 0.12658207 0.17487897 0.19294469 -0.16184781 -0.14979787 -0.23229769
-0.16961467 0.21160674 0.04424488 -0.23825622 0.16229498 -0.14987707 -0.20363688 -0.24202299
-0.22532088 0.17348295 0.15466882 0.13663287 0.1483313 0.2546039 0.14138894 -0.084059246
0.1871054 0.010195179 0.20700818 0.23723686 0.20670938 -0.051650647 -0.16360812 -0.09347916
-0.13859499 0.014458551 -0.2049657 0.16996445 0.25442484 -0.018820997 -0.12906416 0.0710898
0.01665801 0.11789083 -0.17718236 0.07994464 0.053112708 0.20182057 0.2056227 0.16632548
0.2644178 -0.29171956 0.24585699 -0.14724156 -0.07198223 -0.2913768 0.1770219 0.1809108
-0.1012284 -0.23562965 -0.006465591 -0.034645345 -0.28509077 0.17356049 -0.24261232 0.029426903
00000000: e078 0e3e 4752 5cbe bb9e 013e 7913 333e
00000010: 4b93 453e 6fbb 25be 9d64 19be 72df 6dbe
00000020: 78af 2dbe 70af 583e 1f3a 353d 70f9 73be
00000030: a830 263e 6079 19be 3086 50be e0d4 77be
00000040: 84ba 66be 84a5 313e 8161 1e3e 7de9 0b3e
00000050: 29e4 173e 715b 823e 43c8 103e 4127 acbd
00000060: 8f98 3f3e ae09 273c f4f9 533e 38ee 723e
00000070: a0ab 533e a18f 53bd e388 27be 0072 bfbd
00000080: d8eb 0dbe 8fe3 6c3c 87e2 51be 290b 2e3e
00000090: f943 823e 7e2e 9abc 6529 04be 8797 913d
000000a0: 6176 883c bf70 f13d 4b6f 35be 04ba a33d
000000b0: b68c 593d 0daa 4e3e c28e 523e 3a51 2a3e
000000c0: c561 873e 445c 95be efc1 7b3e 7ec6 16be
000000d0: 6b6b 93bd 572f 95be 3b45 353e ae40 393e
000000e0: d650 cfbd e648 71be 4fdd d3bb 47e8 0dbd
000000f0: 6bf7 91be d7b9 313e 5d6f 78be b010 f13c

fc2_mean.weight f4 [16, 64]
0.05102208 -0.05674844 -0.065632164 -0.05765045 0.06572771 0.058679584 -0.010700818 0.034638193
-0.030939074 0.0184898 0.044168126 -0.021146124 -0.046220485 0.07110868 0.026002673 0.044457093
0.10440718 0.08481673 -0.060707934 -0.071032 -0.11837987 0.05474465 0.0771649 0.03885603
0.08228898 -0.04342211 0.033827044 0.0116198575 0.08689917 -0.012751907 -0.07328977 -0.014364264
0.11295974 0.035286862 0.034364328 0.0073871673 0.057071798 -0.010989002 0.009105159 0.061912347
-0.061866138 -0.044193733 0.059553932 -0.099025816 -0.06849541 0.046415895 -0.07478523 -0.035745915
0.050785217 -0.08064632 0.055010412 -0.108196646 -0.09155957 0.1092425 -0.01721376 -0.08376693
-0.11736284 -0.07176438 0.100714445 0.0020390437 0.016627222 0.025675043 0.0071314424 0.06780557
-0.016237028 0.029806701 0.05614955 -0.016623275 0.013593118 0.048401214 -0.007852617 0.018714212
0.053217493 -0.048888057 -0.08912025 0.012044309 0.05467572 -0.014738697 0.015101786 0.059601203
-0.069594786 -0.021693205 0.026687386 0.06949245 -0.08012428 -0.008371166 -0.038147602 -0.022969108
-0.102000155 -0.008426676 0.0071570864 -0.030651804 -0.051708538 -0.020335738 -0.06027468 0.14482488
0.008179545 -0.034124292 -0.06809117 -0.030007342 -0.017488206 0.011079698 -2.9675895e-05 0.02692882
-0.004809033 0.1156829 0.03850463 -0.02462631 0.055541653 0.009375729 -0.065296836 0.0005794523
-0.050541002 0.030936405 -0.06596447 0.046615794 -0.07803291 0.042485066 0.002532928 -0.024835162
-0.0002689003 -0.022346804 -0.049570996 0.0024303845 0.10670082 -0.009714451 0.1138477 0.003800093
-0.042134367 0.035036013 0.023830663 0.031165987 -0.017246315 0.06737815 0.08409456 0.02621247
-0.043333318 -0.04224204 0.08112975 0.013361975 -0.05506429 0.09733482 0.04220471 0.08709204
-0.07277532 -0.045926973 -0.088574655 0.09133231 -0.073959276 0.009456195 0.063427985 0.07195949
0.09427316 0.0099909445 0.06788607 0.001608957 -0.044197448 0.02531105 0.06569275 0.05639454
0.077296466 -0.013407204 -0.033589005 -0.005827498 0.0093629 -0.044246003 -0.022023153 0.006647042
-0.035782572 -0.020668395 0.11785377 -0.037250504 0.03247154 0.019440532 0.01923131 -0.0177991
0.0027371242 -0.05952069 0.12815957 -0.120804355 -0.053384796 -0.027682746 0.009043994 -0.0996865
-0.006907649 -0.03821193 0.04832599 -0.061148975 0.105470344 -0.06436331 -0.11302519 -0.07837075
-0.058107205 0.026355788 0.09443838 0.021926692 0.035974793 0.0020428803 -0.060729902 -0.027288334
-0.049955178 0.08004521 0.033952184 -0.017495308 0.059865776 -0.101971395 0.0003450397 -0.064996034
0.1049924 0.06866401 -0.0045148 -0.086498864 -0.0489544 0.04186768 -0.05856603 0.07075313
0.036451906 -0.020851733 -0.012627278 0.024625096 -0.042722438 0.011644604 -0.070267074 -0.013898051
-0.1007815 0.034847047 0.012572616 0.083119445 0.041558478 0.06234837 -0.005582536 0.0007470415
-0.03356209 -0.009189673 -0.023895457 -0.026913568 -0.080394164 -0.0039541824 -0.056533273 0.075445905
0.05137929 -0.10920422 -0.08033157 0.073352054 -0.08140148 -0.011139604 -0.012040993 -0.027632415
0.019232698 0.043576784 0.032756817 0.047357798 -0.06490728 -0.05718893 0.054972634 0.038509246
00000000: 87fc 503d 0d71 68bd 286a 86bd e122 6cbd
00000010: 409c 863d 015a 703d 7c52 2fbc c7e0 0d3d
00000020: f173 fdbc ec77 973c a3e9 343d a33a adbc
00000030: b151 3dbd 6da1 913d 8f03 d53c a418 363d
00000040: 6ed3 d53d 65b4 ad3d e2a8 78bd 3a79 91bd
00000050: 2571 f2bd ed3b 603d a208 9e3d 8027 1f3d
00000060: 2087 a83d 62db 31bd 3a8e 0a3d 3761 3e3c
00000070: 31f8 b13d 60ed 50bc f218 96bd 1758 6bbc
00000080: 7057 e73d f588 103d 9cc1 0c3d 0d10 f23b
00000090: 1ec4 693d 370b 34bc ce2d 153c cd97 7d3d
000000a0: 5967 7dbd 7d04 35bd d3ee 733d 0cce cabd
000000b0: 5247 8cbd 981e 3e3d 0029 99bd 4f6a 12bd
000000c0: 2904 503d e629 a5bd 9952 613d 3496 ddbd
000000d0: 9583 bbbd 88ba df3d df03 8dbc ff8d abbd
000000e0: ee5b f0bd 34f9 92bd 6043 ce3d 7aa1 053b
000000f0: d035 883c 7854 d23c e0ae e93b a6dd 8a3d
00000100: 8403 85bc 2f2d f43c 12fd 653d 892d 88bc
00000110: abb5 5e3c 5a40 463d 43a8 00bc 8c4e 993c
00000120: 96fa 593d d83e 48bd ad84 b6bd 7e55 453c
00000130: a6f3 5f3d 937a 71bc 7b6d 773c 6420 743d
00000140: b687 8ebd f3b5 b1bc 819f da3c 0f52 8e3d
00000150: 3318 a4bd 3727 09bc a940 1cbd b629 bcbc
00000160: 75e5 d0bd 0a10 0abc fe85 ea3b 7e19 fbbc
00000170: 55cc 53bd 2297 a6bc 95e2 76bd f94c 143e
00000180: 8003 063c eac5 0bbd 6273 8bbd f5d1 f5bc
00000190: 6d43 8fbc 9f87 353c 80f0 f8b7 d499 dc3c
000001a0: 1895 9dbb 28eb ec3d 08b7 1d3d 1ebd c9bc
000001b0: a57f 633d a89c 193c 59ba 85bd 63e6 173a
000001c0: 1504 4fbd 586e fd3c 6118 87bd 34f0 3e3d
000001d0: b8cf 9fbd d204 2e3d 7bff 253b 1c73 cbbc
000001e0: 30fb 8cb9 a510 b7bc f50a 4bbd 1647 1f3b
000001f0: f685 da3d 5c29 1fbc fc28 e93d fb0a 793b
00000200: 1695 2cbd ec81 0f3d 8638 c33c d04f ff3c
00000210: 2548 8dbc 8efd 893d c539 ac3d 89bb d63c
00000220: 477e 31bd fd05 2dbd 5b27 a63d 2fec 5a3c
00000230: 188b 61bd 7a57 c73d d9de 2c3d 505d b23d
00000240: 3a0b 95bd ec1d 3cbd a166 b5bd 6f0c bb3d
00000250: f677 97bd 28ee 1a3c 88e6 813d 7f5f 933d
00000260: 4912 c13d 0fb1 233c da07 8b3d a3e3 d23a
00000270: 6208 35bd 1e59 cf3c ec89 863d f6fd 663d
00000280: 9c4d 9e3d e4a9 5bbc a094 09bd 99f4 bebb
00000290: d966 193c 4c3b 35bd e669 b4bc 6ecf d93b
000002a0: bf90 12bd c450 a9bc 515d f13d fc93 18bd
000002b0: e100 053d c041 9f3c fb8a 9d3c 6bcf 91bc
000002c0: 5361 333b f8cb 73bd 433c 033e 4668 f7bd
000002d0: 04aa 5abd edc6 e2bc 432d 143c 7028 ccbd
000002e0: 8f59 e2bb 1d84 1cbd 79f1 453d 5977 7abd
000002f0: d600 d83d e9d0 83bd c079 e7bd d880 a0bd
00000300: d201 6ebd 18e8 d73c e968 c13d 9b9f b33c
00000310: 4e5a 133d d8e1 053b ebbf 78bd c98b dfbc
00000320: cd9d 4cbd beee a33d 7211 0b3d 5252 8fbc
00000330: d135 753d 61d6 d0bd 72e6 b439 a41c 85bd
00000340: 4106 d73d b79f 8c3d e3f0 93bb 5126 b1bd
00000350: 6984 48bd 727d 2b3d efe2 6fbd 04e7 903d
00000360: 984e 153d 41d1 aabc a5e2 4ebc 92ba c93c
00000370: b9fd 2ebd 02c9 3e3c 2fe8 8fbd a7b4 63bc
00000380: 8866 cebd c7bb 0e3d 60fd 4d3c 873a aa3d
00000390: 3939 2a3d 0161 7f3d b5ed b6bb 1bd5 433a
000003a0: 6778 09bd 4890 16bc 68c0 c3bc d879 dcbc
000003b0: b2a5 a4bd 1692 81bb 6f8f 67bd 6283 9a3d
000003c0: 1773 523d 76a6 dfbd e184 a4bd 9a39 963d
000003d0: d2b5 a6bd e382 36bc 9647 45bc 605d e2bc
000003e0: e48d 9d3c 927d 323d 032c 063d 40fa 413d
000003f0: 1cee 84bd f13e 6abd fc2a 613d dfbb 1d3d

fc2_mean.bias f4 [16]
-0.025544988 0.108608305 0.017576745 -0.055409897 -0.04030132 -0.054737177 0.043399908 -0.08281833
-0.062492907 0.07392182 0.030501056 -0.09383808 0.05718196 0.078206055 -0.096562184 0.05514362
00000000: b943 d1bc 086e de3d 1bfd 8f3c 7df5 62bd
00000010: ff12 25bd 1734 60bd 1ac4 313d a89c a9bd
00000020: 90f8 7fbd 5364 973d 5add f93c 2e2e c0bd
00000030: a237 6a3d 7f2a a03d 65c2 c5bd 47de 613d

fc2_logvar.weight f4 [16, 64]
-0.06123187 0.032462034 0.13066821 -0.00888928 -0.009880462 0.06888135 0.06506062 -0.0007358308
0.036233056 0.10626967 0.0072297165 -0.027247781 -0.06488519 0.075805955 0.00048382443 -0.12387547
-0.10683844 -0.034980156 -0.021251306 0.07464615 -0.036386862 0.017550038 0.025523154 0.08783958
-0.04710422 0.0067860433 -0.004199484 -0.005181286 -0.043215398 0.0018202547 -0.08562545 -0.08596501
-0.09116323 0.008281562 -0.07792711 0.059932034 0.014784974 -0.03452007 -0.022380294 0.03871689
0.01221928 -0.08376206 0.068653725 0.007874274 0.022584286 0.016968567 0.018850466 0.02306174
-0.0049605393 0.084377035 0.087572314 0.015400856 -0.051708587 -0.020912992 0.003440649 -0.02318295
0.0011026956 -0.029815316 -0.022196269 -0.046660714 -0.03722474 -0.032340635 -0.01963371 -0.106647134
0.10123934 0.0067412015 0.036687937 -0.04848948 0.02549049 0.029288374 -0.07884621 -0.039332718
-0.053269226 -0.034669347 0.11176056 0.07419902 -0.022344919 0.00020570854 0.000380845 -0.07627113
-0.09813939 0.040977985 0.054864943 0.014334199 0.0039860005 -0.027425807 -0.0050415643 0.042781364
-0.05692004 0.0046600075 -0.052644808 0.058110815 -0.0050961114 -0.011429674 0.057377517 -0.06629542
0.11888398 -0.013698827 -0.10429989 0.016788252 -0.0314453 -0.047627635 -7.48717e-05 -0.03646811
-0.03687797 -0.116603725 -0.015915817 0.03603647 0.051664792 0.013845382 0.036952294 -0.120148696
-0.0124160005 -0.01677841 0.03026158 -0.04201001 0.09185551 0.08524009 -0.008345288 0.09058463
0.08530612 0.029464222 0.01225728 -0.04931517 0.048258737 -0.03675529 -0.006055519 -0.027776582
0.065228716 0.009795769 -0.07210994 -0.060986668 -0.059188012 0.06382528 -0.11343326 0.062469106
0.10149677 0.009905809 0.07340161 0.004931739 0.09238782 -0.018475847 -0.06402289 0.074196085
-0.107642405 -0.06666944 -0.009465244 0.046769205 -0.004312887 0.05638363 -0.03278042 0.047949847
-0.03526596 -0.019064471 -0.028304964 0.018220762 -0.007937148 0.06062032 0.021022925 -0.0492831
0.08393861 -0.024368666 -0.07730715 0.10150367 -0.04796388 0.08188421 -0.014090557 0.06972868
0.016086694 -0.022097517 0.05396112 0.021129388 0.0946659 -0.023167208 -0.038886927 -0.0053015836
0.089587234 0.027019322 -0.049571935 0.06606389 0.068241656 -0.104196936 0.045415998 0.0189556
0.07688385 -0.025142532 -0.10181967 -0.118100524 0.073540464 0.061598673 -0.108500645 -0.10970148
-0.09827349 0.04755879 -0.022396619 -0.11172351 0.0144719435 -0.04118623 -0.06374028 -0.0110209
-0.0147803845 0.07217732 -0.07676662 0.006694155 -0.09626509 0.08698223 0.04875065 -0.07548043
-0.025099255 0.050442606 -0.024025476 -0.07667189 0.07956536 0.04199648 -0.08161064 0.056251276
-0.011807011 -0.02508126 -0.030621963 -0.10825386 -0.07383793 -0.020414706 0.06190993 -0.06755205
-0.072320476 0.043805167 0.088948056 -0.08330151 0.018413518 -0.070368014 0.0060205297 0.00936501
-0.027461423 -0.0502461 0.0037535592 0.14058888 -0.10332778 -0.02548604 0.002707698 -0.022278363
0.02408626 -0.11252949 0.037217345 0.023239087 -0.0004393828 0.05949487 -0.013585487 -0.08785917
-0.011606423 0.031731583 0.11583019 0.0521875 -0.08602607 -0.0017939082 0.08537938 -0.074489675
00000000: 45ce 7abd e9f6 043d e3cd 053e 58a4 11bc
00000010: a9e1 21bc aa11 8d3d 813e 853d c5e4 40ba
00000020: 1d69 143d eaa3 d93d 42e7 ec3b bd36 dfbc
00000030: 87e2 84bd 2740 9b3d d1a9 fd39 6cb2 fdbd
00000040: 1dce dabd 5a47 0fbd 3817 aebc 15e0 983d
00000050: 640a 15bd 19c5 8f3c ef15 d13c 3de5 b33d
00000060: 5bf0 40bd 755d de3b d39b 89bb c7c7 a9bb
00000070: a102 31bd 9d95 ee3a 655c afbd 6c0e b0bd
00000080: cab3 babd 63af 073c 4098 9fbd 4b7b 753d
00000090: ad3c 723c eb64 0dbd e156 b7bc 9a95 1e3d
000000a0: 6033 483c 718b abbd 539a 8c3d 1903 013c
000000b0: ae02 b93c aa01 8b3c 4b6c 9a3c f9eb bc3c
000000c0: 058c a2bb decd ac3d 1d59 b33d df53 7c3c
000000d0: 62cc 53bd b951 abbc 837c 613b 2cea bdbc
000000e0: 5388 903a 403f f4bc f3d4 b5bc 4e1f 3fbd
000000f0: f878 18bd 9d77 04bd e0d6 a0bc d069 dabd
00000100: 9256 cf3d 4ce5 dc3b 1746 163d e89c 46bd
00000110: 6fd1 d03c 2cee ef3c 1f7a a1bd 581b 21bd
00000120: d530 5abd 7201 0ebd b8e2 e43d a8f5 973d
00000130: b10c b7bc 77b3 5739 27ac c739 0a34 9cbd
00000140: 4efd c8bd 88d8 273d 10ba 603d fdd9 6a3c
00000150: ff9c 823b 16ac e0bc b533 a5bb 833b 2f3d
00000160: fd24 69bd fab2 983b 15a2 57bd 9b05 6e3d
00000170: 48fd a6bb 8743 3bbc b004 6b3d e5c5 87bd
00000180: 7279 f33d 0b71 60bc 2e9b d5bd 8487 893c
00000190: c9cc 00bd 3215 43bd 7004 9db8 965f 15bd
000001a0: 5b0d 17bd efcd eebd e361 82bc fa9a 133d
000001b0: 769e 533d bed7 623c 4a5b 173d 8510 f6bd
000001c0: 7b6c 4bbc e072 89bc 22e7 f73c b012 2cbd
000001d0: be1e bc3d 5b92 ae3d adba 08bc 6f84 b93d
000001e0: fab4 ae3d f45e f13c c2d2 483c b4fe 49bd
000001f0: f4aa 453d b78c 16bd 606d c6bb b78b e3bc
00000200: a296 853d 6f7e 203c 60ae 93bd 28cd 79bd
00000210: 216f 72bd d4b6 823d b24f e8bd 9bdf 7f3d
00000220: 8add cf3d f94b 223c 9553 963d 6d9a a13b
00000230: d335 bd3d a95a 97bc 6f1e 83bd 1ef4 973d
00000240: 9f73 dcbd fd89 88bd 1c14 1bbc 1191 3f3d
00000250: 1e53 8dbb 85f2 663d c344 06bd 0f67 443d
00000260: 0a73 10bd 182d 9cbc d0df e7bc b543 953c
00000270: d00a 02bc 034d 783d 4538 ac3c 13dd 49bd
00000280: 02e8 ab3d cca0 c7bc 3653 9ebd 28e1 cf3d
00000290: c675 44bd e9b2 a73d 14dc 66bc e9cd 8e3d
000002a0: 3ec8 833c da05 b5bc 5606 5d3d 8a17 ad3c
000002b0: 32e0 c13d 28c9 bdbc e647 1fbd e8b8 adbb
000002c0: 8379 b73d a057 dd3c f10b 4bbd 814c 873d
000002d0: 48c2 8b3d 3465 d5bd 2006 3a3d c648 9b3c
000002e0: 4875 9d3d b6f7 cdbc d586 d0bd b0de f1bd
000002f0: 629c 963d e44e 7c3d 9635 debd 2bab e0bd
00000300: 9d43 c9bd 01cd 423d 1d79 b7bc 4ccf e4bd
00000310: bb1b 6d3c e4b2 28bd 448a 82bd 0191 34bc
00000320: 6d29 72bc b4d1 933d d137 9dbd a45a db3b
00000330: a226 c5bd bd23 b23d c3ae 473d 7c95 9abd
00000340: f49c cdbc e89c 4e3d 13d1 c4bc 2706 9dbd
00000350: 2af3 a23d 8004 2c3d 7b23 a7bd bd67 663d
00000360: 3272 41bc 3777 cdbc e9da fabc 33b4 ddbd
00000370: 5738 97bd be3c a7bc 4495 7d3d bb58 8abd
00000380: c21c 94bd 0c6d 333d 662a b63d fb99 aabd
00000390: f2d7 963c 1b1d 90bd dd47 c53b b36f 193c
000003a0: c7f6 e0bc dbce 4dbd 46fe 753b 88f6 0f3e
000003b0: 849d d3bd 1ac8 d0bc a273 313b 1d81 b6bc
000003c0: 8c50 c53c dc75 e6bd 3771 183d e65f be3c
000003d0: f65c e6b9 e5b0 733d aa95 5ebc 82ef b3bd
000003e0: de28 3ebc faf8 013d 6138 ed3d 8fc2 553d
000003f0: 702e b0bd 9221 ebba 62db ae3d 0b8e 98bd

fc2_logvar.bias f4 [16]
-0.017282942 0.0068439427 0.007110678 0.09826562 0.0057783998 0.022601247 -0.107185 -0.06655489
-0.04171604 0.07012448 -0.052454233 0.012212525 0.06287136 -0.052225247 -0.085540965 0.060184725
00000000: f594 8dbc 2743 e03b b100 e93b 7c3f c93d
00000010: bb58 bd3b 4026 b93c cf83 dbbd ee4d 88bd
00000020: 70de 2abd 6c9d 8f3d 40da 56bd 0b17 483c
00000030: b3c2 803d 24ea 55bd 1a30 afbd 4284 763d

fc3.weight f4 [64, 16]
-0.01888078 -0.10085659 0.22638255 -0.09568729 0.039228354 0.18754013 -0.24115099 0.050086956
-0.21879956 -0.22442383 -0.22379999 0.09016991 -0.22494298 -0.14224996 -0.112578265 0.0170721
0.24378036 -0.117334805 -0.00082182954 -0.17828251 -0.055515785 0.0063422914 -0.0023469077 0.08751462
-0.22470462 -0.05803327 0.03430387 0.2509049 0.16966468 0.17351067 0.26848608 0.07490107
0.12408178 0.11587109 -0.116477415 -0.16460681 -0.14845859 0.20814784 0.07177993 0.06046202
0.21262741 -0.01732317 -0.15794303 -0.16642316 -0.04069804 -0.024185894 0.17631653 -0.14567773
0.083467744 -0.0049125515 0.22027053 -0.15407588 -0.20015131 0.15224336 -0.13275357 -0.11123979
0.017341452 0.055508938 -0.19799244 -0.040609367 -0.03075428 -0.06998596 -0.017280638 0.11545329
-0.10232784 -0.11683237 -0.08998132 -0.20447476 -0.062111244 -0.04181862 0.14014418 0.099567086
0.15920849 -0.19020648 -0.24265517 0.17011416 0.17737082 0.045496583 -0.1958597 0.09094438
0.01716486 0.067025274 0.010354411 0.034806572 -0.09857123 -0.14201711 0.020810088 0.06493273
-0.027066266 -0.106469736 0.03919626 0.15047881 -0.056594085 -0.090235606 0.12349001 -0.00080075505
-0.035142373 0.052520797 0.08632801 -0.19718304 -0.071342535 -0.15070404 -0.11447661 -0.030963032
0.16155577 0.13533162 -0.027260501 -0.15799133 -0.121848 -0.12129023 0.16358064 -0.0882882
-0.047267787 0.08541804 -0.12880486 -0.1639512 0.14137158 0.04110928 0.011718877 -0.07496183
-0.12548658 0.07216829 0.023204383 0.051379725 0.08816455 -0.06667983 0.03078734 0.019279113
-0.043437768 -0.1806437 0.15264691 0.014824562 -0.21449246 -0.15040393 0.17937443 -0.007638411
-0.055580687 -0.16921514 0.060974386 0.044794038 0.0018332369 -0.016591907 0.06239132 -0.10724654
0.077472284 0.03909163 -0.0958561 -0.033418167 0.17599769 -0.005857779 -0.020085871 0.041701756
-0.1320501 -0.098680854 -0.06164142 -0.035655897 0.18502842 0.16921262 0.15817584 0.02643332
0.09455979 -0.19392617 0.10224992 0.027421053 -0.003492841 0.10003547 -0.054314956 -0.070456974
-0.24232996 -0.024599502 -0.092851 0.1250537 0.047070812 0.22073147 0.046330202 0.11322433
0.1198697 0.09213559 -0.027419912 0.08971428 -0.22551058 0.055632375 0.16076824 0.100467145
-0.09790141 0.27414626 -0.071199685 0.18230478 -0.2870239 0.120850086 -0.13213666 -0.16731122
-0.09946858 0.17817163 -0.080056235 0.020790935 -0.20410554 0.13235193 -0.14832659 -0.07481464
-0.0130495215 -0.17224877 -0.004569344 0.06699535 -0.023848675 0.124905854 -0.016285783 0.049304914
-0.040324066 -0.2156031 -0.04437064 -0.050442073 -0.1966608 -0.17470175 -0.1807126 -0.08462754
-0.10510573 -0.033938594 0.16202332 0.01214812 0.060663432 0.08650714 -0.05537581 -0.044712994
-0.08700727 -0.2263094 0.17613176 -0.14050163 -0.1312512 0.07839858 0.13219231 -0.059302334
-0.08489563 0.10900986 0.040158752 -0.03677911 0.19856898 0.10882439 0.10763059 0.10325442
0.02877115 -0.10465903 -0.16546205 -0.13302055 0.09081003 0.1166273 -0.0717325 -0.0894418
0.11710422 -0.18307088 0.07664321 -0.1841789 -0.11531985 0.11931515 0.12799716 0.088280536
00000000: deab 9abc e68d cebd d4d0 673e b3f7 c3bd
00000010: e9ad 203d 850a 403e 49f0 76be fb27 4d3d
00000020: fe0c 60be 5ccf 65be d32b 65be 00ab b83d
00000030: 7457 66be f9a9 11be 6f8f e6bd cada 8b3c
00000040: 8fa1 793e 3b4d f0bd 0c70 57ba b18f 36be
00000050: 8564 63bd ffd2 cf3b 94ce 19bb dd3a b33d
00000060: f818 66be 4bb4 6dbd 3782 0c3d 9b76 803e
00000070: 94bc 2d3e c8ac 313e 0277 893e bb65 993d
00000080: 971e fe3d d24d ed3d b68b eebd b08e 28be
00000090: 8705 18be b524 553e 5b01 933d 06a7 773d
000000a0: 00bb 593e 52e9 8dbc d1bb 21be d56a 2abe
000000b0: fdb2 26bd 7f21 c6bc 528c 343e 8b2c 15be
000000c0: 23f1 aa3d 78f9 a0bb 998e 613e 11c6 1dbe
000000d0: 77f4 4cbe afe5 1b3e 8df0 07be b0d1 e3bd
000000e0: a90f 8e3c 575d 633d 88be 4abe 0256 26bd
000000f0: 66f0 fbbc cd54 8fbd 2090 8dbc c672 ec3d
00000100: 4291 d1bd cf45 efbd 2048 b8bd d561 51be
00000110: 5c68 7ebd 004a 2bbd f581 0f3e d4e9 cb3d
00000120: 8d07 233e 7dc5 42be 997a 78be 6832 2e3e
00000130: b2a0 353e a05a 3a3d 728f 48be 0c41 ba3d
00000140: 529d 8c3c 8c44 893d 8ca5 293c 5691 0e3d
00000150: b7df c9bd ef6c 11be eb79 aa3c 73fb 843d
00000160: 13ba ddbc ce0c dabd 428c 203d 1e17 1a3e
00000170: 33cf 67bd 72cd b8bd 55e8 fc3d c3e9 51ba
00000180: 73f1 0fbd 0c20 573d bdcc b03d 5aea 49be
00000190: 091c 92bd 2952 1abe b772 eabd 2fa6 fdbc
000001a0: e06e 253e 5f94 0a3e 6a51 dfbc 7bc8 21be
000001b0: 728b f9bd 0367 f8bd af81 273e 72d0 b4bd
000001c0: de9b 41bd a7ef ae3d 6ce5 03be d3e2 27be
000001d0: b6c3 103e 3462 283d 8800 403c 9785 99bd
000001e0: 8e7f 00be f8cc 933d 1e17 be3c 8c73 523d
000001f0: 9e8f b43d 6f8f 88bd bb35 fc3c 3bef 9d3c
00000200: cdeb 31bd a9fa 38be 794f 1c3e b8e2 723c
00000210: e9a3 5bbe 7d03 1abe eead 373e a34b fabb
00000220: 93a8 63bd bc46 2dbe 47c0 793d f479 373d
00000230: 3949 f03a c0eb 87bc 0a8e 7f3d 13a4 dbbd
00000240: caa9 9e3d 8c1e 203d 3450 c4bd 7de1 08bd
00000250: bd38 343e 9df2 bfbb 208b a4bc 76cf 2a3d
00000260: 2438 07be 3019 cabd b77b 7cbd eb0b 12bd
00000270: 1778 3d3e 1346 2d3e d9f8 213e b18a d83c
00000280: 90a8 c13d 9594 46be 6868 d13d 1ea2 e03c
00000290: 26e8 64bb 66df cc3d 5c79 5ebd bf4b 90bd
000002a0: 5825 78be e584 c9bc aa28 bebd 140e 003e
000002b0: 53cd 403d 6e07 623e bdc4 3d3d 28e2 e73d
000002c0: 3f7e f53d 96b1 bc3d b99f e0bc 1fbc b73d
000002d0: 3fec 66be c6de 633d 6ea0 243e b8c1 cd3d
000002e0: 8980 c8bd e65c 8c3e 24d1 91bd 1bae 3a3e
000002f0: ccf4 92be 4080 f73d d54e 07be a253 2bbe
00000300: 2fb6 cbbd a072 363e 86f4 a3bd c051 aa3c
00000310: 0b01 51be 4487 073e ede2 17be 6b38 99bd
00000320: a9cd 55bc fb61 30be 70ba 95bb dc34 893d
00000330: 4c5e c3bc a4ce ff3d c369 85bc f3f3 493d
00000340: d92a 25bd 0fc7 5cbe fdbd 35bd 599c 4ebd
00000350: 7361 49be 04e5 32be b90c 39be 3451 adbd
00000360: ac41 d7bd 3203 0bbd 71e9 253e e908 473c
00000370: 387a 783d a82a b13d bfd1 62bd f924 37bd
00000380: de30 b2bd a7bd 67be e25b 343e a9df 0fbe
00000390: b766 06be 6f8f a03d 6c5d 073e 01e7 72bd
000003a0: c3dd adbd 9040 df3d 817d 243d b1a5 16bd
000003b0: ab55 4b3e 52df de3d 6d6d dc3d 0e77 d33d
000003c0: 7ab1 eb3c 7957 d6bd e26e 29be 8a36 08be
000003d0: 9cfa b93d 4bda ee3d 7de8 92bd 432d b7bd
000003e0: 56d4 ef3d ef76 3bbe 1ef7 9c3d 6599 3cbe
000003f0: d02c ecbd 805b f43d b011 033e 6dcc b43d

fc3.bias f4 [64]
-0.16714494 -0.09306697 0.099983655 0.059305444 0.25280404 -0.15860343 -0.20828506 -0.13687392
0.080907 0.24997078 0.19828856 -0.07362211 0.28053996 -0.22057931 -0.08760921 0.3885188
0.15086445 0.086839944 0.40625173 0.11315308 0.056721002 0.37766892 0.10913073 0.027070077
0.19962023 -0.0868516 0.24014206 0.37254775 -0.05600752 -0.026670953 0.0622137 0.0047332323
-0.039073575 0.10858156 -0.2659212 0.0358373 0.19270065 0.4254518 0.39128777 0.31614634
0.2593675 -0.037429996 -0.046806842 -0.077363305 0.3601654 -0.07511972 0.40381518 -0.193746
0.2826006 -0.15621689 0.06551499 -0.05653782 0.33320388 0.09807671 -0.12316802 0.17329921
0.39619204 0.43608055 0.4122598 -0.2000916 0.22880174 -0.1745553 -0.23407532 0.110378206
00000000: 0b28 2bbe e599 bebd 3bc4 cc3d 44ea 723d
00000010: 886f 813e f068 22be ae48 55be ad28 0cbe
00000020: 92b2 a53d 57f8 7f3e 280c 4b3e 30c7 96bd
00000030: efa2 8f3e 8bdf 61be 756c b3bd f0eb c63e
00000040: 367c 1a3e 24d9 b13d 3a00 d03e cdbc e73d
00000050: 4854 683d d25d c13e ef7f df3d 11c2 dd3c
00000060: 3f69 4c3e 40df b1bd cde7 753e 94be be3e
00000070: 2468 65bd 0b7d dabc cbd3 7e3d 3b19 9b3b
00000080: 9d0b 20bd 0260 de3d d326 88be 22ca 123d
00000090: 5253 453e d1d4 d93e df56 c83e efdd a13e
000000a0: d1cb 843e 3250 19bd 88b8 3fbd a770 9ebd
000000b0: 9967 b83e 5ed8 99bd ddc0 ce3e 5a65 46be
000000c0: 07b1 903e 52f7 1fbe b92c 863d 3394 67bd
000000d0: b399 aa3e 71dc c83d 843f fcbd 5975 313e
000000e0: afd9 ca3e f345 df3e b713 d33e d0e4 4cbe
000000f0: 014b 6a3e a0be 32be 71b1 6fbe f80d e23d

fc4.weight f4 [11, 64]
0.017237617 0.03400377 -0.0019805888 0.056297854 0.0095944535 0.033896487 0.050506443 0.0029678692
-0.07570279 0.01739134 -0.066961214 0.036953323 -0.025974024 0.009647213 0.008839261 0.01720051
0.0025632775 -0.011406107 0.014860637 -0.01621548 -0.044556506 -0.00028477388 -0.07080759 -0.00307838
0.014893927 -0.042326093 0.0108242985 -0.014886656 0.03778743 -0.03546381 -0.031916298 0.07097335
0.037718784 -0.010914854 -0.029901305 -0.02666997 -0.06382624 0.061196983 0.025138061 0.060823046
-0.009322912 0.016326802 0.051966242 -0.015714958 -0.0035249589 -0.06055542 0.061459012 -0.059379775
-0.047876097 0.012387446 -0.099622115 -0.08959498 0.039423402 0.03333004 -0.0042792135 -0.04746138
-0.017404644 -0.021926016 0.022806084 0.04155565 -0.008999401 0.028202707 0.072292976 -0.03181706
-0.036595054 -0.009866572 0.01774199 0.09582075 -0.00085139484 -0.07181792 0.017552923 0.08009578
0.0060529187 0.043940824 -0.045900516 0.044246424 -0.011555731 0.028449347 0.002812387 0.077582255
-0.015573873 0.06560891 0.036750425 -0.0051752925 0.05070861 0.009263275 -0.034719232 -0.029749282
0.0073998347 -0.050952107 -0.035008185 0.01095634 0.023620602 0.030110907 0.00021782215 0.028185153
0.058976572 -0.0707584 -0.0038398358 -0.014496979 0.071160816 0.009939445 0.043326527 0.08712894
-0.027272128 0.01894763 0.031520654 0.022900863 -0.02288271 0.00067420903 -0.0060399054 0.06911394
0.04001395 -0.043416847 -0.05265068 -0.08148601 -0.0024182657 0.004605559 -0.036353204 -0.008450626
-0.009432931 0.012304222 -0.03306187 0.0030933232 0.05527585 0.023951905 0.025253166 0.0050419485
0.028990692 0.035666395 -0.03263696 0.05249125 -0.023854269 0.05558989 0.04475743 0.0029500558
0.03477544 0.002101473 0.007866389 0.019589309 0.033578813 -0.047325082 -0.044307478 0.11257471
-0.011153242 0.10600174 -0.0016322428 0.057037212 -0.02102942 -0.022192176 0.037160072 0.10270842
0.10749244 -0.010066885 -0.03674554 0.021798817 0.0016276811 0.07954023 0.012437043 0.0072074407
0.0502618 -0.015317953 -0.0880052 -0.0054183216 0.042568695 0.04299588 0.021353954 0.07687631
-0.020536717 0.011188048 -0.031984966 -5.122962e-05 0.08071561 0.05310379 -0.0043844767 -0.015119038
-0.027747642 -0.020381108 0.048108052 0.061325077 0.07077921 0.049064495 0.027388606 0.053685915
0.0054979604 0.007414406 0.0992294 -0.003842587 0.04169238 -0.019230213 -0.028706562 -0.00040869275
0.05485995 0.035820514 0.05455531 0.00079414085 -0.01127855 0.034999333 -0.021802705 0.025307063
0.059475675 0.051290505 -0.016681192 0.066992104 0.001015749 -0.039721698 -0.0031823644 0.10351543
0.054323047 0.006154974 0.12787534 0.10393394 0.072373584 0.0886413 0.05938324 -0.067210294
-0.01462891 -0.0055489414 0.11088535 0.06374288 -0.057791464 0.06436246 0.017143356 -0.05607171
0.03222237 0.052829932 -0.095181316 0.015540298 0.03774616 0.012732834 0.026858503 0.06421106
0.07574103 -0.007885165 -0.03752915 0.009973826 0.036386475 -0.07736298 -0.0062259333 -0.018754618
-0.022794757 -0.04537929 0.0073667034 0.027039897 -0.024066636 -0.02090646 0.014711971 0.016279407
0.0805088 0.0854595 0.032636356 -0.08520363 0.007272131 -0.0025684712 -0.09084532 -0.029632665
00000000: e735 8d3c 8a47 0b3d c4cc 01bb 9498 663d
00000010: 0e32 1d3c 0bd7 0a3d d8df 4e3d 9580 423b
00000020: 100a 9bbd 4978 8e3c f622 89bd 5e5c 173d
00000030: 7ac7 d4bc 580f 1e3c 8cd2 103c 15e8 8c3c
00000040: a9fc 273b aee0 3abc 077a 733c 54d6 84bc
00000050: e280 36bd b44d 95b9 9203 91bd a5be 49bb
00000060: a805 743c 205e 2dbd 6658 313c 29e7 73bc
00000070: fec6 1a3d 8042 11bd aaba 02bd 7a5a 913d
00000080: 037f 1a3d 37d4 32bc 95f3 f4bc fb7a dabc
00000090: 55b7 82bd b0a9 7a3d 56ee cd3c 9621 793d
000000a0: 21bf 18bc c9bf 853c 8eda 543d a8bc 80bc
000000b0: ff02 67bb f608 78bd 72bc 7b3d 3538 73bd
000000c0: ba19 44bd b7f4 4a3c ae06 ccbd 937d b7bd
000000d0: 6f7a 213d 1485 083d a538 8cbb dd66 42bd
000000e0: 2f94 8ebc 309e b3bc d3d3 ba3c 4236 2a3d
000000f0: 3972 13bc 5d09 e73c 570e 943d 9b52 02bd
00000100: b2e4 15bd 67a7 21bc a657 913c ab3d c43d
00000110: 2430 5fba 4615 93bd 26cb 8f3c 4209 a43d
00000120: 9057 c63b 4bfb 333d 2e02 3cbd bd3b 353d
00000130: 4054 3dbc 9b0e e93c 0650 383b 72e3 9e3d
00000140: 8f29 7fbc f75d 863d 9d87 163d 8095 a9bb
00000150: d5b3 4f3d fec4 173c c135 0ebd c4b4 f3bc
00000160: 507a f23b 28b3 50bd be64 0fbd 3882 333c
00000170: fe7f c13c 26ab f63c 3067 6439 8de4 e63c
00000180: 6b91 713d c8e9 90bd c1a5 7bbb bd84 6dbc
00000190: c3bc 913d 0ed9 223c 2877 313d a870 b23d
000001a0: cc69 dfbc 0f38 9b3c cd1b 013d 979a bb3c
000001b0: 8574 bbbc 67bd 303a 66ea c5bb 9c8b 8d3d
000001c0: abe5 233d ddd5 31bd 3da8 57bd 23e2 a6bd
000001d0: c47b 1ebb 3bea 963b 19e7 14bd 7f74 0abc
000001e0: 958c 1abc a697 493c e26b 07bd 5ab9 4a3b
000001f0: ee68 623d c936 c43c badf ce3c ee36 a53b
00000200: e37d ed3c ed16 123d 55ae 05bd 1101 573d
00000210: 076a c3bc 39b2 633d 9153 373d b955 413b
00000220: b170 0e3d deb8 093b 07e2 003c c279 a03c
00000230: f089 093d f2d7 41bd c27b 35bd 928d e63d
00000240: 16bc 36bc 7117 d93d fbf0 d5ba da9f 693d
00000250: e445 acbc 5ecc b5bc 2935 183d cb58 d23d
00000260: ff24 dc3d 93ef 24bc 7e82 16bd 6f93 b23c
00000270: ea57 d53a fde5 a23d bdc4 4b3c 652c ec3b
00000280: 51df 4d3d 27f8 7abc 123c b4bd 2d8c b1bb
00000290: 835c 2e3d 731c 303d 7dee ae3c 5471 9d3d
000002a0: 9e3c a8bc 134e 373c ab02 03bd 63df 56b8
000002b0: 3a4e a53d 5c83 593d a8ab 8fbb d7b5 77bc
000002c0: 064f e3bc 48f6 a6bc f30c 453d 0130 7b3d
000002d0: b1f4 903d daf7 483d 125e e03c c3e5 5b3d
000002e0: 3c28 b43b 8cf4 f23b c938 cb3d e9d3 7bbb
000002f0: a1c5 2a3d ae88 9dbc 062a ebbc d045 d6b9
00000300: d4b4 603d 88b8 123d 6475 5f3d e42d 503a
00000310: abc9 38bc 765b 0f3d 969b b2bc c250 cf3c
00000320: c49c 733d fe15 523d ffa6 88bc 2833 893d
00000330: e122 853a 38b3 22bd 378f 50bb e6ff d33d
00000340: d881 5e3d aaaf c93b c1f1 023e 51db d43d
00000350: 9a38 943d 9289 b53d d73b 733d 8da5 89bd
00000360: 19ae 6fbc e5d3 b5bb dc17 e33d a18b 823d
00000370: beb6 6cbd 77d0 833d 3970 8c3c 73ab 65bd
00000380: 9bfb 033d 3364 583d 6cee c2bd bc9c 7e3c
00000390: b89b 1a3d 609d 503c 5d06 dc3c 1781 833d
000003a0: 1d1e 9b3d c730 01bc 2ab8 19bd 4269 233c
000003b0: fc09 153d 7b70 9ebd ea02 ccbb 49a3 99bc
000003c0: 12bc babc a2df 39bd 6364 f13b c682 dd3c
000003d0: 6527 c5bc 0644 abbc 7b0a 713c 645c 853c
000003e0: cce1 a43d 6405 af3d b3ad 053d 3e7f aebd
000003f0: 0e4b ee3b cc53 28bb 1c0d babd 34c0 f2bc

fc4.bias f4 [11]
0.010060986 0.106808476 -0.018609982 0.04519016 -0.017812544 -0.013854023 -0.028178068 -0.15588468
-0.07869498 -0.06423507 -0.05957033
00000000: d5d6 243c 67be da3d f673 98bc 5119 393d
00000010: 9deb 91bc fcfb 62bc b1d5 e6bc 3ca0 1fbe
00000020: d52a a1bd ad8d 83bd 0500 74bd
