src/VAE/vae_models/user_3_vae.pth (torch, 22306 bytes, 10 tensors)

fc1.weight f4 [64, 11]
00000000: cf06 ac3d 0266 edbd 6cfc c83b 9bef 6e3e
00000010: 2ed9 003e 16f6 4e3d 04f6 44bd e07b cc3d
00000020: d1af 51bd 82fd 0b3c cecd 4bbc c0f1 d63d
00000030: 2d1c 993c e779 c7bd 64ea 2dbe 9545 5b3e
00000040: e9a0 6abc b4c3 533e 0f34 77be 264a 73bc
00000050: c1b6 3ebe b253 71bd b5c4 c53c d293 043e
00000060: fabd 713d 5f51 23be 4d65 963d 1927 f33d
00000070: cd96 4e3d f945 2dbd d7a7 a23c 0b6c 0bbe
00000080: 41f4 563e 683b 823d 69bd 533e 0944 96be
00000090: e8e6 bb3b 81cc d53d 3b11 81be e839 5abe
000000a0: 9a6b 83bd d081 e0bd 0715 2d3c f484 04be
000000b0: aee7 463e 1a58 303d 6389 153e f4db 6a3d
000000c0: 271b 023a 71e1 93bc 54b6 d6bd a79c 3f3d
000000d0: e517 d63d d8eb b23b b81e 7ebe b12b b3bd
000000e0: 561f 73be 78ba 1fbe 6d40 edbd a65f ab3c
000000f0: 5945 03be bc47 53bd 5c77 8bbd 46c7 95bd
00000100: d76e 683e 1aeb 88be f337 07bd 5272 7d3e
00000110: dc25 473e 208c 733e 3625 5f3e 2fd7 7d3d
00000120: 4a41 913d 3cd8 6cbe 4fe0 1d3d 00b3 e3bd
00000130: 2f12 aa3c 15ff 49be c872 e53d 4c2a 7dbe
00000140: 1cb4 8ebe b2b0 5bbe 71a5 033e f4f1 78be
00000150: 1750 52bd 7cee 2f3d cc39 4dbe ea78 393d
00000160: ed20 8abe c19e 463e ded9 84ba 7559 ebbc
00000170: 6358 bcbd 3cb6 ebbd 7c82 263e 375a 413c
00000180: 5b6c 0e3e f126 213d 17ab 4abe 8e78 3c3e
00000190: afc4 08be e02d 503e 9fbc a5bd 31e3 6c3d
000001a0: f571 9a3c e62d 7ebd 3559 f53d ee1f 2fbe
000001b0: cf4b fb3d a027 353d 1c1c 933e b198 49be
000001c0: d20c 35be bacf e8bd a282 3fbd 0d2f 943c
000001d0: 2abb 88be 85bd 743e c479 843e f687 25bd
000001e0: 7178 1c3e d5a0 d93d ee1f fb3d 8948 8e3e
000001f0: 5943 343e fb1c 8dbd b5c2 b13d 0018 303d
00000200: f6ac 15be 27db 8c3e 332c 7cbe 1c71 23be
00000210: f1bb 67bd 8143 b7bd 3889 3bbe de13 5e3e
00000220: e35d 7e3e 11f3 143e bc3a edbd 1ad1 c03c
00000230: 0b7c e03d 6558 76be a6d9 83be fc92 0a3e
00000240: 1898 363e 6076 253e 0b39 6c3d 7cda 4bbe
00000250: 0d95 573d e17c c4bb aeb3 483e 4a06 d6bb
00000260: 663f 74be 2e3e a83d a40d 7fbe 8acf 92bc
00000270: 19cd 4ebe 86e0 22be ba6b 953d db5d 5cbe
00000280: 64b3 b13d d3da 06be b5f9 eebc 3071 843e
00000290: a902 16be 56e5 0abe f788 103d 25f5 1abd
000002a0: e181 6abe cc1d b0bd ab92 cdbd 9651 b13d
000002b0: b254 033e 9c8b 7bbe 3709 83be 8cf0 83be
000002c0: 8503 1a3e 2230 97be 5060 38be 280f 7ebe
000002d0: 560f 093d b79e 82be b2d0 0e3d 1a99 88be
000002e0: d8d1 1a3e ffde 57be 0965 503e 1859 513e
000002f0: bd42 55be 7107 75bd b200 813e ed3e f33d
00000300: 9b70 083e cfce 51be 3373 8e3e 2a65 f83d
00000310: 20e2 553c a9bc 51be 6398 1cbd 0ffc 483e
00000320: 4e41 213b 9329 0cbe 1a1f a13d 575c 843e
00000330: 1a53 63bd 12d3 ef3c a1d9 3e3d 0d1f 8d3e
00000340: 1b27 043d 4638 44bd 8f41 833e 1472 033e
00000350: fa57 4c3d 8c14 2cbe 9674 453e 762a c6bc
00000360: 78d1 5fbe 1bfd 0f3b 897f 473e 0333 efbd
00000370: 09f6 59be edbc 1cbe 295f f8bb 7559 243e
00000380: 7b3f cfbd 4e09 48be b97a 853e 7ed7 f6bc
00000390: accb b03d 353d 823d 46a9 43bd 88b0 88bd
000003a0: a3ce 323d c95f de3d d0e7 e13d d8a0 07be
000003b0: 9c6e 54be e0d8 6a3e fdc1 943c abb9 bebb
000003c0: ad0e 1e3e dafd 883c 1396 833d e31f 303c
000003d0: 78aa fc3d 3656 4fbd e9c8 113e 1d81 2b3d
000003e0: cb5f 88be b9ca 47be 4c6e 1f3e 0fc0 583c
000003f0: d496 cdbd 77e8 babd 6b17 5ebe d947 e53c
0.08399736 -0.11591722 0.0061336067 0.2333359 0.12582847 0.050527655 -0.04808618 0.09984565
-0.051193062 0.008544328 -0.012439204 0.10495329 0.018690193 -0.09740048 -0.16983944 0.21413262
-0.0143205905 0.20680124 -0.24140953 -0.014849221 -0.18624403 -0.05891771 0.024141649 0.12947014
0.059019066 -0.1594901 0.0734354 0.11872692 0.050436784 -0.04230306 0.019855423 -0.13615434
0.20991613 0.06358987 0.20677723 -0.29348782 0.0057343133 0.10439397 -0.25208458 -0.21311152
-0.06417008 -0.1096226 0.010564095 -0.12941343 0.19424316 0.04305277 0.1460319 0.05733867
0.00049631525 -0.018051835 -0.10483995 0.046780255 0.10453776 0.0054602437 -0.24816406 -0.08748568
-0.23742422 -0.15598476 -0.11584554 0.020919632 -0.12819423 -0.051582083 -0.06809875 -0.07313399
0.22698532 -0.26741868 -0.03301234 0.24750641 0.19448036 0.23783922 0.21791539 0.061972793
0.07092531 -0.23129362 0.038543995 -0.11118126 0.020760624 -0.19726212 0.112035334 -0.24723166
-0.27871788 -0.21454123 0.1285608 -0.24311048 -0.05134591 0.042952046 -0.20041579 0.04528133
-0.26978245 0.19396497 -0.001013573 -0.02872918 -0.09196546 -0.11509368 0.16260713 0.011801294
0.13908522 0.039343778 -0.19791828 0.18405363 -0.13356279 0.2033 -0.08092617 0.057833854
0.018853167 -0.06205549 0.119799055 -0.17102024 0.12270319 0.044227242 0.28732383 -0.19687153
-0.17680672 -0.11367746 -0.04675544 0.018088842 -0.26705295 0.23900421 0.2587415 -0.040412866
0.1528032 0.106263794 0.122619495 0.27789715 0.17603816 -0.06890293 0.086797155 0.04299164
-0.1461676 0.2751095 -0.24626236 -0.15961117 -0.05657572 -0.08948422 -0.18314064 0.21687266
0.24840502 0.14545847 -0.11583468 0.023537207 0.10961159 -0.24057157 -0.2575199 0.13532633
0.17831457 0.16158438 0.057671588 -0.19907564 0.05263238 -0.005996332 0.19599792 -0.0065315114
-0.2385231 0.08214985 -0.24907547 -0.017921228 -0.20195426 -0.15905961 0.07295938 -0.21520178
0.08676794 -0.13169412 -0.029171804 0.25867605 -0.14649452 -0.13564047 0.03528687 -0.037831444
-0.22901107 -0.08599433 -0.1003774 0.086581394 0.12825277 -0.24564976 -0.25592968 -0.2576946
0.15040405 -0.2952891 -0.1800549 -0.24810469 0.03346189 -0.25511715 0.034866996 -0.26679307
0.15119112 -0.2108116 0.20351042 0.20444143 -0.2082624 -0.05982155 0.25195843 0.118772365
0.13324206 -0.20489047 0.27822265 0.121286705 0.013054401 -0.20482124 -0.038231265 0.19627403
0.0024605575 -0.13687734 0.0786726 0.258517 -0.055499174 0.02927545 0.046594266 0.27562752
0.032263856 -0.04790523 0.25635955 0.12836486 0.04988859 -0.16804713 0.19282755 -0.024190169
-0.2185725 0.002197093 0.19482245 -0.116796516 -0.21285261 -0.15306444 -0.0075797033 0.1604975
-0.1011953 -0.195348 0.26070192 -0.030132052 0.08632597 0.063593306 -0.047768854 -0.06674296
0.043654095 0.10858113 0.11030543 -0.13244951 -0.20745319 0.22934294 0.018158907 -0.005820473
0.15435286 0.016722608 0.06425109 0.01074979 0.12337202 -0.050619327 0.14236797 0.04187118
-0.26635584 -0.19510926 0.15569419 0.013229384 -0.10038534 -0.091263704 -0.21688621 0.027988361

fc1.bias f4 [64]
00000000: c5b2 0b3c 348e 233d 5de9 e03d e502 e6bd
00000010: 5c73 003e 3323 113e 0196 783e 9918 4a3d
00000020: 49b3 363e 84eb 783e b843 563e 4989 fbbd
00000030: d5f1 98be 447d 4dbd c7e9 93be c3ba 323e
00000040: 9d24 793e 51ed dc3d 55ad cabd 0ba6 f63c
00000050: 843b 903e 1efc 6b3d a056 92be 39fb 4e3e
00000060: 7145 7e3e 0922 bd3c 5346 8d3e c36d 9bbc
00000070: c208 603e 7a5d 8cbe fbf6 a3be 3942 0b3e
00000080: 6cdc 26be 05af fe3c e219 dd3d 6bc6 c13b
00000090: f8af 3b3e a4d6 a2bc 9da4 573e b58c ffbd
000000a0: 6cbc a13e edbe df3d 9df4 36be 4950 babd
000000b0: 2f64 8b3e a30a daba 1b3b 87be 2da4 d5bd
000000c0: 539e 7ebe e8ff fd3d f97c 82bd b68e fdbd
000000d0: 919a 87be 5cd9 063e bcd9 bb3d 1e86 8ebe
000000e0: 35cc 58bc 0918 91be fac6 843e c6fa 52bb
000000f0: d035 2f3e 2b02 80bc f37d 133e 49db ce3d
0.008526509 0.039930537 0.109820105 -0.11231021 0.12544006 0.14173584 0.24275972 0.049339864
0.1784183 0.24308592 0.2092427 -0.122820444 -0.29872003 -0.05016829 -0.28889295 0.17454056
0.24330373 0.10787452 -0.09896342 0.030108472 0.28170407 0.057613485 -0.28581715 0.20213021
0.24831177 0.023087518 0.27592716 -0.018973237 0.21878341 -0.27415067 -0.3202437 0.1359948
-0.16295022 0.031089315 0.107959524 0.005913546 0.18328846 -0.01987774 0.21058889 -0.124780096
0.31589067 0.10925088 -0.1786675 -0.090973444 0.27224872 -0.001663525 -0.2641228 -0.10431705
-0.24865083 0.12402326 -0.06371493 -0.123807356 -0.26485112 0.13168854 0.09172389 -0.27836698
-0.0132322805 -0.2833865 0.25933057 -0.003219293 0.17110372 -0.015626034 0.14403515 0.10100419

fc2_mean.weight f4 [16, 64]
00000000: e28a 633d 4509 573d 7478 243d 673b 8b3d
00000010: 31a7 2f3d 57c9 24bc a5f6 babd 906a f0bc
00000020: 58ef 4dbd 1842 963d 8893 883d 35d3 5e3d
00000030: 181b fa3c cc3b 29bd b890 cbbc 3d0b 633d
00000040: 8ddb 53bd 2c52 2dbd f84d 6f3d e325 753c
00000050: 0e86 6abd afe6 753d 275d 603d 4cae b63d
00000060: b4a5 9bbd e9cf b13d 2b3e 2a3d 61e4 a1bd
00000070: 399f 9dbd a4e2 9a3d 4174 97bc b38d be3b
00000080: b098 e3bc 9c28 e73d acf6 58bd 85fd b63d
00000090: 2c70 2e3d 5eca 4d3c 1e5b 74bd 8620 9c3d
000000a0: c0e8 0e3d f325 3fbd 941d 58bd 10f1 3fbc
000000b0: ed76 a4bd 64c0 bcbd 66ac e1bd 8d8c 163d
000000c0: 6413 283d 1103 f53c 70f9 acbd 2153 673d
000000d0: e962 5a3d 1b5a e6bd 958f fdba 6164 c83d
000000e0: 7c74 31bd 1539 e43c c7d5 63bd 3b52 b8bd
000000f0: 42f0 91bd 58fc 893d 8c5b 3b3d 379c 8dbc
00000100: 7fd0 8d3d 53eb 14bd 7561 8fbc 03a9 cbbd
00000110: 582e b1bd c1b0 bf3c 6d19 a3bd b854 a1bc
00000120: f192 31bd f57b 55bc fde0 8ebb c4e1 8c3d
00000130: 68eb babd 288c 5b3c 08ce 66bd aac2 513d
00000140: 11a9 8cbd 6ef4 1c3c 1b2e 2dbc 2a4c 9c3d
00000150: b1d4 51bd 17fc 6d3d 0f1f 843d 6d98 713c
00000160: 8a8a d83b ec01 253d dc52 c23b 3a1e 39bd
00000170: bb4a 0abd b4e8 ba3d ca1d 8b3d 6438 57bd
00000180: 60b0 52bd 4ce9 5dbd 3c71 c43c 44af 2cbd
00000190: 9ca6 4abc d22c 82bd 1e62 823c 0014 1d3c
000001a0: 6697 e63c ceba e03c 0002 1c3b 04a6 4dbd
000001b0: 0ccf 373b 1e0f 823d 7864 d7bc 18da 5fbd
000001c0: 0c4e 08bd 48da 073d d97e 32bd 8bcb 99bc
000001d0: e366 303d d27e 74bc 344a 253c a5e7 7abd
000001e0: 2aab 103d 5fa6 6d3d dce8 5c3c 6111 923d
000001f0: 09df 6c3d ea1e c93c b66e 99bc a101 16bd
00000200: 8a20 8b3d 7b6a 3bbc 508b ed3c 9eb8 923c
00000210: f873 68bc 0855 463d 0961 1abc b0ba 85bd
00000220: 7277 64bd 84fe 943d af77 cc3c f6a3 bebc
00000230: 1c34 1a3d 5707 d43c 86fb d13d 7403 f63d
00000240: 6280 4f3d 7918 1f3c d81f 0fbd 226d 9b3d
00000250: fd51 27bc 7a80 b33c 5c97 1b3d ff77 9bbd
00000260: fb15 12bc 6d25 2d3c 8d08 a6bd 723a 493d
00000270: 2efb 683c 92b4 eb3d 54a4 ab3c 4a65 0a3d
00000280: 90ca e7bd 766e 8ebd d477 0e3d de89 903d
00000290: 2fe2 5bbb 4fb0 7e3d 3552 78bc 0a98 f03d
000002a0: f0e4 a13c 86fd 903d a871 543d 2ae3 82bd
000002b0: bee1 6ebd 8020 2cbd ba08 8bbd 52f2 1a3d
000002c0: 0097 6cba 61d9 023d b84b 613c a63c da3b
000002d0: 93a7 d53c 315e 7e3c 4bc0 a4bc ca91 893d
000002e0: 1308 17bd 7e8e 82bd 5331 403d a7b8 25bd
000002f0: 1892 bc3d 1ffb e93c fbad 2a3c 0843 fabc
00000300: 94be e3bd 676d 6c3d d1e5 043d 4024 fa3b
00000310: 0b31 c1bd f63a 853d 725c b03c 409a 24bd
00000320: 29da 233c 19e5 443d c6a9 6cbc 1745 92bd
00000330: 389b d4bd df2b d13c a0d8 3c3c a80b 10be
00000340: 7a86 50bd 5817 023e 266c e63c 4cf4 25bd
00000350: 234c 83bb 141d b7bd 2489 b83d b144 ab3c
00000360: 47a0 c1bd c1f0 28bc 54e3 8dbc 556a 113d
00000370: abc1 ebbc 40e2 783c 6a7e 7abd b58d 893b
00000380: 002c aebb e32d 12bd b670 e13a d34c 063c
00000390: d430 5a3c 17c3 6fbc 6cc9 3f3b a063 01bc
000003a0: a41d 98bc 61cb dfbb a01a 7c3c 29bf 933c
000003b0: 5821 bd3c 2a55 e03c 902a 9b3c 62e7 a8bd
000003c0: 50b8 e53d c303 ce3b cede 05bb bcab ed3d
000003d0: 7e80 dabb b5dd adbd efc7 cb3c c18a 1a3e
000003e0: 5e6f ea3c c52f bdbc fcf9 67bd 8ea4 b9bd
000003f0: 8c77 c0bc acd6 6abc fb3c b63c 0a57 80bc
0.05555237 0.052499074 0.040153936 0.067984395 0.042884056 -0.010057769 -0.09129075 -0.029347688
-0.050277084 0.07336825 0.06668764 0.05440064 0.030530497 -0.041316792 -0.02484928 0.05543064
-0.05172305 -0.042314693 0.058423966 0.014962646 -0.05725675 0.06003445 0.054776337 0.08919963
-0.07599965 0.08682234 0.041563194 -0.07904888 -0.07696385 0.075627595 -0.018488051 0.0058152317
-0.027782768 0.112870425 -0.05296962 0.08935074 0.042587444 0.012560455 -0.05965721 0.07623391
0.034889936 -0.04666705 -0.052762583 -0.011715189 -0.08030496 -0.09216383 -0.110192105 0.036755133
0.041034117 0.029908689 -0.08446014 0.056475762 0.053316984 -0.11247655 -0.0019345159 0.09784771
-0.04332398 0.02785925 -0.055623796 -0.09000059 -0.07125904 0.06737584 0.045741603 -0.017286403
0.06924533 -0.036357235 -0.017502526 -0.09944346 -0.086514175 0.023399713 -0.07963834 -0.019693717
-0.043353025 -0.013030042 -0.004360317 0.06878999 -0.091269314 0.013400115 -0.05634883 0.051211037
-0.06868184 0.009579761 -0.010570074 0.07631715 -0.05122823 0.05810174 0.064512365 0.014745814
0.006608312 0.040285036 0.0059302878 -0.045194842 -0.033762675 0.09126416 0.06792791 -0.052544013
-0.051437736 -0.054177567 0.023979776 -0.042159334 -0.012368824 -0.06356205 0.015915927 0.009587288
0.028148364 0.027432825 0.0023804903 -0.050207153 0.0028046994 0.063505396 -0.026293024 -0.05465135
-0.033277556 0.033167154 -0.043578003 -0.018773815 0.04306687 -0.014922814 0.010088492 -0.06125607
0.035319485 0.058019992 0.013483252 0.07132221 0.05782989 0.024550874 -0.018729549 -0.036622647
0.06793316 -0.011438961 0.028997093 0.017910298 -0.014187805 0.048420936 -0.009422549 -0.065297484
-0.055777974 0.072751075 0.024959413 -0.023271542 0.03764735 0.025882406 0.102530524 0.120123774
0.050659545 0.009710425 -0.034942478 0.07589175 -0.010212419 0.021911848 0.037986144 -0.07591247
-0.008916373 0.010568005 -0.081071 0.049128003 0.014220042 0.115090504 0.020952381 0.033788003
-0.113179326 -0.069546625 0.034782246 0.07057546 -0.0033551564 0.06217986 -0.015156318 0.11747749
0.019762486 0.07079606 0.051866204 -0.06390984 -0.058320753 -0.042023182 -0.06788774 0.03782875
-0.00090251863 0.03194559 0.013750963 0.006660062 0.026080882 0.015525387 -0.020111224 0.0671726
-0.036872935 -0.063748345 0.04692204 -0.0404593 0.09207553 0.028562127 0.010417457 -0.030549541
-0.11120334 0.05772152 0.032445733 0.007633716 -0.09433182 0.065053865 0.021528456 -0.040186167
0.010000744 0.048070047 -0.014444774 -0.07142084 -0.10381168 0.025533615 0.011526257 -0.14066947
-0.050909497 0.12704217 0.028127741 -0.040516183 -0.004006879 -0.08941093 0.090105325 0.020906778
-0.094543986 -0.010311306 -0.017320313 0.035501797 -0.028778872 0.015190661 -0.061155714 0.004197801
-0.005315304 -0.035688292 0.0017199728 0.008197027 0.013317306 -0.014633915 0.0029264344 -0.007897288
-0.018568821 -0.0068296646 0.015387207 0.018035488 0.023087189 0.02738436 0.018941194 -0.08247258
0.112167954 0.0062870695 -0.0020426991 0.11605021 -0.0066681495 -0.08489553 0.02487561 0.15091993
0.028617557 -0.023094067 -0.056634888 -0.090645894 -0.023494504 -0.014333408 0.022245875 -0.015666503

fc2_mean.bias f4 [16]
00000000: 6d70 683d ae71 303d d3b8 5fbb 3296 4a3d
00000010: 25c8 6d3c 6625 63bc 18ec 68bc 2232 263d
00000020: ec4f 3abd 3935 e5bd 0edd 163d 5a07 26bd
00000030: 44da 743d 44ba 5cbd 9bf7 ae3d eba9 00bd
0.056747843 0.043077163 -0.0034137263 0.049459644 0.01451305 -0.013863897 -0.014216445 0.040575154
-0.045486376 -0.11191792 0.036831908 -0.040534355 0.059778467 -0.053888574 0.08543321 -0.031412046

fc2_logvar.weight f4 [16, 64]
00000000: 095a b53d db33 a53c e7ce 68bd a8bd ec3c
00000010: bfb0 24bd 2ffc 86bc 8d82 753d f077 ff3d
00000020: 0cfc e83c 1f84 873b 9ce3 b1bb 1c58 5d3d
00000030: 40a9 9b3c a0df eb3c 0049 423d 8188 68bd
00000040: 6778 723d 0d0f e1bd 1554 98bc f4ad b2bc
00000050: 42ec 81bd c3ba 253d 5034 b53d e97f 4f3d
00000060: bd8d fcbc e22e 3ebc d707 883d 9899 413d
00000070: f28d aabc 7653 cbbd 4120 1cbd bd22 f13c
00000080: 9cf3 3e3d 0f01 e43d 2c97 023e bd05 92bd
00000090: 5775 0a3d b851 18bd 1849 cbbc e014 403c
000000a0: ff94 823c 5563 a63c 308a f23d aa80 6fbc
000000b0: 743c 283c 73f7 f3bc c0e1 a63b 703c 40bd
000000c0: 0880 f53c c1cf b93c 3062 97bd 6fe6 1c3b
000000d0: fc85 083d 60e5 62bd 444e fbba e903 0e3e
000000e0: 9160 02bd b1fc 82bb 4760 1a3d 278d b6bc
000000f0: 23cf dd3c 3b0a d4bc f251 e7bc 15bc f5bc
00000100: 8fae d53d c1dd ac3c 7f39 76bd 9191 ddbc
00000110: 31bb bcbd c410 833d b19b a2ba 3074 5ebc
00000120: 16f3 d3bb b615 733c 8524 893c cb93 0dbb
00000130: 7817 a0bc 550c 6b3c 3876 a6bd 532e 01bd
00000140: bc6c 9bbd f123 16bc cfe5 6aba 4ba4 b13d
00000150: 0cbb b93c 2a16 41bd 9e9c ae3c 64d4 dabc
00000160: 5420 0a3d 1467 eb3b 26fb 98bd 8ea5 3b39
00000170: df0d 1abc 504b 5fbc b45d cd3b 1d87 973c
00000180: 664b f6bd 3d75 643d 5ef3 b23c 8ffb 86bd
00000190: d634 7abc 5ffe ffbc b10d 10bc 50ef ba3c
000001a0: 9138 bebc a39a 7b3c 3ae1 f53d 70d2 a7bb
000001b0: 9349 3fbc 7028 b23c 4c5a 783d 595c 05bc
000001c0: d84c bdbc bd97 d63c be27 d63c 00a2 893c
000001d0: b347 8739 1380 c9bd e7c3 9ebb b72c c33c
000001e0: 300c fbbc 9610 443d 7fee d33a f83e a33c
000001f0: 9a94 663a 2fb7 503d 3530 aebb 9ba1 06bd
00000200: 7bda 683d cfdf 00bc 0952 c0bd 54dd fdbc
00000210: fb65 cbbd 28fa 703c ed90 873d 0a83 e2bd
00000220: c9ad 90bc f69d 26bd 15ad 163d 8930 5b3d
00000230: 4ce4 ecbd 3024 343d e20b dc3d 4737 a73d
00000240: c02f 233d 18fc 043d 2b7f 1e3c f390 b33a
00000250: 7d49 c4bc 8192 683d d3f8 a7bd 4a37 513b
00000260: 8618 9a3d 8139 673c 58c5 e7bb ee6c 44bd
00000270: 404c c5bc 96f2 93bd cdae 183d d2a5 3a3c
00000280: 90a7 3dbc 9d04 903d fc66 bfbc bb31 d6bd
00000290: ce6e 9bbc 7bb8 4f3d 7302 c1bc 4ab8 923d
000002a0: 3081 6fbd 9114 18bd 18e3 92bc cd8c 1e3d
000002b0: 5f56 573d e5ec acbc e664 ddbd 6ad0 e53c
000002c0: 38de 883c 64c1 d6bc c25f 853d 6b4b 5ebd
000002d0: 46eb a83c beb2 a8bb 034b c4bb fad4 a5bd
000002e0: 39d7 2dbb 4c78 08bc bc98 3c3d 8f0b 5ebd
000002f0: 7b69 78bd 377b b7bd 45ec b7bd 8cb3 133d
00000300: 396d 303c c9a9 9b3c ed33 73bc c336 363d
00000310: c6a5 98bd e126 ffbd 8951 043d 04dd e6bd
00000320: 8e47 6e3d 218c b03d 0410 a63d e2e0 203c
00000330: c0a5 8cbd 6c6c cdbc 48ef 5dbd f394 913d
00000340: ff59 433d 0db9 073d c19e 96bb 9f06 33bd
00000350: a735 b1bd 5bf6 c5bc 48b6 423d 245b f8bd
00000360: a01a 28bd 5b0a 44bb d9ba f5bd 4db2 653d
00000370: f24c 343d aa5e a53d 7e57 893d ef98 1d3d
00000380: 2656 b7bd e4ee 18bd 627e a73c ac0a 7fba
00000390: f9e9 a93d 53d7 e7bd 0c75 53bc 08e1 7d3d
000003a0: 8e93 ce3b 644a 68bc aa8b ee3d 7be5 733c
000003b0: e932 9fbc d4ca 223d ac45 86bd 5cd2 b7bd
000003c0: 5849 9e3c 9717 58bd 379a 863c f0d9 953c
000003d0: fe01 243d 5d18 053d 275e 8fbd 0f04 c63d
000003e0: 03c9 803d 2f93 b13d cf0a 9a3d 25dc b5bd
000003f0: d981 abbc b578 94bd 53a2 3cbd 904d 653d
0.088550635 0.020166328 -0.056837942 0.028899029 -0.04020762 -0.016477672 0.059938956 0.12474048
0.028440498 0.004135623 -0.0054287445 0.054039106 0.019001603 0.028793156 0.0474329 -0.056770805
0.059196856 -0.10989199 -0.018594781 -0.021811463 -0.06343891 0.040461313 0.088478684 0.050659094
-0.030829305 -0.011607857 0.0664212 0.04726562 -0.020819638 -0.09928028 -0.038116697 0.02943551
0.046619043 0.111330144 0.1275298 -0.07130001 0.03380331 -0.037187308 -0.024815127 0.011723727
0.015940187 0.020311037 0.118427634 -0.014618078 0.010268319 -0.029781079 0.0050928295 -0.046932638
0.029968277 0.022682073 -0.07391775 0.002394106 0.033330902 -0.05539453 -0.0019173105 0.13868679
-0.031830374 -0.0039974083 0.037689473 -0.022284104 0.02707631 -0.025883785 -0.028237317 -0.029996911
0.10433685 0.021101834 -0.060113426 -0.02704695 -0.092153914 0.06399682 -0.0012406019 -0.013577506
-0.006468187 0.014836719 0.016741047 -0.0021602984 -0.01954244 0.014346202 -0.08128017 -0.03153832
-0.07589099 -0.009163843 -0.0008960636 0.086739145 0.022672199 -0.047140278 0.021314915 -0.026712604
0.033722237 0.0071839187 -0.07469778 0.00017895384 -0.009402721 -0.013628796 0.006267274 0.018497044
-0.120261 0.05577587 0.021844562 -0.0659095 -0.015271386 -0.031249223 -0.008792327 0.022819191
-0.023220332 0.0153566925 0.12005849 -0.0051215217 -0.011675256 0.021747798 0.06063299 -0.008139693
-0.023107931 0.026195401 0.026141997 0.01680088 0.00025802627 -0.09838881 -0.0048451307 0.023825033
-0.03064546 0.04786738 0.00161691 0.019927487 0.0008795947 0.050955947 -0.0053158053 -0.032868963
0.056848984 -0.00786586 -0.09390647 -0.030989327 -0.099315606 0.014708079 0.06619439 -0.1106015
-0.017660992 -0.040677987 0.036786158 0.053513084 -0.11566982 0.043979824 0.10744454 0.0816484
0.03984046 0.032466978 0.009673874 0.0013699814 -0.023960823 0.056780342 -0.08201756 0.0031923824
0.07524209 0.014112831 -0.0070730858 -0.047955446 -0.02408421 -0.07224004 0.037276078 0.011392074
-0.011575595 0.0703213 -0.023364536 -0.10458704 -0.018973734 0.050713044 -0.023560738 0.071640566
-0.058472812 -0.03712899 -0.017930552 0.038708497 0.052572604 -0.021109054 -0.108102605 0.028053481
0.016707525 -0.026215263 0.06512405 -0.054271143 0.02062 -0.005148261 -0.0059903874 -0.08097263
-0.0026525988 -0.008329462 0.046044096 -0.054210242 -0.06064747 -0.08959048 -0.08980612 0.0360599
0.010768228 0.019001858 -0.014843923 0.04448582 -0.07453494 -0.124585874 0.03230432 -0.11272624
0.05817371 0.086204775 0.081085235 0.009819241 -0.06867552 -0.025076114 -0.054183275 0.07108488
0.04769325 0.033135463 -0.0045965617 -0.043707486 -0.086528115 -0.024165323 0.04753712 -0.12126759
-0.041041017 -0.00299134 -0.11998529 0.056078244 0.044018693 0.08074696 0.06706141 0.038475927
-0.089519784 -0.0373372 0.020446006 -0.0009729068 0.0829658 -0.11320367 -0.012906324 0.061982185
0.006304211 -0.014177892 0.116477326 0.014886255 -0.019433456 0.039744213 -0.065562576 -0.0897567
0.019322082 -0.052756872 0.016430957 0.018292397 0.040040962 0.032493938 -0.0700038 0.09668743
0.0628834 0.08670651 0.07521593 -0.0887988 -0.02093594 -0.072495855 -0.046053242 0.055982172

fc2_logvar.bias f4 [16]
00000000: fa01 eebc 283d 4f3d 8eb5 d83c e7fe 083d
00000010: c080 5b3d a33a 0b3d 366a 66bd f111 a03d
00000020: bcb3 d93b 0048 b0bd d038 a23d c2aa 4d3c
00000030: 6986 0ebd 77d0 73bd 2b7e 53bd 2229 9c3d
-0.029053677 0.050595433 0.02645376 0.03344622 0.053589582 0.033991467 -0.056253634 0.07815922
0.0066437405 -0.08607483 0.079209924 0.012552919 -0.034796152 -0.05952498 -0.051633995 0.07625033

fc3.weight f4 [64, 16]
00000000: d2ca 223e f019 8db7 fbc4 adbc 6b51 28bd
00000010: 1b8e f93d d015 143e d3e4 1cbe f145 c73d
00000020: 75ce 163c 28ba 66bd f9b7 33be 1ccd 29be
00000030: 818b 033e 8c70 203e c924 443e 57e9 22bc
00000040: 2124 a6bd 2b9a 22be 828c a43b 5893 1dbc
00000050: 033c 503d ab55 783e e26a 3abd bc90 fa3d
00000060: 692d 0a3e 6b72 01be e699 943d 5679 b73d
00000070: c8b6 35be d30b bb3d daaa 8c3d 5a74 233e
00000080: 76ce 203d 33df 3a3e 0099 143e 63f5 05be
00000090: 8831 803d cf90 c93c 4057 f63c f23f c1bc
000000a0: 0522 68bc 5fa7 97bd d1fa 903d 2ac3 843c
000000b0: e43a 9f3c 7cdd 9dbd ffe3 c8bd 2185 d5bd
000000c0: 8f76 34be f1dc 203e c607 c53d 54e8 643d
000000d0: 46c2 933d 437d 993c c643 17be 4970 f1bd
000000e0: 7005 56bd a9a2 e03c 61f0 803d f9a4 ec3d
000000f0: 9e09 8bbc 0fa2 363e ffa9 02bd 0226 69bd
00000100: 5192 133c c406 183e cfe8 dd3d 886e 5e3b
00000110: fafc 2fbe ba75 2c3e 965b a1bd bd56 d4bd
00000120: 2d45 2c3e 6e01 e3bc ca20 f13d b112 07bd
00000130: 2f4b aabd 6bf1 d6bd d799 a53d 89e1 a9bd
00000140: c782 97bc 93f2 39be 271f 5b3e f8f3 8cbe
00000150: 0008 533e b88c 1abe 5800 bfbc 673f 93bb
00000160: a2f4 703d b00c c1bd 73e4 ecbd 122a 513e
00000170: bbcc 7e3c 8cc9 6bbd 8aa9 47bd 644e eabd
00000180: 17ab 983d 7a48 82bc cbb3 d6bd ccac 023d
00000190: a405 b9bd 9a09 cabc 363a 493e 12a1 c53d
000001a0: c841 0e3c 4a03 df3d 16b6 c0bd 7ac4 153e
000001b0: 16e9 45bb 0280 3abe 985d 1e3e ef58 3e3e
000001c0: beae 313e 954d 083b 5395 8fbd 4f31 55bc
000001d0: dfcf 8a3b c6ea e5bd 14c3 803b 473e 2abe
000001e0: 2cdf b13b 20ec d03d 4a14 7bbd e962 8abc
000001f0: 4175 42be 2f13 073e c417 4e3e 860a 523d
00000200: 802f 1e3e 2deb 29be c8b6 20be 5dd4 ca3d
00000210: 4bba 413e c4f3 433d 2f57 13be 1f48 1dbe
00000220: 10ef 663e f546 693d cb79 dc3d f441 1a3e
00000230: 3cdd 26be e0b8 1cbe 57f5 20bd 6085 643d
00000240: 64fd 1fbe 4e27 57be 1299 5e3e f7e2 293e
00000250: a48a 56be c68b c7bd adb1 57bd 8646 e93d
00000260: 5126 313e 8a92 debd 757a 3bbe c02a cc3b
00000270: 1d6e 113d ae02 473e 7c39 b43c 8846 4fbe
00000280: 4eec 703d edb4 6fbd f2f7 803b 8237 9b3d
00000290: 98c5 e4bd 5381 133e e32e 1dbb 0730 293e
000002a0: 82d8 a1bc 77c3 a9bc 3379 2bbc e8ef 263e
000002b0: 87d4 bb3b 6163 f5bd 2d62 d5bd 6e83 0ebe
000002c0: 6dd4 473e f207 9f3d 65e3 ed3d 5471 6e3d
000002d0: c7ef 8e3d 9a27 62be a1f3 8d3d 62dd 17be
000002e0: dd4e 943d bd7d c13c 1b8f 753c 36d8 463d
000002f0: f1f4 19be 40fc 8abc 3103 bc3d 1b82 683d
00000300: edf6 11be a11b da3b e42a ebbd 255e 2b3e
00000310: 1c8b 5ebe f565 5b3c 221b 203e 5143 c93d
00000320: 4460 2939 fa16 453e d4ef 443e e338 d83d
00000330: ac30 0b3e 362b d23c 8f1f 92bd 0a27 253c
00000340: e4df 8cbc 9d9a da3d bb02 8fbd f224 153c
00000350: 17a6 c83c 2099 7b3e e70e 403e 0ce1 a3bd
00000360: 9ab7 f43c 542e 293e 5d02 14be a366 0dbd
00000370: 1442 1d3e 65c4 a8bd 8480 1c3e afc9 0a3e
00000380: 8490 8dbd d1b8 283e 3e0b 5cbd b71d 28be
00000390: 3fe3 edbd 72af 583e c269 913b 0a64 79be
000003a0: d321 0c3e dd7d fcbd d325 743e e82d 2fbe
000003b0: f7fb 0bbe e373 eebd eed1 cebc fcb7 123e
000003c0: d7e0 863d 6048 3b3e 326c 80bd 6dac 903d
000003d0: 5286 d9bd 4b46 89bd 511a 3fbd 37b4 c93d
000003e0: 21da 32be 026a 823c 08df f9bc aec7 9dbd
000003f0: a203 353e 77f8 0dbc 340f 2c3c bbf4 45bd
0.15897682 -1.6820588e-05 -0.021212092 -0.04109327 0.121853076 0.14461446 -0.15321665 0.09730137
0.009204497 -0.056329876 -0.17550649 -0.1658215 0.12846185 0.15667933 0.19154657 -0.009943328
-0.0811236 -0.15879123 0.0050216326 -0.009617649 0.05083848 0.2425143 -0.045512088 0.12234637
0.13493885 -0.12641303 0.07255916 0.0895869 -0.17745507 0.09133115 0.06868525 0.15962353
0.039259396 0.18249206 0.1451149 -0.13081889 0.06259447 0.024605183 0.0300709 -0.023590062
-0.014168267 -0.074049704 0.070790894 0.016206343 0.01943726 -0.077082604 -0.09809112 -0.10425783
-0.17623352 0.15709282 0.09620623 0.055885628 0.07214789 0.018736487 -0.14771947 -0.11788995
-0.05225128 0.027421312 0.06295849 0.115549035 -0.01697236 0.17835258 -0.031900402 -0.056921013
0.0090070525 0.14846331 0.1083542 0.0033940393 -0.17186347 0.16841784 -0.07878797 -0.103681065
0.16823263 -0.027710643 0.11773832 -0.03297681 -0.083151214 -0.104952656 0.08085983 -0.082949705
-0.018494977 -0.18158941 0.21398602 -0.27529883 0.2060852 -0.15092742 -0.023315594 -0.004493642
0.05882705 -0.09426248 -0.11567011 0.20426205 0.015551741 -0.057565257 -0.04874567 -0.11440733
0.07454508 -0.0159037 -0.104835115 0.031903073 -0.09034279 -0.024662782 0.19651112 0.09649862
0.008682676 0.10889299 -0.0940973 0.14625731 -0.0030198744 -0.18212894 0.1546539 0.18588613
0.17351815 0.0020798196 -0.07010903 -0.013012244 0.004236206 -0.1122642 0.003929505 -0.1662532
0.0054282155 0.10201287 -0.061298646 -0.016892867 -0.18990041 0.13190912 0.20126253 0.051279567
0.15447807 -0.16593619 -0.15694726 0.09903786 0.18918721 0.047839895 -0.14388727 -0.15359543
0.22552133 0.056952436 0.10765418 0.15064222 -0.16295332 -0.15304899 -0.039296474 0.05579126
-0.15624005 -0.21011087 0.21738079 0.16590486 -0.20951325 -0.097434565 -0.05265968 0.113904044
0.17299773 -0.10867794 -0.18308432 0.006230682 0.035505403 0.19434616 0.022000067 -0.2024175
0.058819108 -0.058522154 0.0039358074 0.07578947 -0.111705005 0.14404802 -0.0023984245 0.16522227
-0.01975656 -0.020723088 -0.010465908 0.16302454 0.0057321223 -0.11981846 -0.10419116 -0.13917324
0.19514628 0.07765187 0.11615638 0.058213547 0.06979328 -0.2208542 0.06931234 -0.14830545
0.072416045 0.023619527 0.014987732 0.04854604 -0.15034844 -0.016965985 0.09180296 0.056764703
-0.14254351 0.0066561257 -0.1148279 0.16735132 -0.21732754 0.013391008 0.1563535 0.09827293
0.00016152958 0.19247046 0.19232112 0.10557725 0.13592786 0.02565537 -0.071349256 0.010080108
-0.017196603 0.106740214 -0.06982943 0.009103047 0.02449326 0.24570131 0.18755685 -0.08001909
0.029872704 0.16521579 -0.14454027 -0.03452171 0.15357238 -0.08240584 0.152834 0.13553499
-0.0691233 0.16476752 -0.05372166 -0.16417585 -0.116156094 0.21160677 0.004437656 -0.24354568
0.13684778 -0.12328694 0.23842554 -0.17107356 -0.13670336 -0.116431974 -0.025246587 0.14327997
0.065858535 0.18289328 -0.062706366 0.070641376 -0.10621323 -0.067028604 -0.046655957 0.098488264
-0.17466022 0.01591969 -0.030501857 -0.077041015 0.17677167 -0.008665196 0.010501672 -0.048329096

fc3.bias f4 [64]
00000000: dd2a 94bd b2c4 88be 3f01 c0bd facd 45be
00000010: 9193 1f3e 6604 7d3e 4853 56bd c986 05be
00000020: bd65 a83e acf3 03be 9128 933e 8e95 75be
00000030: f93d 5dbe 7a89 a93d 0eab 903e 795a be3e
00000040: 005f 9e3e 08a6 203e 32aa c83d 3c39 02be
00000050: acb5 3abe bf13 b03d 0ad5 b13e df44 d53e
00000060: 45a1 103e f587 5cbd 818b 9f3e 47d4 8fbe
00000070: 2ff4 b33d 5ccd c6bd 1db7 9a3d 5614 7cbc
00000080: aba2 a43e 2ac8 8f3d 793b 8a3e 699f 6d3e
00000090: 1046 00be 4b2e 9fbe 0267 30bc 87ad 98bd
000000a0: fd35 0e3d 4640 753e 1fb3 943e 8b6b 803e
000000b0: 589b 6ebe f4b0 513e afab 073e fdd7 78bd
000000c0: fc73 77be c92f 57be 1c9e e9bc 1b9b a2bd
000000d0: 4f49 b53e 8bd3 f2bd c66a 1c3e 6102 853e
000000e0: ff95 c83e 7a12 4c3c 82e0 e93d 1c98 d13e
000000f0: f40f e9bd f9d7 b63e e6d1 a73e 7651 8d3e
-0.07234738 -0.26712567 -0.09375238 -0.19316855 0.15583636 0.24708709 -0.052325517 -0.13039698
0.3289012 -0.12885922 0.28741887 -0.23982832 -0.21605672 0.08278175 0.28255504 0.371784
0.30931854 0.15688336 0.09798087 -0.12717146 -0.18233365 0.08597516 0.34732848 0.41654107
0.1412402 -0.053840596 0.3116112 -0.28091642 0.08786809 -0.09707138 0.07554457 -0.015385708
0.32155356 0.070206 0.269985 0.23205341 -0.12526727 -0.31090006 -0.0107667465 -0.07454973
0.034719456 0.239503 0.2904291 0.2508205 -0.23301446 0.20477659 0.13249086 -0.060752857
-0.24165338 -0.21014322 -0.028517775 -0.0793974 0.35407493 -0.11856755 0.15275106 0.25978377
0.39176938 0.012455577 0.114197746 0.40936363 -0.11379996 0.3571165 0.32777327 0.27601212

fc4.weight f4 [11, 64]
00000000: ef6c 323b b8f5 c5bc 56ee 68bd 9e7e 1bbb
00000010: 011f 993d 90a6 89bb 5832 7a3b f9c0 a73c
00000020: e911 543d dff1 803d b8b8 813d 19ec 523c
00000030: 80ce fbbc 9344 8abc 181f 39bd 499d 493d
00000040: f942 793c a820 d43c a882 4c3d 92d5 513d
00000050: 4aba e3bc 1881 07bd 7a7d 97bb 8b4f 04bd
00000060: c434 9fbc 2b18 57bd bcaf 19bd e04a fe3c
00000070: 4157 2d3b 7e01 98bd 7b0e 2cbb d0da 253b
00000080: 4144 7fbc d7cf 403c 5bfc 073d 039c 2dbc
00000090: 07ff 913c b31c b13d 7e4d a83c a73a 9a3d
000000a0: be08 1ebd 2e16 5d3a 74ab fc39 57a9 98bd
000000b0: 4f37 9a3c 38a7 17bd bcd3 1abd 210f abbc
000000c0: 786d 10bd 1025 26bc 9ead 1abd bd38 f53c
000000d0: da2f 16bd a774 8d3c 4e79 32bd 24a3 c93c
000000e0: df83 3dbd 97d2 833b 5564 36bd bbeb 953d
000000f0: 86e4 b0bc fd91 953d 3f9f 18bd 9258 1abd
00000100: 7496 29bd 4155 6c3c c1d5 863d 4c06 1a39
00000110: e913 12bd 89d5 cd3c 9c1d 81bd 6cbd 16bd
00000120: 9daa d7bc 4209 063a ff6d 623d fed3 583c
00000130: 42b7 d7bc ade9 513a fed2 063d 402f 3cbd
00000140: 4970 843d 9135 9c3b 4238 723d 600f 673d
00000150: 6a39 f93c dcc7 913d c8c0 423d 148a 063c
00000160: 0c8c ed3a 8e75 12bd a8e1 adbb 7ee6 47bd
00000170: 10d6 b7bc cfa2 56bd c31a 01bd 0f00 833c
00000180: 8ccb 653d cda8 babc 652f 343b 525c 6f3d
00000190: 3083 633d 1edb c2bc c054 c5bc 9b3b 9eba
000001a0: 5b4d 493d edb8 b1bc 95b7 913d 64e9 5f3d
000001b0: d14c a03d 45b0 a9bc 8b7b 5d3d 313b d43c
000001c0: 86e6 49bd 0053 99bc 42a4 81bd 81ce 19bd
000001d0: f417 1a3d b636 df3c 9c3b a4b9 88f5 753d
000001e0: ca3a 57bd 0084 cf3c 727e b83b cdbb 84bd
000001f0: c3cb a6bd 0a63 61bd 8be2 a03d 1e55 403d
00000200: e501 243c 8b4f d2bc 8c29 c8bc aa32 68bd
00000210: 050b 39bc 78e1 933d 0967 19bd 58a4 61bd
00000220: 9eff 983d a7e5 92bc acf1 703c 3586 b4bc
00000230: 099d b53c 4e1f 30bd ae0e 40ba c55a 6d3d
00000240: d273 c23c caf3 d83b 6073 1a3d 5973 9ebb
00000250: 8641 0e3d a6c0 c73d 8662 89bd 1ba4 c33c
00000260: 1dc0 92bc a2b7 82bc 4454 cc3c 30f5 cebc
00000270: 1d66 663b 4b15 14bd 01cd 5ebd a804 2bbd
00000280: 17f5 b73d 2cad 75bc 9873 d83d f0c9 49bd
00000290: ba3a b13a 6efd 623d 9849 6b3c f459 d73d
000002a0: eef2 9a3d 2d8c 4abd ce44 0b3d 1d46 10bd
000002b0: 71a4 be3c e45b 833d caf5 b1bc 4ded 903c
000002c0: b0df 9b3d 462f 353d 73d9 f33c 9afa 753d
000002d0: 9bea efbc 6137 1f3d 98cb 62bd eb44 3c3b
000002e0: 4080 b83d fbc3 af3d 449f 26bd 5d8d 173d
000002f0: e02a 82bd 6389 983b 3da6 953d 287d db3c
00000300: a04a c1bb e288 133d 8025 2b3b d7a7 2abd
00000310: b965 b83d d1f1 f4bb b521 a53c 549e 9b3c
00000320: 46fc 403d 2ca5 0d3d 1c6e 213b c006 13bd
00000330: 70e7 bd3a 75c1 a43d 5365 a7bb a05b 993d
00000340: 2481 af3d d6e1 b53c 53e7 4b3d a02c 4c3c
00000350: dce1 363d 5d9f ac3c aff3 bd3b ec97 04bc
00000360: 9097 18bd e290 5fbb 5263 6cbc 19f4 973b
00000370: 7f05 0e3d e4b1 39bd 8138 4b3d ea59 6cbc
00000380: 548f 8f3d 0a06 b43c 8245 833d 0af1 653c
00000390: 7c6e 1b3d 8b29 d03c 3858 843c 5626 783d
000003a0: a4dc 0bbc 1213 b23d 1330 fbbb c70d 173e
000003b0: 2f72 103d 0360 913d 2f74 d13d 2714 273d
000003c0: 8f35 8fbd cb6c c1bc b2cd c0bc 9d74 453c
000003d0: 0273 8f3d 8dfd f33c 75d9 323d 0629 8d3d
000003e0: b50c 8b3a d8d6 08bd 9e9e 87bd ac67 1abc
000003f0: aaaf e6bd 200e 8c3d aa16 b53d f76f 10bc
0.0027225574 -0.02416502 -0.05686792 -0.0023726593 0.07476617 -0.004200764 0.003817698 0.020477759
0.051774893 0.06296133 0.063340604 0.012873673 -0.030738115 -0.016878402 -0.04519567 0.049222264
0.015213721 0.025894478 0.04992929 0.051229067 -0.02779879 -0.033082098 -0.0046231123 -0.03230242
-0.01943434 -0.052513283 -0.03752111 0.031041563 0.0026449712 -0.074221596 -0.0026253748 0.0025307424
-0.015580238 0.011768303 0.03319965 -0.010596278 0.017821802 0.08648052 0.020544764 0.07530718
-0.038582556 0.0008433786 0.00048192928 -0.07454174 0.018825201 -0.037024707 -0.037799582 -0.020881237
-0.035260648 -0.010140672 -0.03776323 0.029934281 -0.03666673 0.017267538 -0.043572716 0.024613924
-0.04626834 0.004022907 -0.044529278 0.07320353 -0.021593343 0.07303236 -0.037261244 -0.037682123
-0.04140325 0.014424623 0.06583739 0.0001468893 -0.03566352 0.025126236 -0.06304476 -0.03680174
-0.026326472 0.0005113074 0.05528068 0.013234137 -0.026332501 0.00080075377 0.03291606 -0.0459435
0.06466729 0.004767128 0.059135683 0.056411147 0.030422885 0.07118198 0.04754713 0.008211631
0.0018123402 -0.03575664 -0.0053064413 -0.0488038 -0.02244094 -0.05240136 -0.031519663 0.015991239
0.05610232 -0.022785569 0.002749407 0.058437653 0.055545032 -0.023786124 -0.024088264 -0.0012072207
0.049146038 -0.021694625 0.071150936 0.054665938 0.078271516 -0.020713935 0.054072898 0.02590713
-0.04929211 -0.018716335 -0.06330158 -0.037550453 0.0376205 0.027247768 -0.0003132493 0.06004861
-0.0525463 0.025331497 0.005630308 -0.06481133 -0.08144333 -0.05502609 0.0785571 0.046956174
0.010010217 -0.025672695 -0.024433874 -0.056688942 -0.011294131 0.07220739 -0.037451778 -0.05508837
0.0747063 -0.017931772 0.014706057 -0.022036651 0.022169607 -0.042998604 -0.0007326406 0.057947893
0.023736868 0.006620859 0.037707686 -0.004835528 0.034730457 0.09753542 -0.06708245 0.023881963
-0.017913872 -0.015956704 0.024942525 -0.025263399 0.003515608 -0.03615312 -0.054394726 -0.041752487
0.08982294 -0.014994901 0.10568923 -0.04926485 0.001352153 0.05541747 0.014360808 0.10515204
0.075658664 -0.04945009 0.034001164 -0.035223115 0.023271771 0.06414011 -0.021723647 0.017691279
0.076110244 0.044234537 0.029766774 0.060053445 -0.029286673 0.038871173 -0.055369943 0.0028727602
0.09008837 0.08582302 -0.04067923 0.03700005 -0.06355834 0.0046550496 0.07307098 0.026793078
-0.0058987886 0.036019213 0.002611488 -0.04166397 0.09003777 -0.007475116 0.020157674 0.018996395
0.047115587 0.03458135 0.002463228 -0.03589511 0.0014488529 0.080447115 -0.0051085143 0.07488179
0.085695535 0.022202414 0.049781155 0.012461811 0.04464899 0.021072084 0.0057968716 -0.008092862
-0.037253916 -0.0034113456 -0.014427977 0.004637253 0.03467321 -0.045335665 0.049614433 -0.014425734
0.070097595 0.021975536 0.06409742 0.014034519 0.037947163 0.025410434 0.016155347 0.060583435
-0.008536492 0.086950436 -0.007665643 0.1475135 0.035265144 0.07098391 0.102272384 0.040790703
-0.06992637 -0.023611447 -0.023535583 0.012051729 0.07004358 0.029783988 0.043664414 0.0689259
0.0010608645 -0.033408016 -0.06622051 -0.009424131 -0.11263974 0.06838632 0.088422135 -0.008815757

fc4.bias f4 [11]
00000000: 3f94 c7bd 887c 2f3e 64d9 283e 4791 9c3d
00000010: 8f1f 31bb 184d 83bc 7cbb 94bd 8f44 17be
00000020: 5008 413d b872 fabd 9989 24be
-0.097450726 0.17137349 0.16489178 0.07644897 -0.0027026867 -0.016027972 -0.07262322 -0.14772247
0.047127068 -0.12228912 -0.16068114
