src/VAE/vae_models/user_6_vae.pth (torch, 22306 bytes, 10 tensors)

fc1.weight f4 [64, 11]
000000 f5 db 14 3d 47 81 f1 3d 54 e7 eb 3d b8 f8 83 3e
       0.03634258 0.11792236 0.11518732 0.25775695
000010 65 04 2a bd 92 2b cc 3d c7 9a 24 3e 40 14 04 3e
       -0.041508097 0.09969248 0.16074668 0.1289835
000020 91 93 fe 3d f0 44 62 be 7d e4 53 3e d1 f3 09 bd
       0.1243049 -0.2209661 0.2069263 -0.033679787
000030 aa 38 9e be 7d e2 c5 3d 8f e0 12 3e 49 0b 39 be
       -0.30902606 0.0966234 0.14343475 -0.18070711
000040 05 a7 dd 3d 55 39 93 be 56 75 d5 bd e4 c0 77 3e
       0.10822872 -0.28754678 -0.10422771 0.24194676
000050 73 0a 5b be 9f a7 11 be f9 c0 00 be b1 01 29 be
       -0.21390705 -0.14224099 -0.12573613 -0.16504551
000060 5b 55 50 bd 46 0a d7 3d c7 a7 48 be 8d f2 a9 bc
       -0.05086265 0.105000064 -0.19595252 -0.02074554
000070 95 cc 00 3e 73 79 21 bd e6 80 46 be fe 3b 9c bd
       0.12578042 -0.039422464 -0.19385108 -0.0762863
000080 73 76 ac 3d dd bb e3 3d 52 da d9 bd 7f 78 79 be
       0.0842103 0.111198165 -0.106373444 -0.24362372
000090 42 1c 3c 3e 1f 17 2b bc 69 73 91 be 18 e7 16 bd
       0.18370155 -0.010442524 -0.28408363 -0.036841482
0000a0 4d 41 31 be 37 d6 3a 3e 7a 55 d2 3d c4 90 0a bd
       -0.17310067 0.18245779 0.102702096 -0.033829466
0000b0 0c 36 5f 3d 2b fb 4b be 0c 0d 02 3e bb 32 ac bc
       0.054494902 -0.19920032 0.1270029 -0.021020284
0000c0 92 ea 2c 3e ce b6 a5 bc 8c e7 98 be 5c eb 3b 3d
       0.16886356 -0.02022877 -0.29864156 0.045878753
0000d0 37 a5 cc 3d 60 26 28 bd ad 15 bb 3c a3 a3 4b 3d
       0.0999245 -0.041052222 0.022837484 0.049716603
0000e0 60 ca 6c 3e 42 94 3c 3d af 61 3b 3d 64 49 e7 3a
       0.23124075 0.046039827 0.045747455 0.0017645773
0000f0 c2 b6 cc bc 63 68 3b be 56 9f ca 3d 32 26 f5 3d
       -0.02498949 -0.18301539 0.09893672 0.11970176
000100 41 58 93 3d 24 be 15 be 7d 0f ea 3d d6 42 21 be
       0.071945675 -0.14623314 0.114287354 -0.15748152
000110 71 b3 9f bd 2d 26 88 3e 70 88 98 3d e1 5a 16 3d
       -0.077978976 0.26591626 0.074478984 0.036707763
000120 04 1a cc bd 8e 2d bd bd 4f 42 91 3d a6 bf 7b 3e
       -0.099658996 -0.092372045 0.070927255 0.24584827
000130 78 62 88 be 5b 94 19 bc ab 3b 9d be 69 50 a8 3c
       -0.26637626 -0.00937375 -0.30709586 0.020546155
000140 b6 cb 97 be cd f5 20 3e de 61 9e bc ad 97 24 3d
       -0.29647607 0.15718766 -0.019333776 0.04018371
000150 4c 00 a2 be 05 6d 37 3e c4 04 a8 3d 81 79 db 3d
       -0.31640851 0.17912681 0.08204034 0.107165344
000160 2f 69 1b be f6 04 d1 bd c3 41 d3 bc 5d 84 77 be
       -0.15176843 -0.10206024 -0.025788194 -0.24171586
000170 dc dd 50 3e 1d 6b ec 3d ac 8e 08 3e 4c f4 15 be
       0.20397133 0.11543868 0.13335675 -0.14643973
000180 a5 84 df 3c f0 35 11 3e 9e d2 24 bd 86 f0 bf bd
       0.02728493 0.14180732 -0.040239923 -0.09372048
000190 0d b7 62 3e ff f3 70 3d af 1c d6 3d 07 f9 ec 3d
       0.22140141 0.058826443 0.1045469 0.11570936
0001a0 a7 e8 35 3e fb 10 9a bb 44 4e 16 bd 25 59 53 be
       0.17764531 -0.0047017313 -0.036695734 -0.20639475
0001b0 4a 79 26 be f1 7f 56 be f8 29 e2 bd ba b4 9b 3d
       -0.16257206 -0.20947243 -0.11043161 0.0760283
0001c0 6b 8d 38 3d 7d 9c 62 3e 85 d0 4a be 38 ac 0f 3e
       0.04505674 0.22130008 -0.19806106 0.1403054
0001d0 b2 c1 69 be e4 0e 70 3e 97 0b 1e be 86 5d 45 3e
       -0.22827795 0.2344318 -0.15434109 0.19273958
0001e0 3b b7 dd 3d 96 6b 88 3e ed ad 1f be cf 5a 45 bb
       0.10825964 0.26644582 -0.15593691 -0.003011394
0001f0 af c1 81 be c0 06 4f 3d a2 8e 34 be 12 b0 82 3d
       -0.2534308 0.050543547 -0.17632535 0.06381239
000200 cd 64 27 be a9 89 70 3e 36 e7 19 3e 58 68 f0 3b
       -0.16347046 0.23490013 0.15029606 0.0073366575
000210 c5 6b 17 be 8f 34 a5 be 74 da 34 bd a3 31 30 3e
       -0.14787205 -0.32266662 -0.044153646 0.17206435
000220 5b 80 61 3e 38 26 4b 3e 74 9e 96 bd 97 3a 3c be
       0.2202162 0.19838798 -0.07354441 -0.18381725
000230 c9 03 9b be 96 28 ef bd 7d d5 da 3d 63 05 0a 3e
       -0.30276325 -0.11677663 0.10685251 0.13478617
000240 b0 dc 9c be 94 81 a8 3d 97 b5 83 3e 10 1c 95 3d
       -0.3063712 0.0822784 0.2572448 0.07280743
000250 52 14 70 be 0a d5 41 be 94 66 81 be ca 8c 31 3e
       -0.23445252 -0.18928924 -0.25273573 0.17338863
000260 57 fc 32 bc 70 94 66 bc 47 f4 13 3c c2 ad 82 be
       -0.01092442 -0.014073476 0.009030408 -0.25523192
000270 90 15 0c 3e 2b 90 e1 bd 4e 99 1f be 49 60 81 3d
       0.136801 -0.11013826 -0.15585825 0.06317193
000280 b0 c4 95 be 0c 17 02 be 29 28 43 be b6 88 05 3e
       -0.29251623 -0.12704104 -0.19058289 0.13040432
000290 ba 04 55 3e a3 41 2a 3e a7 49 45 be ed ad 10 3e
       0.20802584 0.16626601 -0.19266377 0.14128847
0002a0 30 fb 3b 3e 8b 81 70 bd ae 98 32 3d 0b a0 48 3d
       0.18357539 -0.05871729 0.043602638 0.048980754
0002b0 f4 68 ae 3c d0 80 6e bd 97 5b 60 be 32 1c 78 3e
       0.02129028 -0.058228314 -0.21909939 0.24229506
0002c0 7f ed ba bd 40 5e 65 be ec 43 98 3d 74 6c a9 bc
       -0.0912733 -0.22399235 0.0743483 -0.020681597
0002d0 ec eb 47 bb a5 e5 84 3d b5 44 aa 3b 65 44 03 be
       -0.003050561 0.06489114 0.005196179 -0.12819059
0002e0 1a 94 0b 3e b5 22 89 3d 52 8c 7f 3e a1 d4 04 3e
       0.13630715 0.06696073 0.24955872 0.12971736
0002f0 ae ef d0 bb e9 eb a1 3d f6 50 8b 3e de 8a 2d bd
       -0.0063762283 0.079063244 0.27210206 -0.042368762
000300 ad 45 00 bc 00 bd 4e 3e 6a a0 82 bd 5e 98 25 be
       -0.007829112 0.20189285 -0.06378253 -0.16171405
000310 5c 86 f3 bc 1e a9 bc 3e 84 7c 0f 3e 7b f8 f2 3d
       -0.029727153 0.36847776 0.14012343 0.118638
000320 6e 98 9b be 90 d2 8a 3e e6 a1 34 be 32 5d 0d be
       -0.30389732 0.2711377 -0.17639884 -0.13805082
000330 f6 f2 5f be 76 89 c2 bd 03 7d 31 3e 71 4b 8f bc
       -0.21870026 -0.09498875 0.17332844 -0.017492028
000340 49 3f 8d 3b 7d ac 5f be 97 55 53 be 4f 38 42 be
       0.0043105227 -0.21843143 -0.20638119 -0.18966793
000350 9d d3 a7 bd cd e0 d0 3d 82 d0 dc 3c 40 33 74 be
       -0.08194659 0.10199127 0.026954893 -0.23847675
000360 36 1b 64 bd c6 f1 9c bc df 9f 90 be d0 7f fe 3c
       -0.055690013 -0.019158255 -0.28246972 0.031066805
000370 f9 4b da bc 60 65 ea bd a9 1c 23 be 66 fe 83 3e
       -0.026647555 -0.11445117 -0.15928902 0.25780028
000380 22 da 9e bd 7c 34 45 bc f4 9e 1d bd eb 0f 5a 3e
       -0.07756449 -0.012036439 -0.038481668 0.21295135
000390 91 a9 b7 3d 77 21 4d 3d 74 69 af bd f2 b7 1c be
       0.08967889 0.050080743 -0.085650355 -0.15304545
0003a0 eb 8a a2 be d8 cf 88 be 45 fc 92 3c 24 0e 29 be
       -0.3174661 -0.26721072 0.017942557 -0.165093
0003b0 08 53 b1 3c d0 5b 43 be 6e c8 47 be 62 3c 38 3e
       0.021646038 -0.19077992 -0.19510052 0.17991784
0003c0 9c c7 86 be 28 f8 62 be 1c a3 db bd 67 9c 14 3e
       -0.26324165 -0.22164977 -0.1072447 0.14512788
0003d0 eb 96 aa 3c ed 66 b6 bd 15 ca 99 be c3 c2 98 bd
       0.020823916 -0.0890635 -0.3003699 -0.07459023
0003e0 b8 42 87 be 56 6a 74 be 9c d9 49 bd 58 93 0c 3e
       -0.2641809 -0.23868689 -0.049279794 0.13728082
0003f0 03 c8 4a bd 0f 5f 04 be ba 71 88 3e 80 2f 01 3e
       -0.049507152 -0.12926887 0.26649266 0.12615776

fc1.bias f4 [64]
000000 ec 9e 70 3e 55 18 b1 bd a0 a1 bb 3d 98 77 55 bd
       0.23498124 -0.08647219 0.09161687 -0.052116007
000010 0e 5f 70 be e2 aa 5d 3e e2 7e 15 3e 6e ee b2 bd
       -0.2347376 0.21647218 0.14599183 -0.08736883
000020 d9 fd 1f be ba ff 48 bc 50 a2 21 3e 2b 96 59 3e
       -0.15624179 -0.012268001 0.15784574 0.21248691
000030 56 0e 50 be f4 6f 3c 3b 8f dc 92 bd 95 a3 96 3e
       -0.20317969 0.0028753253 -0.071709745 0.29421678
000040 59 3b 14 3e 9b 8d 7d bd b5 02 81 be ef a7 ca 3d
       0.14475764 -0.061902624 -0.25197378 0.09895312
000050 74 66 aa 3d 65 4c 83 3e 97 73 a4 3c d4 48 ad 3d
       0.08320323 0.25644222 0.020074649 0.084611565
000060 d8 37 9d 3b fb 6d 6e be c4 a0 d8 3d 01 99 bc bd
       0.004797917 -0.23284142 0.105775386 -0.09208871
000070 29 b1 7a 3e 2b 37 cc bd 14 ce 6c be 18 0d 04 3e
       0.24481644 -0.0997146 -0.23125488 0.1289562
000080 c0 1c 6b bd 2e c5 77 3e f7 b0 b1 3b c2 29 87 3d
       -0.057400465 0.24196312 0.005422707 0.065997615
000090 99 93 a9 3d d1 71 03 be 91 c9 2d 3e 8e 5c 89 bd
       0.08280105 -0.12836386 0.16971423 -0.067071065
0000a0 d0 53 04 be b9 43 91 be f5 ab 89 be 0d 56 64 3e
       -0.12922597 -0.2837198 -0.26889005 0.22298451
0000b0 85 ff 76 3e 7f 6b 86 3d 76 66 8d bd 40 3e 55 3e
       0.2412091 0.06563472 -0.069043085 0.20824528
0000c0 05 a4 a0 be a1 59 76 be 0c 2e 06 3e 7e a1 e6 3c
       -0.31375137 -0.24057628 0.13103503 0.028153177
0000d0 b1 03 44 3e b4 fb 3a be 39 9c 3f be 38 63 f9 3b
       0.19142033 -0.1826008 -0.18711938 0.0076107047
0000e0 c5 2b a8 3c 10 9f 55 be 99 51 ee 3d d9 e4 2f 3e
       0.020528683 -0.20861459 0.11636657 0.17177142
0000f0 12 a0 39 be c7 63 e6 3d a0 05 4b be 64 f2 ae bd
       -0.18127468 0.112495 -0.19826365 -0.08542326

fc2_mean.weight f4 [16, 64]
000000 b2 fc 79 3d 48 1f 98 bd 95 d9 cc 3b ec ae 12 3d
       0.061032005 -0.074278414 0.0062515237 0.03581135
000010 88 1e 79 3d 99 35 03 3e b9 2f b7 bc 40 19 6a bd
       0.060820132 0.12813415 -0.022361623 -0.057152987
000020 fe 9b 1f 3d c9 09 74 bd 3b 2d bf bd b5 87 93 3d
       0.038967125 -0.059579644 -0.09334799 0.072036184
000030 ac 7e 99 bd 50 dc ab 3c 89 4e 7c bd 6e 2f b5 3d
       -0.07494864 0.020979077 -0.061598334 0.08846937
000040 98 36 f3 3c ac 4c c1 bb 9c 74 b2 bd cd 67 ec bd
       0.029689118 -0.0058990326 -0.08713648 -0.11543236
000050 6e 22 b4 3c ef a9 77 bd 85 80 9c 3d a7 1e 89 bd
       0.021989074 -0.060464796 0.07641701 -0.066952996
000060 00 63 b7 ba 66 42 0c bd 0c c3 62 3d 96 f6 df 3d
       -0.0013991296 -0.03424301 0.055361792 0.109357044
000070 d4 77 09 bd d7 1c cc bc 4c 2c 58 bd 3a 7a ab 3c
       -0.033561543 -0.024916096 -0.05277662 0.020932306
000080 e2 24 f4 bd 83 86 0b bd 95 0c 19 bc 9c 6e 98 3d
       -0.11921097 -0.034063827 -0.009341379 0.07442972
000090 bb 38 39 bb 5e 47 fa 3c 05 85 9f 3c e5 74 18 3d
       -0.0028262574 0.030551609 0.019472608 0.037220854
0000a0 00 52 1d bd 6e 3c fb bd fa 31 b2 3d 45 e6 ab 3b
       -0.03840828 -0.122673854 0.087009385 0.005245956
0000b0 ee 1e a2 bb be f9 0a bd a6 e5 9b bd cc ba 77 bd
       -0.0049475348 -0.03392958 -0.07612161 -0.060480878
0000c0 95 44 8d bd 5e 4d 86 bd a5 fd ec 3d 36 de a3 3c
       -0.068978466 -0.06557725 0.11571816 0.02000342
0000d0 f1 5b 2c 3d 77 77 c8 bc 2f dd 57 bd ed 05 12 3d
       0.04207987 -0.024471028 -0.05270117 0.035650183
0000e0 7e 22 a9 bd 9a f1 ee bd 55 fc ac bd 14 b9 93 3c
       -0.08258532 -0.116671756 -0.08446566 0.018032588
0000f0 f0 76 25 bd 07 8a 3b 3d 83 1b d1 3d de fa ee bc
       -0.04039663 0.04578593 0.102103256 -0.029172357
000100 7d 17 97 bd 62 60 33 bb fe 32 a8 bc 4c b4 89 bc
       -0.07377527 -0.002737068 -0.020532127 -0.016809605
000110 dc 93 e9 bd 5b ac da bb 45 37 54 3d b8 3d c0 bd
       -0.11405155 -0.0066733784 0.05181052 -0.09386772
000120 11 07 9a 3c 56 b0 01 3d 29 bc 6c 3d 5b 1e 3a 3c
       0.018802198 0.031662308 0.05779663 0.011359776
000130 75 10 dc bd 30 e9 e2 3c 21 03 08 bc f2 52 bc 3d
       -0.107453264 0.027699083 -0.008301527 0.09195508
000140 0b 83 87 bd 86 5d 4e 3a e5 82 c5 bd 54 82 5c 3d
       -0.06616791 0.00078722124 -0.09644107 0.053835228
000150 f5 41 8f bd 63 98 06 3c 02 16 b2 3d 31 ab b8 3d
       -0.06995002 0.008215043 0.08695604 0.09017027
000160 18 7c 86 3d 22 bc 1e 3d c3 6b ab bd 10 2c 15 bc
       0.06566638 0.038753636 -0.08370163 -0.009104744
000170 4c fe 2e 3b c9 b8 2d 3d 68 9a e6 3d 7d d1 a1 bd
       0.0026701866 0.042412553 0.112599194 -0.07901285
000180 08 13 07 3d c3 f3 aa 3c 51 87 76 3d 9d dd 41 bd
       0.032977134 0.020868188 0.06018764 -0.047330488
000190 c8 26 45 bd d5 3e 9d 3d e4 79 26 3d c7 4f c3 3d
       -0.048132688 0.07678 0.040643588 0.09536701
0001a0 ac 17 39 bd ea 98 b3 bd 36 35 b9 bd 44 d3 57 bc
       -0.04518859 -0.087694004 -0.09043352 -0.013172928
0001b0 19 83 6d bb cf 98 1f be 25 b8 2c 3d 35 5d 48 bb
       -0.003624147 -0.15585636 0.0421678 -0.0030573134
0001c0 91 0a b5 3d 7c ae c7 3d 4d 11 71 bd 14 15 1b bd
       0.08839906 0.09750077 -0.05885439 -0.0378619
0001d0 4a 29 9d bc e2 79 89 bd 29 90 56 3c c0 81 4e bc
       -0.019184727 -0.067127004 0.013095894 -0.012604177
0001e0 64 ce 85 bd 68 ff 47 bd 57 f4 c1 3d 8a b2 cb bd
       -0.065335065 -0.04882756 0.09470432 -0.09946163
0001f0 0f f1 c7 bc a0 84 fe 3b 33 ff 2a 3d 93 4f c7 bb
       -0.024406938 0.007767275 0.041747283 -0.006082484
000200 65 3a fa bc 78 fa 5f bd 28 16 51 bb 77 23 3c bd
       -0.030545423 -0.054682225 -0.0031904075 -0.04593226
000210 bc c0 1f 3d 77 36 bd bd c2 aa 5d 3d a2 4e 8b 3d
       0.039002165 -0.09238904 0.054117925 0.068021074
000220 12 06 9c 3c c8 e4 90 3c 10 da b1 bc d6 b1 14 bd
       0.019045863 0.017687216 -0.021710426 -0.03630241
000230 fc 04 80 3d f7 83 66 bb 3b 31 8b 3d 02 80 8b bc
       0.06250951 -0.0035173872 0.06796499 -0.017028812
000240 d9 ae ab bc c6 1a e6 3c 06 3b bf 3d 54 2c 69 bd
       -0.020957397 0.028088938 0.0933743 -0.05692704
000250 4c 49 43 bd a0 fd 98 3d 8e c6 83 3d 66 0c 55 bd
       -0.047677323 0.0747025 0.06434356 -0.052013777
000260 58 46 9d bc 56 63 20 3d ef f3 af bb 44 68 36 bd
       -0.019198582 0.039157234 -0.0053696553 -0.04453303
000270 98 fb 43 ba 80 d9 a1 3d 7a 5a ec bd 39 23 76 bc
       -0.000747615 0.07902813 -0.115406945 -0.015023046
000280 ae fd d7 3d b8 f2 ad 3c 69 3b ca ba f7 61 c2 3c
       0.105464324 0.021233901 -0.0015429083 0.023728354
000290 04 85 74 bd 5f 04 b2 bd d8 1a 98 bd ca 4c 2f 3d
       -0.059697166 -0.0869224 -0.07426995 0.04279784
0002a0 31 cd bb 3c 80 32 e4 ba a0 1d 80 bd 54 2e 61 bd
       0.022924991 -0.001741007 -0.062556505 -0.054975823
0002b0 b0 57 90 bb df 86 09 bd cb 0e 96 3c 9e b9 9c bd
       -0.0044049844 -0.03357589 0.0183176 -0.07652591
0002c0 3e 90 0f 3d e4 84 1d 3d d8 a1 5a 3c d6 2f ed bd
       0.03504967 0.038456813 0.013344251 -0.115813896
0002d0 bf ef 61 3d 92 00 19 bc 78 94 0c bc a2 e1 2b bd
       0.05516028 -0.009338515 -0.00858032 -0.041963227
0002e0 27 c4 b0 3c 6c 76 ad bd 01 cc 13 3c 06 70 a8 bc
       0.021577908 -0.08469853 0.009020806 -0.02056123
0002f0 39 58 57 3d 50 db 44 bd d1 fe 27 bd 69 66 45 3d
       0.05257437 -0.048060715 -0.041014496 0.04819337
000300 81 3b a3 3d 93 7c b3 3d d3 a9 84 bc 7e 1d 60 bd
       0.07970334 0.08763995 -0.01619426 -0.054715626
000310 1c bf 7a 3d fc 1f cc bd f1 d2 20 bd d9 20 4b 3b
       0.061217412 -0.09967038 -0.03926367 0.003099492
000320 96 8b 04 bd a7 54 24 3d 63 1d 52 3b dd 33 15 bc
       -0.032359682 0.040119793 0.0032060973 -0.009106603
000330 6e 56 ff bb 22 86 fc bb 53 70 f5 3c 02 c0 bc bc
       -0.0077922856 -0.0077064196 0.029960787 -0.023040775
000340 15 4f ce 3b 9d 12 2d bd 14 4b a0 bc c5 64 26 3d
       0.0062960484 -0.04225408 -0.01956705 0.040623445
000350 1b 56 e1 3b c0 83 85 bd b4 23 07 3e e5 21 00 bd
       0.0068767196 -0.0651927 0.13197213 -0.031282324
000360 ae d4 82 bd 54 b5 0c 3c 77 93 02 bd d3 5a a7 bd
       -0.06388222 0.008588154 -0.031878915 -0.0817162
000370 7d 0a 75 bd 8a 2f 58 3d 6e 8e c2 bd 73 cb 5f 3b
       -0.059824456 0.05277971 -0.094998226 0.0034148365
000380 b8 27 5f 3d d8 60 60 bc 2e 99 2c bd db de c4 bc
       0.054481238 -0.013694964 -0.04213827 -0.024032047
000390 43 04 8e 3d 3d 0d 88 bd cf 4d b2 bd 2f 14 01 bc
       0.069344066 -0.0664315 -0.08706247 -0.007878347
0003a0 a1 04 38 3d da be ff 3d e8 13 c3 bd 3f 28 04 bd
       0.04492629 0.12487574 -0.09525281 -0.032264944
0003b0 b1 88 1d 3c a9 1a a8 3d 74 c0 6a 3d 48 ba 35 3d
       0.009615109 0.0820821 0.057312444 0.044367105
0003c0 d5 68 5c bd b2 df a2 bd d5 aa 13 3d 47 ad 8d 3c
       -0.053810913 -0.07952823 0.03605159 0.01729454
0003d0 b7 bb 40 bb 40 b0 05 bd 54 29 e1 3c 06 ea cb bd
       -0.0029408762 -0.03263879 0.027485527 -0.09956746
0003e0 0e 83 7e 3d b6 92 92 bd 82 65 08 3d f8 5f 08 bb
       0.062136702 -0.07156889 0.03329993 -0.0020809155
0003f0 93 8b 25 3d 87 e5 28 bd e9 bb f8 3c 7d 55 4f bd
       0.04041631 -0.04123452 0.03036304 -0.050618637

fc2_mean.bias f4 [16]
000000 9d 9f 90 bd fd f2 00 3d 4c 62 a9 3d 0e f1 2d 3c
       -0.07061694 0.03148173 0.08270702 0.010616554
000010 81 fc 22 bd 83 40 3a 3c e2 2c a2 bc 21 9f 70 3d
       -0.039791588 0.01136792 -0.019796792 0.058745507
000020 25 e9 8a bc 1b b9 67 bc 31 eb 9c bc 7f 73 72 3d
       -0.016956875 -0.014143254 -0.019155117 0.059192177
000030 07 63 e5 3d b5 19 41 3d 92 68 7d 3d a8 cc 62 bd
       0.112005286 0.047143657 0.061867304 -0.055370957

fc2_logvar.weight f4 [16, 64]
000000 72 17 c1 3d 13 5b b2 3d 22 71 64 3c 03 76 ca 3c
       0.094283 0.08708777 0.013942989 0.024714475
000010 73 9b e1 3d c3 a3 9b bd 20 75 c9 3c d1 d9 f9 3d
       0.11015978 -0.075995944 0.024591982 0.12199748
000020 c9 82 e7 bc 56 aa 05 bd d0 c4 52 bd 81 69 d9 bc
       -0.028260605 -0.032633148 -0.051457226 -0.026539566
000030 3c 15 9e bc 26 67 60 3d 8b 40 86 bd ee bf 4b bd
       -0.019297235 0.05478587 -0.06555279 -0.049743585
000040 06 59 5f 3c 50 08 75 bd be a7 aa 3c 47 67 8d bb
       0.013632065 -0.05982238 0.020831939 -0.00431529
000050 ea 17 ca bd b0 4f 6a 3d ec b0 21 bd bc f4 74 3d
       -0.098678425 0.057204902 -0.039475366 0.05980371
000060 b8 6b f2 3c 0e 23 58 3c 34 71 94 3c ec f7 cc bd
       0.02959238 0.013191951 0.018120386 -0.10008225
000070 88 c7 d2 bc 86 08 59 bd 88 f8 cd bc bc 42 23 bd
       -0.02572991 -0.052986644 -0.025142923 -0.039858565
000080 10 25 ae bd 7d d0 59 bd 02 c3 40 bd cd 17 3d 3d
       -0.08503163 -0.053177346 -0.047060974 0.046165276
000090 d3 01 89 bd f9 7e a8 bc a3 d0 8c bb 6f f2 eb 3d
       -0.06689801 -0.020568358 -0.0042973324 0.1152085
0000a0 63 3f 7d bd dc cd dc bd 74 60 12 bd 01 65 4f bd
       -0.06182803 -0.10781452 -0.035736516 -0.050633434
0000b0 f8 7b 8a bc c2 94 4b bd 5a 9d 72 bd 6c 20 9d bc
       -0.016904816 -0.049702413 -0.059232093 -0.019180499
0000c0 b4 3f 1f bd f0 5e 48 bc 05 5a da 3d 86 02 8a 3c
       -0.03887911 -0.012229666 0.10661701 0.016846906
0000d0 7a e0 1a bd 28 95 74 3d 60 03 d0 bd c5 aa 01 bd
       -0.037811734 0.05971256 -0.10156894 -0.031657
0000e0 6f 7e 8d 3b 70 b9 d3 3d 6c 90 f1 3c 13 d6 88 3c
       0.0043180506 0.10338104 0.029487811 0.016703641
0000f0 89 b2 4c bd 35 74 36 3d f8 f4 b2 3d c7 cb a8 3d
       -0.049974952 0.044544417 0.0873813 0.082419924
000100 3f 1f ef 3c d0 2d 43 3c f5 b8 c5 3b d7 89 1c 3c
       0.029189704 0.011912778 0.0060340115 0.009554348
000110 2e 5b c0 bd de 39 9a 3d 41 28 9d 3d 58 cc 91 bd
       -0.09392391 0.075305685 0.076736934 -0.071190536
000120 da 8b d6 37 96 6e c9 ba 60 38 c1 3d c7 2d 4f 3d
       2.5575911e-05 -0.001536804 0.09434581 0.050580766
000130 38 6a 24 3d c7 30 b1 bb 7b e6 b1 3d c4 16 ae 3c
       0.04014036 -0.005407426 0.08686539 0.02125109
000140 a1 c4 76 3c e4 77 0a bc 79 6d 94 3d 84 e5 3a 3d
       0.015061528 -0.008451436 0.07247443 0.04562904
000150 4e 53 88 3c ea b4 5d 3d e9 e2 eb bd 63 0e 24 3d
       0.016641285 0.05412761 -0.11517889 0.040052783
000160 ba b3 da 3d 10 85 01 bd f3 dd 2b 3d 38 fb 7c bd
       0.10678811 -0.03162104 0.041959714 -0.06176302
000170 c2 2d d4 ba 2e fb 8e bd fc 2c 94 bd cd 24 bb ba
       -0.0016187953 -0.069815025 -0.072351426 -0.0014277935
000180 10 4a dd 3c ef 67 0c bc 37 e6 69 bc 01 da a7 bc
       0.027012855 -0.008569702 -0.014276079 -0.020489695
000190 17 6c 15 3d e2 ae 39 bd f5 23 45 bb 67 f5 25 bd
       0.036480036 -0.045332797 -0.0030081247 -0.040517237
0001a0 63 61 e9 bc d8 d5 73 3d 18 bd d3 bc fd 9d 3c 3c
       -0.02848882 0.05953011 -0.025847003 0.011512277
0001b0 c7 7c f5 3b e7 78 02 bd 7a 6c 85 3c 3e 26 7c bb
       0.0074916813 -0.031853583 0.016287077 -0.0038474943
0001c0 d7 e6 61 bd 0c 1d fe bd f0 95 ab bc 53 c8 de 3c
       -0.055151787 -0.12407884 -0.02094552 0.027195131
0001d0 86 5f b9 bc 17 24 d3 3d 43 1c b0 3d 8b 42 33 3c
       -0.022628557 0.10309618 0.085991405 0.010941158
0001e0 0a d8 8e bb fe d5 ed bd db b0 ac bb b9 ea f9 bd
       -0.00435925 -0.116130814 -0.0052701063 -0.12202973
0001f0 73 18 3c bc 86 0f 02 3c e4 0f 05 3d 7d 00 d5 bc
       -0.0114804385 0.007938271 0.032485858 -0.02600121
000200 d9 f6 94 3d 63 ae 53 bd 6a 83 b9 3d c0 a4 06 3d
       0.07273645 -0.05167998 0.09058268 0.03287196
000210 ca 2d b5 3b 2a 73 a4 3b c9 8f 98 3d 14 96 c7 3d
       0.00552914 0.0050186114 0.074493 0.09745422
000220 22 48 47 3d d1 1b 3e 3d f4 ee 41 bc 7f 41 d8 bc
       0.048652776 0.046413247 -0.011836756 -0.026398418
000230 13 51 33 3d f1 a9 36 bd fd 2c b5 3d 75 0b 11 be
       0.04377849 -0.044595663 0.088464715 -0.14164527
000240 4c ca 92 bd 43 ba 8e 3d 64 99 4f 3d 22 8b d7 bc
       -0.07167491 0.0696912 0.050683394 -0.02631146
000250 29 fe 92 bd cb 0b b5 3b c3 38 8d bc e2 54 22 bd
       -0.071773835 0.0055250875 -0.01723898 -0.03963173
000260 86 7d fa 3d 01 72 0c be 35 a3 48 bd e5 8c 2e ba
       0.12230973 -0.13715364 -0.04898377 -0.0006658568
000270 04 fb 0f bd d0 4c fc 3c c0 f0 37 bd a0 32 97 bd
       -0.035151497 0.030798346 -0.04490733 -0.07382703
000280 6a e9 91 3d de 68 8c 3d bb 77 90 3d ca 69 6f bd
       0.07124598 0.06855939 0.07054087 -0.058450498
000290 fb e5 40 bd 1c 33 b8 bd be eb dc 3b 7d 05 b4 bd
       -0.047094326 -0.08994123 0.00674197 -0.08790109
0002a0 61 19 e0 bc 92 68 83 3d 3a e7 be bd 61 b8 9e bd
       -0.027355852 0.064164296 -0.09321447 -0.07750011
0002b0 4e 74 de 3b 59 f4 04 3d fa 13 86 3d ad 2a 61 bb
       0.006788767 0.03245959 0.06546779 -0.0034357712
0002c0 ad 9b 02 bd b0 a1 df bd 17 ab 02 3c 8b a3 81 bd
       -0.031886745 -0.10919511 0.007975361 -0.063300215
0002d0 c4 9f 24 3d 46 c9 9b bd 3c 5c 9b 3d b2 b0 5c bc
       0.040191427 -0.07606749 0.07585952 -0.013469862
0002e0 93 df 90 3c 54 27 f1 bd fc d5 f7 3b f7 0a 97 3d
       0.017684733 -0.11775079 0.0075633507 0.07375138
0002f0 62 ad 13 bd 08 d7 b2 3c d6 39 a5 bd 0a 9a 9e 3d
       -0.036054023 0.02183105 -0.08067672 0.07744224
000300 f6 b2 9c bb 99 54 5e 3c a4 81 28 3d 94 68 83 bb
       -0.004782076 0.013569974 0.04113926 -0.0040102694
000310 e6 f8 cd bb 58 02 9a bd 3c 34 7c bd ee 3d d6 bc
       -0.0062857745 -0.07519978 -0.061573252 -0.026152577
000320 2e 1a 77 bb 1e 75 b0 3b 64 87 cf 3d dd bb f5 3c
       -0.0037704813 0.005385055 0.101332456 0.029996807
000330 ac 43 7e 3d 16 0d 7d 3a 16 6c 9b bd f8 0b 9a 3b
       0.062076256 0.0009653134 -0.07588975 0.004701134
000340 65 f7 bf bc 8d 1c 52 3b 6b 06 bb bd 55 06 84 3d
       -0.023433397 0.0032060475 -0.091320835 0.0644652
000350 f9 b2 b3 3a d7 fc 92 3d 5b 2b b7 bd c8 c8 6a 3d
       0.0013709954 0.071771316 -0.08943816 0.057320386
000360 80 41 53 3d f6 75 74 bd f8 8a c8 bc 5d 94 b2 3d
       0.051576138 -0.05968281 -0.024480328 0.08719704
000370 f1 02 e4 3c a2 e8 b5 3d 00 34 ef 3b b2 5b 89 ba
       0.027833434 0.08882262 0.0072999 -0.0010479598
000380 e4 27 f9 bd 4c 0f 50 3d bd 7c 1a bc e3 8c 8b bd
       -0.12165812 0.05079584 -0.009429154 -0.068139814
000390 fa bc 8e bc c7 a0 f5 3d 52 47 83 3d b0 4d 54 bc
       -0.017424095 0.119935565 0.06410088 -0.012957975
0003a0 cf 44 c0 3b 58 d9 0a bd 78 36 ec bc 74 20 cd bc
       0.0058675776 -0.03389868 -0.028834566 -0.025039889
0003b0 a7 82 29 bb b5 2a b9 3c 6f 63 f1 ba 97 a8 ee 3c
       -0.0025865228 0.022603372 -0.0018416474 0.029133124
0003c0 70 4a 54 bd 8a 3a a5 bd cc f2 91 bd ed 61 14 3c
       -0.0518288 -0.08067806 -0.07126388 0.00905655
0003d0 82 81 72 3d 60 88 5c bd 63 2c 85 bd 98 46 8f bd
       0.05920554 -0.053840995 -0.06502607 -0.069958866
0003e0 6d be e2 3c 48 6e 99 3d 67 d1 2e 3d a5 17 a7 3c
       0.027678693 0.074917376 0.04268017 0.020397017
0003f0 9c d3 33 bc 8d 2a 0f 3c 96 bf a0 bc f9 cc d8 bc
       -0.010975745 0.008738172 -0.019622605 -0.026464926

fc2_logvar.bias f4 [16]
000000 47 a8 e4 3c e2 c1 83 bd 18 38 8a 3c 24 4c 09 bd
       0.027912272 -0.064334646 0.01687245 -0.03351988
000010 7e 2e 78 bd 7b 97 43 3d 20 81 84 3d 0e b1 78 bb
       -0.060591213 0.047751885 0.06469941 -0.003794733
000020 ae be c7 3c eb 7c a5 bd 2f 1f 9d 3d 92 f5 a9 3d
       0.024382915 -0.08080467 0.076719634 0.08298792
000030 c3 35 9c bb 9f 0b 5a 3d 94 95 a7 3c 5b d4 64 bd
       -0.004767151 0.05323374 0.020457067 -0.05586658

fc3.weight f4 [64, 16]
000000 e7 5f 2f 3e 51 a5 3c 3e 68 46 a8 bd 5f d6 b1 3d
       0.17126428 0.18422438 -0.08216554 0.08683466
000010 3e 25 3a 3d 6c 25 68 3c 12 d0 3b bd f8 12 24 be
       0.045445673 0.014169078 -0.04585273 -0.16022861
000020 fe 17 10 be 56 be 80 3e 75 24 f0 3d 40 90 b3 3d
       -0.14071652 0.25145215 0.117257036 0.08767748
000030 6b c8 36 39 f7 13 0d be c8 75 36 3e c9 9e 12 be
       0.00017431534 -0.13777147 0.17818367 -0.14318384
000040 69 7f ee 3d 18 38 52 3e fe d4 60 bc c4 7f db bd
       0.11645395 0.2052921 -0.013722656 -0.10717729
000050 94 f2 2c 3e da 02 ce 3b b2 00 92 3d db 9f f7 3d
       0.16889411 0.006286961 0.07129039 0.12091037
000060 50 20 57 3d 83 db 48 3e e6 5b 19 be 9b 6f 12 3e
       0.05252105 0.19614987 -0.14976463 0.14300387
000070 13 60 95 bd 6d 79 0f 3e 1e 12 87 3e 5b 24 60 bc
       -0.07293715 0.14011164 0.2638101 -0.013680543
000080 0b 64 64 3c 6d e0 86 bc 90 e9 30 bb 56 6f 22 be
       0.013939868 -0.016464436 -0.0026994683 -0.15862784
000090 89 da 2c be e2 66 42 3e db 72 ed 3d 50 37 c6 bd
       -0.1688024 0.18984559 0.115941726 -0.09678519
0000a0 b8 8b cf bd 86 5a 7f bd 41 4f 5c 3e f0 96 fb 3d
       -0.10134071 -0.06234219 0.21514608 0.122846484
0000b0 fd 28 d4 bd b4 fd 51 be 24 fd 54 bd d4 ab c3 3d
       -0.103593804 -0.20506936 -0.051999226 0.09554258
0000c0 37 9e ff bd 56 1c c1 b8 ce 4b e5 bd 44 b7 dd bb
       -0.12481349 -9.208235e-05 -0.11196099 -0.0067662317
0000d0 9f c3 04 be 8e f0 9d 3d 6c e3 c9 bd b1 d7 fc bd
       -0.12965249 0.07711898 -0.098578304 -0.12345827
0000e0 73 31 ad 3d 33 d1 1f 3e b9 9c 29 3d 24 11 17 be
       0.08456697 0.15607147 0.041409228 -0.14752632
0000f0 97 c1 15 3e d3 69 c3 3d ed aa 27 be a8 75 99 3d
       0.1462463 0.09541669 -0.16373797 0.07493144
000100 f5 dc 28 3c a1 02 a3 3c 9f 8a e1 3d 32 1e e6 3d
       0.0103065865 0.019898714 0.11012768 0.11236228
000110 58 2a 4e bc 4c bc 47 bc 94 32 a4 bc a4 ff 89 bc
       -0.012583338 -0.01219089 -0.020043649 -0.016845532
000120 9e 1a 5e be 92 e6 15 be da 5a cf bd 62 ec 6d be
       -0.21689841 -0.14638737 -0.101247504 -0.23234704
000130 06 46 88 3e f6 2a 6d bd e1 28 25 3e 6f 56 25 3e
       0.26615924 -0.0579023 0.16128875 0.16146253
000140 58 0f 13 3d b1 37 c4 bd 00 6c 16 be 24 26 1d be
       0.035903305 -0.09580935 -0.14689636 -0.1534658
000150 56 d1 ba 3d fa 5c 1e bd 7e 04 0f be 7f 45 91 3d
       0.09121959 -0.038662888 -0.13966557 0.070933335
000160 4d d4 0e 3e 3e 8d 1a be 07 ef 00 bd 9f 7c 57 bd
       0.13948174 -0.15092942 -0.031477954 -0.052609082
000170 a4 70 ae 3c b6 0c 19 3d 39 1a 79 bd 1e ee 25 3e
       0.021293946 0.037365638 -0.060816023 0.16204116
000180 1a 86 13 3e 33 4f 4d bd 90 c9 93 bd b5 c0 26 be
       0.14406624 -0.05012436 -0.07216179 -0.1628445
000190 bd f4 4e 3e 56 96 58 3d b9 f3 1a 3e 70 45 36 3d
       0.20210548 0.052877747 0.15132035 0.044499815
0001a0 13 8e b2 3d 13 cf fc 3d fb 6a 04 3d 5a b3 e8 bd
       0.08718505 0.12344184 0.032328587 -0.113623336
0001b0 67 0d 92 bd 91 12 b0 bd 17 8c 0d be 21 0e db 3c
       -0.071314625 -0.08597291 -0.13822971 0.026740136
0001c0 a6 81 0c 3e 6f f1 67 3e 2a ab 15 3e 43 b9 c1 bd
       0.13721332 0.22650693 0.14616075 -0.09459164
0001d0 7e 0b 0d 3e 68 fd 4b 3e 07 ff f9 bd 43 dd 53 be
       0.13773915 0.19920886 -0.12206846 -0.20689873
0001e0 0e ad 1c bd e3 c0 a9 3d aa 91 84 bd 02 9d dd 3c
       -0.038250975 0.08288743 -0.06473096 0.027052406
0001f0 0d 1f b7 3d 61 cf 37 be f1 d9 8d 3c 55 7a 6d be
       0.08941469 -0.17950203 0.017315837 -0.23191197
000200 2b e8 60 bd 6e 9b 51 bd a1 26 ed 3d e7 72 43 3d
       -0.054908913 -0.05117362 0.115796335 0.047717
000210 f4 77 d2 3d e9 1b 35 3e 6c 0b 69 bd e5 66 97 3d
       0.102767855 0.17686428 -0.05689566 0.073926724
000220 15 00 cb bd 59 08 e8 3c ff cc ac bc d9 4d 58 3d
       -0.09912125 0.028324293 -0.021093844 0.052808616
000230 3e e7 18 3e 36 6c 3f 3e 05 ea 03 3e 42 86 da bd
       0.14931962 0.18693623 0.1288224 -0.10670139
000240 6a b9 4c 3d 82 83 95 bd e9 f4 61 bd bf 59 9e bd
       0.049981512 -0.07300474 -0.055165205 -0.077319615
000250 61 fd fa bc 03 99 ed 3d 37 4c 4e 3e c7 a1 c4 ba
       -0.030638399 0.1160145 0.20146261 -0.0015001827
000260 c4 7b 1c 3d 61 d2 25 3d 66 75 b4 3a 53 25 ed bd
       0.03820397 0.040483836 0.0013767898 -0.11579385
000270 24 85 fe bd f6 d9 2f be 2a 25 83 3b 77 d8 ff bc
       -0.12427738 -0.17172989 0.004002233 -0.031231148
000280 d0 3a d9 3d 31 65 64 be 90 01 f9 bc fa 2c b1 3d
       0.10606921 -0.22304226 -0.030396253 0.08651157
000290 6c 0b 1f 3e 4c 0b a2 bd 70 6d f0 bd f1 f2 55 be
       0.15531701 -0.07912311 -0.117396235 -0.20893456
0002a0 93 6f 4b be d3 de fa bd d8 96 76 be f4 d0 2e 3e
       -0.19866781 -0.122495316 -0.2408098 0.17071897
0002b0 16 52 0e 3d a7 da 2b be 6a 83 c2 3d 1c 04 48 be
       0.034746252 -0.16782628 0.094977215 -0.19532818
0002c0 d7 06 f8 bd d9 10 2e bd 8e 31 65 be f7 7a 89 bc
       -0.121106796 -0.042496536 -0.22382185 -0.016782267
0002d0 a1 b4 2f be 35 5a 47 3e ca 49 13 3e 37 cb 07 be
       -0.17158748 0.19468005 0.14383617 -0.13261114
0002e0 c8 25 41 bd 9c 03 90 bd bf a4 d6 3d 1a 20 53 3e
       -0.04715517 -0.070319384 0.104806416 0.20617715
0002f0 d7 66 0c 3e a1 f5 e2 3c 86 58 e9 3d 7d 44 1f 3e
       0.13711105 0.027705016 0.11393838 0.1555347
000300 1e ed 1b be 1a f9 47 bd a5 77 39 3e aa a0 4e be
       -0.15227172 -0.048821546 0.18112047 -0.20178476
000310 95 c1 6c 3e 5d 4b 1a be 22 4a 0c 3e 02 b7 d4 3d
       0.2312072 -0.15067811 0.13700154 0.103864685
000320 49 52 8c bd 58 43 e2 3d aa 83 36 be 42 92 3f 3d
       -0.06851632 0.11048001 -0.17823663 0.04677034
000330 49 37 77 bd d9 85 84 bc 27 e6 a6 3d 3d aa 0b 3e
       -0.06035546 -0.016177105 0.08149367 0.1363916
000340 02 73 ea bd 16 4e 84 bd b4 7f 22 be 13 11 05 3e
       -0.11447717 -0.06460206 -0.15869027 0.12994795
000350 49 69 48 3d 2d f5 7f bd dd a2 c1 3d dd a2 0a 3e
       0.048928533 -0.062489677 0.09454892 0.1353869
000360 fb 66 e4 bd c0 dd 9b 3c 2b e7 23 be 35 0f 08 3e
       -0.111524545 0.019026637 -0.16006152 0.13287051
000370 d2 41 c2 3a 6f 20 c2 3c 89 30 87 3d 3c 0a 02 3e
       0.0014820641 0.023697106 0.06601054 0.12699217
000380 05 b3 46 bd a2 b9 ef bd 17 be 08 be 99 b9 e0 bd
       -0.04851057 -0.117053285 -0.13353764 -0.109729
000390 7e fe ae 3d 67 f6 b1 3d 00 3c 0c 3e f8 21 20 3e
       0.08544634 0.08689576 0.13694763 0.15637958
0003a0 f3 46 40 be 64 66 b7 3d c7 e0 2c 3d ad 00 21 be
       -0.18777065 0.08955076 0.042206552 -0.15722914
0003b0 a5 7f f8 3d a8 b6 71 3d 44 75 c6 3d 19 e7 c4 bc
       0.12133721 0.059012085 0.096903354 -0.024035977
0003c0 d5 04 f1 bd 21 f0 f9 bd a8 0f 3b 3d e3 81 2f 3e
       -0.117685 -0.12204004 0.045669228 0.17139392
0003d0 07 e1 48 3e 07 ca c3 bc 22 6c a9 3b ce e0 1d bd
       0.19617091 -0.023900045 0.005170361 -0.03854447
0003e0 da ed f6 bd 5e 3f c7 3d cc 53 5b bc 7a 38 5f be
       -0.12057085 0.09728883 -0.013386678 -0.21798888
0003f0 63 41 a1 bd 0c b4 84 3c 44 54 d4 bd 08 55 0b be
       -0.078738 0.016199134 -0.10367635 -0.13606656

fc3.bias f4 [64]
000000 c2 71 f9 3c f6 13 cd 3d 0c ee 88 3e 86 65 90 3e
       0.030449752 0.10013573 0.26744115 0.28202456
000010 ef ab 62 3d 31 8d 42 be 29 97 25 3e 25 32 18 3e
       0.05533975 -0.18999173 0.16170944 0.14862879
000020 6f ad bb bd 00 cd 2a bd 0a ef 57 3e 38 51 c5 3d
       -0.09163939 -0.04169941 0.2108728 0.09634632
000030 86 d0 52 be 28 3c 41 3e 80 0a d8 bc 41 5f eb 3d
       -0.20587358 0.18870604 -0.026372194 0.114927776
000040 bf 9c 88 bd b7 02 c2 ba 67 88 f1 bd 91 56 c4 3e
       -0.06670522 -0.0014801834 -0.11793595 0.38347295
000050 f1 2e 71 3e fb dc b3 3e c0 24 ae bd e3 d1 9a 3e
       0.23553063 0.35129532 -0.08503103 0.30238256
000060 03 2b fe bd 2c 8a 1b 3d b5 9e 92 be e2 5c 8f 3d
       -0.124105476 0.037973568 -0.2863671 0.07000138
000070 32 f1 7d 3e bb 2a 65 3e 80 94 1c bb 4f ff 1d be
       0.2479904 0.22379582 -0.0023892224 -0.15429424
000080 f5 5b 57 bc 24 d4 2a be 7d a1 ea 3c e0 42 f7 bd
       -0.013144483 -0.16682488 0.028641457 -0.12073302
000090 a2 ef 78 be 4d 31 85 3e c6 e8 7b be c2 62 40 bb
       -0.24310163 0.26014176 -0.24600515 -0.002935574
0000a0 c7 05 35 bd 33 23 92 3c 3a a2 ad 3e 33 e3 59 bd
       -0.044194963 0.01783905 0.33912832 -0.05319519
0000b0 52 73 eb 3e c1 ec 48 3e b1 e7 18 bc 06 78 9d 3d
       0.4598642 0.19621564 -0.009332583 0.07688908
0000c0 c0 18 a2 3e e0 4e 24 be 05 76 37 3d 84 12 2e bd
       0.31659508 -0.16045713 0.044790287 -0.042498127
0000d0 03 40 95 bd 90 e9 3e 3e e0 13 45 be 89 8a 7b bc
       -0.072876 0.18643785 -0.19245863 -0.015352854
0000e0 17 9f f7 bb f4 c3 34 3e 10 a0 24 be cf 7d a8 3e
       -0.007556807 0.17652875 -0.16076684 0.32908484
0000f0 dd ba fd 3d f4 6d 5f be 8e 5b c4 bd 44 35 96 be
       0.12389157 -0.21819288 -0.09587775 -0.29337513

fc4.weight f4 [11, 64]
000000 3e 69 5b 3d e1 4b 6b bc 27 c4 1b bd 32 02 51 3d
       0.053567164 -0.014361353 -0.038028862 0.051027484
000010 d1 f4 54 bc f0 70 6e 3c 50 0c d0 3c f7 22 c4 b9
       -0.012997822 0.014553294 0.025396496 -0.00037410084
000020 5e d3 06 bc 5b da 93 3c 7b 92 60 bd 7f b6 52 3c
       -0.008229105 0.018048456 -0.054827195 0.012860893
000030 ec 95 89 bd 82 5c 25 3d 32 20 a8 bc 58 35 ea bc
       -0.067180485 0.040371425 -0.020523164 -0.02858989
000040 3d 54 41 bd ae 79 00 3d ff 0e 6a bc 8d 72 88 3d
       -0.047199477 0.031366043 -0.014285802 0.06662474
000050 f8 e0 3d bc e4 aa b9 bc 72 db 89 3a 4b c3 1f 3c
       -0.011589281 -0.022664495 0.001051767 0.009751151
000060 0d 84 aa bd 73 94 e7 bc 9b 15 17 3d 49 0f 46 3d
       -0.08325968 -0.028269028 0.03688584 0.04835442
000070 fc 60 87 bd 28 3e 9b 3c f4 94 d0 b9 18 5a 60 ba
       -0.06610295 0.018950537 -0.0003978383 -0.0008558347
000080 8b 84 0b bc fc 41 e7 bc 1b 13 c2 3c 46 70 94 bb
       -0.008515487 -0.028229706 0.02369075 -0.0045299856
000090 f7 cb 11 bc f0 9b 25 bb 67 7b 22 3d 24 da e1 39
       -0.008898727 -0.0025269948 0.039668467 0.00043077872
0000a0 ba 8a 88 39 42 dd 3b bd 35 22 d2 bc a7 68 65 3d
       0.000260433 -0.045865305 -0.025651077 0.056008007
0000b0 60 b8 80 bd b6 e8 2d bc 89 ff a0 3c 2b a6 be 3c
       -0.06285167 -0.010614565 0.019653099 0.023272594
0000c0 d5 bc 69 bd aa b5 c9 bc a2 18 ea 3a bf 12 00 ba
       -0.05706485 -0.024622757 0.0017860124 -0.0004885606
0000d0 68 93 b4 3c e3 99 ff bc c9 59 1c bc 48 a0 7c bb
       0.022042945 -0.031201309 -0.009542891 -0.0038547684
0000e0 68 d8 18 3c 59 86 f7 bc 58 04 8f bb 95 e8 ce bc
       0.009328939 -0.03021543 -0.0043645315 -0.025257388
0000f0 4c 1e 53 bd ac a5 47 3d 08 9b 53 3d a5 89 4c 3d
       -0.051542565 0.04874198 0.05166152 0.049935956
000100 da 4f 7b 3c 19 90 60 3d 24 2f 3f bd b9 30 18 3c
       0.015338862 0.054824922 -0.046675816 0.00928896
000110 04 6a e1 bb 2a 91 39 3c a8 94 18 bc 43 84 13 bb
       -0.006879093 0.011326114 -0.009312786 -0.0022509254
000120 d2 16 5e bd e2 46 c1 3d 97 fb 1f bd 35 f1 6f 3d
       -0.054220982 0.09437348 -0.039058294 0.058579642
000130 07 7c 1e bd 1b c8 09 bd 56 3f 94 3c 27 62 ab bc
       -0.0386925 -0.0336381 0.018096607 -0.020920826
000140 42 6f 79 bc 95 0c b3 3d 0c 8d 5e 3d 24 83 fe 3c
       -0.01522428 0.08742634 0.05433373 0.031068392
000150 dd 33 e0 3d 54 5c a2 3c e4 80 b1 3c 9f e7 81 3d
       0.10947392 0.019819416 0.021667905 0.06343006
000160 17 7c 31 3d a7 35 8d bc ed f5 f3 ba 9f f6 d0 bc
       0.043331232 -0.017237497 -0.001861272 -0.025508223
000170 b2 98 b6 ba f5 78 67 3d cf 74 34 3d d2 26 11 3d
       -0.0013931005 0.056511838 0.04405671 0.035437413
000180 fc b3 27 3c ee bb 38 bc 12 b8 b9 bc 85 a5 87 bd
       0.010235783 -0.011275275 -0.02267078 -0.06623367
000190 da 2f 01 be e8 05 81 3d f2 27 4d 3c b1 49 03 bd
       -0.1261591 0.06299955 0.012521731 -0.0320527
0001a0 74 fb 93 3c cd 5d b1 bd 55 d8 91 3d 92 6f 66 3d
       0.018064238 -0.08660469 0.0712134 0.056258745
0001b0 00 64 82 39 56 db 7a 3d 9b 67 9c 3d 33 2b 63 3c
       0.00024870038 0.06124433 0.07636949 0.01386528
0001c0 a6 7f a2 bc 9d c4 6f 3d fa 8b d0 3c 40 11 c8 bc
       -0.019836258 0.058537114 0.025457371 -0.024422288
0001d0 27 be 85 3a ff 51 c4 bb d3 ff 3d 3d 6e be 90 3c
       0.0010203765 -0.00599122 0.04638655 0.017668929
0001e0 55 34 2c bd 62 45 3f bd b9 0e f1 bb dc 8d cf 3d
       -0.042042095 -0.046697028 -0.0073564914 0.101344794
0001f0 cd 19 ae bc 7d fd 68 bd fb 19 ff 39 22 e8 43 bd
       -0.021252537 -0.05688237 0.00048656747 -0.0478288
000200 65 c6 29 bd c8 eb 77 3d 7b 10 84 3d 28 a4 8e 3d
       -0.04144897 0.060527593 0.06448456 0.06964904
000210 7d 6a d6 bc 03 a0 b5 3c 02 23 34 3c ea f1 1a bd
       -0.026173824 0.022171026 0.010994675 -0.037828363
000220 ee 15 35 3d 43 f1 88 bb ef 1e 5a bd 81 c2 c1 bd
       0.044210367 -0.0041791513 -0.053252157 -0.09460927
000230 82 39 88 3d bc 4d 3d bd 89 96 5b bd e6 d9 cc 3c
       0.06651594 -0.04621671 -0.05361036 0.025006246
000240 9f d6 f9 3b ee 4a 2b 3d 3e 92 6d bc 3d a7 16 3c
       0.007624462 0.041819505 -0.014500199 0.009195146
000250 f8 49 8f 3d 49 8d 4b 3d e6 4a d8 bc 0d a6 dd 3c
       0.0699653 0.049695287 -0.026402902 0.027056718
000260 9f 20 bc bc a1 1b 0d 3d a6 03 d6 bb b7 0b b1 3c
       -0.022964774 0.034450177 -0.0065311966 0.021612031
000270 55 76 64 bd 3e 61 9f 3d 44 2e bb bb fd 81 35 bd
       -0.055776913 0.07782219 -0.0057123024 -0.04431342
000280 62 41 77 bd fe 9b 48 3d 80 41 3b 3d c2 fd ca bd
       -0.06036509 0.04897689 0.045716763 -0.09911682
000290 57 10 cd bd 65 46 09 3d c6 9a bd bc 85 5a 98 bc
       -0.10012882 0.0335144 -0.02314509 -0.01859785
0002a0 f7 46 63 3c 87 d6 5a bd a9 b5 b7 3d 8d e4 1e bd
       0.0138719 -0.053427245 0.08970196 -0.03879218
0002b0 4b b5 4c bd 18 61 13 3d 2c ba 1f bd 12 57 02 3d
       -0.049977582 0.035981268 -0.038995907 0.031821318
0002c0 76 72 8d 3d 20 8b ab 3d 49 40 15 3c f1 e7 8f bd
       0.06906597 0.08376145 0.009109565 -0.07026661
0002d0 b0 45 55 bd e4 f4 3d bd c7 fa b4 bd 8e 9e f7 bb
       -0.052068412 -0.046376124 -0.088368945 -0.007556743
0002e0 51 55 ca bc fb 47 9b bc 2e 02 5c 3d 8f 84 9c 3d
       -0.024698885 -0.018955221 0.053713016 0.07642471
0002f0 4e 54 c1 3d 70 e4 0c 3d c6 17 77 bd b6 24 05 bd
       0.09439908 0.034397542 -0.060325406 -0.032505713
000300 9b 05 39 bc 11 30 24 3d 0c f3 8b 3c cb c2 4e 3b
       -0.01129284 0.040084902 0.017083667 0.003154921
000310 12 54 d2 3b 0c e5 54 bc b8 4a 8f bc 8c 48 54 3c
       0.0064187134 -0.012994062 -0.017491683 0.01295675
000320 e1 c9 7b 3d 5e 7b 1f bb 31 59 6e 3d d2 ad 6f 3d
       0.061471824 -0.0024335007 0.05819053 0.058515377
000330 31 ec 57 bd ed da 9b 3d 86 bc a9 3c 20 6d 3a 3d
       -0.052715484 0.07610116 0.020719778 0.045514226
000340 d2 ae ae bb 9e dd 51 3d f7 e0 70 3b 8f 04 e0 3c
       -0.005330899 0.05123674 0.0036755183 0.027345924
000350 f6 12 80 bd 96 b6 43 3c bc 96 3a ba bc ac 10 bd
       -0.062536165 0.011945387 -0.0007117798 -0.035320982
000360 fa 9c 97 3d 66 30 03 3d 55 2b 22 bd ab 79 16 3d
       0.07402988 0.03202858 -0.039592106 0.036737125
000370 20 23 02 3d 90 57 15 bc df 2b 91 3c 62 02 88 bc
       0.03177178 -0.009115115 0.017721115 -0.016602699
000380 76 48 68 bd 4d 7d da bb d7 79 41 bd e5 be 1e bd
       -0.05670973 -0.006667769 -0.047235336 -0.03875627
000390 8a d5 bf 3c 13 81 c5 bb db 9b e4 bb 32 6f e9 3c
       0.023417253 -0.0060273497 -0.006976587 0.028495405
0003a0 4d 57 b7 3b fd e5 6e bc 6c a0 a9 3d 5c 80 1c 3d
       0.005595124 -0.014581201 0.08282551 0.03820835
0003b0 bc 93 ef 3d f3 c9 eb 3c df 86 df 3c 99 f5 0d 3c
       0.116981 0.02878282 0.027285991 0.008664512
0003c0 f2 fc 58 bd 13 ae 25 bc b9 37 89 3c 7c 11 55 bd
       -0.052975602 -0.010112303 0.016750203 -0.052018628
0003d0 99 2f 6a bd c6 6c d2 3c d4 0f 11 3c e6 51 1e ba
       -0.0571743 0.025686633 0.008853871 -0.00060394255
0003e0 31 51 67 3c bd ff dc bc 43 58 ba bc b1 e5 d5 3d
       0.014118479 -0.026977414 -0.022747165 0.10444201
0003f0 3d 65 14 3d 22 7a f2 3b 3a 1d b0 3a d4 86 43 3c
       0.03622936 0.0073998133 0.0013436445 0.011934001

fc4.bias f4 [11]
000000 92 dc 6b 3c a1 a5 ff 3c 01 87 35 bb c0 aa 38 3b
       0.01439585 0.031206908 -0.0027698877 0.0028177947
000010 62 d4 3b bd ca ce 0e bd 49 ce 09 be 8f 11 6f bc
       -0.04585684 -0.03486518 -0.13457598 -0.014591589
000020 19 b5 76 bb 72 da 68 bc 9a d7 da bd
       -0.0037644564 -0.014212238 -0.10685654
