src/VAE/vae_models/user_4_vae.pth (torch, 22306 bytes, 10 tensors)

fc1.weight f4 [64, 11]
00000000: 83a3 b93c 8dca a5bd 9184 47be 86fb e73d
00000010: d242 5abe 7a37 3cbe c408 bb3d ffc4 7f3e
00000020: 635a 2cbd 6664 263a b32c 653d 7d7d 7bbe
00000030: 2f4e 4dbd c522 12be 0d36 2b3e ca2b 82bc
00000040: 4ee2 a53a 8a67 153e 8920 54be 7b11 293c
00000050: d2dc 663e 3ee8 74bd 722e 553e d4ee 943e
00000060: 5e60 513e 6f94 573c a823 4f3e 712b a73d
00000070: 299e 873d 1ea2 babd 31b4 1c3e 4484 44be
00000080: 6ca7 06be 43ce 9dbe 9683 8abe f1ae 003e
00000090: d943 48be e93c 19be 3d32 283e 8b05 303e
000000a0: b5f2 6dbe 857c 5e3d cf8e 4b3e 3325 773d
000000b0: 9962 be3d 94d7 143e c492 3cbe 8ee8 63be
000000c0: 8620 32bd 93b3 4c3b 42a8 0a3e d3a1 79bb
000000d0: 9042 0f3e 8fb5 773e 4f17 4fbe 3e91 273e
000000e0: 636b 97be a028 873d 6873 fabd 4c30 4d3d
000000f0: e3b0 77be bfcb 613e 1c59 63bc e883 6fbe
00000100: bd04 05bd da49 2c3e a25d 4cbe ccf7 2dbe
00000110: d843 b0bd 144e 543e 7747 473e f876 803d
00000120: 2426 373e cfbd e13d 89f0 333e ff79 6ebe
00000130: d439 a73c 66c9 033e 2410 4dbe 444d 3e3e
00000140: a72e 23bd e70e 48bd 5bcd 363e 1c69 203e
00000150: 2895 1ebe f45c 9d3c a223 9f3e 4c9b 13be
00000160: 2641 273d 5b1d c4bc a21e d5bc 477d 5b3d
00000170: cb8d 0b3e 298c 39be 9365 acbd fb98 33be
00000180: bce0 cd3d d61f 9c3e afeb e639 63b2 34bd
00000190: b285 1fbe 172e a13d d03f 3ebe 8d1e 70be
000001a0: f353 953e 0eef 80be 6b44 3d3d 547b 91be
000001b0: 1875 d13d a1b0 00be 4f08 9b3d 5a67 873d
000001c0: 2189 9fbe 278a adbe 9bde 10bc 2b64 6cbe
000001d0: e8c3 393e d3bb 6ebe 657d 79be b27d 27be
000001e0: b765 35be 4840 90bc e924 9f3d 4335 8abe
000001f0: 7683 8dbe 7680 913e bd77 18bd 3097 22bd
00000200: c921 e43d 827c 90be fb42 84be 1b0f 60bd
00000210: e89b 973d 4d34 00be b879 8e3d 1609 9ebd
00000220: cfe3 c33d ad92 4dbe 99f8 603e 8e65 cc3c
00000230: 5be7 63be fb27 c4bd cde1 433e 926b b5bd
00000240: 695a 80be 0315 ebbd 371b 0f3c c8ca 12bc
00000250: ad8d bcbd 1b42 f83d f353 cabc 39e3 68bb
00000260: e425 61be 66a8 3cbe 1542 983e a6a6 18be
00000270: a433 af3e 04ef 79bc 7dfe 67bd dab7 5d3e
00000280: 563e 2abc c632 c6bd 453c 8ebc c88b 783e
00000290: 4b46 b9bb 1deb 6fbd e728 2c3e 82e1 35be
000002a0: 8123 82bd a6a2 4f3c 2b18 2b3e b2ba 27be
000002b0: 6a58 f0bc aaea 7abd 42bc 2a3e fcef e8bd
000002c0: 5edf 77bb 2ddd 0ebe 2daa 853e 6104 bebc
000002d0: ca09 fa3d ffcf 9e3d f278 a13b 32c0 82bd
000002e0: b3ae 6f3e 2eca b93d 3289 cc3d bde4 8c3d
000002f0: c441 883e bb70 613e 7ae0 743e 368f 643e
00000300: 8b6e c9bd cf6e 3abe c123 93be 2bb4 32be
00000310: a7b0 fe3d fc6c 58be 914d ddbd dd19 fcbd
00000320: 57dd 5d3e 9b58 4c3e a9e2 b13d eeaf 4e3e
00000330: db12 e1bd fe62 04bd 729d 253d e1f6 4b3e
00000340: 1678 d63b 3e33 5d3e b7e8 3f3d e927 953d
00000350: 62f0 67be ee06 9bbe d6a2 e6bd ae1a 33be
00000360: f5de b4bd ea9d 323d 8e99 743d 815f 84be
00000370: 6d26 82be 80ef 21bd 463f 113e 2255 fa3d
00000380: 6b0c b83c e78d b03d e623 49bd eb07 74be
00000390: 153f aebd a5af 23be 7584 87be 0fa4 0e3e
000003a0: 0454 d1bd 6491 0cbe 1548 ab3d e1e1 1abe
000003b0: 5182 023d 42ac 2b3e ac8a b13d fe50 343e
000003c0: 6a66 873d deba 263e 0eb1 93bd 4eb1 6c3e
000003d0: 0b5b 39bd 1d46 a83d 48fd 6c3e 09fe 89be
000003e0: 764e c3bd 3e2c e53d 9673 d53d 529e 223e
000003f0: 8235 a7bc e44d db3d 7136 d0bd 399c 95bd
0.022660976 -0.08095274 -0.19484164 0.11327271 -0.21314552 -0.18380538 0.09132531 0.24977492
-0.042078387 0.0006347358 0.05595083 -0.24559589 -0.05012339 -0.14271076 0.16719837 -0.01589002
0.0012655945 0.14590278 -0.20715536 0.010319109 0.22545174 -0.059791796 0.20818499 0.2908846
0.20446917 0.013157948 0.20228446 0.08162583 0.066219635 -0.09112953 0.15303113 -0.1919108
-0.13149804 -0.30821428 -0.27053517 0.12566735 -0.19557132 -0.14964642 0.16425414 0.17189614
-0.23237117 0.05431797 0.19878696 0.06033821 0.0929615 0.14535362 -0.18415362 -0.22256681
-0.043488048 0.0031234964 0.13540748 -0.003809084 0.13990235 0.24190353 -0.20223735 0.16363999
-0.29574117 0.065995455 -0.12229043 0.050094888 -0.2418857 0.22050379 -0.013876226 -0.23390162
-0.032475222 0.16825047 -0.19957593 -0.16989058 -0.0860669 0.2073291 0.19460855 0.062726915
0.17885643 0.11022531 0.17572226 -0.23288725 0.020413317 0.12869796 -0.20025688 0.18584162
-0.039839413 -0.048842337 0.17851774 0.15665096 -0.15486586 0.019209363 0.31081873 -0.1441471
0.040833615 -0.023939779 -0.026015583 0.05358627 0.13628308 -0.18119873 -0.08417811 -0.17538826
0.1005263 0.3049304 0.00044044617 -0.044115435 -0.15578344 0.07870119 -0.1857903 -0.23449154
0.2916561 -0.25182384 0.046207827 -0.28414404 0.10227412 -0.12567379 0.07569944 0.066115096
-0.3115931 -0.33894464 -0.008842136 -0.23085086 0.18141139 -0.23313837 -0.2436424 -0.16356543
-0.17714582 -0.017608777 0.07770712 -0.2699376 -0.2763936 0.2841832 -0.037223566 -0.039694965
0.111392565 -0.28219992 -0.25832352 -0.054701906 0.07402784 -0.12519951 0.0695681 -0.07716577
0.095649354 -0.20075484 0.21969832 0.024950769 -0.22256224 -0.09577938 0.19129105 -0.08858408
-0.25068977 -0.11478617 0.008734516 -0.00895948 -0.0920671 0.121219836 -0.024698233 -0.0035535826
-0.2198711 -0.18423614 0.29737917 -0.14907321 0.34219086 -0.01525474 -0.056639183 0.21652165
-0.010390839 -0.09677653 -0.017362723 0.24272072 -0.0056541315 -0.05857383 0.16812478 -0.17761806
-0.06354428 0.012673056 0.16708438 -0.16379812 -0.029339034 -0.06125895 0.16673377 -0.113738984
-0.0037822346 -0.1395156 0.26106396 -0.023195447 0.12208898 0.07754516 0.004927748 -0.063843146
0.23406486 0.09071766 0.099871054 0.06879566 0.26612675 0.2201566 0.23913756 0.22320256
-0.098355375 -0.18206333 -0.28738216 -0.17451541 0.124360375 -0.21135324 -0.1080581 -0.123096205
0.21666466 0.19955675 0.0868581 0.201843 -0.109899245 -0.03232097 0.040433355 0.19918396
0.006545077 0.21601579 0.046852794 0.07283003 -0.22650293 -0.30278724 -0.11261527 -0.17490646
-0.08831588 0.04360763 0.059716754 -0.25854114 -0.25419942 -0.039535046 0.14184293 0.12223269
0.022466859 0.08620816 -0.0491065 -0.23831145 -0.08508126 -0.15984972 -0.26468244 0.13929771
-0.10221103 -0.13727337 0.08363358 -0.15125228 0.03186256 0.1676493 0.08669028 0.17609021
0.06611331 0.16282222 -0.07211505 0.23114511 -0.04525284 0.08216498 0.23143494 -0.26951626
-0.095364496 0.11190079 0.10422437 0.15880707 -0.020411257 0.10708216 -0.10166634 -0.07305188

fc1.bias f4 [64]
00000000: e269 6e3e 8aef 013e b540 30be 1a0b 653e
00000010: b446 803e c41b 173e 45cc 453e 5add c53d
00000020: 6b17 1e3d 11a6 37be 514e 0d3e cdb7 94bd
00000030: 1f30 323d e2ba 9d3d 8ba2 d9bd 1c40 77be
00000040: c6b8 db3c 8f84 6b3e 974f 62bd b999 1abe
00000050: c95f 9c3d 85ae c4bc f6b0 523e 4489 a5bd
00000060: 9d76 e13c 6fea a43e 1155 2e3d 1441 c8bd
00000070: 91a2 9cbd e856 4f3e 1523 94be 7205 d43d
00000080: d1ff c2bd 541c 63bc b52a 71bd 6d21 b2bd
00000090: 5ee5 f9bd f247 06be 36ba 5dbe 06a1 1dbe
000000a0: 4fa0 063c 2d8c 063d 3a70 94be eba1 0c3e
000000b0: b0d4 8c3e 6af7 813e 075a 493e e8ed 8e3d
000000c0: 6479 033e cd02 82be c8ec 353e c348 4f3e
000000d0: f9f6 193b 8c96 2fbe d595 233e 8881 9cbc
000000e0: 7e52 8e3e 0bec 113d b997 a8bb 75b8 66bd
000000f0: 7b96 f63b 159c bcbe 9127 2b3e 2380 6c3e
0.23282579 0.12689033 -0.17212184 0.22367516 0.25053942 0.14756685 0.19316204 0.0966136
0.038596552 -0.17934443 0.13799407 -0.0726162 0.043502923 0.07701661 -0.10626706 -0.2414555
0.026821505 0.22999786 -0.055251684 -0.15097703 0.07635457 -0.024008999 0.20575318 -0.08082822
0.02752238 0.3221011 0.042561594 -0.09778038 -0.076481946 0.20247996 -0.28933015 0.10352601
-0.09521449 -0.013861734 -0.05887862 -0.08697782 -0.122019514 -0.13113382 -0.21653065 -0.15393457
0.0082169315 0.032848526 -0.28991872 0.13733642 0.27506018 0.25384074 0.19663249 0.06978971
0.12839276 -0.25392762 0.17766106 0.202426 0.0023493154 -0.17147273 0.15975125 -0.019104734
0.27797312 0.0356255 -0.00514504 -0.056328256 0.007525263 -0.3683783 0.16714312 0.23095755

fc2_mean.weight f4 [16, 64]
00000000: 08bc 8bbc 7fd6 1c3d bb9c e13c f45e dcbc
00000010: 8961 373d e5f8 aa3b b01c d3bb a604 d2bd
00000020: 4afd c73c 3096 c4bd c4c9 983b 7a0f de3d
00000030: 6ddc 863a d7cc 723d 5c94 8f3d 3a0a 1c3d
00000040: b185 b33b 0123 073d 56f3 debc ae87 4b3d
00000050: 587b 833c ffac 613d 3bbc 9fbc 8ad1 483d
00000060: 4ffb 88bc d52e c6bc 2065 19bb 5305 a3bb
00000070: 519f c3bd d482 d3bd 5ff5 7ebc 6258 063c
00000080: ff64 a2bc 0806 a8bc 53e3 04bd 6a8d 9d3c
00000090: 4e5d 8d3b e035 11bd ad5c 2b3c fab9 d03c
000000a0: a347 083c d80b f93c 994f efbc 34c2 6cbd
000000b0: 7d50 10bd 2233 d93c f8d4 db3c a7f4 d23c
000000c0: 14df 26bb 0e3f ef3d 92ca e0bc 693b c3bd
000000d0: 9f8d 19bd fac3 fabd 5c03 a33c bcc9 8a3d
000000e0: c100 b2b9 6fbe 9cbd 2d58 93bd 031c f8ba
000000f0: 6a53 2abd db34 5a3d 710e 0d3c 1dc9 bc3c
00000100: 28aa ffbc 3721 833d ad7b 2dbd a5dc 5cbd
00000110: 2dde aa3d 1469 27bd ed22 ba3d 697e fd3c
00000120: 77d6 8e3d 291a 58bd bcc3 6cbd aced b03d
00000130: d59f 423d 58ea 8ebc ec38 43bc 7af1 bebd
00000140: f8f5 28bd 10f6 97bd 7d77 073c bf05 803d
00000150: 0d98 b9bc 8af5 373d a3fe 193c f2a2 89bd
00000160: d216 ad3a c22c 013e a49d 203d 1c20 333d
00000170: 2255 d5bd 0e69 8c3c 5d49 d23d 73d2 4bbd
00000180: 880e 503b 9655 89bd 9374 d63c 77ec 25bc
00000190: efe4 f03d 7ab8 89bd 913d 423d b126 01bd
000001a0: 2eb4 2dbd d5c9 ae3d 85f0 b7bc e92b 92bd
000001b0: 7d03 ccbc 5fad bf3d 7497 8f3d 8697 dc3d
000001c0: 95a5 babd 2065 493d 4a2d 0d3e 184f bbbd
000001d0: d79c 8bbd 000e 183d f7dc 88bd 6333 853d
000001e0: 65a6 50bc c80a e33d 54f8 8a3d 227e fabc
000001f0: 3ddc 17bd 795b 053c 78c8 613d 7ef0 09bc
00000200: 81db 223d c0db 003d 256a 063d bfb1 39bd
00000210: 3154 4cbd c203 06bc 206f 82bd 12ed dfbd
00000220: c657 bcbb 707e 6dbc 5145 263c 608c 2e3c
00000230: f4f5 003c 3d93 a13d 42fc 533c c9a6 ab3c
00000240: 04ac 793d 507f 783d 8a65 1c3d 9c1c f9bb
00000250: 8c80 c83d c29d a33d e639 cf3c 20ec f73d
00000260: 6b85 8a3c b13a 7cbb cd84 bfbc 81ba d5bd
00000270: 05e9 35bc dd4c 913d 6920 c63d c3f3 d9bc
00000280: 1a6e 61bc bb6f d5bc 35bc 673c a080 cebc
00000290: e951 16bd fe89 4a3d 6732 81bd 6a04 4d3c
000002a0: 17ee 00bd aa7c a0bd 395e 8dbd ce5c a2bc
000002b0: 686d b43d c11f 193d 1fbb 533c fb7a d2bd
000002c0: 0f50 e5bd 44f7 4cbd 7a8e 93bd bace babd
000002d0: f949 953c 9ecd a83d 1174 89bd 1851 583d
000002e0: ce92 323b 7d2f c23c a148 b5bd bbe8 ebbb
000002f0: c4be 28bd 9617 a0bd 31e0 203d f532 bbbd
00000300: d3e8 48bd 11b7 86bb cc8c 583d b932 93bc
00000310: 5c3c 3cbd 1dc4 3b3d aee1 bb3c 84a8 73bd
00000320: b450 933b 5a40 553d 37f7 80bd 2a26 ae3d
00000330: c977 3abd 84a9 823d fcf7 c73b dd10 f93c
00000340: 1e9f bfbd 9abb 2fbd 3898 9c3d cd35 3abc
00000350: 4c60 88bd 9890 833c 15b0 bd3c 10ad 59bd
00000360: c0b4 31be 3f7b a0bb a07e 013d fcc5 68bc
00000370: 2b4b cd3d 26c6 86bd 94ed 22bd 2424 933d
00000380: a4f1 bfbc 943f 613d e32f 1cbd 91cd dfbd
00000390: 632b e8bd 8007 50bd afe3 83bd 6fdc b43d
000003a0: 63f6 f43c 9f1c f83c 8922 5fbd cbe1 aebd
000003b0: ece1 a13d e6c1 8bbb 32f1 b53d 0341 ddbd
000003c0: ffe3 9dbd 08fe b53c 3a7d a5bb d6cd e2bd
000003d0: 6ca7 b4bd 54a2 4abd 9dcc d2bd f451 dc3d
000003e0: b525 df3d 5982 3e3d d4a9 cb3d 451b 0e3d
000003f0: 009a a8bd 122e 5d3d e4f6 e1bc 608a 8a3d
-0.017057434 0.038290497 0.027540555 -0.026900746 0.04477075 0.005217659 -0.006442629 -0.10254793
0.02441277 -0.095989585 0.004662724 0.10842796 0.0010289081 0.05927738 0.07010719 0.03809569
0.0054785837 0.032992367 -0.027215641 0.04968994 0.016050026 0.055096623 -0.019498935 0.049027957
-0.016721396 -0.024192253 -0.0023406222 -0.004975 -0.095518716 -0.10327688 -0.015561431 0.008199783
-0.01982355 -0.020510688 -0.032443356 0.01923247 0.0043141013 -0.03545177 0.010459107 0.025479306
0.008317861 0.030401155 -0.02921276 -0.057802394 -0.03523301 0.02651364 0.02683495 0.025751425
-0.0025462555 0.116819486 -0.027440343 -0.09532816 -0.037488576 -0.12244411 0.019899063 0.06776759
-0.00033951367 -0.0765351 -0.071945526 -0.0018929247 -0.041583456 0.053273063 0.0086094 0.023045117
-0.031209067 0.064028196 -0.042354275 -0.05392136 0.08343158 -0.040871695 0.09088693 0.030944066
0.069745 -0.052759323 -0.057803854 0.08639082 0.04751571 -0.017445728 -0.011915427 -0.09323402
-0.0412502 -0.074199796 0.008268234 0.06251096 -0.022655511 0.0449119 0.009399089 -0.067205325
0.0013205654 0.1261473 0.039212838 0.043731794 -0.104166284 0.017139938 0.10267899 -0.049761247
0.0031746943 -0.06705777 0.026178634 -0.010127178 0.117624156 -0.06724639 0.047421996 -0.03153104
-0.04240816 0.0853459 -0.022453556 -0.071372814 -0.024904007 0.0935924 0.07011309 0.10771088
-0.091136135 0.049168706 0.13786808 -0.09145945 -0.06817024 0.037122726 -0.06682771 0.06503942
-0.012734984 0.11086041 0.06785646 -0.030577723 -0.03707527 0.008139485 0.055122823 -0.008419154
0.039760116 0.03145957 0.03281607 -0.045335528 -0.04988498 -0.008179607 -0.06368852 -0.109338894
-0.005747768 -0.014495477 0.010148362 0.010653585 0.00787114 0.078894116 0.012938561 0.020953553
0.060955063 0.06066829 0.038182773 -0.0076022875 0.09790143 0.07989074 0.025296163 0.12105584
0.016909322 -0.0038487131 -0.023378754 -0.104359634 -0.0111029195 0.07094739 0.096741505 -0.026605492
-0.01375916 -0.026054254 0.014143993 -0.025207818 -0.03669921 0.049448006 -0.063084416 0.012513259
-0.03147706 -0.07836278 -0.06902737 -0.019819643 0.0880993 0.0373838 0.012923031 -0.10277363
-0.111969106 -0.0500405 -0.072049096 -0.09121461 0.01822375 0.08242343 -0.06711591 0.052811712
0.0027248147 0.023704285 -0.088517435 -0.0071993745 -0.041197553 -0.07816999 0.039276306 -0.09140579
-0.049050163 -0.0041111787 0.05286865 -0.017968522 -0.045956 0.045841325 0.02293476 -0.05948688
0.0044957045 0.052063324 -0.062971525 0.08503373 -0.045524392 0.06379989 0.00610256 0.030403549
-0.09356521 -0.04290352 0.07646221 -0.011365366 -0.06658992 0.016060159 0.023155252 -0.05314356
-0.17354107 -0.0048975046 0.0316149 -0.014207359 0.10024103 -0.065807626 -0.039777353 0.07184628
-0.023430653 0.054992273 -0.038131606 -0.109278806 -0.113364 -0.050788403 -0.064399116 0.08831107
0.029902643 0.030287085 -0.054476295 -0.0853916 0.07904419 -0.004265058 0.08883895 -0.108034156
-0.077095024 0.022215858 -0.0050503286 -0.11074416 -0.08820996 -0.049471214 -0.10292933 0.10757819
0.10895864 0.046511028 0.099445015 0.034693975 -0.08232498 0.053999014 -0.027583547 0.06764674

fc2_mean.bias f4 [16]
00000000: 1438 793d a00a a2bd 1856 913d 1301 993c
00000010: 296d 8e3d bc25 ee3b 9f47 953b 3e88 6b3d
00000020: a9a9 a63d 4db4 6f3d 29db 43bd 1a8e 293d
00000030: 3829 913c 126f 383c e5e4 aabc 00af 013e
0.060844496 -0.07912183 0.07096499 0.01867727 0.069544144 0.007267682 0.004555657 0.057502978
0.08137829 0.058521558 -0.04781643 0.041395284 0.01771985 0.01125695 -0.020861099 0.12664413

fc2_logvar.weight f4 [16, 64]
00000000: 4e65 11ba 98b9 253d ac3d 333d a08e 52bc
00000010: 6f6b c9bd 4b43 e1bc a0f6 963d 0c55 653b
00000020: ed32 8d3c 343a 9cbc 858d 0fbd c406 35bd
00000030: 2c46 e23c 1eb6 a2bd a13a 173e 3ebd b4bd
00000040: cc2a b33c df37 42bd a0d2 b5ba a948 4ebd
00000050: 319a eb3d d437 8cbc b831 e13b 7c0d 97bd
00000060: 86ea a2bd bf90 54bd 4b4e 82bc 2a1b 613c
00000070: 9643 c63b 61a6 2a3d fe72 5dbd f08c c73d
00000080: b233 52bc eae9 503c f111 3ebd e31d 863c
00000090: 6351 9d3c 9ab2 a9bb e32a 5fbc a8ed 20bd
000000a0: 5c57 4bbd 2b60 4c3c 949d 7a3d 3353 d0bd
000000b0: 5a69 ae3d ea14 aabb 135a 59bd 4375 80bd
000000c0: 4571 ef3d 0e17 ed3d b13d 4abd 18c5 b73c
000000d0: 2511 613d 102c c9bc 7e45 28bd e3fc ad3d
000000e0: af1a 05bb d734 d6bd d94b 2cbd e65e ad3c
000000f0: 5986 2d3b 0f27 163d 6a13 11bd dd64 adbd
00000100: b26e d0bc 6e4b 6abc c955 d6bc bbd5 3c3c
00000110: 4a42 8c3c f587 6c3d 8fbd 90bd b5c5 d13d
00000120: a9d6 333d 1e7c ed3d 2abb 803d 1c9b ca3d
00000130: 5d0a 2bbd 3556 8f3d 2b8c 4abe 4f6d 9d3d
00000140: 9276 b23d 7ca9 d43c 7e4e e43c 32d4 83bd
00000150: d8c7 d2bb 70b2 85bc c977 573c 33b6 2c3d
00000160: 6281 b43c 0aa8 793d 1ad0 9f3d 1aa2 cdbb
00000170: db8d eebd 145b 4e3c 8575 6dbd 562b 26bb
00000180: 0974 d1bc 33d7 23bd a150 1b3d 7ced 873c
00000190: 033a 4f3d 814f 31bb e1fa e6bd d89c ce3c
000001a0: c69d 3a3d 7015 053d f9b2 dcbc 8dd9 33bd
000001b0: c0d2 263e 2041 193d 2991 a43c bdc6 82bd
000001c0: 7dca 223d 2897 d3bc 0fc0 f83c 958b 78bd
000001d0: 0f4e 41bc 0082 3abd 1e66 10be b1c5 2f3c
000001e0: abe5 52bc 3eb8 a33d badd b23d dcbb 413d
000001f0: 1659 643d 54b9 90bd 343d 01bd 61fd 843d
00000200: 8946 64bc 3b3f 083d d914 7d3c 1060 d3bc
00000210: d03f 2a3d 501b bfba 2cbb 0bbc a798 93bd
00000220: 8d13 d93b c1de 0fbd 0c16 05bd 6277 dc3d
00000230: 9320 8f3b 8713 32bc 16f1 f93c 8166 e13c
00000240: 9bcf c6bd f02e 39bc d634 eabc fc96 563d
00000250: 7d59 b03d d099 0c3b 39d0 773d 7e3c a13d
00000260: 8b9b 80bc f74f 2abd ae43 21bd b3f1 403c
00000270: 39b7 b03c cc1c 6a3d 9fdb f6bb 1fa0 02be
00000280: a751 88bc 9fe4 e03a 5727 363d 2b0e a33c
00000290: af1e 193d 6349 a9bd 4820 073b 5d1e 883b
000002a0: 705c 20bc e75d 613d dc9c 96bc 8bf1 c63d
000002b0: dbbe ad3c 4939 c43c 95e0 453d 82e4 5ebc
000002c0: cdff bebd a40f 853d 9259 953d f077 113c
000002d0: 1146 633c d691 8fbd 2db4 293d 8dbe 683d
000002e0: 1dee a43c 1712 70bd c643 18bc 4a10 8c3b
000002f0: 9cd6 3abd 6656 8f3d 42ff efbb df0b 183d
00000300: d4c8 5d3c 70dc 9fbc 744d 61bc 9ae1 05bb
00000310: b275 173c 17ef 26bc d32b d03c de2a 893d
00000320: 1f11 833c abaa 0eb9 3796 49bd 3ab8 883d
00000330: a53f d53b e689 893d b325 7dbd 82ae 003d
00000340: 77f7 db3b 66fa 48bc 6277 5d3c fd3a 09bd
00000350: 1c83 3cbd c0fd f9bc 775d 02bd 1a03 c13c
00000360: 5f15 4ebd f11b fd3c bb88 4e3d 8622 a8bc
00000370: 25bd d7bd 2230 803c f202 f6bc 166f bebb
00000380: a5b4 763c 8c1d c3bc ce90 58bd ed24 07bd
00000390: 8ac6 2a3d 603e 603c 1d8b 3f3c 9c84 b8bc
000003a0: c6c7 7f3c 9213 273d 77d3 003c 2dd4 5bbd
000003b0: df93 5ebc 974b af3c 6e8f 7e3d 24c3 973d
000003c0: 954c 7f3c f87e c13c 300b 803d 8308 1cbd
000003d0: d68e 063d a021 1abc b5fa a93c 385a 80bc
000003e0: cee9 f5bc 4d72 693d 433b f03c 4112 8bbc
000003f0: 588a 963d f585 62bd 73c2 5a3c c646 52bd
-0.00055464066 0.0404602 0.043759987 -0.012851387 -0.098349445 -0.027497908 0.07371259 0.003499332
0.017236197 -0.019070722 -0.035047073 -0.044195905 0.027621351 -0.07944892 0.14768459 -0.088251576
0.021870993 -0.047416564 -0.0013871975 -0.050362263 0.11504019 -0.017116465 0.006872382 -0.07375619
-0.07954888 -0.051895853 -0.015906474 0.013739387 0.0060505373 0.041662578 -0.054064743 0.097436786
-0.012829708 0.012751082 -0.04640383 0.016371673 0.019203847 -0.0051787617 -0.013621065 -0.039289147
-0.04964386 0.0124741 0.061185434 -0.10172119 0.08516188 -0.0051904814 -0.053064417 -0.06272366
0.11691526 0.11576663 -0.04937524 0.022432849 0.05494799 -0.024557143 -0.041081898 0.084955
-0.0020310094 -0.10459297 -0.04206452 0.021163415 0.0026477783 0.036658343 -0.035418905 -0.08466504
-0.025443409 -0.01430021 -0.026163952 0.011525567 0.017121453 0.057746846 -0.070674054 0.10242788
0.043905888 0.11595939 0.06285699 0.09892866 -0.04175793 0.069988646 -0.19780032 0.076868646
0.08714022 0.025959723 0.02786946 -0.064369574 -0.0064325146 -0.016320437 0.013151118 0.042165946
0.02203435 0.06095127 0.07803364 -0.0062754275 -0.116481505 0.012594957 -0.057973403 -0.002535542
-0.025568025 -0.04000015 0.03791869 0.016592734 0.050592434 -0.0027055445 -0.1127832 0.025221273
0.04556062 0.032491148 -0.02694081 -0.043908644 0.16291332 0.037415624 0.020088749 -0.063855626
0.03974389 -0.025828913 0.030365018 -0.06067999 -0.011798396 -0.045534134 -0.14101455 0.010728286
-0.01287214 0.07994126 0.08733697 0.047298297 0.05574902 -0.070665985 -0.03155251 0.06493641
-0.0139328325 0.033263426 0.015446865 -0.025802642 0.041564763 -0.0014580283 -0.008528512 -0.072068505
0.006624645 -0.035124544 -0.03249173 0.10764958 0.004367897 -0.0108689135 0.030510467 0.027514698
-0.09707566 -0.011302695 -0.028589647 0.052390084 0.086108185 0.0021453984 0.06050131 0.07872866
-0.015699169 -0.041580167 -0.039371185 0.011776376 0.021571742 0.05715637 -0.007533505 -0.12756394
-0.016640497 0.0017157978 0.04447111 0.019904217 0.037382778 -0.082659505 0.0020618606 0.00415401
-0.009787664 0.055021193 -0.018385343 0.097140394 0.021209171 0.023953097 0.04830988 -0.013604285
-0.09326134 0.06497124 0.07292475 0.008878693 0.013871686 -0.07010238 0.041431595 0.05682235
0.020133073 -0.058611 -0.009293502 0.0042744027 -0.045614824 0.06998901 -0.0073241303 0.037120696
0.013536651 -0.019514292 -0.013751376 -0.0020428658 0.009244369 -0.010188839 0.025411522 0.066976294
0.015999375 -0.00013605754 -0.04921552 0.066757634 0.006507831 0.06715755 -0.06180353 0.031416424
0.0067128497 -0.012266731 0.013517233 -0.03350352 -0.046023473 -0.030516505 -0.031827416 0.02356105
-0.05031335 0.030897113 0.050423365 -0.020524275 -0.10534123 0.015647952 -0.030030701 -0.0058115823
0.015057717 -0.0238178 -0.05287247 -0.0329942 0.041693248 0.013686746 0.011690882 -0.02252417
0.015611595 0.040790148 0.007862917 -0.053669143 -0.01358506 0.021398349 0.062148504 0.07410267
0.015582223 0.023620114 0.06252134 -0.038094055 0.032851063 -0.009407431 0.02074943 -0.01566802
-0.030018713 0.05699377 0.029325133 -0.016976478 0.07350606 -0.055303533 0.013352024 -0.051337026

fc2_logvar.bias f4 [16]
00000000: 98b3 7d3d 7856 bbbd 5197 17bd 8ca0 febc
00000010: 3e4f 9bbc 580c 6fbd 40f6 80bd 636c 9ebd
00000020: 7309 5c3d c123 9b3d 12ad 773d 7c94 973d
00000030: da3a d3b9 90a7 903d 96b3 89bd 2650 323d
0.061938852 -0.09147352 -0.03700954 -0.031082414 -0.018958684 -0.05836138 -0.062969685 -0.07735517
0.05371995 0.07575179 0.060467787 0.07401368 -0.00040288904 0.0706321 -0.067237064 0.043533467

fc3.weight f4 [64, 16]
00000000: 3113 17be b0c3 3d3d a6de 153e ef56 8a3d
00000010: ded4 b53c 83dc 67be 1a11 123e 82bc 743d
00000020: 101f 84bd 8af0 f5bd 39ee 073e ddcc 233e
00000030: 152d 3b3d 79b1 6dbe 0e67 5abe 6601 41be
00000040: 8add 1b3a d0fc 91bd fa54 823e a9f9 04be
00000050: 19d9 533e c9ea 8dbd d3bc a4bb 7c8f a0bc
00000060: 2d14 553e 6409 383d c5ce f4bc ba1d f1bb
00000070: 36f5 b83d dd5c 1dbe 8a57 77bd 2791 3dbe
00000080: 988d 74bd e232 fcbd f26a 5ebd ec3c 363e
00000090: 31d6 64bd b22f 9c3d 77bc 02be b853 243d
000000a0: f670 2b3e e836 02be a4ab f23d 4c73 d4bd
000000b0: 386f 293e db72 023e 4494 b73d 632f 9ebd
000000c0: dcdf dbbc 73b9 023c bb2b f73d 64af 5b3e
000000d0: 655e 653d a039 d43d 81f9 2bbe f703 e83c
000000e0: 0af1 ebbc 14d1 a2bd fb3d 9cbd c97e 263e
000000f0: 4861 bcbd 42b8 c83d 8ec7 45bc 84b2 e93d
00000100: 4f09 113e 3526 a53d c977 b5bb d0ed 393c
00000110: 5b8c 25be a36e 83bd 1f4e 133e c0c1 ba3c
00000120: e274 8d3e 56e2 b2bd 6f32 303e 2651 bebc
00000130: a4a5 a6bd dd02 a6bc 27d1 d13d 4726 6cbd
00000140: 9462 473c 32c3 22be 65a7 dbbd 0c9e b73d
00000150: 08e7 8e3d e6af 073d bb0c c4bc 2102 2ebe
00000160: 64e8 febd cb86 f53c 143b 2fbd f138 0e3e
00000170: 5935 22be 9743 18be f5e2 e43d f358 023e
00000180: 204a 86bd d709 71bd 9fdc c23d 67a1 fd3d
00000190: f5f7 f93c 4293 d1bd 6053 b5bb aee5 953d
000001a0: 86b1 e23c 59ec d83d 0417 acbc 4cb4 10be
000001b0: 1f7e e43c 1fc7 1cbd ff6b c1bd c5e2 c9bd
000001c0: 2858 e6bd 0775 babd 4204 513e 5310 153d
000001d0: 0dbb 18bc 1bb3 6dbd e84c 023e ef61 033e
000001e0: 5c79 4fbe 5ae0 11be 1ca7 7fbd f86e f4bc
000001f0: c427 8cbc c49d 68be dc14 de3d 7a83 ad3d
00000200: 04d1 fcbd cc58 0bbe 735f d3bd 48bd 473c
00000210: 70f6 f2bc 257e ddbd 6c99 8d3b a12d ed3d
00000220: 4789 a2bd bf28 c8bd 055c aabd a733 54bd
00000230: 44fd cebd e244 cb3d 093b 89bd 7db2 a9bd
00000240: e207 ecbd 106b ff3d af20 ec3d e2db c1bb
00000250: fae3 25bd 6c0c 083d d871 153d e42d d53b
00000260: 6beb 31be ff28 45bc 8178 843d 5f3b a5bd
00000270: 5212 223e f80b 293e efea af3d 22b4 55bd
00000280: 0d49 333e 3bd7 4ebd 635c 2dbd 3813 57be
00000290: 5565 263e 1284 07be 2ea3 813c 5c8f 8d3d
000002a0: 16af bebd 3c21 083d 49ce 83bd 4ae9 013c
000002b0: 6f4a f1bd 1620 313e e64e 3f3e c091 113e
000002c0: 3db1 5abd 64a5 16be 4bd0 17bc 6026 bcbd
000002d0: 1a45 adbd d90f 45be 43fd fe3d 087c 123e
000002e0: a4db 0f3d ec56 02bd cccf 3f3e 051f 8c3d
000002f0: f735 36be 50eb 0fbe 6e5e 0a3e 6f0b 283e
00000300: 9518 003d c12c 543e 1925 c3bd 3fe6 8cbd
00000310: 4b4a 453e 33b6 ec3d 68ae b3bd e53b a6bd
00000320: 01e4 2ebd 739b 8cbd e45d 90bd c716 333e
00000330: 0c30 22bd 9296 d33d d470 73bd 347a f2bd
00000340: eada 033e 62bc 403e be28 38be 2b95 283e
00000350: baa1 15be d5be 7ebe a32a 94bd 887e a43d
00000360: 95f9 0abe f474 d73c 5246 56b9 049b 1ebe
00000370: 12c2 393d 883b d4bd 1b71 1fbe 8c27 07be
00000380: 0c2c 72bd 179a edbd b62e eabc 3255 9bbd
00000390: a632 373d d024 793b b49e 363e f25b 5d3e
000003a0: 7f5b ed3b 9cce 8ebd 9ebc 253e 729b 8f3d
000003b0: 031a b5bd 00f5 173e 10bb af3d ebec f0bd
000003c0: e73f 073c fa06 593d 8c11 383e 8905 a0bd
000003d0: cfb5 803d bd1f 3ebe f9d8 92bd 3831 6fbd
000003e0: bda0 323e 4dad 6cbe 4271 71be 156f 823d
000003f0: dbb7 01be c96e 1abe bd47 6dbd 6129 31be
-0.14753415 0.0463292 0.14635715 0.067548625 0.02219623 -0.22642712 0.14264336 0.059750088
-0.06451237 -0.1200877 0.13274468 0.15996118 0.04569729 -0.23212232 -0.21328375 -0.1884819
0.00059457927 -0.07128298 0.25455457 -0.12985863 0.20688285 -0.06929547 -0.0050273924 -0.019599669
0.20808478 0.04493083 -0.029883752 -0.00735828 0.09031145 -0.15367456 -0.060386218 -0.18512402
-0.059705347 -0.123143926 -0.05430121 0.17796677 -0.05586833 0.07626285 -0.12767206 0.040118903
0.1674231 -0.12716258 0.11849144 -0.10373554 0.16546333 0.12739126 0.08963826 -0.07723882
-0.026840143 0.007978785 0.12068888 0.21453625 0.055998225 0.103625536 -0.16794397 0.028322203
-0.02880146 -0.07950035 -0.07629009 0.16259302 -0.091982424 0.098007694 -0.012071503 0.11411002
0.14163707 0.08063928 -0.005537961 0.011348203 -0.16166823 -0.06417587 0.1438527 0.022797465
0.27628237 -0.087345764 0.17206739 -0.023232054 -0.08137062 -0.020265037 0.10244971 -0.05765369
0.012169499 -0.15894774 -0.10725287 0.08965692 0.069776595 0.033126734 -0.023931852 -0.16993
-0.12446669 0.0299715 -0.04278095 0.13888909 -0.15840663 -0.14869533 0.11176101 0.12729244
-0.06557107 -0.058847275 0.095147364 0.12384301 0.030513743 -0.10233165 -0.0055336207 0.073191985
0.02767254 0.10591955 -0.021007068 -0.14131278 0.02789217 -0.038275834 -0.09444427 -0.09857706
-0.11247283 -0.091043524 0.2041178 0.03639252 -0.00932194 -0.058032136 0.1272465 0.12830327
-0.20261139 -0.1424574 -0.062415227 -0.02983807 -0.017108805 -0.22716433 0.10843822 0.08472343
-0.12344554 -0.13608092 -0.1032094 0.012191124 -0.029658526 -0.10815076 0.004321268 0.11580969
-0.0793634 -0.09773397 -0.083183326 -0.051807072 -0.101069 0.09925248 -0.06700713 -0.08285997
-0.11524941 0.124715924 0.115296714 -0.0059161047 -0.04050062 0.03321497 0.036485523 0.0065057147
-0.17374961 -0.0120337 0.06468297 -0.08067965 0.15827301 0.16508472 0.08589732 -0.05217374
0.17508335 -0.05049823 -0.042324435 -0.21003425 0.16249593 -0.13233975 0.01582488 0.06912109
-0.09310739 0.03323482 -0.0643583 0.007929156 -0.11781775 0.17297396 0.18682441 0.14215755
-0.053391684 -0.14711529 -0.0092659695 -0.09187007 -0.08460446 -0.19244327 0.124506496 0.14305127
0.035121575 -0.031821176 0.18731612 0.06841854 -0.17794023 -0.14054608 0.13512585 0.16410612
0.031273443 0.20720197 -0.0952856 -0.068798535 0.19266622 0.11558189 -0.087735 -0.08116893
-0.04269791 -0.06865587 -0.07049158 0.17489158 -0.039596602 0.103314534 -0.059433773 -0.11839715
0.12876478 0.18821862 -0.17984292 0.16463153 -0.14612475 -0.24877484 -0.07234695 0.080319464
-0.1357177 0.026300885 -0.00020434827 -0.15488821 0.045351095 -0.10362917 -0.1557049 -0.1319868
-0.059124038 -0.11601656 -0.028586727 -0.07584609 0.044726036 0.0038016327 0.17833978 0.21617106
0.007243573 -0.06973001 0.16185233 0.07012071 -0.08842852 0.14839554 0.08580601 -0.117639385
0.008254982 0.05298517 0.17975444 -0.07813556 0.06284677 -0.18566795 -0.071702905 -0.058396548
0.1744413 -0.23112984 -0.2357836 0.063688435 -0.12667792 -0.15081324 -0.057929743 -0.17300941

fc3.bias f4 [64]
00000000: ed63 973e 6ecc 42be 1083 633e 9046 c13e
00000010: 8ca8 cb3e db67 17bd d430 bf3e 3602 773c
00000020: 01ee 65be 7e15 a43e f727 e13c 2dc5 a3bd
00000030: d77e 903e df1a 9c3e 86d5 d63d 16ad 833e
00000040: 0038 8dbe 3911 903e 7119 f63c 39bd b4bd
00000050: 9a81 c63e 7be2 c93e bb0b bfbd b789 db3c
00000060: 349a 263e c98a be3e d990 22bd abe4 89bd
00000070: f98f 003d 935b b73e 5ff0 a63e d9d7 023e
00000080: f3be 2a3e 74ca 0d3d 47fa 5e3c 453d 35be
00000090: fcec 8cbe 12d5 053e 8d8b 9bbd f762 13be
000000a0: 0bc4 54bd 8cef 04bd 0b3c cf3c 846b feba
000000b0: c27a c6bc 4a68 9cbe 4e99 35be 6392 2b3e
000000c0: b68b 9dbe 850d 87be aa97 833d a71c 983e
000000d0: b494 7ebe f1b7 19be 2901 713d 5514 ac3e
000000e0: 9f08 7dbe d9ff 3cbe d3e8 0bbe 432a 8ebe
000000f0: 6508 c33c 18ae ec3d 7f20 5bbe ab0f 6f3e
0.29568425 -0.19023296 0.22217965 0.37749147 0.3977703 -0.03696428 0.3734194 0.015076211
-0.22454073 0.32047647 0.027484877 -0.07996593 0.2822177 0.3048925 0.10489945 0.25717992
-0.27581787 0.2813814 0.030041428 -0.08825154 0.38770753 0.39430603 -0.09328409 0.026799066
0.16269761 0.3721526 -0.03968892 -0.06733068 0.031387303 0.35812053 0.32605264 0.12777652
0.16674404 0.034616902 0.013609475 -0.17699154 -0.27524555 0.13069561 -0.075949766 -0.14393221
-0.051944774 -0.032455012 0.025297185 -0.0019410704 -0.024228457 -0.30548316 -0.17734262 0.16755061
-0.30770653 -0.26377502 0.06425412 0.2970936 -0.24861413 -0.15011574 0.058838997 0.33609262
-0.2471032 -0.18456973 -0.13663034 -0.27766618 0.023807714 0.11556643 -0.21399115 0.2334582

fc4.weight f4 [11, 64]
00000000: 3d3d 66bb e120 b63c 0f86 833d bc5e 3dbd
00000010: 3fea 1bbd 2445 8d3d dd9c a3bc ecb3 52bc
00000020: 9838 fb3c c1eb 033d c057 edbc 3cde 723d
00000030: 7f68 f9bc 07a5 b3bc 2a77 bcbc 83be f23c
00000040: b9ea 8e3c 80b4 1fbd 1197 00bd 33c9 883c
00000050: bb65 08bd f44a 79bd 0d7d 103d 4fb1 7f3d
00000060: 50d1 36bd 915a 7a3b b174 893d c0c3 88bd
00000070: ab67 133d 5b77 1b3c 91f2 8f3d 7226 01bd
00000080: a2e2 75bc 9568 b73c c339 ec3c 69e5 a33b
00000090: 9889 3b3d 0081 50bd e6a9 70bd a5e0 f03c
000000a0: e4d7 903b 00b5 383c f1f6 2d3b 7444 e93c
000000b0: d0eb 7bbd 010d 6ebd 049d 06bd 8bc3 84bc
000000c0: e831 d0bb 7764 45bd 0022 e837 c4ae 333d
000000d0: a3ea 08bd 4e68 a2bd bdfa f1bc 2193 24bd
000000e0: fa9a 7dbd 4666 2f3d 3e1f ca3d 62cf c83c
000000f0: ae97 0b3a b8f4 b83c a4a3 0b3c db66 5dbd
00000100: 2cc3 3d3d 9518 e03d f213 a83c bf3c 4bbd
00000110: 30e4 78bc ef34 813d 96ea 97bd 800e 033c
00000120: dcf9 863d 415b 1a3d a2cc 813c ccc5 8b3c
00000130: b4be 7e3d 7367 0f3d 45d0 c03b 18c4 f8bc
00000140: 6089 e0bb 5a2a d93c 7a4c 1e3d 86c6 a93a
00000150: 7d46 aabb 77ed 333d 3caf 01bc dd2f 593d
00000160: 3772 0dbd 2bdb 60bd 443d 2abc 23af 8ebd
00000170: 2409 d93c f3ef d13b 3656 4abc c98f ddbc
00000180: bb47 603c 6717 04bb e6a5 393d 3c78 1fbd
00000190: fc2e cb3c 0b27 4dbc 7abf df3b 9170 ec3b
000001a0: ee4f 1ebc 9897 5c3d 81e6 55bd bb11 363d
000001b0: 1ed9 643d 86e2 083d 3d07 8ebd a1e2 123d
000001c0: 3a7a 2cbc ee52 37bc 8817 cbbc 14e4 08bd
000001d0: 3387 46bd 98ce 21bd 8886 33bd 8649 12bd
000001e0: 8ab0 3cbd a53e ba3c b5a1 27bd 7cad 1e3c
000001f0: f5ca 7bbc 5098 f0bc 86c9 ba3b 84a7 073c
00000200: c454 223c 666f 823d 09a6 05bd c206 983d
00000210: 3dad de3d 674c 01bd 7aa9 f6bc 7f86 4f3d
00000220: 46ee bb3d d26d 833d 50ca 2ebb f925 2bbd
00000230: 161a e7b8 3d25 913c 4bde bfbc aa48 63bd
00000240: 0533 cfbc 08f0 01bc 8c9f 703a 8dcf 743d
00000250: 0284 983d 539a c63c 68ff 173c 9948 773d
00000260: e4c7 3c3d 4dea 423d a0ba 513b 4544 30bd
00000270: 7dd7 6e3d 2543 6ebc cad0 59bc dd5a aa3c
00000280: fd59 bbbc f1be 26ba 8ffd 413c 5269 1bbd
00000290: 67e6 99bd 4dde 6a3d e6af 36bd 4560 433d
000002a0: acc2 ffbc ab4e 713d bb81 3d3d 3ea2 ee3b
000002b0: ac08 05bd bd65 1abd 7fdd 98bd f266 ed3c
000002c0: 71ac a3bd a37c c03c a976 10bd 5eb6 48bc
000002d0: 0bbb 45bc 7747 f3bc 0322 0d3d c245 9c3d
000002e0: b83f 95bd 857f 2c3c cbaf 9cbd 3e90 bb3b
000002f0: 80f1 093d 71b5 0fbd 2dd2 adba 436d 933d
00000300: d28f ae3c fc3e f93c 0866 413d e04f b9bc
00000310: f61b e93c 89e7 63bc 3ea9 bc3d ca06 083d
00000320: f481 8abc 9626 d4bc c268 8abc 27cc 2ebc
00000330: 77a6 993d 5fba a13c 6a12 9d3b 70f3 f9bc
00000340: 1cc7 c8bc 73bc 8c3c dd6d 8c3c 57d5 203d
00000350: fbad a5bc 0812 fd3b 31c0 29bb 4965 cdbc
00000360: c278 fd3c 2745 29bc 96bc d23a 3e47 12bd
00000370: e8bb 833d f8bf 053d 7675 49bc 9a3d c8bc
00000380: a2ce 7fb9 3496 81bd 96fd 7e3c 39d4 80bb
00000390: 2826 3dbd 142b 6d3d 9a3d 423d 1a1c a8bc
000003a0: 50e8 ac3c 19f9 90bc d1f2 813d 01c2 dc3c
000003b0: 3cb4 353d 9dca 9abd 1a1d 1fbd c02c e93c
000003c0: bbb6 2cbd 402b 673c fb80 d4bb 74e4 3dbc
000003d0: 12f3 9d3b 468d 76bc 4a88 bd3b 8aa0 933b
000003e0: 4813 4c3d c2b6 8c3c 077e 333d 24ee f43c
000003f0: 5d11 673c 47fd 7dbc 3fec 163d e820 173d
-0.0035131716 0.022232475 0.06422054 -0.046232924 -0.03806519 0.06897953 -0.01997226 -0.0128602795
0.030666634 0.032207254 -0.028972507 0.05929397 -0.030445335 -0.021929277 -0.02300604 0.029631859
0.017445909 -0.038990498 -0.03139407 0.016697502 -0.033300143 -0.060862496 0.035275508 0.062424954
-0.04463321 0.0038200954 0.0671171 -0.06677961 0.035987537 0.009488906 0.07028688 -0.031530805
-0.015007647 0.022388736 0.028836137 0.005001713 0.045785517 -0.050904274 -0.058755778 0.029403994
0.0044202674 0.0112736225 0.0026544894 0.028475024 -0.061504185 -0.05811787 -0.032864586 -0.016206523
-0.0063536055 -0.048191514 2.7672388e-05 0.04386784 -0.033426892 -0.07930051 -0.029538507 -0.040179376
-0.061915375 0.042822145 0.0986924 0.02451295 0.0005325031 0.022577628 0.008522902 -0.05405317
0.04632871 0.10942189 0.020517323 -0.04961848 -0.015191123 0.063089244 -0.074177906 0.007999063
0.06590626 0.037684683 0.015844647 0.01706209 0.062193587 0.035010766 0.0058842027 -0.030366942
-0.006852314 0.026509453 0.038647152 0.0012952841 -0.005196391 0.043927636 -0.007915314 0.05302416
-0.034532752 -0.054896515 -0.010390583 -0.069669984 0.026493616 0.006406778 -0.012349656 -0.027046101
0.013688977 -0.002015555 0.04532423 -0.038933024 0.024802677 -0.012521516 0.0068282457 0.0072155674
-0.009662611 0.05385551 -0.05222178 0.044450503 0.05587112 0.033419155 -0.06934974 0.03586066
-0.010527188 -0.011189206 -0.024791494 -0.033420637 -0.04846878 -0.039503664 -0.04382947 -0.03571465
-0.0460668 0.02273495 -0.0409257 0.009684917 -0.015368213 -0.029369503 0.005700293 0.008279685
0.009907905 0.06368904 -0.032629047 0.07423164 0.10872886 -0.031567004 -0.03011011 0.050665375
0.091763064 0.06417431 -0.002667088 -0.04178426 -0.00011019797 0.017717952 -0.023421427 -0.05548922
-0.025292883 -0.007930763 0.0009179048 0.05976825 0.074470535 0.02424351 0.009277202 0.06037197
0.046089068 0.047586728 0.0032002106 -0.043033857 0.058310974 -0.014542376 -0.013294408 0.02079528
-0.022870058 -0.000636085 0.011840238 -0.03794224 -0.07514649 0.05734091 -0.044601344 0.04769923
-0.031220756 0.058912914 0.0462663 0.0072825244 -0.032478973 -0.03769468 -0.07464122 0.028979752
-0.07991875 0.023496931 -0.035269413 -0.012250511 -0.01206852 -0.029697163 0.034456264 0.07630493
-0.07287544 0.01052845 -0.07650717 0.005723982 0.033677578 -0.035085145 -0.001326149 0.071985744
0.021308813 0.030425541 0.047216445 -0.022621095 0.028455716 -0.013910183 0.09211968 0.0332096
-0.01690767 -0.025897305 -0.016895656 -0.010668791 0.07502454 0.019742189 0.004793455 -0.030511588
-0.024509005 0.017179703 0.01714223 0.039265957 -0.020224562 0.0077230968 -0.0025901909 -0.02507271
0.03094137 -0.010331429 0.0016077932 -0.035712473 0.06432325 0.03265378 -0.012296071 -0.024443436
-0.00024395672 -0.06327477 0.015563389 -0.003931549 -0.046178967 0.05790241 0.04742203 -0.020521212
0.021106869 -0.017696904 0.06345142 0.026947977 0.044361338 -0.07558177 -0.038846113 0.028463721
-0.042166453 0.014109433 -0.006485102 -0.011590112 0.004820236 -0.015048331 0.005784069 0.0045052217
0.049823076 0.01717699 0.04382136 0.02989871 0.014103261 -0.015502281 0.036846396 0.036896616

fc4.bias f4 [11]
00000000: ac09 70bd 83e6 173e bd45 08bd 236c 223e
00000010: 35d5 19bd bbc4 5cbc 8e44 33be a08e 5ebe
00000020: a46d fbbd 68e3 2aba bcb5 eebc
-0.058602974 0.14834027 -0.033269633 0.15861563 -0.037556846 -0.013474639 -0.1750662 -0.21734095
-0.12276772 -0.00065188715 -0.029139392
