src/VAE/vae_models/user_9_vae.pth (torch, 22306 bytes, 10 tensors)

fc1.weight f4 [64, 11]
0	0x3dbebb7e	0.09313105
1	0x3e4dbd4a	0.2009174
2	0x3cf6db7f	0.03013396
3	0x3e4ffede	0.20312068
4	0xbe87b738	-0.26506972
5	0x3e37776f	0.17916654
6	0xbdd7520a	-0.105136946
7	0xbe5ce497	-0.21571575
8	0x3cd28534	0.025698282
9	0x3e272abc	0.16324896
10	0x3d5ae626	0.053442143
11	0xbe3147cf	-0.17312549
12	0xbe3a1fe5	-0.1817623
13	0xbd4c0ab1	-0.049814884
14	0x3dcfe9ab	0.101519905
15	0xbd910b46	-0.07082228
16	0x3c77d513	0.015126484
17	0xbdb7a3ef	-0.08966815
18	0x3e56706d	0.20941325
19	0xbe955b8d	-0.2917141
20	0xbe77d116	-0.24200854
21	0xbe368675	-0.17824729
22	0xbde3105a	-0.11087103
23	0xbdfc3eb7	-0.123166494
24	0x3e2a8a73	0.16654377
25	0xbe93d6c0	-0.2887478
26	0x3e4c2001	0.19934084
27	0xbe513c92	-0.20433262
28	0x3e074e60	0.13213491
29	0x3e0fa6e0	0.14028502
30	0xbe883d41	-0.26609233
31	0xbe8537b3	-0.26019058
32	0x3dda22b2	0.10651149
33	0x3cce7245	0.025200972
34	0x3e6fc3d1	0.23414542
35	0x3e454761	0.1926551
36	0xbcba3f69	-0.022735314
37	0xbe4469de	-0.1918101
38	0xbdc67609	-0.09690482
39	0x3d30bb66	0.043147467
40	0x3dc52660	0.0962646
41	0x3e35d6ed	0.17757769
42	0x3c0da11b	0.008644368
43	0xbe5c33dd	-0.2150416
44	0x3da47181	0.08029462
45	0xbd2e9b35	-0.042628486
46	0xbe7a244c	-0.24427909
47	0xbdcec0a6	-0.100953385
48	0xbe24b75e	-0.16085574
49	0x3c576b80	0.013148189
50	0x3b652787	0.0034966187
51	0x3e82466b	0.2544435
52	0x3e66dd14	0.22545272
53	0x3e78c556	0.24294028
54	0x3e550d2c	0.20805806
55	0x3e70c0ff	0.23511122
56	0xbe93fd0b	-0.28903994
57	0xb9343423	-0.0001718556
58	0xbe4e3c2a	-0.20140138
59	0x3e5ee408	0.21766675
60	0xbdf24b8d	-0.118308164
61	0xb9fd40de	-0.0004830425
62	0x3e8b42d7	0.27199432
63	0x3daeb6cf	0.08530962
64	0xbe32c9bd	-0.1745977
65	0x3e126813	0.14297514
66	0xbe3d0a95	-0.18461068
67	0x3e847509	0.2587054
68	0xbc8f6aef	-0.017507045
69	0x3dbc7553	0.09202065
70	0x3e8ed912	0.27899987
71	0xbc6bf959	-0.014402711
72	0x3e27349e	0.16328666
73	0x3d086c67	0.033306506
74	0x3dec6469	0.11542589
75	0x3e0151c3	0.12628846
76	0xbe598e26	-0.21245632
77	0x3b978bfb	0.0046248413
78	0xbe7f5605	-0.24935158
79	0x3dc0b30f	0.09409153
80	0x3bcc0bdd	0.006227
81	0xbe9cfa01	-0.30659488
82	0xbe16a24b	-0.14710347
83	0x3de83ab4	0.11339322
84	0x3d4d439d	0.05011331
85	0xbe2ed294	-0.17072517
86	0xbe301f02	-0.17199329
87	0x3e1c571f	0.15267609
88	0xbe81fb8f	-0.25387236
89	0xbdd0c0fe	-0.1019306
90	0x3e3f129a	0.1865944
91	0xbeb1f4d1	-0.34757093
92	0xbe271b56	-0.16319022
93	0x3dcb23db	0.09918948
94	0xbe12222e	-0.14270851
95	0x3e2c5167	0.16827928
96	0xbbdf08b8	-0.0068064593
97	0x3e1ec616	0.15505251
98	0xbe1778d3	-0.14792185
99	0xbd80bd96	-0.06286161
100	0x3ea68d86	0.3252985
101	0xbe563233	-0.20917587
102	0x3df64bdf	0.1202619
103	0x3cf6bf96	0.030120652
104	0xbb863075	-0.004095132
105	0xbe123c67	-0.14280854
106	0x3e8fa09c	0.28052223
107	0xbce40889	-0.027836101
108	0x3e7ac55f	0.24489354
109	0x3db74d87	0.08950334
110	0xbd0930e8	-0.033493906
111	0x3cb088b6	0.021549564
112	0xbd5d3859	-0.054008815
113	0x3e949383	0.29018793
114	0x3e869797	0.2628753
115	0x3e419aea	0.18906751
116	0x3e20c357	0.15699516
117	0x3e16adc8	0.1471473
118	0xbe3236c4	-0.17403704
119	0x3e64328b	0.22284906
120	0x3e4a6cf8	0.19768131
121	0x3e624462	0.22096398
122	0xbd29d89d	-0.041466344
123	0x3e8f23f7	0.27957126
124	0xbda03e2c	-0.07824358
125	0xbded6f29	-0.11593468
126	0x3ded95fe	0.11600874
127	0xbccf9e6b	-0.025344094
128	0x3e3dca60	0.18534231
129	0xbe75b748	-0.23995697
130	0xbe860b7c	-0.26180637
131	0x3eb45400	0.35220337
132	0xbe9bc252	-0.30421692
133	0xbe7a16c4	-0.24422747
134	0x3db81df5	0.08990089
135	0xbe5dca34	-0.21659166
136	0xbe0db89f	-0.13839959
137	0x3d8f43a0	0.0699532
138	0x3df179ad	0.11790786
139	0x3e82c5c1	0.255415
140	0xbdee352d	-0.11631236
141	0xbdd5d0dc	-0.104402274
142	0xbe17dc8b	-0.14830224
143	0x3d74ebd1	0.059795205
144	0x3c120a4a	0.008913586
145	0xbd1f7722	-0.038931973
146	0x3d8935eb	0.06699737
147	0x3d645ae9	0.05575076
148	0xbcaf7526	-0.021418165
149	0xbd1c59ba	-0.038171507
150	0x3b8284f8	0.0039831363
151	0xbb2098fd	-0.002450525
152	0xbc81a79d	-0.015826995
153	0xbdb57927	-0.088609986
154	0x3e6c9d47	0.23106872
155	0xbe72f7fd	-0.23727413
156	0x3e1671bd	0.14691825
157	0x3e7a6f74	0.24456578
158	0x3e8f7649	0.28019932
159	0x3c6b246e	0.014351947
160	0x3e0fbbd0	0.14036489
161	0x3dcc0c66	0.09963302
162	0x3df8269a	0.12116738
163	0x3e0d7fe6	0.1381832
164	0xbe2dabd4	-0.16960078
165	0x3ca650f2	0.02030227
166	0xbe43e8e4	-0.1913181
167	0xbe88e8e0	-0.2674017
168	0xbe6a1d47	-0.22862731
169	0xbe22c92d	-0.15897055
170	0xbe020aa2	-0.12699369
171	0xbe7f2927	-0.24918042
172	0x3d653350	0.05595714
173	0xbd825d54	-0.06365457
174	0xbe01c8f8	-0.1267432
175	0xbe16ddc2	-0.14733031
176	0x3d73ec27	0.059551384
177	0x3ddfa619	0.109203525
178	0xbe1678e8	-0.1469456
179	0x3d26a4da	0.04068456
180	0x3e3ef330	0.18647456
181	0x3d1ec8db	0.03876577
182	0x3c70015a	0.01464876
183	0xbe874844	-0.26422322
184	0x3e650840	0.22366428
185	0xbd8ec809	-0.069717474
186	0xbda93c33	-0.08263435
187	0x3e7cdbf9	0.24693288
188	0x3deddeaf	0.11614739
189	0xbe270b4e	-0.16312906
190	0xbe0f4a36	-0.13993153
191	0xbcbec5af	-0.023287622
192	0xbe4d6b22	-0.20060399
193	0x3da5867e	0.08082293
194	0xbcbd3b70	-0.023099631
195	0xbb812c0a	-0.0039420174
196	0x3e26aeb5	0.16277583
197	0xbe9bf950	-0.30463648
198	0xbd3d2be8	-0.04618445
199	0x3eaf1cbf	0.3420162
200	0x3e977540	0.29581642
201	0xbe57ca2f	-0.2107322
202	0x3e0f448e	0.13990995
203	0x3d323732	0.04350967
204	0x3ea50aaf	0.32234713
205	0x3e3860d1	0.18005683
206	0xbe2296b9	-0.15877809
207	0x3e4ab56e	0.19795772
208	0x3c93771d	0.018001134
209	0x3de49d28	0.11162788
210	0xbe8cf68e	-0.27531856
211	0x3dc35584	0.09537795
212	0xbd906bc4	-0.07051805
213	0xbe3b5bc0	-0.18296719
214	0x3e703957	0.23459373
215	0x3d1493aa	0.036273636
216	0x3e24fc32	0.1611183
217	0xbdd5fa3e	-0.104481205
218	0xbd42e6a0	-0.047583222
219	0x3e236f48	0.15960419
220	0xbe941bd7	-0.2892749
221	0x3cf2bf7b	0.02963232
222	0x3e3a499d	0.18192144
223	0xba214407	-0.00061517995
224	0x3d866d43	0.06563809
225	0x3d2b9a6d	0.04189532
226	0x3db9b485	0.090676345
227	0x3e7c4636	0.24636158
228	0x3dd2b10d	0.10287676
229	0xbd0204b9	-0.031742785
230	0x3e2b9fdd	0.16760202
231	0x3e126d40	0.14299488
232	0x3e4e9d2a	0.20177141
233	0x3d9de7a7	0.077102
234	0x3e42297d	0.18961139
235	0xbe493879	-0.19650449
236	0x3d3ac3a5	0.045596737
237	0x3d578184	0.05261375
238	0x3e29836e	0.16554043
239	0x3b257552	0.002524693
240	0xbe4050b0	-0.1878078
241	0xbe132db5	-0.14372905
242	0x3e2f6e10	0.1713183
243	0x3e187c68	0.14891207
244	0x3e869819	0.26287916
245	0x3d87a70b	0.06623658
246	0x3daf6f22	0.08566119
247	0xbde1888f	-0.110123746
248	0x3d15c55a	0.036565162
249	0xbe47d6cd	-0.19515534
250	0xbe4b1e97	-0.19835888
251	0x3c957b7a	0.018247355
252	0xbe585be6	-0.21128806
253	0xbde971fb	-0.11398693
254	0x3d2f7915	0.042840082
255	0x3e377cc3	0.17918687

fc1.bias f4 [64]
0	0x3e94390f	0.28949782
1	0xbd010c12	-0.03150565
2	0xbc93d9ed	-0.018048251
3	0xbc776dd1	-0.015101866
4	0x3dc83f41	0.0977769
5	0x3cc4622a	0.02397259
6	0xbd35c02d	-0.044372726
7	0xbd3ece2f	-0.04658335
8	0x3cd1066e	0.025515761
9	0x3bee9c6d	0.007281831
10	0xbe463937	-0.19357763
11	0x3db9cb7e	0.09072016
12	0x3cb5fc5c	0.02221506
13	0x3d6dba7d	0.058039177
14	0xbe2e7995	-0.17038567
15	0xbe927679	-0.28606012
16	0xbe875552	-0.26432282
17	0xbe2f79fc	-0.17136377
18	0xbde95e3c	-0.11394927
19	0xbe69e5c6	-0.22841558
20	0x3e50fabc	0.20408148
21	0x3dbed77a	0.09318443
22	0x3e755ec0	0.23961926
23	0xbd59f69e	-0.053213708
24	0x3e27524d	0.16339989
25	0xbd87ac74	-0.0662469
26	0x3e5375fe	0.20650479
27	0xbe909eb5	-0.28246084
28	0xbda99654	-0.08280626
29	0x3e97120f	0.29505965
30	0xbd10444e	-0.03522139
31	0xbe261e31	-0.16222455
32	0xbd440f9a	-0.04786644
33	0xbe182e66	-0.1486145
34	0x3e519d6c	0.20470208
35	0xbd1088c0	-0.035286665
36	0xbe11ee3f	-0.1425104
37	0xbde91f75	-0.11382953
38	0x3d31986e	0.04335826
39	0xbe8e9e70	-0.27855253
40	0xbdeb8855	-0.11500613
41	0xbe3bc3c9	-0.18336405
42	0x3e39bfba	0.18139544
43	0x3dce1a1f	0.10063576
44	0x3e30d7d7	0.17269836
45	0x3e0ed435	0.13948138
46	0x3e8d0d60	0.27549267
47	0xbe35fcdf	-0.17772244
48	0x3e9b05e4	0.30277932
49	0x3e8a8813	0.2705694
50	0x3bdf230f	0.006809599
51	0xbd03bc4b	-0.032161992
52	0xbea0f8cc	-0.31439817
53	0xbddd9853	-0.10820069
54	0xbd06d9f5	-0.032922704
55	0xbe1fb0cf	-0.15594791
56	0x3e009b35	0.12559207
57	0x3db95399	0.09049148
58	0x3e84edd9	0.25962713
59	0x3e966cbe	0.2937984
60	0xbe02ecd2	-0.12785652
61	0xbcd02c66	-0.025411796
62	0xbe950de7	-0.2911217
63	0x3e43854e	0.1909382

fc2_mean.weight f4 [16, 64]
0	0x3dd09874	0.10185328
1	0x3d91168e	0.0708438
2	0x3d2147d9	0.03937516
3	0xbc8273d6	-0.015924376
4	0x3d255a3f	0.04036927
5	0xbd1587ce	-0.036506467
6	0x3d0576f4	0.032584146
7	0x3bb39f00	0.0054816008
8	0x3bbd3774	0.005774433
9	0xbd9b510a	-0.07583816
10	0xbc9a424c	-0.018830441
11	0x3c0cf641	0.008603633
12	0x39e5434e	0.0004372843
13	0xbd7a8eb8	-0.061171263
14	0xbcc5dbfc	-0.024152748
15	0xbd96c996	-0.07362668
16	0xbde8aa8f	-0.113606565
17	0x3bc22390	0.0059246495
18	0xbd70f2e3	-0.058825385
19	0x3d0a7543	0.033803236
20	0x3ca056f1	0.019572707
21	0xbdae8f5e	-0.08523439
22	0xbcaa3099	-0.020775126
23	0xbd9bccb7	-0.07607406
24	0xbd9c2b7f	-0.07625484
25	0xbb8e64cc	-0.004345512
26	0xbd1c4172	-0.03814835
27	0x3dd1f009	0.10250861
28	0x3c5417d2	0.012945132
29	0xbe096d7a	-0.13420668
30	0xbc208c97	-0.009799144
31	0xbd395943	-0.045251142
32	0x38b6a0ca	8.7083856e-05
33	0xbc9158e2	-0.017742578
34	0x3dd81f27	0.10552817
35	0x3dcb0f72	0.09915055
36	0x3d8e8386	0.0695868
37	0x3b7d75d7	0.0038674974
38	0x3d296981	0.041360382
39	0x3ddec4ee	0.10877405
40	0xbc86ba58	-0.016446277
41	0xbceca3a5	-0.028886626
42	0xbe070c97	-0.13188396
43	0xbd9f6055	-0.07782046
44	0xbdbbd154	-0.091707855
45	0xbdda1d06	-0.10650067
46	0xbd83860e	-0.06422053
47	0x3dcaa8a6	0.098954484
48	0xbd524955	-0.051339466
49	0x3ddf1a12	0.108936444
50	0x3dd7621c	0.1051676
51	0x3d76d84c	0.06026487
52	0x3d6f440e	0.05841451
53	0x3d92248a	0.071358755
54	0x3d4ad9f3	0.04952426
55	0xbd7cf4d9	-0.061756942
56	0x3897ce8a	7.238712e-05
57	0x3d0dfbf9	0.034664128
58	0xbdcd3856	-0.10020511
59	0x3c1fd424	0.009755168
60	0xbc430337	-0.011902622
61	0xbd1af82d	-0.037834335
62	0xbd304de4	-0.043043032
63	0xbc566804	-0.013086323
64	0x3d966cc2	0.07344963
65	0x3cb964d0	0.022631079
66	0xbadeac6a	-0.0016988639
67	0x3d3c4eee	0.04597371
68	0x3d7c1e03	0.06155206
69	0xbb3b8d77	-0.0028618255
70	0x3d89729b	0.067113124
71	0x3d57415c	0.052552566
72	0x3dbd1bc1	0.09233809
73	0xbd27b206	-0.04094126
74	0xbda8cc0e	-0.08242045
75	0x3d8ffa01	0.07030106
76	0xbb77ac79	-0.003779201
77	0xbd8617d3	-0.06547513
78	0x3db0db91	0.08635629
79	0x3ca772b0	0.02044043
80	0x3dc18df2	0.09450902
81	0xbd1623f4	-0.03665538
82	0x3d926c6a	0.071495846
83	0x3c594989	0.013262161
84	0x3d16d9c7	0.036828782
85	0x3dae6563	0.08515432
86	0xbc5ee578	-0.013604514
87	0xbddd13cf	-0.10794794
88	0x3d4b36a6	0.049612664
89	0xbd9c52e1	-0.076329954
90	0x3e026bdf	0.12736462
91	0xbb71d954	-0.003690322
92	0x3cda57e8	0.026653245
93	0x3ce497c6	0.027904402
94	0x3d193bb8	0.037410468
95	0x3cc17e32	0.023619745
96	0xbd5d8d2a	-0.054089703
97	0xbaf34dd8	-0.0018562628
98	0xbd971059	-0.07376165
99	0x3d811d49	0.06304414
100	0x3da0701c	0.07833883
101	0xbd456d74	-0.048200086
102	0xbdaf9164	-0.08572653
103	0x3d991f88	0.07476717
104	0xbcfac2b8	-0.030610427
105	0xbda96eff	-0.08273124
106	0xbdfca270	-0.1233567
107	0x3e00a5c3	0.12563233
108	0x3c908b6a	0.017644603
109	0x3c9dfc28	0.019285277
110	0xbcdc76ab	-0.026912054
111	0xbc9ceeff	-0.019156931
112	0x3bcdc128	0.0062791295
113	0x3b93f00f	0.004514701
114	0x3d560874	0.052254155
115	0xbd7a775c	-0.061148986
116	0xbdf34f3d	-0.11880348
117	0x3d1e7c07	0.0386925
118	0x3b2ba430	0.0026190393
119	0xbd772d93	-0.060346197
120	0xbd248201	-0.040163044
121	0x3d273494	0.040821627
122	0xbd8063c9	-0.062690325
123	0x3cce23c9	0.025163548
124	0x3dd30392	0.10303415
125	0x3dbc3f29	0.09191734
126	0xbdb105c4	-0.08643678
127	0xbd34ea88	-0.04416898
128	0x3dd68105	0.10473827
129	0xbd4ddaec	-0.05025761
130	0xbc60cf92	-0.013721364
131	0x3cd9d106	0.026588928
132	0x3d109bca	0.035304822
133	0x3cc76d50	0.024344116
134	0x3ca28b6b	0.01984187
135	0x3d819cb2	0.063287154
136	0xbd393088	-0.0452123
137	0xbd2473eb	-0.04014961
138	0xbb6cc972	-0.0036130813
139	0xbd73db2e	-0.059535198
140	0xbdadae5e	-0.084805235
141	0x3d6bac7a	0.057537533
142	0xbc88458a	-0.016634721
143	0xbddea9a8	-0.10872203
144	0x3c55bf88	0.013046153
145	0x3d5df577	0.05418917
146	0xbcd186c3	-0.025576955
147	0xb9e1db1e	-0.000430786
148	0x3dd7f099	0.10543937
149	0xbd0fc815	-0.035102922
150	0xbce84e90	-0.028357774
151	0xbd9194b6	-0.071084425
152	0x3d0fcd39	0.035107825
153	0xbb82c6fa	-0.003991005
154	0xbc8ee683	-0.0174439
155	0xbb14935d	-0.0022670843
156	0xbc0ecfb0	-0.008716509
157	0xbd55bea0	-0.052183747
158	0xbda08924	-0.078386575
159	0xbd2dcf95	-0.042434294
160	0x3d18f348	0.037341386
161	0x3d8f4d86	0.06997208
162	0xbd852cfe	-0.06502722
163	0xbdd096cf	-0.101850145
164	0xbac3cf80	-0.0014939159
165	0x3d7888ea	0.060677446
166	0x3d358e0e	0.044324927
167	0xbdd5e3fc	-0.10443875
168	0x3d939934	0.072069556
169	0xbc605480	-0.013692021
170	0xbc1ac34b	-0.009445976
171	0x3d889fca	0.06671102
172	0xbd2b313c	-0.041795
173	0x3db1e7d8	0.08686799
174	0x3bdab5c4	0.0066745
175	0x3d3a5346	0.045489572
176	0xbd9640e0	-0.07336593
177	0xbcdfddc0	-0.027327418
178	0xbd2cb233	-0.04216213
179	0xbcb206f7	-0.021731837
180	0xbc72cede	-0.014819829
181	0x3c2d7978	0.010588042
182	0xbcbbeee6	-0.022941064
183	0xbd79258e	-0.06082683
184	0x3ca469dc	0.020070009
185	0xbc987076	-0.018608313
186	0xbb84ccd9	-0.00405274
187	0xbd46188d	-0.048363257
188	0x3ba5f5a0	0.005064681
189	0x3d3ec91a	0.046578504
190	0xbd95869e	-0.07301067
191	0x3cb9a897	0.022663398
192	0xbdd7a85d	-0.105301596
193	0xbdae0bc2	-0.084983364
194	0xbcd0495e	-0.02542561
195	0xbb13d574	-0.0022557648
196	0x3cbcef4e	0.023063328
197	0xbc860a88	-0.016362444
198	0x3d8b4875	0.068009295
199	0xbd668f1a	-0.056288816
200	0xbd987599	-0.07444305
201	0x3db4300d	0.087982275
202	0xbc7f1b08	-0.01557041
203	0x3da2d49e	0.0795071
204	0x3c60ff19	0.013732695
205	0x3d4675ef	0.048452314
206	0x3d2d614f	0.04232913
207	0x3d84181e	0.064499125
208	0xbcaef7af	-0.02135834
209	0xbd6d8b43	-0.05799414
210	0xbe0169d3	-0.12638025
211	0xbbbfd3a7	-0.0058540883
212	0x3d9255e5	0.07145289
213	0x3db7427f	0.0894823
214	0x3cfb60f8	0.030685887
215	0x3d51b92f	0.051201995
216	0xbd888da2	-0.06667639
217	0xbb3a70c0	-0.0028448552
218	0x3d911df8	0.07085794
219	0xbdae12bc	-0.08499667
220	0x3d32b6d6	0.043631397
221	0xbc8765db	-0.01652806
222	0xbd5a241b	-0.05325709
223	0x3e0b514c	0.13605231
224	0xbcf27506	-0.029596817
225	0xbd6b87d0	-0.057502568
226	0x3c9cfabc	0.019162528
227	0xbd93b138	-0.07211536
228	0x3d5e6090	0.054291308
229	0x3a8d4714	0.0010778629
230	0x3d43eaaf	0.047831234
231	0xbdeec9fa	-0.11659618
232	0x3cf43f10	0.029815227
233	0x3ce77858	0.028255627
234	0xbdf0d423	-0.11759212
235	0xbc85552d	-0.016275967
236	0xbdf8ccee	-0.12148462
237	0x3cc675a0	0.02422601
238	0x3d76d2a9	0.060259495
239	0xbde9eaae	-0.11421715
240	0x3cd8ef3e	0.026481267
241	0xbd06fa4b	-0.03295354
242	0xbcb0e1df	-0.021592079
243	0xbb12fa10	-0.002242688
244	0x3d989554	0.07450357
245	0xbd467c53	-0.04845841
246	0xbb6269c1	-0.0034547898
247	0x3c1a8e10	0.009433284
248	0xbd3a3154	-0.0454572
249	0x3daaa7fb	0.08332821
250	0x3a0008f2	0.00048841455
251	0x3d61b73a	0.05510638
252	0x3cf0ecf9	0.029409872
253	0xbd61d781	-0.05513716
254	0x3dfa05ca	0.122081354
255	0x3d8b5e18	0.06805056

fc2_mean.bias f4 [16]
0	0x3d3a43de	0.04547488
1	0xbd68a9c6	-0.056802534
2	0x3d0c13b2	0.03419847
3	0xbd8eff9b	-0.069823466
4	0x3d7fc480	0.062443256
5	0x3d626c77	0.05527922
6	0xbc0af581	-0.008481384
7	0xbd234487	-0.039860275
8	0xbdbd31c0	-0.09238005
9	0x3d8cc5f9	0.06873698
10	0x3d89f140	0.06735468
11	0xbaf4a63e	-0.0018665267
12	0xbcc05d86	-0.023482095
13	0x3d3662ec	0.044527933
14	0xbd58cb56	-0.05292829
15	0xbcebe311	-0.028794797

fc2_logvar.weight f4 [16, 64]
0	0x3db0e659	0.08637685
1	0xbb7437c0	-0.0037264675
2	0xbb1595ea	-0.0022824951
3	0xbc8c1476	-0.0170996
4	0xbd81ca3d	-0.06337402
5	0xbc953c69	-0.018217282
6	0xbe049902	-0.12948993
7	0x3bd7a222	0.006580607
8	0xbdd48b57	-0.103781395
9	0xbc297073	-0.010341751
10	0xbd5108b4	-0.05103369
11	0xbd3f3292	-0.046679087
12	0xbd7b9706	-0.061423324
13	0x3d9db68a	0.07700832
14	0x3ded8993	0.11598506
15	0xbdc64952	-0.096819535
16	0xbd958f52	-0.07302727
17	0x3dd71939	0.10502858
18	0x3db40226	0.08789472
19	0x3c77526c	0.0150953345
20	0x3cfe907c	0.031074755
21	0xbca2b1e6	-0.01986022
22	0xbb9e7807	-0.0048360857
23	0x3c2c6a9d	0.010523465
24	0xbc6f8b5a	-0.014620626
25	0xbd377ccb	-0.044796746
26	0xbd8eee3a	-0.06979032
27	0xbc88af21	-0.01668507
28	0x3bc39edb	0.005969865
29	0xbd1d675e	-0.038428657
30	0x3d86559d	0.06559298
31	0xbb4d6f2c	-0.0031346781
32	0xbd6c93e8	-0.057758242
33	0xbcffe8b4	-0.031238891
34	0x3d5a1092	0.05323846
35	0x3e044391	0.129164
36	0xbdbde306	-0.09271817
37	0xbb099692	-0.0020994288
38	0x3bdb6c0c	0.00669623
39	0x3d3b2b8c	0.045695826
40	0x3dc5e0b8	0.09662002
41	0x3c93f2e5	0.018060157
42	0x3d917591	0.07102502
43	0x3e0fb3b5	0.14033397
44	0xbcd7305d	-0.026268179
45	0xbdcf016c	-0.10107693
46	0x3cbad347	0.022805823
47	0x3d6de6ab	0.05808131
48	0xbcfc48fb	-0.030796519
49	0xbcfdb1e6	-0.030968618
50	0x3d33e182	0.043916233
51	0x3cfb6b20	0.03069073
52	0x3c89d1f2	0.016823743
53	0xbd9b7ac1	-0.07591773
54	0x3cb6c6f6	0.022311669
55	0x3d53932b	0.051654022
56	0xbd9c0625	-0.076183595
57	0x3c7cbbb6	0.015425613
58	0xbd63c343	-0.055606138
59	0xbd8a38b2	-0.06749095
60	0xbd29870d	-0.04138856
61	0xbd53b4c7	-0.051686075
62	0x3dc64440	0.096809864
63	0xbd0edfe1	-0.034881476
64	0x3c4f1afe	0.012640713
65	0x3d00db58	0.031459183
66	0xbd03988c	-0.032127902
67	0x3db9474b	0.09046801
68	0x3d996429	0.07489807
69	0x3c875177	0.016518338
70	0xbd56c7e4	-0.052436724
71	0x3dbe600d	0.09295664
72	0x3d81389e	0.06309627
73	0xbdbcac1f	-0.09212517
74	0x3c3a9ffd	0.011390683
75	0xbde8e62e	-0.11372028
76	0xbd79f00b	-0.06101994
77	0xbe03614c	-0.12830085
78	0xbdb24345	-0.08704237
79	0xbc83d720	-0.01609379
80	0xbdccd6b9	-0.100018926
81	0xbda94dca	-0.0826679
82	0xbdca2875	-0.09870998
83	0x3d5f684d	0.05454283
84	0x3d774c85	0.06037571
85	0xbd99446c	-0.074837536
86	0x3d8222e2	0.063543096
87	0xbdbfba91	-0.093617566
88	0xbcb1f147	-0.021721495
89	0x3e00dde5	0.12584646
90	0xbd57793d	-0.052605856
91	0x3d9a55cb	0.07535895
92	0xbd2b7534	-0.04185982
93	0xbe1657cd	-0.14681931
94	0xbe1123bb	-0.14173786
95	0xbdaceaeb	-0.084432445
96	0xbc3878e1	-0.0112592885
97	0x3d032b54	0.032023743
98	0x3d277823	0.040886056
99	0x3da180d9	0.07885904
100	0x3ca14960	0.019688308
101	0x3c64247f	0.013924717
102	0xba5372e8	-0.00080661336
103	0x3dc3cea8	0.09560901
104	0x3c7aa130	0.015297219
105	0x3d9c9c1f	0.07646965
106	0xbddab125	-0.10678319
107	0xbe1c8037	-0.15283285
108	0xbdc88ffa	-0.09793086
109	0xbd72605c	-0.059173927
110	0xbd1e434f	-0.03863841
111	0x3daea5a6	0.08527689
112	0xbde449fd	-0.11146925
113	0x3d0f907e	0.035049908
114	0x3db2a89a	0.087235644
115	0xbc816054	-0.015793003
116	0xbd3e3d0c	-0.046444938
117	0xbd9f8d1b	-0.077905856
118	0x3d30e36d	0.04318564
119	0xbd901d61	-0.070368536
120	0x3d874fe0	0.06607032
121	0xbd8c4113	-0.068483494
122	0x3da44dd8	0.0802266
123	0xbc5c8011	-0.013458268
124	0x3de89209	0.11355979
125	0xbdf5b522	-0.11997439
126	0x3d94eb54	0.07271448
127	0xbd4baa2c	-0.049722835
128	0x3bad3aba	0.005286542
129	0xbdf922a2	-0.12164809
130	0xbcc5bebb	-0.024138799
131	0x3cecbc5e	0.028898414
132	0xbd3311c1	-0.043718103
133	0x3c623f1b	0.013808991
134	0xbd0842c8	-0.033266813
135	0x3d614283	0.05499507
136	0x3d20f6d0	0.03929788
137	0xbc9fbfe0	-0.019500673
138	0xbb981d38	-0.004642155
139	0xbd08ef97	-0.033431616
140	0x3c0bdb68	0.008536197
141	0xbd466340	-0.048434496
142	0xbccae2cf	-0.024766354
143	0xbdce3652	-0.100689545
144	0xbd305e67	-0.04305878
145	0x3c3ece9e	0.011645941
146	0xbd826e48	-0.06368691
147	0xbc4aca5a	-0.012377346
148	0x3d84b7b4	0.06480351
149	0xbdc840a7	-0.097779565
150	0xbcd7532b	-0.026284775
151	0xbd3a14ab	-0.045429867
152	0xbd796569	-0.060887728
153	0x3ca0fcb2	0.019651745
154	0xbc04fc3c	-0.008116778
155	0xbd66a4f1	-0.056309644
156	0xbd03cb18	-0.032176107
157	0xbd6defa1	-0.058089856
158	0x3b51502a	0.003193865
159	0xbc886512	-0.016649757
160	0xbba96020	-0.0051689297
161	0x3c9d33d9	0.019189762
162	0x3d1ec075	0.03875776
163	0x3df40a4d	0.11916027
164	0x3d847e96	0.06469457
165	0x3b8b6e1d	0.00425507
166	0x3c8f94ec	0.017527066
167	0x3c791550	0.015202835
168	0xbdab2758	-0.083571136
169	0xbd81d24b	-0.06338938
170	0x3d83ee2f	0.06441914
171	0xbded00eb	-0.11572441
172	0xbd59d5be	-0.053182356
173	0x3d389bdc	0.045070514
174	0x3ca6d68c	0.020365976
175	0x3d9ac924	0.07557896
176	0x3d3b47e6	0.045722865
177	0xbd82c5a6	-0.06385355
178	0xbc9f26af	-0.019427625
179	0xbcbbf673	-0.022944665
180	0x3cc18c1d	0.023626382
181	0xbd7d8065	-0.061890025
182	0x3d0417d7	0.032249298
183	0x3ca8d92c	0.020611368
184	0x3d037237	0.032091346
185	0x3c7703d5	0.015076597
186	0x3cff5a2d	0.031170929
187	0xbd16f885	-0.0368581
188	0xbceb0330	-0.028688043
189	0x3dc6c614	0.09705749
190	0xbd8ce9f8	-0.068805635
191	0xbdee4de9	-0.11635954
192	0x3b4eefbd	0.0031576
193	0xbdd6c6fe	-0.104871735
194	0xba0eabf1	-0.00054424914
195	0xbd854f20	-0.065092325
196	0xbd74701d	-0.059677232
197	0xbb84a1c8	-0.004047606
198	0x3dda78dd	0.10667584
199	0xbd4a965c	-0.0494598
200	0x3d9c2182	0.076235786
201	0x3d06b8ff	0.03289127
202	0xbb930a85	-0.004487338
203	0x3d5ae1ea	0.053438105
204	0x3d8bcfd4	0.068267494
205	0xbd6c8a2b	-0.057748955
206	0xbd3848fd	-0.044991482
207	0x3d09e758	0.033667892
208	0xbc2db546	-0.010602301
209	0x3d5b4b45	0.05353858
210	0x3d684f78	0.056716412
211	0x3ce43672	0.027857993
212	0xbd30c25f	-0.043154117
213	0x3dac84a2	0.08423735
214	0xbd3abb7a	-0.045588948
215	0xbce957c9	-0.028484242
216	0x3d023ac7	0.031794336
217	0x3dc41dba	0.095759824
218	0xbc21c961	-0.009874673
219	0xbd7f991e	-0.062401883
220	0x3d3c972a	0.0460426
221	0xbd7ddba6	-0.06197705
222	0x3e13b23e	0.14423463
223	0x3da3d3d4	0.079993874
224	0xbcb55647	-0.022135867
225	0xbdd11d58	-0.10210675
226	0xbc1d7219	-0.0096097225
227	0x3d731352	0.059344597
228	0xbdaf8710	-0.08570683
229	0xbd1875ea	-0.037221827
230	0xbd0d88dd	-0.03455435
231	0x3d8b1eb4	0.067929655
232	0xbdabdebc	-0.083920926
233	0x3d8861fc	0.06659314
234	0xbc17d7a9	-0.009267726
235	0x3d595328	0.05305782
236	0xbbac3bd0	-0.0052561536
237	0xbb744040	-0.0037269741
238	0x3d24e97b	0.040261727
239	0x3c2cb738	0.01054173
240	0xbd1a8a69	-0.037729654
241	0x3d8c4267	0.06848603
242	0xbd74c65c	-0.059759483
243	0xbc8a8ff1	-0.01691434
244	0x3d836f14	0.06417671
245	0xbdbd74d0	-0.09250796
246	0x3d336656	0.043798767
247	0x3b37f29b	0.0028068188
248	0xbd81fa46	-0.06346564
249	0x3d2140c7	0.039368417
250	0x3c88bf3b	0.016692748
251	0xbd0b212d	-0.033967186
252	0x3cb9c494	0.022676744
253	0xbd639f88	-0.055572063
254	0x3dd34dd0	0.10317576
255	0xbdb59158	-0.08865613

fc2_logvar.bias f4 [16]
0	0x3da2d61c	0.07950994
1	0x3da5f48a	0.08103283
2	0x3d795f4b	0.060881894
3	0x3d28f39d	0.041247953
4	0x3d4e7476	0.050404035
5	0xbc41b5ca	-0.011823127
6	0xbd08d71f	-0.03340828
7	0xbd249f1a	-0.040190794
8	0x3d906f57	0.070524864
9	0xbd90890c	-0.070573896
10	0xbd920b81	-0.071311004
11	0x3d09ce95	0.033644278
12	0xbd9e1035	-0.07717935
13	0xbae0393e	-0.0017106903
14	0x3d9ff287	0.0780993
15	0xbba0ff82	-0.0049132714

fc3.weight f4 [64, 16]
0	0x3e309008	0.17242444
1	0xbe29134b	-0.16511266
2	0x3e0b7092	0.13617161
3	0x3da4e946	0.08052306
4	0xbcfd5dd2	-0.030928526
5	0xbe80de35	-0.2516953
6	0x3dd2e979	0.102984376
7	0x3c8b5f0e	0.017013099
8	0xbe2c0db5	-0.16802104
9	0x3dad730e	0.084692106
10	0x3db0a4ec	0.08625206
11	0x3dcaedbb	0.09908625
12	0xbe2970c2	-0.1654692
13	0x3e51fe3f	0.20507143
14	0x3d2f1c80	0.04275179
15	0xbd831d00	-0.06402016
16	0xbdec8211	-0.11548246
17	0xbd2567a3	-0.04038204
18	0xbe0bc787	-0.13650332
19	0xbe3c653a	-0.1839799
20	0x3db0531a	0.086096
21	0x3ba19797	0.004931401
22	0xbe5166af	-0.20449327
23	0xbde41988	-0.11137682
24	0xbe30902f	-0.17242502
25	0xbd52c45e	-0.0514568
26	0x3de68f84	0.11257842
27	0xbe0fbdbe	-0.14037225
28	0xbd312dbb	-0.043256503
29	0x3e26eeee	0.16302082
30	0x3de38282	0.11108877
31	0xb7de53a4	-2.650341e-05
32	0x3cbb792d	0.02288493
33	0x3e1e0ddd	0.15434976
34	0x3e3c59f8	0.18393695
35	0x3cf12498	0.029436395
36	0x3e00c978	0.12576854
37	0x3c60c0a9	0.013717809
38	0xbd81484c	-0.06312618
39	0xbbb1d21d	-0.005426659
40	0x3d9e5f37	0.077330045
41	0xbdc13097	-0.09433096
42	0xbbf00c79	-0.0073257056
43	0x3c9a224c	0.018815182
44	0x3d3a0cda	0.045422412
45	0x3d2d66c2	0.042334326
46	0x3e4fcbab	0.20292537
47	0xbd655fcb	-0.05599956
48	0xbd99cca4	-0.07509735
49	0xba6546c4	-0.00087462016
50	0xbdd3ac89	-0.10335643
51	0xbe2c262b	-0.16811435
52	0xbe3fcee2	-0.18731263
53	0x3d988cc4	0.07448724
54	0x3e440a8a	0.19144645
55	0xbe4f007a	-0.20215026
56	0xbd958e99	-0.07302589
57	0x3de1fa85	0.11034111
58	0x3e0fb41e	0.14033553
59	0x3e4545ca	0.19264904
60	0x3e1eef11	0.15520884
61	0x3d8f5414	0.069984585
62	0xbc01e032	-0.0079269875
63	0x3d840c27	0.064476304
64	0xbdc19d78	-0.09453863
65	0x3e2c0ebe	0.16802499
66	0xbd1655f0	-0.03670305
67	0x3e3b7933	0.18307953
68	0xbcb97101	-0.022636892
69	0x3cd0f8ed	0.025509322
70	0x3e095222	0.13410237
71	0xbc60bc9f	-0.013716846
72	0xbe348175	-0.17627509
73	0xbe7f23eb	-0.24916045
74	0x3e1060d7	0.14099441
75	0xbdd71303	-0.10501673
76	0x3d7128f1	0.058876935
77	0x3d094b29	0.033518944
78	0xbe292479	-0.1651782
79	0x3dd5ff0f	0.10449039
80	0xbc898e3c	-0.016791455
81	0xbc59b7a4	-0.013288412
82	0xbe0acfea	-0.13555875
83	0xbe25c071	-0.16186692
84	0xbd2dca0c	-0.042429015
85	0x3d980618	0.07423037
86	0x3d64594d	0.055749226
87	0x3e1c59bd	0.15268607
88	0x3e315c16	0.17320284
89	0x3e5da932	0.21646574
90	0x3d3c9683	0.046041977
91	0x3e4bb5b9	0.1989354
92	0xbe1f43a1	-0.15553142
93	0x3d8090d1	0.062776215
94	0x3e544552	0.20729569
95	0x3db8d799	0.09025497
96	0x3e275656	0.16341528
97	0xbe47b03d	-0.19500823
98	0xbdaab50d	-0.08335314
99	0xbe01ef5d	-0.12688966
100	0x3cfd1347	0.030892981
101	0x3e45f9c0	0.19333553
102	0x3df90299	0.121586986
103	0xbd92237a	-0.07135673
104	0xbe16e336	-0.14735112
105	0x3c36dac2	0.011160554
106	0x3e583304	0.21113211
107	0xbdfbadd7	-0.12289017
108	0x3e075ba0	0.13218546
109	0xbd6b5117	-0.05745038
110	0x3dd4e722	0.103956476
111	0x3b475a9a	0.0030418993
112	0xbe800a05	-0.25007644
113	0x3dde304a	0.10849054
114	0x3de14650	0.10999739
115	0x3dd15148	0.10220581
116	0xbdd75e88	-0.10516077
117	0xbd8887a5	-0.06666497
118	0xbe300eec	-0.17193192
119	0x3e386069	0.18005528
120	0xbd833635	-0.064068235
121	0xbe2a036f	-0.16602872
122	0xbdabd7b3	-0.08390751
123	0xbd23df85	-0.040008087
124	0x3dc02f26	0.09383993
125	0xbcf88839	-0.030338394
126	0x3e5ce59e	0.21571967
127	0x3e228b40	0.15873432
128	0x3e1f2897	0.15542828
129	0xbdd21794	-0.102584034
130	0xbe422852	-0.18960693
131	0xbe2ba2a9	-0.16761269
132	0x3d014963	0.031564128
133	0xbe1eeff9	-0.1552123
134	0xbe08fc93	-0.133776
135	0xbe2134b4	-0.15742761
136	0x3df2caf7	0.11855119
137	0xbca93ded	-0.020659411
138	0xbe0f2376	-0.13978371
139	0xbe128533	-0.14308624
140	0x3e040627	0.12892972
141	0x3e101898	0.14071882
142	0x3d6bcb72	0.057567067
143	0x3dbc8c7a	0.09206481
144	0xbc9783ce	-0.018495467
145	0xbda6d0d0	-0.081452966
146	0x3da2133d	0.07913826
147	0xbdbc8313	-0.09204688
148	0xbe61d842	-0.22055152
149	0x3ddba6d0	0.10725176
150	0x3d208167	0.039185908
151	0x3d5c41df	0.053773757
152	0xbcb50d27	-0.022100998
153	0xbe049fef	-0.12951635
154	0xbb31a8f7	-0.0027108768
155	0xbac655c6	-0.0015131764
156	0xbd8fc633	-0.070202254
157	0x3de17f28	0.11010581
158	0xbe5f0c52	-0.21782044
159	0x3e07096b	0.13187186
160	0x3e36b2e9	0.17841686
161	0x3dec77e7	0.11546307
162	0xbe018ad9	-0.12650622
163	0xbd823025	-0.06356839
164	0x3daf9bda	0.08574648
165	0xbe57d23f	-0.21076296
166	0x3c697c85	0.014250879
167	0xbd96f3fd	-0.07370756
168	0x3e33cd22	0.1755872
169	0xbccf9d6b	-0.025343617
170	0x3e35b3f6	0.17744431
171	0xbe6100e9	-0.21973003
172	0x3e5701d5	0.20996793
173	0x3ce31cb7	0.027723653
174	0xbe3f95c2	-0.18709472
175	0x3db1611b	0.086610995
176	0x3da57659	0.08079214
177	0x3c926b03	0.017873293
178	0xbde29e75	-0.110653795
179	0x3e0a110f	0.1348307
180	0x3df2247e	0.118233666
181	0xbd6bd8ae	-0.05757969
182	0xbde78599	-0.113047786
183	0x3dcc88e4	0.09987047
184	0xbdf4bcc8	-0.1195007
185	0xbdcd6eb6	-0.10030882
186	0x3e321e17	0.17394291
187	0xbc6adb4d	-0.014334512
188	0x3e19b455	0.15010197
189	0xbd66a7b8	-0.056312293
190	0xbc999525	-0.018747875
191	0x3e4b186b	0.19833533
192	0xbd737cd2	-0.05944521
193	0xbd5ed7a8	-0.054404885
194	0x3d8b8b17	0.06813639
195	0x3e087810	0.1332705
196	0xbe37a442	-0.17933753
197	0x3e2b6668	0.16738284
198	0xbe157243	-0.14594369
199	0xbe079a48	-0.13242447
200	0x3e106750	0.1410191
201	0x3df2622c	0.11835131
202	0xbc97d2f9	-0.018533217
203	0x3d54d320	0.051959157
204	0x3d8995bd	0.067180134
205	0xbd033922	-0.032036908
206	0x3dcd4ac8	0.10024029
207	0xbc298a03	-0.010347846
208	0xbd77ad4d	-0.060468007
209	0xbe2c2e61	-0.16814567
210	0x3da3adfe	0.07992171
211	0xbdc4bafb	-0.09605976
212	0x3e21caf4	0.15800077
213	0x3e0e2f4e	0.13885233
214	0x3ce5b6cb	0.028041264
215	0x3e4bf951	0.19919325
216	0xbe25a545	-0.16176327
217	0xbe65155a	-0.22371426
218	0x3e392087	0.18078814
219	0x3da21d93	0.07915797
220	0xbdbd99cb	-0.09257849
221	0xbd9728db	-0.073808394
222	0x3d880910	0.066423535
223	0xbc2fb852	-0.010725098
224	0xbe5c6c8d	-0.21525784
225	0x3d1fca6d	0.039011408
226	0x3cedd123	0.029030388
227	0xbe4fbf5e	-0.20287845
228	0x3ccd846a	0.025087554
229	0x3ddb7c87	0.10717111
230	0xbdba3744	-0.09092572
231	0xbb298342	-0.002586559
232	0xbbf85746	-0.007578763
233	0x3e17ec28	0.1483618
234	0xbe40798c	-0.18796366
235	0xbdc0d2e9	-0.09415228
236	0xbd8e8c98	-0.0696041
237	0xbe37c12b	-0.17944781
238	0xbe357328	-0.1771971
239	0xbe09ff86	-0.1347638
240	0x3d51ad7e	0.051190846
241	0xbe287c4f	-0.1645367
242	0x3d8004b9	0.06250901
243	0x3e173b56	0.14768729
244	0x3dbd2f6a	0.09237559
245	0xbe46bb9b	-0.19407503
246	0xbd07f478	-0.033192128
247	0x3d8ab58d	0.06772909
248	0xbdc2f4ad	-0.095193245
249	0xbe0c4c8a	-0.13701072
250	0x3e1fddfa	0.15612021
251	0x3e1dfcad	0.1542842
252	0x3d3f58c1	0.0467155
253	0xbdb5a684	-0.08869651
254	0x3b8e2da3	0.0043389364
255	0xbe3cf65c	-0.18453354

fc3.bias f4 [64]
0	0x3cb681be	0.022278663
1	0xbe1d4f9a	-0.15362397
2	0x3e604f12	0.21905163
3	0x3de03801	0.10948182
4	0xbe87faa6	-0.26558417
5	0x3c5a5eba	0.013328249
6	0xbd804893	-0.062638424
7	0xbe041186	-0.1289731
8	0xbe283da8	-0.1642977
9	0xbd8bc6ae	-0.068250045
10	0xbe1e8379	-0.1547984
11	0x3e929cb0	0.28635168
12	0xbd181352	-0.0371278
13	0x3e069e67	0.13146363
14	0x3d783c37	0.0606043
15	0x3e896a04	0.26838696
16	0x3e990a26	0.29890555
17	0x3e927008	0.28601098
18	0xbdcbc36a	-0.09949382
19	0xbe5c071e	-0.2148709
20	0x3e0b753a	0.13618937
21	0xbe0ccb48	-0.1374942
22	0x3e34f6de	0.17672297
23	0x3c12860a	0.00894309
24	0x3edaec3d	0.4275836
25	0xbe03f153	-0.12885027
26	0x3e5a60e7	0.21326028
27	0x3eb97b6a	0.3622697
28	0x3ea736b2	0.32658917
29	0x3e23a0d3	0.15979318
30	0xbd82868e	-0.063733205
31	0xbd85cf0b	-0.06533631
32	0x3ed33fd4	0.41259634
33	0x3d4b312b	0.049607437
34	0xbe911c40	-0.28341866
35	0x3d0240b2	0.03179998
36	0x3e3b5bb8	0.18296707
37	0x3e357119	0.17718925
38	0x3e0ad227	0.1355673
39	0xbcb6bd6d	-0.022307122
40	0xbe3a94ad	-0.18220778
41	0x3de88c69	0.11354906
42	0xbdc15112	-0.09439291
43	0x3e6312c3	0.22175126
44	0xbe17622e	-0.14783546
45	0x389a6fb0	7.364096e-05
46	0x3e262089	0.16223349
47	0xbb842ac8	-0.0040334202
48	0xbe117dc1	-0.14208128
49	0x3cd2db99	0.025739478
50	0x3e517b1d	0.2045712
51	0xbe586b8a	-0.21134773
52	0xbd94b713	-0.07261481
53	0xbbb4c467	-0.005516577
54	0xbd01dc62	-0.031704314
55	0x3e8e7f0b	0.278313
56	0x3e854572	0.26029545
57	0x3e098ef1	0.13433434
58	0xbdfd910c	-0.12381181
59	0x3e16ed32	0.1473892
60	0xbe546df7	-0.20745073
61	0x3ea87141	0.32898906
62	0x3e3c1584	0.18367583
63	0xbd9fa906	-0.077959105

fc4.weight f4 [11, 64]
0	0xbce8a156	-0.028397243
1	0xb9b5b05f	-0.00034654417
2	0x3d9908ad	0.07472358
3	0xbcb30a23	-0.02185542
4	0x3d002ca5	0.031292576
5	0x3da082bd	0.07837436
6	0x3d12d83e	0.035850756
7	0x3be04e6e	0.006845287
8	0xbc5efaa3	-0.013609561
9	0x3dabff49	0.08398301
10	0x3d39acb0	0.045330703
11	0x3cf2a39a	0.029619027
12	0x3d415990	0.047204554
13	0x3c994452	0.018709335
14	0x3ca83e26	0.020537447
15	0xbcfbb7de	-0.030727323
16	0xbce9e5d4	-0.028551973
17	0xbaa782f0	-0.0012780111
18	0xbd278dee	-0.04090684
19	0xbd8b7778	-0.06809896
20	0xbcd5d544	-0.02610267
21	0xbd293c08	-0.041317016
22	0x3c43bb95	0.0119465785
23	0x3bcdf6a2	0.0062855044
24	0xbd07a6f1	-0.033118192
25	0x3c2c00a3	0.010498199
26	0x3d165cc8	0.036709577
27	0xbca636c7	-0.020289792
28	0x3c9befe2	0.019035283
29	0x3d67be33	0.056577872
30	0xbd11cd9c	-0.035596475
31	0x3d054af0	0.03254217
32	0x3d0cfdd0	0.034421742
33	0x3ce0dadc	0.02744811
34	0xbbe54a09	-0.006997351
35	0xbcb92dcb	-0.022604844
36	0x3c96619d	0.018357093
37	0xbd1634f8	-0.03667161
38	0x3d1370fc	0.035996422
39	0xbcd9c12c	-0.02658137
40	0x3bf218c2	0.0073882053
41	0x3c601112	0.013675945
42	0xbcd7283e	-0.026264306
43	0x3d144706	0.036200546
44	0x3c95e3a4	0.018297024
45	0x3c513d61	0.0127709815
46	0xbd330316	-0.043704115
47	0x3c04ae84	0.008098248
48	0xbd2d5864	-0.042320624
49	0x3d12bd1b	0.035824876
50	0x3d2e213f	0.042512175
51	0x3c90a604	0.017657287
52	0xbd278750	-0.04090053
53	0x3c38a496	0.011269709
54	0x3be2f822	0.0069265524
55	0x3c72fa28	0.01483015
56	0xbd067202	-0.03282357
57	0x3d084668	0.03327027
58	0xbcb509dc	-0.022099428
59	0xbb812254	-0.00394086
60	0x3c93b101	0.018028738
61	0xbdd3f1d1	-0.10348857
62	0xbdb05b0a	-0.08611114
63	0xbd88c0c6	-0.066773936
64	0x3bd9ad28	0.0066429563
65	0x3c1dbe78	0.009627931
66	0x39c420c6	0.0003740845
67	0x3c8c131d	0.017098958
68	0xbd152491	-0.036411826
69	0xbbe9fc15	-0.007140646
70	0x3d5f844a	0.05456952
71	0x3c566737	0.013086132
72	0x3d285ceb	0.04110424
73	0x3d2a0262	0.04150618
74	0xbc4e46a6	-0.012590086
75	0x3d795f25	0.060881753
76	0xbcb69604	-0.02228833
77	0x3c9c6d3a	0.019095052
78	0x3ce4ea28	0.027943686
79	0x3c0c4e6b	0.008563618
80	0xbce25dbd	-0.027632589
81	0x3d7f6a3b	0.06235717
82	0xbd291ee5	-0.04128923
83	0xbd2a6300	-0.04159832
84	0xbb909f0e	-0.004413492
85	0x3bbda395	0.0057873228
86	0xbb81c2f6	-0.0039600087
87	0xbda834bd	-0.08213184
88	0xbc70da30	-0.014700457
89	0xbbe66acb	-0.0070317737
90	0x3d043a26	0.032282017
91	0x3c942c9a	0.018087674
92	0x3ddc6dcb	0.10763129
93	0x3be68087	0.0070343646
94	0xbcfa55a3	-0.030558413
95	0x3d4dfa4b	0.050287526
96	0xbc672839	-0.014108711
97	0xbd6dfa65	-0.058100123
98	0xbd390eaa	-0.04518
99	0x3d289ed7	0.041167106
100	0x3cd9ce5b	0.026587656
101	0xbc887bd4	-0.016660608
102	0xbc92eb75	-0.01793454
103	0xbd0b7685	-0.034048576
104	0x3c5c3961	0.013441415
105	0x3d81f7ae	0.06346069
106	0xbd4a447c	-0.049381718
107	0xbd965090	-0.07339585
108	0xbcb97ee9	-0.022643523
109	0x3cb16375	0.02165387
110	0xbb969dfb	-0.0045964695
111	0xbd732b46	-0.05936744
112	0xbd189228	-0.03724876
113	0xbd041cb2	-0.03225393
114	0x3c042d72	0.008067476
115	0x3d0c6d6a	0.034284033
116	0x3d2b010c	0.041749045
117	0x3cc149f9	0.023594843
118	0x3c80d599	0.015726851
119	0x3cb0c62f	0.021578876
120	0x3d623d30	0.055234134
121	0xbd0f753a	-0.035023905
122	0xbced8ff6	-0.02899931
123	0x3d198719	0.037482355
124	0x3c22e7a0	0.009942919
125	0xbc986c18	-0.01860623
126	0xbc28b7f0	-0.01029776
127	0x3bdd7a48	0.006758962
128	0xbd8658d2	-0.0655991
129	0xbcc23646	-0.02370752
130	0x3dbeddca	0.09319647
131	0x3cd1c64b	0.025607249
132	0xbc2466a2	-0.010034235
133	0xbd37f68d	-0.044912864
134	0xbc821126	-0.015877318
135	0xbd642f02	-0.055708893
136	0x3d26dfb8	0.0407407
137	0xbd39d1d0	-0.04536611
138	0x3d158e75	0.03651281
139	0xbd4378f3	-0.047722768
140	0xbd8cb671	-0.068707354
141	0xbd028bb6	-0.03187152
142	0x3b9042e5	0.0044025057
143	0x3d04b241	0.03239656
144	0x3d61e440	0.055149317
145	0xbc8a3af0	-0.016873807
146	0x3d3683a3	0.044559132
147	0xbcaca8ae	-0.021076526
148	0x3d2afdba	0.04174588
149	0x3d538000	0.051635742
150	0x3d79d097	0.060989942
151	0x3dbe0674	0.092785746
152	0x3d439cf8	0.04775712
153	0x3c8cf7d3	0.017208016
154	0x3d06c9aa	0.032907166
155	0x3bf57a26	0.007491368
156	0x3a9d94b4	0.0012022466
157	0xbd38fcb8	-0.045162886
158	0xbb9ccb09	-0.004784946
159	0xbcc07b44	-0.023496278
160	0x3d715ccf	0.0589264
161	0x3d207042	0.039169557
162	0x3d375d99	0.044766996
163	0x3b4bdbcd	0.0031106353
164	0x3c9aaed1	0.018882187
165	0xbcd06128	-0.025436953
166	0xbc907d6f	-0.017637936
167	0x3c6124a9	0.013741651
168	0x3d6696be	0.056296103
169	0x3d890cfd	0.066919304
170	0x3c9f7812	0.019466434
171	0xbc949da0	-0.018141568
172	0x3d452aef	0.048136648
173	0xbcf63a7e	-0.030057188
174	0xbcb312f6	-0.021859627
175	0xbd870e74	-0.065945536
176	0xbd583618	-0.052785963
177	0x3d4d498b	0.050118964
178	0x3d0782b3	0.03308363
179	0xbd6a2bda	-0.057170726
180	0xbd9addc9	-0.075618334
181	0x3d61e5b4	0.055150703
182	0xba33b676	-0.0006855497
183	0xbc416c80	-0.011805654
184	0xbc6ceaf9	-0.014460319
185	0x3ce40049	0.027832167
186	0xbb0d54ff	-0.0021565554
187	0xbcdbb818	-0.026821181
188	0xbddf4bc8	-0.10903126
189	0x3d5c9873	0.053856324
190	0xbd9bd26f	-0.076084964
191	0xbc3128e9	-0.010812976
192	0xbd3c60ba	-0.045990683
193	0x3d209d4f	0.03921252
194	0x3da2730a	0.07932098
195	0x3d8be0ee	0.06830011
196	0x3b0a3e1b	0.0021094147
197	0x3c8b85b0	0.01703152
198	0x3ba11d7c	0.004916845
199	0x3c5d9a1d	0.013525513
200	0x3c9e799b	0.019345095
201	0xba8693dc	-0.0010267454
202	0x3c25c398	0.010117434
203	0xbd041654	-0.032247856
204	0xbc48e527	-0.012261665
205	0x3c22d75c	0.009939041
206	0x3cffc61c	0.031222396
207	0x3da0fcdd	0.0786073
208	0x3d46ba97	0.04851779
209	0x3b80924b	0.0039236895
210	0x3d4ee766	0.050513647
211	0xbd911f2e	-0.07086025
212	0x3d51d1e1	0.051225547
213	0xbd02772e	-0.03185194
214	0xbcd4502d	-0.025917137
215	0xbcae9a12	-0.0213137
216	0x3b91703e	0.004438429
217	0x3cfb5b28	0.030683115
218	0x3d8dfdaf	0.06933152
219	0x3caf560c	0.021403335
220	0xbce85199	-0.028359221
221	0xbd35747c	-0.04430054
222	0x3d19b2e8	0.037524134
223	0xbd095460	-0.033527732
224	0x3db1bde4	0.08678797
225	0x3b7f4b7a	0.00389549
226	0x3c1e2ae7	0.009653783
227	0x3cc553bf	0.024087785
228	0x3c8906f1	0.016726943
229	0x3d192310	0.037386954
230	0x3db898d9	0.090135284
231	0x3d8e42d1	0.06946338
232	0x3d8ac771	0.06776322
233	0xbcecc42b	-0.028902134
234	0x3da5c68a	0.08094509
235	0xbbff696e	-0.0077945506
236	0x3d871929	0.06596596
237	0x3cdd2d71	0.026999207
238	0xbc2087b4	-0.009797979
239	0x3d1779fc	0.036981568
240	0xbba55052	-0.0050449753
241	0xbd340c65	-0.043957133
242	0x3d4572b7	0.048205104
243	0x3c87ed67	0.016592694
244	0x3c8bd4d8	0.017069265
245	0xbd8c77f9	-0.068588205
246	0xbcda72b8	-0.02666603
247	0xbcb4acd5	-0.022055069
248	0xbd0ab58f	-0.033864554
249	0x3c0d59d6	0.008627376
250	0x3d0c61e1	0.034273032
251	0x3d517023	0.051132333
252	0xbdca55c0	-0.09879637
253	0x3d1860d6	0.037201725
254	0x3d8823a9	0.06647427
255	0xbd1f50e8	-0.038895518

fc4.bias f4 [11]
0	0xbd2bd285	-0.041948814
1	0x3e125312	0.14289501
2	0x3d9206b8	0.07130188
3	0x3ca0623c	0.019578092
4	0xbe5df0ad	-0.21673842
5	0xbe2a80c0	-0.16650677
6	0xbe286312	-0.16444042
7	0xbd9b6eca	-0.07589491
8	0xbdec2461	-0.11530376
9	0xbc932cfa	-0.017965782
10	0xbd63591b	-0.0555049
