src/rnn/models/user_9_model.pth (torch, 377610 bytes, 16 tensors)

rnn.weight_ih_l0 f4 [128, 11]
00000000: ac41 a03c ba91 3cbc 553d 133c be5a 933d
00000010: 221b b03d 8ad9 60bd 0e5b 3e3d d485 133e
00000020: d2e1 da3d 61b1 86bd ec6b 173d 3006 cf3d
00000030: 77e7 113e 39e1 a33d 66e6 e1bc 6e33 593d
00000040: 61ec 40be 4d01 1cbe 451d 123d 59da 0c3e
00000050: 0761 1f3c 21df 503d 31bd 933c 7e9f a5bc
00000060: 3177 e4bd 59a3 75bd 2573 e33d 2f9e 5f3e
00000070: ee2a c53d ec8e dd3d 7410 27be 4909 81bc
00000080: 68f6 8cbd 2528 82bd e26a 763d c79c ffbb
00000090: 9e2c e6bd 335c 593d c74c 6b3e 820a 383e
000000a0: e5af 9bbc 30e2 9c3d cb4c fd3d d8e3 9a3b
000000b0: 4cf6 b8bc 6f4d 183d 5574 9f3c d562 5cbd
000000c0: a1e9 a5bd f715 a9bc baf6 79be bf4b c63c
000000d0: b872 1f3b fbf7 bfbd abb0 c3bc 8269 493d
000000e0: b8a1 dc3d ebdb b83b 6c77 0ebb 3028 a23d
000000f0: 5e36 903d 0d64 46be 5ec0 ae3d a7b2 763d
00000100: 2709 8c3c 9992 2cbd 4708 733d d7b1 6bbc
00000110: a353 7d3d 923b fc3c 64da ef3c a93d 413c
00000120: b2a6 1abe a212 0e3d 0354 283d de2d efbc
00000130: 7457 0fbd c47a 5abd 654d 03be 7a17 3bbe
00000140: 904a 9e3b 3349 42be 7103 203e d0ea 0e3e
00000150: 6e8b f939 5183 c0bb 788e 1bbd d300 66bc
00000160: 1655 7a3c df85 e13d 128c 10bc 06dc 63bb
00000170: 7841 88bb 87c4 d3bd 1831 1dbd 604b 543c
00000180: 82ae aabd 06ab 9bbd 7afc d63d dce4 8d3d
00000190: 6fc7 e2bd e9fc c2bc bb7a 65bc 2dbe 683d
000001a0: 69f7 a1bc 24cf 9abe 5dc5 b4bc b17a 773d
000001b0: cb51 2b3c 8b5c 8fbd 2842 15bd 9189 003d
000001c0: 8fb1 163d 70cf a93c 7b60 483d 4624 03bd
000001d0: 55a1 da3d 3410 483d 2dee b63d 79cb d1bc
000001e0: b874 043e e52f a6bc 39a0 78bc 299e b9bd
000001f0: 5b36 6ebd 43b7 61be f897 1bbe 1a2d 5abe
00000200: 91b8 97bd d924 53bd 72bb fcbd c1fd 04be
00000210: 8ff4 dc3c 345d 133d 709a 8a3b 7858 423c
00000220: df48 ea3c df9b 78bc c55b 523e bbb2 16bc
00000230: bc7e 8dbc 1a00 9bbc be69 d0bd fe97 88bd
00000240: 71a7 003e 7088 db3d 0444 f73d 0f9b 993c
00000250: 332d 01be e2ed 5dbe 5e8a 1e3d 1cc8 923d
00000260: 302e 883b 00cd e4bb 0fb4 37bd 2dc9 853d
00000270: f392 e73d faa5 5cbd ace8 b63d d1c0 1abe
00000280: b78d 24be a2fa 193e 6c98 533d 3a9d b83c
00000290: e72a 4ebb 2265 223e 1eb1 913d 2d62 4f3e
000002a0: b9c2 5b3d 1a07 643e 99e5 6f3c dfa5 253e
000002b0: a88d e13d 8976 f63d a7be c13d d18e e73c
000002c0: 7685 a9bd dcdb 743d ea7f 7b3d 0b2d 8d3d
000002d0: 63b2 a23d 2e0d 0ebe 3d1b 343c b554 eb3c
000002e0: c86f 193d 4fc6 d73d 4f06 c43c 0dad ff3d
000002f0: 9908 ba3d 1526 f73d b4a7 64bc 1320 043e
00000300: 53a4 24be 8eab d4bd b6f1 1a3e a430 b83d
00000310: 04a5 0bbd 245c 5a3b 978c 1ebd 51e3 a1bd
00000320: 7223 ccbd 02e5 8a3c e2c0 fe3c 8e0e 9b3d
00000330: 4665 573e 1360 c2bc 70d0 c8bc 582b d93d
00000340: 93ce 593d e4a6 373d e1b9 0f3d 5828 023e
00000350: 74d8 40bc df0a f7ba 7549 86bd a8f9 a4bd
00000360: a332 f43c d947 093c 4139 963c ea84 f53b
00000370: 0997 3b3d fff2 b03b 6c79 8439 18f1 3cbd
00000380: dedd a0bd d6cc ca3d 4b1f 213e ec81 72bc
00000390: ea2f e43b 47df 873c 3d2f 8c3d 3ca8 3cbd
000003a0: 6748 3bbe 1f41 00be e454 d1bc bd97 1fbd
000003b0: e1ac 7f3a 7c7d f33d 8b20 ae3b 1ccc 44be
000003c0: dc4b 2fbd 0b36 3dbe 338d 36bd 55f7 c2bd
000003d0: bc8a b1bc ff3a aa3c 9bd3 523c a719 c83d
000003e0: e00f 623d 9435 b2bd f3d4 c3bc c83e 893c
000003f0: 9394 f2bc a293 023e 52c9 363d 59db d0bd
0.019562565 -0.011509353 0.008986791 0.07195042 0.08598925 -0.05489496 0.046473555 0.1440652
0.10687603 -0.06576801 0.036968157 0.10108602 0.14248453 0.08001942 -0.027575683 0.053027563
-0.18840171 -0.15234871 0.035672445 0.13755168 0.009727723 0.050994042 0.01803455 -0.020217653
-0.111555465 -0.059970234 0.111059465 0.21837686 0.09627329 0.10818276 -0.1631487 -0.015751498
-0.06882936 -0.06355313 0.060160525 -0.0078006717 -0.11238979 0.053066444 0.22978507 0.17972758
-0.019004771 0.07660329 0.12368163 0.004726868 -0.022578381 0.03718322 0.019464651 -0.05380519
-0.08101202 -0.020640356 -0.24410525 0.02420604 0.0024329852 -0.093734704 -0.023887953 0.049172886
0.10773033 0.0056414506 -0.0021738661 0.079178214 0.0704162 -0.19374104 0.08532785 0.06022897
0.017094208 -0.042131994 0.059334066 -0.014385662 0.06184734 0.030790124 0.029278941 0.011794486
-0.15102652 0.03468574 0.041095745 -0.029196676 -0.03499551 -0.053339735 -0.12822492 -0.18270674
0.004830666 -0.18973236 0.15626313 0.13956761 0.00047596864 -0.005875029 -0.037977666 -0.014038282
0.015279075 0.11011862 -0.008822458 -0.0034768595 -0.004158195 -0.10340219 -0.038376898 0.012957424
-0.08334066 -0.076009795 0.10497375 0.06928417 -0.11073195 -0.023802238 -0.014006312 0.05682199
-0.019771295 -0.3023616 -0.022066766 0.060419742 0.010456513 -0.07000073 -0.036440045 0.031381194
0.036790427 0.020728797 0.048920136 -0.032017015 0.10675303 0.048843578 0.08932147 -0.025609719
0.1293515 -0.02028651 -0.015174919 -0.0906337 -0.058157306 -0.22042565 -0.1519469 -0.21306267
-0.0740825 -0.051548813 -0.1234044 -0.12987424 0.026972083 0.035977557 0.004229836 0.011861913
0.0285992 -0.015173881 0.2054282 -0.009197886 -0.017272346 -0.018920947 -0.10176419 -0.06669615
0.12563874 0.10719383 0.1207352 0.018750696 -0.12614898 -0.21672776 0.038706176 0.07167074
0.0041558966 -0.0069824457 -0.04484945 0.06532512 0.11307325 -0.053869225 0.089310974 -0.15112616
-0.16069685 0.15037015 0.051659033 0.022535909 -0.0031458677 0.15858892 0.071138605 0.20252295
0.0536525 0.22268334 0.014642143 0.16176556 0.11013347 0.120343275 0.09460192 0.028266342
-0.08277409 0.059779987 0.061401285 0.06893357 0.07944181 -0.13872215 0.010992822 0.028726915
0.03746012 0.10535871 0.02392879 0.12484179 0.09083671 0.120678104 -0.013955999 0.1290286
-0.1607831 -0.10384284 0.15131268 0.089936525 -0.034092918 0.003331908 -0.038708296 -0.07904685
-0.09967698 0.016954903 0.031097833 0.075711355 0.21034727 -0.023727452 -0.024513453 0.1060397
0.05317552 0.044836894 0.035089377 0.12710702 -0.011770356 -0.0018847844 -0.065569796 -0.08055431
0.029809302 0.008378946 0.018337848 0.007492651 0.045798335 0.005400061 0.00025267468 -0.046128362
-0.07854818 0.099023506 0.15734594 -0.014801484 0.0069637196 0.01658596 0.068449475 -0.04605888
-0.18289338 -0.12524842 -0.025553174 -0.03896307 0.0009753239 0.118891686 0.005313938 -0.19218487
-0.042796955 -0.18477647 -0.04456825 -0.09519831 -0.021672599 0.020780085 0.0128678335 0.09770518
0.05519092 -0.087016255 -0.023905253 0.01675357 -0.029611861 0.1275163 0.044625588 -0.10198087

rnn.weight_hh_l0 f4 [128, 128]
00000000: df1e 90bd 7cb8 01bd 58b5 1ebc 0b61 9d3d
00000010: dd0b a83d 0417 95bd a38a ae3d ba99 3f3d
00000020: f480 0abd 57e4 813d f01f bebb 6003 e0bc
00000030: 59b2 84bd c873 cf3c 97ab ac3d 5bd6 a03d
00000040: 3419 6dbd 3436 fcbc a0f3 263c 309d 0f3c
00000050: f0f6 cabb d62c 203d 4539 ac3d 704e 953c
00000060: f095 7d3c 5952 893d c02b 463b 70be c93b
00000070: abfd af3d f995 8e3d 2a2f 733d 309f 9bbc
00000080: ee23 113d 94d7 90bc f50c 87bd 69db b23d
00000090: a0bc ff3c d0db 0bbc d679 88bd 60a5 353c
000000a0: bf18 55bd d84f 3fbc 39ad 5cbd fc1c 86bd
000000b0: 7e44 4d3d d0d8 9cbb defc 173d d0cb d43c
000000c0: 661f 733d 3eb7 9ebd 243f a23c 84dc cc3c
000000d0: 2bbb 8bbd 8116 ac3d 34cc 87bc 2253 30bd
000000e0: b44b b2bd 0c7c b7bc 609d 333c 12b3 633d
000000f0: 2f22 87bd 4d26 adbd c6db 0ebd 402e 953a
00000100: 96d6 99bd 6064 c03b e8b1 0b3d 78c2 fd3c
00000110: 11f5 943d 14f2 8a3c caad 4a3d bd76 993d
00000120: 30d1 e83c 901b 73bc 7271 393d f0dc 45bc
00000130: 5e5e 4d3d a6fa 5d3d 7044 8cbd 2327 8b3d
00000140: 19dc b03d 9071 b3bc 20de 80bd a8e1 b8bc
00000150: 6fc9 a03d 58dd 9f3c 7d95 7abd 202d 4fbb
00000160: 3e55 2c3d e11f 8b3d 01d3 70bd 276a 883d
00000170: 981d 8b3c 7a85 393d b86f 7bbc 5a28 debc
00000180: 518c 9c3d 9fc0 acbd 729d 083d 966a 0fbd
00000190: 8081 6dba fe43 203d ecdd 9b3c 1980 9a3d
000001a0: 71be a53d 30bb b53c bd4c ad3d e015 57bd
000001b0: 4e28 193d 76b6 173d e10d 8e3d 7796 a83d
000001c0: 4247 193d 90db 803c f15c 8c3d 68cc 2dbc
000001d0: 5c30 8ebc 29d9 863d 178f a03d 9cb5 c63c
000001e0: 09b2 89bd 34f1 1bbd e0ea 003c ba5b 3d3d
000001f0: fcc5 b4bd 00dd 6cbd 9cf0 4dbd 4041 053c
00000200: f973 82bd c5d5 9c3d e8f9 d93c 3294 753d
00000210: b2c1 773d de71 233d c2d4 aebd 8a20 4d3d
00000220: cfa9 903d fc13 c4bc 80ff a9bd a085 cdbb
00000230: 9783 b43d 137d 9dbd 3e74 6d3d 15eb 06bd
00000240: 10e4 70bc 66e6 83bd 402b dabb 2adf 213d
00000250: d098 e6bb 1405 083d 1633 613d c072 a7bd
00000260: 622f 71bd 8aa2 1f3d ae51 633d 009b 8aba
00000270: f191 52bd 313a 6ebd 20f7 56bd 8045 5b3a
00000280: 7410 a53c d552 983d a001 26bb dc86 17bd
00000290: 0c3f b4bd e393 953d a456 9c3c 2b8b 5bbd
000002a0: b8e9 943c 57f9 51bd 9436 c3bc 40e8 4b3c
000002b0: 7ca4 98bd e82e 4e3c 24f5 143d 7e44 6fbd
000002c0: a401 71bd cc52 88bd 4f18 8f3d e44b 9abd
000002d0: 45cb 6cbd c43a a0bd 807a 003c 0b8a ad3d
000002e0: b183 ad3d 0023 623c 403a 1dbd d378 81bd
000002f0: 66e9 543d 1bee b3bd ee89 33bd 2490 d63c
00000300: a0a5 8f3c 602b 8cbb f807 bc3c 9816 393c
00000310: 1056 89bb f05c 093d 7cdc bd3c 7b2c 983d
00000320: 02e9 99bd f2d2 1a3d 28ac 70bc e948 00bd
00000330: 42d7 0f3d b5a9 98bd 7b42 9f3d 17b6 8e3d
00000340: f852 a6bd f772 71bd 412b a83d abfd a23d
00000350: 167b a2bd 38c2 59bc 9855 7c3c c55b 35bd
00000360: f834 babc 7433 d1bc 38f9 bcbc 9b3a a33d
00000370: 1831 9abc 904d 77bc 47c1 9b3d 3035 ed3c
00000380: 1153 a63d 0680 d4bc 42bf 743d 146b 0c3d
00000390: 1cd8 c2bc 402a c7bc 5b29 76bd 9021 f93c
000003a0: 3440 ba3c 602e 283c e464 5ebd a505 9abd
000003b0: 0af6 a1bd a77f 923d 0aac 2ebd e022 a63c
000003c0: 0010 fcb7 eee3 303d 104b 3f3c e12c 993d
000003d0: d0a7 e43b 5848 e0bc 4593 17bd 50fc 89bd
000003e0: e07f 153c 5619 3c3d c04c 063d 9d21 4bbd
000003f0: f471 b4bc 3b1c a33d e49e fabc ca44 5f3d
-0.07037138 -0.03167008 -0.00968679 0.07684525 0.08205388 -0.072797805 0.085225366 0.046777464
-0.033814386 0.063423805 -0.005802147 -0.02734536 -0.064793296 0.025323763 0.08431166 0.07853385
-0.057885364 -0.030787565 0.010189921 0.008765504 -0.006193988 0.03910526 0.08409361 0.018225878
0.015477642 0.0670516 0.003023848 0.006156735 0.08593305 0.06962199 0.05937115 -0.018996805
0.035434656 -0.01768092 -0.06594268 0.087332554 0.031217873 -0.008536294 -0.06663863 0.011086792
-0.052025553 -0.011676751 -0.053876135 -0.06548497 0.050114147 -0.0047865883 0.037106387 0.025976092
0.059356116 -0.077497944 0.019805498 0.025007494 -0.06822809 0.0840273 -0.016576864 -0.04304803
-0.087058455 -0.022398017 0.010962814 0.055590697 -0.06598317 -0.08454571 -0.03487756 0.0011381581
-0.07511632 0.0058713406 0.03410521 0.030976519 0.07273305 0.016961135 0.049482144 0.07493351
0.02842006 -0.014838114 0.045274206 -0.012076601 0.050138824 0.054194115 -0.06848991 0.06794574
0.0863573 -0.021904737 -0.06292367 -0.022568539 0.078509204 0.019514725 -0.06117772 -0.003161259
0.04207348 0.0679319 -0.05879498 0.06660872 0.016981885 0.04529331 -0.01534646 -0.02711885
0.07643951 -0.08435177 0.033353277 -0.035013758 -0.00090601295 0.039127342 0.019026719 0.07543964
0.080929644 0.022183985 0.08461902 -0.052511096 0.037391953 0.037039243 0.06936241 0.08231824
0.037421472 0.015729696 0.06853665 -0.010607816 -0.017357044 0.06584389 0.07839792 0.02425652
-0.06723411 -0.038071826 0.007868499 0.046230055 -0.08826825 -0.05782795 -0.05027829 0.008133233
-0.06369776 0.07657961 0.026608422 0.059955783 0.060487457 0.039903514 -0.08536674 0.05007986
0.070636384 -0.02393531 -0.08300686 -0.006272033 0.08814161 -0.07689872 0.057972185 -0.032939035
-0.014702812 -0.064404294 -0.006657988 0.039519466 -0.0070372596 0.033207968 0.05498036 -0.08176184
-0.05888308 0.03897337 0.055497818 -0.0010574758 -0.05140871 -0.058160964 -0.05248177 0.00083645433
0.020149447 0.07437674 -0.0025330558 -0.036993846 -0.08801088 0.07303598 0.019084282 -0.053599518
0.018177852 -0.05126318 -0.023829736 0.012445509 -0.07453248 0.0125844255 0.036366597 -0.05841493
-0.058839455 -0.06656417 0.06987058 -0.07534006 -0.05781104 -0.07823709 0.007841706 0.08473595
0.08472384 0.01380229 -0.03838563 -0.063218735 0.0519804 -0.087856494 -0.043832712 0.026191778
0.01753503 -0.0042776316 0.022953019 0.011296891 -0.0041911677 0.033535898 0.023176424 0.07430359
-0.07515146 0.03779883 -0.014689483 -0.031319533 0.035117395 -0.07454244 0.07776352 0.06968325
-0.08121294 -0.05894753 0.08211375 0.079585396 -0.07933633 -0.013290934 0.0154012665 -0.04427697
-0.022730336 -0.02553723 -0.023068056 0.079701625 -0.018822238 -0.015094176 0.07605224 0.028956026
0.081213124 -0.025939953 0.05975271 0.034281805 -0.02378469 -0.024312139 -0.060098033 0.030411512
0.022735693 0.010264963 -0.054295436 -0.07520608 -0.07908256 0.07153254 -0.042644538 0.020280302
-3.0048192e-05 0.04318612 0.011675611 0.07479263 0.0069780126 -0.027378246 -0.03700568 -0.06737578
0.009124726 0.0459226 0.03278804 -0.049592603 -0.022026993 0.07964369 -0.030593343 0.05450896

rnn.bias_ih_l0 f4 [128]
00000000: 0a2a 313c ded0 30bd c92e 43bc c0b9 d2bc
00000010: d8f9 2e3d 2109 e6bb f2c2 723c e1e7 8f3d
00000020: e872 9ebd cfed 86bd 2688 6a3d f674 863c
00000030: 53a0 063d e158 a43c e212 9ebd 2684 ae3c
00000040: edb2 9db6 40d8 bbbc d06b 9c3d ed04 293c
00000050: 8463 683d 26b2 99bd cd42 ddbd cbf2 9b3d
00000060: cb2f fe3c 69ac 25bd 0b7e 85bc ca87 83bd
00000070: d283 fb3c cdf5 2dbd bc45 1a3d 4e27 c3bb
00000080: 2d55 e3bc ea62 c83b b1eb 03bc bcca a33b
00000090: 4a8f e7bc a520 3cbd cec7 ff3d 3514 42bd
000000a0: c75d 4d3c 5163 3dbc bc8d 8dbd 62c3 e53c
000000b0: 24b6 8c3d f485 db3c c6da 89bb 500d cdbc
000000c0: 38fa 48bd 3ca6 8bbd e98e 0e3d 5f15 343d
000000d0: 708f 943d 434f 04bc 4a27 c13d 1a09 d03d
000000e0: ce44 ce3c 8326 5dbd d701 97bd 9f0f 57bd
000000f0: 81cb d23d 82e2 0b3c 5ed0 393c 86af 21bc
00000100: b8ad 85bc 000a 98bd c554 3dbd 295b 6ebd
00000110: 90af fcb9 f7d6 cdbd a7bb 28bd 7b95 bb3c
00000120: a4ce 90bc 8a8d d13c 38b4 f33d 8a1d 3c3d
00000130: 8f52 013d 6edb 79bd 0c33 d23c c978 b03d
00000140: 3836 55bd f9a8 ae3d 4465 39bd 8cd0 e53c
00000150: a2fb 21bc d1f7 323d aa7d 763d 7c84 febb
00000160: 1337 983d e03a b63c 0170 bcbc c1de 55bd
00000170: 145b 7ebd 4699 003d 47c1 d4bc 97c7 733d
00000180: fc0c 92bd 9465 8dbd 5c44 dabd 1f70 e3bd
00000190: 84b3 93bd aebc b1bc 1f16 433d d1cd 733d
000001a0: 9a18 61bd 3e2c 49bd 3a94 91bc 4da0 74bc
000001b0: f17a 1cbd 956d 0dbb b1e9 45bd 7cee 89bc
000001c0: 0090 7abc 67cc 55bd 2d1d e43d 5186 c83d
000001d0: a358 f83c 5317 303d 4fbe 21be decd e9bb
000001e0: ded3 31bd f824 2a3c 238a 62bd 6d6e 913b
000001f0: fc41 aebd f11f fbbb 6248 973d 6e0b a1bc
0.010813246 -0.04316794 -0.01191301 -0.025723338 0.04271874 -0.007020131 0.014816986 0.07026649
-0.077367604 -0.06588327 0.057258748 0.016413193 0.03286774 0.020061912 -0.07718445 0.021303248
-4.6997943e-06 -0.022930264 0.07637751 0.010316116 0.05673553 -0.07504682 -0.10803757 0.076146685
0.031028649 -0.040447626 -0.016295454 -0.06422384 0.030702505 -0.042470742 0.03766416 -0.005955613
-0.027750576 0.006115307 -0.008051799 0.004998533 -0.028266568 -0.04592957 0.124892816 -0.047382552
0.012534565 -0.011559323 -0.06911799 0.028047267 0.06870678 0.026797272 -0.004206988 -0.025030762
-0.049066752 -0.06818816 0.03480426 0.043965694 0.07253921 -0.008075538 0.09431322 0.10157986
0.025179293 -0.053991806 -0.07373398 -0.05250513 0.102927215 0.00853789 0.0113411825 -0.009868508
-0.016318187 -0.07423782 -0.04622342 -0.058192406 -0.0004819599 -0.10050767 -0.041194584 0.022898426
-0.017676659 0.025580186 0.118996084 0.04592661 0.031572875 -0.06100028 0.025659107 0.08616788
-0.05205366 0.08528323 -0.04526259 0.028053544 -0.009886654 0.043693367 0.060178436 -0.007767258
0.074323796 0.02224487 -0.023002626 -0.052214388 -0.062098578 0.031396173 -0.025971068 0.059516516
-0.07131383 -0.0690414 -0.1065757 -0.1110537 -0.07211974 -0.021696415 0.04762852 0.059522454
-0.054955103 -0.04911446 -0.017770875 -0.014930797 -0.038203184 -0.0021580209 -0.04831857 -0.016837351
-0.015293121 -0.052196886 0.11138377 0.09791244 0.030315703 0.042990994 -0.15795253 -0.007135137
-0.043414943 0.010384791 -0.05530752 0.0044382126 -0.08508679 -0.00766372 0.07386853 -0.01965877

rnn.bias_hh_l0 f4 [128]
00000000: 7215 91bd 6c42 67bc 2733 f73c db31 05bd
00000010: 5842 783c 6e69 6c3d c161 14bc 4e64 2b3d
00000020: 9860 eabc f6b7 a4bd 546c 873d 6dc4 0cbd
00000030: 8a03 c83c 7e6c 86bb 1efb 4abc 0c43 683d
00000040: 5168 e13c 3488 443d 91e2 98bc c962 ae3d
00000050: 70e0 a83b 04f4 49bd 8fe6 4c3d 9b85 723d
00000060: 5723 483c 0dd6 d5bc e13c 0cbc b032 7ebd
00000070: 699d 66bd 3581 92bd bc46 0ebd 2716 143d
00000080: 13c5 8fbc 676f 993d 725c 5abd e352 ea3c
00000090: 5ec0 653d a61a cebc 7a2c b23d f119 bd3c
000000a0: 5713 153d 1696 c7bc 2bcc 09be c520 833c
000000b0: 7654 ba3c 68cb bbbd 8643 763d 7c06 553d
000000c0: 6020 0d3d 6d0e 1bbc 1fa3 ce3c db56 77bd
000000d0: 1158 77bd f676 2b39 8cc1 f83d a9df 44bc
000000e0: aefa 94bd 2e5f 8f3d ae09 3abd 1f7e 70bd
000000f0: 95ec b33d 48e5 4bbd ba62 2abc 7b6d 39bd
00000100: dd3d aa3d 89f8 bbbd b66e b5bd 42ec 5c3c
00000110: 1b5c 7ebc f15f e8bc 0bb8 ad3d f3a9 083d
00000120: 3bbd 5a3c 6ede 523d dd50 acbc 6673 9bbc
00000130: 55fd c3bd 66ef 70bd c927 86bb 29d4 68bc
00000140: baf9 143c dfca 0abd 7a89 5cbd 638c 7c3c
00000150: 2474 09bd 7c23 0abd 2e05 fcbc 022e 77bd
00000160: 2e63 32bd d2cd 013d 02d6 8a3d 20c2 1ebd
00000170: 5acf 12bd f911 9bbd cf4a 453c f2bc 073d
00000180: 6139 863b e040 92bd 32be 423d a7df 4c3d
00000190: 3f3a 65bd ba74 7e3a 0d32 703d 1840 c0bb
000001a0: 9cdd edbd e556 743d f7db f4bb f740 60bc
000001b0: 99c0 933c 0b48 963c 8afe ba3d e22b df3d
000001c0: 9e91 9abb a66e 883d 61be 273c 471d c1bc
000001d0: 2028 24bd 18bd aebd f87a 0cbe 4299 14bd
000001e0: 890d 563c a5e7 e7bd a0e9 c83c 00c6 3a3d
000001f0: aa7a c23b 0c60 92bd 7d32 f4bc 23ce 5cbd
-0.070841685 -0.014114957 0.030175759 -0.03251825 0.015152536 0.057717733 -0.0090565095 0.041843705
-0.028610513 -0.080429 0.06612459 -0.034367014 0.02441575 -0.0041022887 -0.012388973 0.056704566
0.027515562 0.047981456 -0.018662723 0.085149355 0.005153708 -0.049304977 0.050024565 0.059209447
0.012215457 -0.026103044 -0.008559437 -0.062060058 -0.05630246 -0.071535505 -0.034735426 0.03615394
-0.017550027 0.074919514 -0.05331082 0.028603977 0.05609166 -0.025159191 0.086998895 0.023083659
0.036395397 -0.024363559 -0.1345679 0.016006837 0.022745352 -0.09169656 0.06012299 0.052008137
0.034454703 -0.009463889 0.025224267 -0.060385566 -0.06038672 0.00016352147 0.12146291 -0.012016215
-0.07274376 0.07000576 -0.045419388 -0.05871403 0.08785359 -0.049779207 -0.010399515 -0.045270424
0.08312581 -0.09178264 -0.08859007 0.013484063 -0.015524889 -0.02836606 0.08482369 0.0333652
0.01335078 0.051481657 -0.021034652 -0.018975925 -0.095698036 -0.05882206 -0.004094098 -0.014210739
0.009092743 -0.03388488 -0.053842045 0.01541433 -0.033558026 -0.033725247 -0.030764189 -0.06034661
-0.043551616 0.031690426 0.067791 -0.03875935 -0.035842277 -0.075717874 0.012041762 0.033139177
0.0040961956 -0.0714128 0.047544666 0.05001798 -0.05596375 0.00097067247 0.058641482 -0.0058670156
-0.11614534 0.05965318 -0.007472511 -0.013687364 0.018036174 0.0183449 0.09130581 0.10897042
-0.004717066 0.066617295 0.010238261 -0.02357353 -0.04007733 -0.085321605 -0.13718784 -0.03627897
0.0130647505 -0.113234796 0.024525464 0.045598984 0.005935033 -0.07147226 -0.029809231 -0.053907525

rnn.weight_ih_l1 f4 [128, 128]
00000000: 3b52 8ebd 03e9 13bd 2028 b8bd c3a5 993d
00000010: 3df7 bdbd 8d29 d5bc 762e 92bd 25db 54bc
00000020: a500 1c3d 9c43 48bd 859e b03d b82b 9ebb
00000030: db65 083e c717 dcbd a2d1 bcbd 9ef4 cd3c
00000040: c700 07be f9a0 95bd 4563 c0bb fb87 84bd
00000050: 2ffd 0bbd b27b 283d e52a 403e ad3d fa3d
00000060: bddc a33d 7ba8 13bc 2402 bebd 51f6 68bd
00000070: 29d7 47bc d7b0 833d 6722 a23d 8397 40bc
00000080: ad71 813b 3f28 363d 25bd 8ebd 8f53 a5bd
00000090: b91f e93d f775 60bd 9074 b93d d256 21bc
000000a0: b183 433d f367 293d ae88 ff3c 0931 c2bd
000000b0: 9b25 a23d 9b44 2b3c 1054 f63d 1c7b d33c
000000c0: 9cc2 a4bd 93bb c33d 67cb 90ba 8fd4 843d
000000d0: 1a85 103e c551 753d fe37 c43d edca 4c3c
000000e0: 4c60 8c3d e9b9 8cbc 2e84 38be 4e31 c9bd
000000f0: 63ab 603d a1a7 c8bc 7cd3 96bd 2085 e2bd
00000100: 4aa1 d2bc af6c 2f3d f84a 20be b7cd 14bd
00000110: d927 83bd e07b 693d 897f c63d 8cba 843d
00000120: f4d3 693d 7380 83bd d5cf febc 40b3 963d
00000130: b376 733b 3bcc ae3c 9064 e4bc edf8 3abe
00000140: 26bf 1f3b 8e72 2ebd e183 16be bdcd 17bc
00000150: d997 75bd 54bd 0d3e 5d4e cdbd c62c e83d
00000160: abb9 183e c23e dbbc ed5f e8bd 1a81 293d
00000170: fae0 09bd b8df 293d 2516 ec3c 814a 363d
00000180: c9b6 b93d aef9 7bbd cab6 74bc f3f1 1fbd
00000190: a006 cebd 6926 d0bd 6877 39bd 0702 ca3d
000001a0: 882c e3bd 1acb 12be e38e 02be 6343 afbd
000001b0: e1ad 93bd a55e d8bd cf53 963d 1fcc e6bb
000001c0: 891c c0bd fd67 413c edf5 ec3d 7115 fd3d
000001d0: 6cdb 973c 1289 463d 0be6 07be a868 afbc
000001e0: db5d 173e d006 5cbc f622 4b3c 386b 9f3d
000001f0: 4d1a a6bc 9437 0e3d 1f2a 42bc 2c36 13bd
00000200: 8601 563c c2e0 6cbc 66fd e03d 30e6 db3d
00000210: ad2d 683d 53c2 2cbc 0a87 aebd 6b17 ecbd
00000220: e9d2 883d 03e3 2bbb e009 2d3e 4c9e c6bc
00000230: 0047 ab3c e107 b5bd 53d4 a53d cc91 143e
00000240: e8c9 703d 62c1 1bbd 583e 173c 8944 b5bd
00000250: adfc 5b3d 7932 57bd 3d4d 9d3d cd90 83bd
00000260: 6571 e5bd be96 b43d d6da 803d c28d 2e3e
00000270: fb54 c9bc 8e60 79bc aa23 29bd a5ce 263d
00000280: 9b33 0d3d 77f6 6e3c 397f 273e a2ec 50bb
00000290: c1ed 0e3e 01d6 583d 02e9 17bc 3c38 223d
000002a0: ae7e b9bc 6bbf 413e 36a6 0e3d eba1 dabc
000002b0: 215c 2f3e 318b e73d b2da b1bd 46dd 66bc
000002c0: 437e 203c 27a2 963d 5b80 913a e622 a1bd
000002d0: bf01 9f3d 7ee0 423c 98b5 abbd cc26 25bd
000002e0: eb38 e03b 4ee6 903e 506d 14bd 9668 f4bb
000002f0: eda6 93bb 6d9c 9cbd 4311 f33c f2c2 2c3d
00000300: fd2e 4abd 3d0e 2c3c f55d e0bc 3d99 3ebd
00000310: b75b a3bd 66c7 0fbd 8795 64bd fa77 9bbd
00000320: 7253 363c 5e40 50bd e45d 363d ec76 27bc
00000330: 6ec5 adbd 60fc 523d 6913 86bd 0daa 60bd
00000340: ebf2 753d 8560 62bd cccf 603d e1a3 213d
00000350: deb1 0a3d b381 ac3d 66d1 ab3d e28f 173d
00000360: 2d6c af3d 1b7b 93bd ca2d 05be b0c1 03be
00000370: 840b 353d 1780 7c3d 2b2d edbd 20cc 63bd
00000380: d700 973d 283c 603d ca83 993c 1f90 ba3d
00000390: 892e 163e 2e87 5c3d 031a b2bd e150 a7bd
000003a0: 128e 393c 26e2 83bd fbdf b4bd bd72 093e
000003b0: bfdc 063d 43ee f1bd c3d6 9abd 7cc7 573d
000003c0: 2a72 5abd 708f c33c 2e05 8cbc b006 873d
000003d0: b31e 39bb 3378 243e ad1e e03d a9a9 05be
000003e0: 0b6b 0fbd b05f 2ebd d577 413d 303e 9cbd
000003f0: fe96 8cbd 26da 4e3d ec75 29be c215 12bd
-0.06949278 -0.03611089 -0.08992028 0.0750232 -0.092756726 -0.02602079 -0.07137768 -0.012991701
0.038086552 -0.048892602 0.08623985 -0.004826989 0.13320105 -0.10746723 -0.09219672 0.025141057
-0.1318389 -0.07306094 -0.005871209 -0.06471249 -0.034177 0.04113359 0.18766363 0.12218795
0.08001087 -0.009012337 -0.09277752 -0.05687553 -0.012197294 0.06430214 0.07916718 -0.011754873
0.003950319 0.044471975 -0.0696967 -0.08072578 0.11383004 -0.0548 0.09055436 -0.00984736
0.047733013 0.0413589 0.031193104 -0.09482009 0.07917329 0.010453369 0.120277524 0.025815539
-0.08044931 0.09557261 -0.0011046947 0.06485855 0.14113274 0.059892435 0.09580992 0.012499553
0.06854305 -0.017178493 -0.18019173 -0.09823857 0.054850947 -0.024493994 -0.07364556 -0.11060548
-0.025711674 0.042828258 -0.15653598 -0.036328997 -0.06404085 0.057002902 0.09692294 0.064808935
0.0570869 -0.06420984 -0.031104961 0.07358408 0.0037149608 0.021337619 -0.027879983 -0.1825902
0.0024375408 -0.042589717 -0.14698745 -0.00926536 -0.059959266 0.13841754 -0.10024712 0.11336665
0.14914577 -0.026763324 -0.113464214 0.041382886 -0.03366182 0.04147312 0.028819153 0.044504646
0.090680666 -0.06151741 -0.014936158 -0.0390491 -0.10059857 -0.10163576 -0.04527989 0.09863668
-0.11092478 -0.1433529 -0.1274982 -0.08557775 -0.07210899 -0.10564927 0.07340204 -0.007043376
-0.09380443 0.011804578 0.11570344 0.12357605 0.018537246 0.048470564 -0.13271348 -0.021412209
0.14781897 -0.013429359 0.012398472 0.07784122 -0.020276213 0.034720972 -0.011850863 -0.035940334
0.013061887 -0.014457883 0.10985832 0.10737264 0.056684185 -0.010544377 -0.085218504 -0.11527904
0.06680853 -0.0026227839 0.16898298 -0.024245404 0.020907879 -0.088393934 0.08097138 0.14508742
0.058786303 -0.03802622 0.0092311725 -0.08850963 0.053707767 -0.05253837 0.07680748 -0.06424103
-0.11203269 0.08817814 0.0629174 0.17046264 -0.024576655 -0.015220774 -0.041293778 0.040724415
0.034473043 0.014585129 0.16357125 -0.0031879325 0.13957883 0.052938465 -0.009271862 0.03960441
-0.022643413 0.18920676 0.03482648 -0.026688537 0.17124988 0.113058455 -0.08684291 -0.014090842
0.009795728 0.07355147 0.0011100875 -0.078679845 0.07764005 0.011894343 -0.08384246 -0.040320203
0.0068427227 0.2830071 -0.03623706 -0.0074587567 -0.004505983 -0.07647023 0.029671317 0.0421781
-0.049361218 0.010501442 -0.027388552 -0.04653286 -0.079764776 -0.03510227 -0.055806663 -0.07591243
0.011128293 -0.050842635 0.044523135 -0.010221224 -0.08484922 0.051510215 -0.06546671 -0.054849673
0.060046118 -0.05526783 0.05488567 0.039462928 0.033861034 0.08423176 0.08389549 0.03700245
0.08565555 -0.07201215 -0.13005748 -0.12866855 0.044200435 0.061645593 -0.11580881 -0.05561459
0.07373207 0.05474487 0.0187396 0.0910952 0.14666189 0.053839855 -0.086963676 -0.08169723
0.011325376 -0.06439619 -0.088317834 0.13422675 0.032925364 -0.11813023 -0.07560494 0.052680477
-0.05333153 0.023872107 -0.017092314 0.065930724 -0.0028247058 0.16061477 0.10943351 -0.13053001
-0.035014194 -0.042571723 0.04723342 -0.07629049 -0.06864737 0.05050101 -0.1654889 -0.03566528

rnn.weight_hh_l1 f4 [128, 128]
00000000: 6ffa b23d c62d 693d e41f 873c 3d69 ae3d
00000010: 7601 debc b07d 0dbc 9799 8bbd 5eeb 293d
00000020: 3248 683d d9ae 30bd 73a4 88bd b8ea 9e3c
00000030: 40ed bc3b 43b8 27bd 1ccb 8d3c 20ec 523b
00000040: 92df 443d 4e26 513d a415 3cbd fec9 4d3d
00000050: b23c 0e3d 7c06 b3bd c923 61bd 71df a7bd
00000060: b2d0 603d 065a 9ebd 8aae 243d e884 413c
00000070: 2be7 8bbd 9ed2 78bd 12c7 1cbd 0e7c 4e3d
00000080: df9e 813d 93f7 a23d 4644 6e3d 6b1b b13d
00000090: 2fff 983d 140f 6abd 1eea 433d e817 0ebc
000000a0: 1609 82bd efa3 a6bd 702a f6bb b513 9bbd
000000b0: a73a 36bd 98b8 babc bad6 0d3d ae45 663d
000000c0: 76a7 593d be2a 5cbd 7d48 973d 4801 b5bd
000000d0: 900b 34bd 40cd a3bc 95e4 823d 88c6 363c
000000e0: 24a0 f33c 008d b0bb bccb 6abd 34c2 2abd
000000f0: 46eb 753d 50e9 f63c a60c 423d 3eed 743d
00000100: bd45 8d3d 1284 40bd c5a8 a53d d8cc 433c
00000110: 52e9 d7bc e058 23bb eac8 713d 76dc 723d
00000120: 5092 b3bb 6eb4 653d 069e 353d c595 79bd
00000130: 0d45 9d3d ea75 123d 5603 183d 5f63 5bbd
00000140: 46ba 96bd fee5 66bd 607d 88bd 8026 f2bc
00000150: 808f 2b3b e516 93bd 7e82 8abd 269a 5e3d
00000160: 38e6 be3c 8d91 a63d 5759 8e3d 38db 033d
00000170: 0a11 323d 89e2 993d c89c 5c3c a43d a7bd
00000180: ab16 8d3d fa81 a8bd da0c 433d 7ed4 03bd
00000190: 0026 bdba a902 2fbd 5c3f 0d3d 248f bbbc
000001a0: b4e7 e8bc 4a7b 713d 8717 1fbd 895a 04bd
000001b0: 0054 debc d898 b53c 2038 c93b dcb8 7bbd
000001c0: 152b ac3d 86fb 95bd 525d 79bd cb65 8a3d
000001d0: 0003 993c ee45 83bd 8f9a a1bd eded 823d
000001e0: a85a a7bd e7b4 aa3d b36a b33d 424a 453d
000001f0: 55c8 91bd 6f0f 03bd c0d6 0fbd a863 86bc
00000200: d692 efbc a477 8bbd 30d1 1b3c b802 59bc
00000210: 1555 a23d 2f35 29bd e046 a53c 575c 92bd
00000220: c0ff a4bd c097 943b 8063 28ba 708e a1bb
00000230: 28d5 1cbc 7088 9f3c 82c2 a1bd 68cb ad3c
00000240: f458 a13c 5638 8cbd be45 133d 9034 9abc
00000250: b0a4 9a3b 7e4f 473d a075 6bbd 4cd7 ef3c
00000260: 6818 a5bc d086 e93b d1c3 30bd 452e 7fbd
00000270: cc7d a9bc 24a7 9bbc 307b aabc 34a0 2dbd
00000280: bfef 47bd 611a 9e3d 687c 053c c5ea 99bd
00000290: 0f17 5bbd 021f efbc 2c3e 89bc e378 b2bd
000002a0: ba11 4bbd fe43 233d df15 a03d bea3 02bd
000002b0: 7fc3 893d 7427 cfbc e51e 3dbd 6dad 98bd
000002c0: ac1b 7dbd eab0 793d 978f 983d 7986 b03d
000002d0: 48df 7d3c e8fc 11bc 33d8 76bd e0fa 7b3c
000002e0: c030 05bb 0ccc 2ebd e585 87bd 0cb1 79bd
000002f0: 2d81 873d 727e 633d 78af 6a3c c067 b53c
00000300: 82a2 38bd 0f76 b23d 5813 ae3c e72d b33d
00000310: 9c5f aabd 4c97 a13c 00cb aa39 0f9d 8cbd
00000320: 0c0b 95bc 20e8 aabc 047d aabc ff49 08bd
00000330: e410 b4bc 0ce6 ee3c 23ab aa3d 7881 ac3c
00000340: d55c 93bd aef2 7e3d fa40 7e3d 1fc3 45bd
00000350: b8fc c3bc 6ef9 443d d333 ad3d bc12 ce3c
00000360: 7c04 84bc 605b f73b 241d 92bd 86f5 9ebd
00000370: 1729 4ebd 387c d93c 5ad2 7dbd 3463 c3bc
00000380: 80f6 213b 6a8c 793d 7d32 57bd a475 c1bc
00000390: c0ff e5bb 2a16 7cbd 2a65 5abd d8c7 c23c
000003a0: e096 8c3c 816b 84bd eaff 3d3d 7ff4 853d
000003b0: 0736 b1bd dd08 873d a754 a3bd 08e0 a73c
000003c0: d7e9 8d3d c0cc c7bb 0590 22bd 401e aebb
000003d0: f759 ac3d c014 ad3c 00bc 073a 0a81 373d
000003e0: 338a 41bd b085 b43c 4444 ffbc c0b0 363b
000003f0: 7c12 94bc a8e6 a83c de46 9dbd c7db a5bd
0.08739173 0.05692842 0.016494699 0.08516166 -0.027100306 -0.008635923 -0.06816404 0.04148423
0.056709476 -0.043135498 -0.06671991 0.019399032 0.005765587 -0.04094721 0.017308764 0.0032184198
0.048064776 0.05106192 -0.045919076 0.050241463 0.034725852 -0.08741471 -0.054965768 -0.08196915
0.054886527 -0.07732014 0.040205516 0.0118114725 -0.06831201 -0.060747735 -0.038275786 0.050411277
0.063291304 0.07957377 0.05817058 0.08647808 0.074705474 -0.057143286 0.047830693 -0.008672692
-0.06349389 -0.081367366 -0.007512383 -0.07572118 -0.04448953 -0.0227931 0.034628607 0.056218795
0.05313822 -0.0537517 0.07386873 -0.08838135 -0.04395634 -0.019995332 0.06391255 0.011155732
0.029739447 -0.0053879023 -0.057323202 -0.041689113 0.060038827 0.030140549 0.047375344 0.059796564
0.06898067 -0.047000952 0.08088831 0.011950694 -0.026356373 -0.00249248 0.059029497 0.05929228
-0.0054800883 0.056080274 0.044340156 -0.060933847 0.07679186 0.035756983 0.037112556 -0.053561565
-0.073597476 -0.05637168 -0.066645384 -0.029559374 0.0026178062 -0.07182101 -0.06763171 0.054346226
0.023303136 0.0813323 0.06950634 0.032191485 0.04347328 0.07513911 0.013465114 -0.08166054
0.06889089 -0.08227916 0.047619678 -0.03218507 -0.001443088 -0.042727146 0.034484252 -0.022895403
-0.028430797 0.05895547 -0.038840797 -0.032312904 -0.027139664 0.022167608 0.006140724 -0.061455593
0.08406655 -0.07323365 -0.060880013 0.06757697 0.018678188 -0.064098224 -0.07890808 0.06393037
-0.08171588 0.08335286 0.08760586 0.04816652 -0.071182884 -0.03199714 -0.03511691 -0.016404942
-0.029244822 -0.06809929 0.009510323 -0.013245277 0.07926384 -0.041310485 0.020175397 -0.07146519
-0.08056593 0.0045346916 -0.0006423518 -0.00493031 -0.009572305 0.019474238 -0.078984275 0.021215156
0.019695736 -0.06846683 0.035955183 -0.018823892 0.0047193393 0.048659794 -0.057485223 0.029277466
-0.02015324 0.0071266666 -0.043155495 -0.062299985 -0.020689867 -0.019000597 -0.020810694 -0.04238911
-0.048812624 0.07719875 0.008147337 -0.07515482 -0.053488787 -0.02918959 -0.016753279 -0.087144636
-0.049577452 0.039859764 0.078166716 -0.031894438 0.06726741 -0.025287367 -0.04617204 -0.07454953
-0.061793968 0.060959734 0.074492626 0.086193986 0.015495129 -0.008910395 -0.060264777 0.0153796375
-0.0020323247 -0.042675063 -0.06617335 -0.06095986 0.06616435 0.05554051 0.014324062 0.022144198
-0.045076855 0.08713924 0.021249458 0.087489896 -0.08319017 0.019725464 0.00032576174 -0.06865894
-0.018193744 -0.020862639 -0.020811565 -0.033273693 -0.02198071 0.02916243 0.08333423 0.02105783
-0.07195441 0.062243156 0.062073685 -0.048281785 -0.023924217 0.048089437 0.0845715 0.025155418
-0.01611542 0.0075487345 -0.071344644 -0.07761674 -0.050332155 0.02654849 -0.061968185 -0.023851015
0.0024713576 0.060924925 -0.052538384 -0.023615666 -0.007019013 -0.061544575 -0.053319134 0.023776934
0.017161787 -0.06465817 0.046386637 0.065407746 -0.08652883 0.065934874 -0.079751305 0.020492569
0.06929367 -0.006097406 -0.03968813 -0.0053136647 0.08415597 0.021128058 0.00051778555 0.044800796
-0.047250938 0.022036403 -0.031160481 0.0027876347 -0.01807522 0.020617798 -0.076795325 -0.0809856

rnn.bias_ih_l1 f4 [128]
00000000: 4498 e53c 48e4 12bd cf5e c43d 3dc1 0dbe
00000010: 5b39 2d3e 777f 5d3d d239 883c 21b3 c2bb
00000020: 1ff1 1bbe 3d53 373e 0072 553e f007 3b3d
00000030: 6ce4 1ebe b3fb 54bd a8ed fdbc b86b 3c3d
00000040: 8bb9 5bbb 3ca6 6f3a 5e3f e83d 69b1 c9bc
00000050: 8058 1dbd 9bcf 3fbd ee69 163b 8608 1f3e
00000060: 14f4 093a 4f88 c1bd 8a4a 193d 923a e6bd
00000070: 5ee6 fdbd 0ffc aa3b c9e2 8fbc 9a00 5ebd
00000080: 2821 883b 390c 85bc a100 d1bc ac61 3e3d
00000090: 0c6a 05be 200a 533c e94a e93c 6a32 dfbc
000000a0: 687a a13c 6068 32be 5366 10be 1039 b3bc
000000b0: 5e32 05bd d007 8a3d 7b21 243e 4d99 0f3d
000000c0: 24df acbd 6fcc 79bd 14b1 efbc 0efb bfbb
000000d0: 749e 88bd 8363 54bb 56a3 923d 3515 ba3b
000000e0: 2780 323d af54 db3b 5b94 0e3d 70f1 bd3d
000000f0: c0b3 13bd 46f0 44bd 1bc3 5c3d 2226 a3bd
00000100: 66b1 213e 311c 533d dfda 61be d383 bfbd
00000110: 5774 0e3d ceb3 aa3d e855 f23d 95f1 7f3c
00000120: 8005 31bd 7475 923d f246 9c3c ea40 67bd
00000130: 773d 2d3d 5aea 423d 9b18 86bd e1ce 15bd
00000140: 9158 40bd 55d1 78bc 141b 0cbe 91d1 a73d
00000150: 7796 f43d 97cb c53d 119f 12be 7ad5 f3bd
00000160: 10be 253e 1965 883d 24d9 3cbd adfb 06be
00000170: 0fc8 193d caa3 603d 5730 393c fba5 4e3d
00000180: 7b3b 323d 4d57 ff3d 7aff a8bd 243b 57bd
00000190: c8c0 1abd 696f 293d 26a9 833c 7a07 1bbc
000001a0: 99b5 b9bd 6af7 62bd 6668 7f3b 947a b2bc
000001b0: ccca 663d c4a0 cd3d 10a8 af3d 0459 193c
000001c0: de69 e63d b9d8 463c 2a9e a13b eb19 a2bd
000001d0: 297f 3e3d 54a0 b03c 22f2 453d ce93 9abd
000001e0: a996 01bd e427 af3d cc46 7f3d 7e83 793c
000001f0: 0d88 90bc 48f4 783d 8b4e 8ebc a74d 9c3c
0.028026707 -0.035862237 0.09588396 -0.13843246 0.1691641 0.054076638 0.016629133 -0.005941764
-0.15228699 0.17902847 0.20844269 0.045661867 -0.15516824 -0.05199785 -0.030997112 0.046001166
-0.003352734 0.00091418973 0.11340211 -0.024620729 -0.03841448 -0.046828847 0.0022951323 0.15530595
0.0005262506 -0.09449827 0.0374246 -0.1124164 -0.12397455 0.005218036 -0.017564194 -0.054199792
0.004154343 -0.01624118 -0.025512995 0.046479866 -0.13028735 0.012880832 0.028478103 -0.027245719
0.019711688 -0.17422628 -0.14101534 -0.021877795 -0.032518737 0.06739771 0.16028397 0.03505831
-0.08440998 -0.06098598 -0.029259242 -0.0058587855 -0.066708475 -0.0032407946 0.0716006 0.0056787976
0.043579247 0.0066934447 0.03480945 0.09274566 -0.036060095 -0.048080705 0.053897005 -0.07966258
0.15790328 0.051540557 -0.22056149 -0.09351315 0.03477892 0.08335076 0.118327916 0.0156215625
-0.043218136 0.07151309 0.019076798 -0.05645839 0.042294946 0.047586776 -0.06547662 -0.03657425
-0.046959464 -0.015186627 -0.13682204 0.081942685 0.119427614 0.09657972 -0.14318492 -0.11905952
0.16185784 0.06659908 -0.04610552 -0.13181944 0.037544306 0.0548437 0.011303029 0.05045126
0.043513756 0.12467823 -0.08251853 -0.052546635 -0.037781507 0.041366015 0.016071867 -0.009462232
-0.0906784 -0.055411734 0.0038972138 -0.021786965 0.056345746 0.10040429 0.08576977 0.009359602
0.11250661 0.012136632 0.0049321847 -0.079151 0.046507988 0.021560825 0.04832662 -0.07547723
-0.03163782 0.085525304 0.062323377 0.015229104 -0.017642999 0.06077984 -0.017371437 0.019079996

rnn.bias_hh_l1 f4 [128]
00000000: 9908 603b 3625 653d 939a 023e c569 19be
00000010: fb6b a83d 4212 0d3d 921f c8bd 56dc ad3d
00000020: 3763 05be bd91 303e 277a d53d b829 b83d
00000030: 7735 dfbc 7c4d 99bd e1ee 94bd 75a9 b23d
00000040: ad21 c53c ee7b d53c 1eb2 093d 2860 35bd
00000050: 3057 a4bc 51e0 81bd 4694 00bd 503c 8d3c
00000060: ad3b f23d 7065 05bc 360c 0c3e 0fa3 dabd
00000070: b4c5 43bc 9f6f 80bd 9b23 6e3d fd95 8cbd
00000080: 6016 84bd 1a6d b1bc eb64 20bc 9bbb b9bb
00000090: c833 a1bd 14a7 b03c 18c5 13bd 8852 01be
000000a0: 8945 783c 7fea 1cbe abea 36be 4153 f1bc
000000b0: 6785 d9ba 4eca 883d eb37 9b3d fcf7 7e3d
000000c0: 70f4 f1bd 9529 48bd a6cc 00be 1523 113d
000000d0: c509 11be 09a0 8e3d 246c be3c 2f83 c3bc
000000e0: f608 863d d4bc 50bb 9e9b a23a e465 e93d
000000f0: 3516 c1bd 4db2 0abd 42ce 2d3b d990 06be
00000100: cacd 243e 8483 b13c e75e 2dbe 59c2 c2bd
00000110: 438f 883d 2d76 f83d 0628 d3bc 17d6 88bc
00000120: a1a8 923d 9661 593d 85a2 21bd f422 d43c
00000130: 9b93 2c3e 10bb 84bd 6a33 e9bd 3100 a63d
00000140: 760d f53c 3666 093e 8177 30bd ea8d 7fbd
00000150: 89b3 9f3d 93c3 fe3c 8cdf 86bd 1fbd f6bc
00000160: 9a5a de3d b3de f63d 4828 b7bd 7880 adbc
00000170: 546e 433d 3849 6e3d 7374 2bbd fb13 c03d
00000180: a03f e0bd 01b0 02bd 42c9 fabc 24c9 b5bd
00000190: 57f5 66bc 951f 62bd 5885 24bc 6c95 a6bd
000001a0: c0b9 373d 99b9 173d 7c94 f33d 27d7 f6bd
000001b0: 998a 353c 3cd4 b23d 95a0 64bd c6aa 0d3d
000001c0: 4e41 cab9 46c3 6e3c 57d9 2a3e 50d9 4bbd
000001d0: 2a58 513d 7628 07bd d9ce e23d 16f3 7a3c
000001e0: 7b04 e23d 10a0 6ebc 8bd0 f03d 1504 113d
000001f0: a1f8 68bd 9f6b 243e 21de 65bd 3609 413d
0.0034184812 0.05594369 0.12754278 -0.14981754 0.08223721 0.03444124 -0.097716466 0.08489291
-0.13026129 0.17243095 0.10423689 0.08992332 -0.027247174 -0.07485482 -0.07272125 0.087237276
0.02406391 0.02606007 0.03361713 -0.044281155 -0.020061105 -0.06341613 -0.031391405 0.017240673
0.118277885 -0.00814186 0.13676533 -0.10675632 -0.011948992 -0.0627129 0.058139425 -0.068645455
-0.0644958 -0.021658469 -0.009789686 -0.0056681163 -0.078712046 0.021564044 -0.036076635 -0.1262914
0.015153297 -0.15323828 -0.17862956 -0.029458644 -0.0016595543 0.066792116 0.07579025 0.062248215
-0.11814201 -0.04886778 -0.12578067 0.035433847 -0.14163883 0.06964118 0.023244925 -0.023866264
0.06544678 -0.0031850832 0.0012405997 0.11396387 -0.09428064 -0.033861447 0.0026520644 -0.13141192
0.16094127 0.021669157 -0.16930734 -0.09509725 0.0666795 0.12131915 -0.02577592 -0.016703648
0.0716107 0.05307158 -0.03946163 0.025895573 0.16853182 -0.06480992 -0.113867596 0.08105505
0.029913645 0.13417897 -0.043082718 -0.0623912 0.077979155 0.031099116 -0.06585607 -0.030119477
0.108571246 0.12054195 -0.0894323 -0.021179423 0.04771264 0.058175296 -0.0418591 0.09378811
-0.109496355 -0.03190613 -0.030613545 -0.08876255 -0.0140965795 -0.0552059 -0.010041557 -0.08133969
0.04485488 0.037042234 0.118935555 -0.12052756 0.011080408 0.08731887 -0.055817205 0.03458669
-0.00038577098 0.014572924 0.16684471 -0.049767792 0.05110947 -0.03299757 0.11074609 0.015316745
0.11036011 -0.014564529 0.117585264 0.035404284 -0.056877736 0.16056679 -0.05612004 0.047127925

rnn.weight_ih_l2 f4 [128, 128]
00000000: eda7 083e 3dfb 82bd 82de 153d 39f7 0bbe
00000010: 0818 70bb 40a5 663d 2055 593d 3a25 d43d
00000020: 4c6a 15bd 0630 933c 78af 023e e3ba 43bd
00000030: 3e74 0dbe 1fe9 c3bc 8769 833d 0424 b03d
00000040: 4091 a4bd 9616 683c 5a15 31bd 3585 87bd
00000050: 7d35 11bc a44c f33c 13aa 933d 9939 36bd
00000060: 0fe2 373e 7e5a e8bd 4147 91bd 75f1 1ebe
00000070: 4838 10bd 8c7f cdbc e7c4 5c3d 53a1 3cbd
00000080: 1621 d33c 9761 f43b 0695 6d3d 42ce c3bd
00000090: 8952 13bd ea5d f63c 98be e33d 9736 2b3d
000000a0: ff52 fd3c 2787 9e3c 893a f2bd 4cf4 0dbd
000000b0: 60c5 5ebd 92e8 be3c bba8 9e3d b8e9 093c
000000c0: f36e 273c 7168 9fbd 2f97 40bd ecd4 9c3d
000000d0: 3ca0 6fbe f2e4 b83d 51b2 cf3d 5610 f23d
000000e0: e03e 173e d4f7 cc3c ac63 1e3e 5970 5f3d
000000f0: 30cc b8bd 6e74 49bd 3746 1dbe ac7d c53c
00000100: 33e1 443a deb4 473d 13a7 44bc 6314 8fbc
00000110: c66d 4b3d 4b04 a439 6aa2 05be f402 bc3d
00000120: bb7d ce3c a18f d1ba 4fd5 9bbd 318f 6bbd
00000130: bf09 233e 0873 16be 7cd0 e3bc e649 93bc
00000140: 5aa8 4dbe cb36 803d bbee 46be c064 d73b
00000150: f0a4 a33c 4cdc 4d3d 1746 5fbc 8f83 ecbd
00000160: 61b3 f23d 3f2d 0c3e 5385 16be 8de4 22be
00000170: 3aa5 c1bb 16e8 293e 1bd5 053e ea8d b3bd
00000180: 4439 1abc 9cae 9b3d ff30 37be ecd8 8e3c
00000190: b228 253c 5a95 f8bd d8c3 0a3c 4b2b 0f3d
000001a0: deb1 57bd f29d b13d 32e9 de3d d363 203d
000001b0: ffeb ca3d b073 c23c 0f2f 943d 7544 96bd
000001c0: 18f6 3bbd 222a bcbc 2c18 153d a6dd c63b
000001d0: a00d bd3d ac81 913d 0663 083e 7ee8 fd3c
000001e0: 021f 703d d8a9 b23d bf39 df3d f4a2 66bd
000001f0: 2b05 3cbc 6452 b03d 1969 a23d 6ef4 55bd
00000200: fe14 1c3e 9f1f 0b3d 81e8 6d3d 83fb f7bc
00000210: 382a 0f3e a64f 753c 3e3f 173d a05d 323e
00000220: 159a 96bd 7865 3e3d 8288 d13d e6ee a1bc
00000230: af31 02be c42f b8bc 4aef a0ba 804d 093d
00000240: 47cc 2e3d 73e4 1d3e 7609 2abd 8eda 0ebe
00000250: ab28 a1bd aec1 103c d86d a9bd ae74 0d3d
00000260: 8281 4c3e 21ff b3bd e9b7 65bc 1176 dbbd
00000270: 7f3e f2bd f392 08be 453e 923d c527 a8bd
00000280: b851 853d f731 913d c68f eabb 9e59 fc3c
00000290: 638c 88bd 5b6a d0bc 999b fd3d 3993 363b
000002a0: bd29 1c3d 5bcd 95bc bccf 263c d019 a5bd
000002b0: fd56 c0bd 96e6 9e3d 08b4 ab3d 3853 193d
000002c0: b2de 1b3e 1217 63bd ca64 cc3d b022 f43d
000002d0: 02cd 25be 5bd6 61bd 18fb 22bd e570 273e
000002e0: 7a4f 013e 005f 513e 9be2 66ba f81c 283d
000002f0: bbc2 d63c b839 08bd 40ed 0abe 56a6 3bbd
00000300: 0033 18bd 58a4 ca3c 6fde 25bb a457 473c
00000310: 6c42 e43d 5944 a83d 122d e7bd 5a04 863d
00000320: 6b6f f63c fb00 1dbd 006a 11be 1b7b 24bd
00000330: 340e b53d 271d e2bc eb08 09bd 4d39 1dbc
00000340: 9328 b1bc b060 c13b f626 d5bc 6967 66bc
00000350: f7d3 93bc 44c6 633e a8f9 22be a262 813d
00000360: f747 0b3e 6091 a03a a859 0bbe be02 87bd
00000370: 5aae 9cbd 1562 5bbd 058b 803d 9371 993d
00000380: 07ff 19be 653b f13d b545 b6bd dafc c1bc
00000390: afda 5a3d 6b16 26bd d253 4fbd 2327 9c3d
000003a0: b58b 063c fa0f ab3d 454c 20bc 6a2f 04bd
000003b0: 599b eb3d 76c4 e5bc 40d3 d83d e90b 02bd
000003c0: 6519 583d 6fef 19bd 43d4 823d db11 703d
000003d0: 67a8 fdbb 6027 90bd a33b 083c ae01 a13d
000003e0: a51b 2ebd 98a6 0a3e fe76 8d3d 59ab 78bb
000003f0: eb6b 94bd cd86 943d ff59 103e b271 0bbd
0.13345309 -0.06395576 0.036589153 -0.13668527 -0.0036635417 0.05630994 0.053059697 0.10358663
-0.036478326 0.017967235 0.12762249 -0.04778565 -0.13813874 -0.023914872 0.06416612 0.086006194
-0.08035517 0.014165541 -0.043233253 -0.06617204 -0.00886285 0.029699631 0.072101735 -0.044488523
0.17957328 -0.11345385 -0.07093669 -0.15521796 -0.035209924 -0.025085233 0.05389872 -0.04605229
0.025772613 0.0074579227 0.058003448 -0.09560825 -0.035967384 0.030074079 0.11120337 0.041800108
0.030923365 0.019351555 -0.11827571 -0.034656808 -0.05438745 0.023304258 0.077470265 0.008417539
0.010219323 -0.077835925 -0.04701918 0.07657799 -0.23400968 0.09028043 0.10141433 0.11819522
0.14770079 0.025020517 0.1546771 0.054550502 -0.09023321 -0.0491833 -0.15358816 0.024107777
0.0007510364 0.048756473 -0.012002724 -0.017465776 0.049665235 0.00031283716 -0.13050237 0.09180251
0.025206437 -0.0015988239 -0.07609045 -0.057509605 0.15921687 -0.14692318 -0.027809374 -0.017979573
-0.20083752 0.06260451 -0.19427006 0.0065732896 0.01997611 0.05025892 -0.013627551 -0.1154853
0.1185062 0.13689135 -0.14699297 -0.15907498 -0.005909589 0.1659244 0.13069575 -0.08767302
-0.009413067 0.076016635 -0.17889784 0.01743742 0.010080503 -0.121378615 0.008469544 0.034953397
-0.05265986 0.08672704 0.10884322 0.0391577 0.09908294 0.023736805 0.07235538 -0.07337276
-0.04588899 -0.02296931 0.036400005 0.006068903 0.092311144 0.07104811 0.13319024 0.03099465
0.05862332 0.087238014 0.10899686 -0.056307748 -0.0114758415 0.08609465 0.07930202 -0.05223506
0.15242383 0.033965703 0.05808306 -0.030271297 0.13980949 0.014972603 0.036925547 0.17418528
-0.073536076 0.046483487 0.10231115 -0.019767236 -0.12714265 -0.022483714 -0.0012278345 0.033521175
0.042675283 0.15419178 -0.04151293 -0.1395056 -0.07869085 0.008835239 -0.08272904 0.034535103
0.19971278 -0.08788896 -0.014020898 -0.10715879 -0.118283264 -0.13337307 0.07140783 -0.082107104
0.06509727 0.07089608 -0.0071582524 0.030804452 -0.06667402 -0.02544134 0.123831935 0.0027858748
0.038125742 -0.018286398 0.010181364 -0.08061564 -0.09391592 0.077588245 0.083839476 0.03743288
0.1522167 -0.055441923 0.099801615 0.119206786 -0.16191486 -0.055136066 -0.039790243 0.1635166
0.12627974 0.20446396 -0.00088075706 0.04104325 0.026215902 -0.03325817 -0.13567066 -0.045812927
-0.037158012 0.024736568 -0.0025309583 0.012166891 0.111454815 0.08216161 -0.11287893 0.06543799
0.030082425 -0.038331013 -0.14200592 -0.040156465 0.088406 -0.027601792 -0.03345577 -0.009596181
-0.021625793 0.0059014186 -0.026019555 -0.014062741 -0.018045409 0.22243601 -0.15915549 0.06317641
0.13601671 0.0012250356 -0.1360842 -0.0659232 -0.076504424 -0.053560335 0.06276516 0.07492366
-0.15038691 0.11778907 -0.08900014 -0.02368014 0.05343121 -0.040548723 -0.050617047 0.07624652
0.00821202 0.08352657 -0.009783809 -0.03227178 0.115042396 -0.028047781 0.10587168 -0.03174964
0.052758593 -0.037581857 0.06388142 0.05861078 -0.0077410224 -0.0703876 0.008315 0.078616485
-0.042506833 0.13540113 0.069074616 -0.0037943928 -0.07247146 0.07252274 0.14096831 -0.034043975
