src/rnn/models/user_8_model.pth (torch, 377610 bytes, 16 tensors)

rnn.weight_ih_l0 f4 [128, 11]
000000 59 ad 3c 3d f5 91 06 3e 9c a7 20 3e 6b c0 76 3d
       0.046063755 0.13141616 0.15688938 0.060242098
000010 9b 6a 78 3e 13 04 3c be e1 6e 57 be 68 56 15 bd
       0.24259417 -0.18360929 -0.2103839 -0.036459357
000020 7b 2a 62 3e d2 87 73 3d 1a e2 19 3e f6 a6 13 3e
       0.22086518 0.0594557 0.15027657 0.1441916
000030 29 c7 3f bc 01 17 e2 bd 04 af 36 bb ab 25 0e be
       -0.011705198 -0.11039544 -0.0027875314 -0.13881557
000040 18 fd 4e 3e c4 62 87 3e 20 8f 81 3c 48 99 1c be
       0.20213735 0.2644254 0.015815318 -0.15292847
000050 11 3a 0f be c1 43 72 be 92 3e f1 bd bb 20 b7 bc
       -0.13986994 -0.23658659 -0.117795125 -0.022354474
000060 c6 12 fa 3d db e5 4e bd a8 e7 05 3e e6 42 7a bd
       0.12210612 -0.050512176 0.13076651 -0.061098956
000070 61 a5 0c be 4c cf 8c bd 99 43 b5 3d 64 c3 c5 3c
       -0.13734962 -0.06875476 0.08850784 0.024141021
000080 ce d3 1c 3d 8b 18 4e 3b 4e 1c d0 3d 56 9c e6 3d
       0.03828793 0.0031447734 0.10161649 0.112602875
000090 a1 b4 b9 bc f4 b9 57 3e 5a 71 b9 bd 7d 63 dd bd
       -0.022669138 0.21067029 -0.09054823 -0.108099915
0000a0 fa 2a a5 3b d4 c3 de 3d 40 6b 73 3e 69 1b 19 3e
       0.0050405236 0.10877195 0.23771381 0.14951862
0000b0 a0 ce 19 3d e9 e3 1c be a9 0d b0 bc 34 d6 1c bd
       0.03755057 -0.15321316 -0.021490889 -0.038290218
0000c0 12 5b 36 be 8f 66 6a 3d 3b d1 3f 3e 28 48 0b bd
       -0.17808178 0.057226714 0.18732159 -0.03400436
0000d0 53 03 41 be 6a 71 f5 3c 1d f4 29 be ec c4 ff 3d
       -0.18848924 0.029961307 -0.16597028 0.12488732
0000e0 6a f2 b9 bd 07 46 0c bc ef dc 26 bd c2 60 26 3d
       -0.0907944 -0.008561618 -0.040738042 0.04061962
0000f0 e9 f1 cd bd ae cd 5e be b6 92 75 3d 70 3e 9c 3b
       -0.10055906 -0.21758148 0.059954368 0.0047681853
000100 31 cc fc bd aa 64 89 bc 7c 9f e5 3d 39 3e 20 3e
       -0.12343634 -0.016771633 0.1121206 0.15648736
000110 da eb 7f 3e 3f 5c 12 3e 46 19 13 3e 00 ba db 3d
       0.24992314 0.14293002 0.1436511 0.10728836
000120 6f d1 17 be dc 21 88 3d cd f9 16 3e e0 2a 78 3e
       -0.14825986 0.06647083 0.14743729 0.24235106
000130 59 cd 3a 3e de 9a 81 bc 66 e3 29 3e 67 b4 d1 3d
       0.18242396 -0.015820917 0.16590652 0.10239487
000140 8f 6b 0a 3e e3 ca 10 3e d0 0c d5 3d 70 f3 c0 3c
       0.13517593 0.14139895 0.104028344 0.02355358
000150 67 c8 5a 3e 66 83 d0 3d ab b4 81 3d 86 df af 3d
       0.2136551 0.10181312 0.06333288 0.085875556
000160 05 db e2 3d 2a 47 41 bd 00 cb 1c 3e 32 ac 75 3d
       0.11076931 -0.047187008 0.15311813 0.05997867
000170 61 7b 0d 3d 93 da 51 be 87 41 ab be 14 f9 38 bd
       0.03454149 -0.20493536 -0.3344843 -0.045159414
000180 b6 4d 43 3d e9 69 f0 ba 9b 5a 06 bc d1 98 00 3c
       0.047681533 -0.001834211 -0.008200313 0.007848934
000190 4d 07 27 3c da 37 12 bc 1f 78 74 3d 67 9c 02 be
       0.010194612 -0.008924449 0.05968487 -0.12754975
0001a0 21 0c 27 3e 68 97 6f 3d 4a 95 9c 3d 4d 80 51 bd
       0.1631322 0.058494 0.07645662 -0.051147748
0001b0 a1 cf c7 3d 42 ca 4b bd 4a b0 e2 bc 9d 26 d1 bd
       0.09756399 -0.049753435 -0.027671952 -0.10212443
0001c0 aa 90 74 bd 41 e9 fc 39 45 d9 7f bd 4e 3b 9f 3b
       -0.059708275 0.00048238973 -0.062463064 0.0048593646
0001d0 79 e0 01 3e 9f 5c 10 be 5b 7f 23 be 88 4f d8 bd
       0.12683286 -0.14097832 -0.15966551 -0.105620444
0001e0 cf ca 87 bd e4 97 bd bd da b8 7d bc 37 1a c8 bd
       -0.066304795 -0.092574865 -0.015485967 -0.09770625
0001f0 16 69 e0 bd 8c 91 15 be cf 80 f2 bc c6 0f ae 3d
       -0.109575436 -0.14606303 -0.029602436 0.08499102
000200 d6 4f ad bd 02 a6 f2 bd 8b d9 94 bd 3d b3 54 bd
       -0.08462493 -0.1184807 -0.072680555 -0.051928747
000210 31 91 97 bd da 3c ed 3d f1 46 e6 3d fb fc 32 3d
       -0.0740074 0.11583872 0.11244 0.043698292
000220 59 51 fd 3d b2 17 8a bd 48 20 1a bd a8 aa a7 bc
       0.123690315 -0.06742801 -0.037628442 -0.020467117
000230 ae 23 47 3e 48 d0 0c 3e 16 8d 2c 3e ac 30 b5 3c
       0.19447204 0.13751328 0.16850695 0.022117935
000240 af 6a 14 3b 6e c9 bf 3b 0a b3 89 3d eb 91 c7 3d
       0.0022646596 0.0058528697 0.06723602 0.097446285
000250 15 23 83 bd 5e db 41 be 8e f6 dc bd a0 b9 87 3d
       -0.06403176 -0.18931338 -0.10789214 0.06627202
000260 6d 77 eb b9 4b 0c 94 3d bf 1b 38 3d b3 a6 a8 3d
       -0.00044911672 0.07228907 0.044948336 0.0823492
000270 5d 55 03 3d 55 79 20 bd 86 4a cc 3d 73 84 08 be
       0.03206383 -0.03917821 0.09975152 -0.13331775
000280 a7 e1 1a be d9 a9 20 be 93 eb 2b 3e d3 2b 51 3c
       -0.15125142 -0.15689792 0.16789083 0.012766796
000290 74 75 01 3e e3 84 93 3d ee dd c4 3d 9c 9b ae 3c
       0.12642461 0.072030805 0.09612642 0.021314435
0002a0 21 16 0d 3c 61 9d 6f bd 0b 64 e3 bc 9e 20 96 bd
       0.008611233 -0.058499698 -0.027757665 -0.0733044
0002b0 21 33 c7 3d c1 92 8a bd 47 19 c3 ba 7c c2 55 bd
       0.09726549 -0.06766272 -0.0014884853 -0.052187428
0002c0 0b 2f dd 3d e9 fa 75 3d 9a c5 f0 3d 30 df b3 3c
       0.10799988 0.06005374 0.117564395 0.02195701
0002d0 39 e7 e0 3d 93 21 96 3d 41 36 f1 bb 1d 85 2b 3e
       0.10981602 0.073306225 -0.007361204 0.16749997
0002e0 99 ec f3 3d 70 ca 35 3e 54 60 02 3e ec f6 cf bd
       0.11910362 0.17753005 0.12732059 -0.101545185
0002f0 33 39 31 bd 4e aa ba bd 0f f7 7f 3c ee e0 15 3e
       -0.04326744 -0.09114514 0.015622868 0.14636585
000300 a9 51 76 bd 69 52 f4 bd fe 65 85 bd 50 94 0e bc
       -0.06013647 -0.11929781 -0.06513594 -0.008702353
000310 08 29 e9 bc 69 c8 35 3d 8c 82 78 bd 46 a9 10 bd
       -0.028461948 0.04438058 -0.060671374 -0.03531768
000320 26 87 05 3d 2c 74 11 3d 17 f8 88 3d 12 45 14 be
       0.03259959 0.03551118 0.066879444 -0.14479473
000330 1c 28 66 be 4a eb 17 be 5d 80 25 3d 42 97 11 be
       -0.22476238 -0.1483585 0.04040562 -0.14217857
000340 96 79 bf bd 17 40 cf 3d 61 3d 1a bd 4e fd 34 3b
       -0.093493626 0.10119646 -0.03765619 0.0027616802
000350 62 67 2d bd 90 68 05 bd 0d 10 0f 3d b2 48 8d 3c
       -0.04233492 -0.03257042 0.034927417 0.017246578
000360 08 8c 5b 3c 24 2f cb bd 46 82 29 be 92 05 26 be
       0.013400085 -0.09921101 -0.16553602 -0.16213062
000370 ab e9 f5 3d c8 36 4f 3e 56 59 aa 3c d2 de 96 ba
       0.12007459 0.20235741 0.020794552 -0.0011510497
000380 c2 82 3f 3d 5f b2 76 bd 72 f4 3a 3e 5f b5 79 bb
       0.04675556 -0.0602287 0.18257311 -0.003810249
000390 b5 81 c5 3d 6d 6c 05 be 88 5c 82 3c 15 94 85 3d
       0.0964388 -0.13029642 0.015913263 0.06522385
0003a0 3d 0d fa 3b a6 e0 b5 3d 55 23 f6 3c 83 a6 a9 3c
       0.0076309727 0.08880739 0.030046145 0.020709282
0003b0 35 71 0d 3e bf ce 4b 3e 19 40 a6 3d 07 4b f8 bc
       0.13812716 0.19903086 0.081176944 -0.030309213
0003c0 d8 1a 9d 3d 7b 2f 47 bd a4 57 dc ba ab 74 51 3c
       0.07671136 -0.048629265 -0.0016810787 0.0127841635
0003d0 1d 7f 64 3e 38 d1 0d 3e 65 a2 31 3e a8 11 02 be
       0.22314115 0.13849342 0.17347105 -0.12702048
0003e0 49 bf 6e be 82 ae d2 bc 7d 7c a0 3e 42 2d 0d 3e
       -0.23315157 -0.025717977 0.31344977 0.13786796
0003f0 7d 80 9b 3d 8f 8e d9 bd 75 c5 aa 3b 1e 4f db 3d
       0.075928666 -0.10622894 0.005211527 0.1070845

rnn.weight_hh_l0 f4 [128, 128]
000000 4d bd 21 bd 7d e8 99 3d 29 b4 90 3d 85 54 9c bd
       -0.039487172 0.07515047 0.07065613 -0.07633308
000010 d6 cb 2e bd f2 3e 66 3d 3b 59 9c 3d f8 e4 64 3c
       -0.04267486 0.056212373 0.07634207 0.013970606
000020 57 6e 86 bd 80 20 65 3c d4 74 4e bd 40 8a 24 bd
       -0.065640144 0.013984799 -0.050404385 -0.040170908
000030 99 eb 89 3d b4 85 bb bc 3c e1 97 bd f0 f2 58 bc
       0.0673439 -0.022890903 -0.07416007 -0.013241515
000040 53 1a 85 3d 52 e7 25 3d 32 02 a3 bd e0 11 9a 3b
       0.064991616 0.040503807 -0.07959403 0.004701838
000050 27 0a 0b bd e0 4e a5 3c 2e 06 58 3d 00 49 e1 3c
       -0.03394523 0.020179212 0.05274027 0.02750063
000060 30 dd cd 3b 44 5d 8e bd 84 d8 2d bd f7 bc a2 3d
       0.006282471 -0.06951383 -0.042442814 0.079461984
000070 12 23 2d 3d 85 17 9a 3d 64 42 0d bd bc 96 fb 3c
       0.042269774 0.07524017 -0.034487143 0.030711524
000080 fa bf 46 3d 26 da 2a 3d a5 c4 91 3d a7 32 53 bd
       0.048522927 0.04171195 0.07117585 -0.051561978
000090 f6 73 40 3d 00 ef b7 ba 80 b3 f7 bb 38 27 99 3c
       0.04698559 -0.001403302 -0.00755924 0.018695459
0000a0 e2 5d 6c 3d 20 47 6f bd 9f 8e aa 3d b6 71 3c 3d
       0.05770672 -0.05841744 0.08327984 0.04600688
0000b0 58 c1 06 3d 9a 70 d8 bc 1d 28 94 3d fe 91 29 bd
       0.03289923 -0.02642088 0.072342135 -0.041398995
0000c0 fd a5 b2 3d 30 8a 38 3c b1 26 9b 3d fe 90 06 bd
       0.08723066 0.011263415 0.07575739 -0.03285312
0000d0 ce d5 91 bd ee 34 59 3d dc dd 9b bd 20 c5 ba bb
       -0.07120858 0.053028993 -0.07610676 -0.0056997687
0000e0 48 f5 06 bc e0 c8 05 3b b4 2c 7a bd 93 51 94 bd
       -0.008237191 0.002041392 -0.06107779 -0.072421215
0000f0 72 89 2c bd 8a d0 52 3d 00 ec ab bc bd 0f 8f bd
       -0.042123266 0.05146841 -0.020986557 -0.06985424
000100 f8 bf c5 bc 88 c8 5c 3c dc 23 84 3c e0 ae 35 3c
       -0.02413939 0.013475545 0.01613038 0.011089057
000110 0e 88 0d 3d cc f2 73 bd a0 64 4e bb c0 23 cd 3a
       0.03455358 -0.05955772 -0.0031493083 0.0015650913
000120 9a 6b 56 3d d2 15 54 3d 53 ad a6 bd 96 c7 ef bc
       0.05234871 0.051778622 -0.08138528 -0.029269975
000130 48 11 21 3c 88 d0 2f bc 48 56 56 bd 43 28 74 bd
       0.00983078 -0.01073087 -0.052328378 -0.05960871
000140 0e ed 3b 3d 58 67 a6 bc 5a 1f a4 bd c0 e5 18 3b
       0.04588037 -0.02031295 -0.08013792 0.00233303
000150 d3 e3 85 bd 75 6b 97 3d be 9f 21 3d 0c 3f b9 bc
       -0.06537595 0.07393543 0.039458983 -0.02261307
000160 f4 4a 93 bd 7b 24 ab 3d 08 1e 87 bc 46 e3 44 3d
       -0.071920305 0.083565675 -0.016493812 0.048068307
000170 da 42 43 3d 4c 74 b0 bd e1 a5 98 3d 41 a8 b3 3d
       0.047671176 -0.08615932 0.07453514 0.08772326
000180 85 cc 26 bd 06 02 49 3d e2 92 8a bd c8 f4 18 bc
       -0.04072239 0.049074195 -0.06766297 -0.009335704
000190 df 89 a4 3d 7d 67 b4 3d e4 45 d2 bc a2 d2 6b 3d
       0.08034109 0.08808801 -0.025668092 0.057573922
0001a0 28 e0 00 bd ce 18 1d 3d ae 1e 74 bd 36 51 7d 3d
       -0.031463772 0.038353734 -0.05959957 0.061845027
0001b0 70 a4 85 3c 4c 7c 15 bd 44 9b 80 bc 5a f9 79 bd
       0.016313761 -0.03649549 -0.015699036 -0.061028816
0001c0 9e 75 66 3d b1 65 b3 3d 3d d5 3b bd b6 02 7f 3d
       0.056264512 0.087596305 -0.045857657 0.062258445
0001d0 a0 14 08 3c 7a cf 8b bd 65 4a 8b bd 5c 86 e7 3c
       0.008305699 -0.068266824 -0.06801299 0.02826231
0001e0 85 c3 9a bd 69 ff 8e bd be 9a 7a 3d 07 3d 75 bd
       -0.07556824 -0.06982309 0.06118273 -0.059872653
0001f0 9a 1d 78 3d 58 b2 1a 3c 72 39 04 bd fa 2e 43 3d
       0.060575105 0.0094419345 -0.032281347 0.047652222
000200 f8 c4 ed bc 41 60 5f bd d0 88 c6 bb aa 41 23 3d
       -0.029024586 -0.054535154 -0.00605879 0.039857544
000210 ea 1b 86 bd 78 9c 0f bc 5a a4 7a bd 44 99 87 bd
       -0.06548293 -0.008765332 -0.061191894 -0.0662103
000220 ce f1 f5 bc 6e f1 45 3d e0 40 e8 bc 78 ac bd bc
       -0.030022528 0.04832595 -0.028351247 -0.023153529
000230 09 54 a9 3d be b7 44 3d 9d 55 99 3d dc 5a 4d bd
       0.082679816 0.048026793 0.074870326 -0.05013548
000240 a2 28 39 3d 56 a0 5d 3d a0 43 0f 3d 40 59 8d 3a
       0.045204766 0.054107986 0.0349766 0.0010784045
000250 d6 37 4c 3d 0a 49 7e 3d 66 11 1f 3d 21 fd a9 3d
       0.049857937 0.062081374 0.03883495 0.08300234
000260 3a f5 e8 bc e4 6c 0e 3d d6 d5 92 bd ce ac 50 3d
       -0.028437246 0.034771815 -0.07169692 0.05094605
000270 90 48 84 3b 39 7c 88 3d 70 f2 91 bd d9 08 b3 3d
       0.0040369704 0.066643186 -0.071263194 0.08741922
000280 77 6c 02 bd 12 5b 0e 3d c6 bf 38 3d 24 ea 4a bd
       -0.03184172 0.03475482 0.045104764 -0.0495397
000290 00 ae de bb 94 22 97 3c 7b 06 b0 3d 50 7a 88 3b
       -0.0067956448 0.018449105 0.08594986 0.0041649714
0002a0 30 e5 09 3d 38 4a 2c 3c fb 45 9c bd ae 17 40 3d
       0.033665836 0.010515742 -0.07630535 0.046897583
0002b0 3c 71 d0 bc 38 80 0f bc a3 e4 31 bd da 96 66 bd
       -0.02544462 -0.008758597 -0.043430936 -0.056296207
0002c0 c2 94 2e 3d 1a 27 34 3d 70 9a 21 3c 80 aa e3 3a
       0.042622335 0.043982603 0.009863481 0.0017369539
0002d0 b4 d4 be bc 58 e9 59 bd 70 3f 39 bc fd 51 b2 bd
       -0.023294784 -0.05320105 -0.011306629 -0.08707044
0002e0 aa 88 38 3d 98 be af bc 96 ba 88 bd a7 e9 ac 3d
       0.045052208 -0.021453187 -0.066762134 0.08443003
0002f0 00 90 e5 37 e0 54 d1 3c c2 f5 57 3d 27 e4 af 3d
       2.7365983e-05 0.025553167 0.052724607 0.085884385
000300 aa 15 1d 3d f6 92 98 bd 08 e3 7d bc 20 78 5e bd
       0.03835074 -0.074499056 -0.015496023 -0.05431378
000310 80 f7 02 bb 9a 80 7b 3d 30 0b e5 3c 4b 3a 9e 3d
       -0.0019983947 0.06140194 0.027959436 0.07725962
000320 02 df 67 3d 94 0f 02 3d 4c bb 85 bc 80 97 f9 bb
       0.05660916 0.031753138 -0.016324662 -0.007616937
000330 63 29 92 3d c0 58 4a bc 50 1e 6f 3c fe ce 66 3d
       0.071368 -0.012350261 0.014594629 0.056349747
000340 50 b3 83 3c f0 95 80 bb 56 a0 0b 3d bc 8d 94 3c
       0.016076714 -0.003924124 0.034088455 0.01813399
000350 5a 5d 2c bd 60 6a 93 3b ee ae 24 3d c0 7d ed bc
       -0.042081214 0.004498765 0.04020589 -0.028990626
000360 78 e4 ef 3c f5 8f a5 bd 0c 6a cd 3c 6e 56 83 bd
       0.029283747 -0.08084098 0.025074981 -0.064129695
000370 2d f2 5c bd 1e be 20 3d b6 49 a7 bd b4 ea 07 3d
       -0.053941894 0.03924381 -0.08168356 0.033182815
000380 76 cb 65 bd 44 88 41 bd f6 e9 19 3d 3a 9a ea bc
       -0.05610224 -0.047249094 0.03757664 -0.028637994
000390 ec 23 e4 bc c6 48 32 3d f8 b8 a6 bd 70 ce 3d bc
       -0.02784916 0.043526433 -0.08140749 -0.011584863
0003a0 20 aa 04 bb 14 b6 94 bc 4b a1 b3 3d a6 f5 24 3d
       -0.0020243004 -0.018153228 0.087709986 0.04027333
0003b0 ad c5 9d 3d 48 9b 00 bc a8 2a 77 bc e0 4c e9 3c
       0.07703719 -0.007849522 -0.015085854 0.02847904
0003c0 3f 9e a4 3d 2d b6 12 bd 72 bf 5f 3d b7 54 a2 bd
       0.080379955 -0.035818268 0.054625936 -0.07926314
0003d0 2e d2 75 3d c1 d7 85 bd 83 36 aa 3d 5a e0 26 bd
       0.060014896 -0.065352924 0.083111785 -0.040741302
0003e0 61 08 94 3d 70 0b a7 bd 9c dd 90 3c f1 82 30 bd
       0.07228161 -0.081564784 0.017683797 -0.043093625
0003f0 5f 14 0b bd 40 0c 3f 3b 45 3c a4 bd ae f2 64 3d
       -0.033954974 0.0029151589 -0.08019308 0.0558955

rnn.bias_ih_l0 f4 [128]
000000 6f 75 c1 bc 1d d6 f2 3d f8 6c 8b bd 8e e9 4f 3d
       -0.023615567 0.11857245 -0.068078935 0.050759844
000010 e3 db 4a 3d 2c 3a 97 3d 79 45 ef 3d 28 13 12 3e
       0.049526107 0.07384142 0.11683173 0.1426512
000020 35 c5 4f bd 7b 95 84 3d 89 96 34 3c 78 d8 e0 bc
       -0.05072518 0.06473824 0.0110222185 -0.02744697
000030 a4 42 13 3d f2 d3 21 3d c3 3f e7 bc 72 d0 ac bc
       0.035952225 0.039508767 -0.028228646 -0.021095488
000040 21 ff 16 3e 1d 24 c9 bd 2c eb 14 be a4 e9 05 3a
       0.14745761 -0.09821341 -0.14542836 0.00051083625
000050 82 d0 25 3e a7 ee 0f 3e fb fd c2 bd 71 4b 3e be
       0.1619282 0.14055882 -0.09521099 -0.18583466
000060 43 c7 56 3d 82 15 2c bd 82 80 d1 3d 7a a3 bb 3d
       0.052436125 -0.0420127 0.10229589 0.0916204
000070 32 53 51 be 21 d2 0d 3d 1b bc 33 3c 9c 51 6e 3d
       -0.20441893 0.034624223 0.010970141 0.058183298
000080 67 9d ef bc cd f3 86 3d 09 7b d1 bd d7 51 44 be
       -0.02924986 0.0658947 -0.10228545 -0.19171844
000090 23 59 e0 bd 74 33 8e 3d 86 6d b7 3d 66 2a cd 3b
       -0.109545015 0.06943408 0.08956437 0.006261158
0000a0 84 c0 17 3d 62 93 46 bc 6b ff d7 3d 95 2b 35 3e
       0.03704883 -0.0121201 0.10546764 0.17692406
0000b0 e6 98 66 3d 3a 70 ec ba 3f b0 09 be 2c 90 0a 3e
       0.05629816 -0.0018038817 -0.13446139 0.1353156
0000c0 29 54 12 bd a9 a9 d7 bc 7a 2f bc bd 89 f5 bf bd
       -0.035724793 -0.026326017 -0.09188743 -0.09373004
0000d0 1f 33 92 bd bb d2 08 be 70 05 39 bd b0 0d 28 be
       -0.07138657 -0.13361637 -0.0451712 -0.16411471
0000e0 d2 ae 3c 3e 57 98 71 3d 2d d6 1c 3d 60 cc 0d 3e
       0.18426064 0.058983173 0.03829019 0.13847494
0000f0 4c 00 52 3d 38 9c 3d bd 05 79 c4 3d 90 a6 bc bd
       0.051269814 -0.04629156 0.09593395 -0.09211457
000100 b1 66 60 3d 85 13 cd 3d 53 62 06 3d b8 33 33 3e
       0.054785434 0.10013489 0.032808613 0.17500198
000110 ad e6 c4 3d 4d 07 02 be 34 9d de 3d 4b 9b d8 bc
       0.096143104 -0.12698098 0.10869828 -0.026441237
000120 ae 24 14 3c d1 9d 61 3d 59 ab 04 bd 85 ae ab 3b
       0.009041948 0.055082146 -0.032389972 0.00523931
000130 f8 44 1f be eb f2 6c bc 17 d4 92 ba 19 37 a6 ba
       -0.15553653 -0.014462213 -0.0011202124 -0.0012681215
000140 a7 40 0e be e5 18 7f 3d 4f 91 cb bd b1 bb a7 bc
       -0.1389185 0.0622796 -0.09939825 -0.02047524
000150 8c 90 a7 3d 2b 58 12 3e fb 89 47 bd 01 02 bd bd
       0.08181867 0.14291446 -0.048715573 -0.09228898
000160 b6 51 8e bd 16 cf 2d be 17 d9 b5 bd 63 89 19 bd
       -0.06949179 -0.16973528 -0.08879297 -0.037484538
000170 04 2d 29 3e 13 08 21 3e 49 c7 4a be 32 b4 2a 3e
       0.16521078 0.15725736 -0.19802584 0.16670302
000180 5a 1c 8b bd ae 9a b3 3c ce 30 eb bd 08 f6 0f 3e
       -0.06792517 0.021924343 -0.11483918 0.14058697
000190 c0 4f 84 bd 41 6a 50 3e d1 5f 01 bd e1 72 4a bd
       -0.064605236 0.20353033 -0.03158552 -0.049425963
0001a0 8c 71 02 3e bb 5a 2e 3d cd e9 b9 3d 4b c2 21 be
       0.12738627 0.042566996 0.09077797 -0.15796773
0001b0 f3 07 fd 3d bb 91 9c bd 6b 79 9c bc eb 0e 5c be
       0.12355032 -0.076449834 -0.019100865 -0.21490066
0001c0 8c ec cd bd d8 bb c9 bd 07 d8 36 3e 20 76 6e 3a
       -0.10054883 -0.098502815 0.17855845 0.00090965815
0001d0 75 b6 c8 3d 5f 97 10 3e ed f7 e2 bd 70 f2 ac bd
       0.09800426 0.14120243 -0.11082444 -0.08444679
0001e0 0f 65 25 3d 70 c0 86 bd fe 41 88 bd 35 21 45 3d
       0.04037958 -0.06579673 -0.06653212 0.04812737
0001f0 49 85 28 3c 45 9c 10 3e 0a fa 24 bd a8 c5 1f bc
       0.010285684 0.14122112 -0.04027752 -0.009751715

rnn.bias_hh_l0 f4 [128]
000000 e3 d1 3d 3d 71 07 8a bc 9a e0 f0 bd 9c 76 5f 3d
       0.04634274 -0.016849251 -0.11761589 0.054556474
000010 fb 39 5a 3d 5b 20 3d 3d 07 eb 17 3e 37 d2 12 3e
       0.05327795 0.046173435 0.1483575 0.14338003
000020 9d 30 39 bd 86 b8 d0 3d 2a 84 df bd 18 65 53 bc
       -0.045212377 0.10191445 -0.1091388 -0.012902521
000030 e1 33 74 3d 38 97 ab bd 77 5d 14 be 5f c6 91 3a
       0.059619788 -0.08378452 -0.14488779 0.0011121741
000040 d9 4c 11 3e ac 7a 07 bc c2 05 02 be 1b c3 95 3d
       0.14189471 -0.008268993 -0.12697509 0.07312604
000050 b3 9e d7 3d 24 0d 29 3e 49 80 c1 3c 29 7f e4 bd
       0.10528316 0.16508919 0.023620741 -0.111570664
000060 61 fd 55 3d 8e 54 3f bd f6 76 0a 3e 00 c3 bd 3a
       0.052243594 -0.046711497 0.13521942 0.001447767
000070 a3 53 0b be e7 93 0a bd 0e 23 c2 bc e8 59 5c 3d
       -0.13606124 -0.033832457 -0.023698356 0.05379668
000080 80 34 a0 bd 22 07 6e 3d 8c 2d e7 bd 59 f0 66 be
       -0.078225136 0.05811227 -0.11287984 -0.22552623
000090 a4 db 04 be 59 68 8f 3d b8 6d 8d bd c4 de 13 3d
       -0.12974411 0.070023246 -0.06905693 0.036101118
0000a0 dd 20 19 bd 8d ca d8 bc fc 8c 8a 3c 93 60 dc 3d
       -0.037384856 -0.026463771 0.01691293 0.107606076
0000b0 29 c7 82 3d 3a 5a 82 bd af fa 1c be c4 f4 f0 3d
       0.06385643 -0.063648656 -0.15330003 0.11765435
0000c0 37 f1 1a bd b6 a6 6c 3d 8d d6 b8 bd 87 a6 f6 bd
       -0.037827697 0.057776175 -0.09025297 -0.12043481
0000d0 fb 42 13 be e2 ea 82 bd fe fb 00 3d 01 ba 09 bd
       -0.1438102 -0.063924566 0.03149032 -0.033624653
0000e0 3b be a0 3d c8 7a 2c 3e f7 96 e4 bc 25 40 d9 3d
       0.078487836 0.16843712 -0.027904017 0.10607938
0000f0 7c 8e 06 3d 3f 1d da 3d c1 83 f3 bc b0 a3 ca bd
       0.032850727 0.106501095 -0.029725911 -0.09894502
000100 70 77 b5 3d e9 d3 58 bd 02 df a5 3c 39 b8 08 3e
       0.088606715 -0.05293647 0.02024794 0.13351525
000110 a3 4c 7b 3d 37 1a 67 bd 82 8e 15 bd 1a 56 85 3d
       0.061352383 -0.056421485 -0.03651286 0.06510563
000120 14 60 49 3d dd 09 af 3d b9 6f 49 3d 7e a3 7d 3d
       0.049163893 0.08546803 0.049178813 0.061923496
000130 fc aa 92 bd 0a db 06 bd fd f9 9d bc 81 f5 ba bc
       -0.07161519 -0.032923736 -0.019284243 -0.022822144
000140 42 90 0c be d1 95 a7 3d 02 3f 57 be 5a 43 95 3d
       -0.13726905 0.08182872 -0.2102013 0.07288237
000150 ce 4b 19 bd c8 ae 23 3e bd db 00 3d b6 17 60 3c
       -0.03742581 0.15984643 0.03145956 0.013677528
000160 19 c1 93 bd 6d 9b 9b bd f5 28 a5 3b 65 8a b4 3d
       -0.07214565 -0.075980045 0.005040283 0.08815459
000170 38 ed 6d 3e 33 92 35 3d 07 af 2a be a3 5b a3 3d
       0.23235023 0.04432888 -0.1666833 0.07976463
000180 ec e2 97 bc 79 76 01 3e 3f 1c 7c bd 12 bd 81 3d
       -0.018540822 0.1264285 -0.061550375 0.063348904
000190 69 84 0d bd cc f0 54 3d 82 0c 5a 3d e5 d4 26 bd
       -0.034550104 0.051987454 0.053234585 -0.040730376
0001a0 56 b6 a6 3d 62 be 14 3e af a5 24 bd b1 b2 f7 bd
       0.081402466 0.1452575 -0.04019707 -0.120946296
0001b0 9c 59 81 3d 56 2b a4 bc d6 dc 01 3e 40 9a 3a be
       0.0631592 -0.020040195 0.12681898 -0.18222904
0001c0 e8 86 ad bc 7e 5e f2 bd a7 92 42 3e d1 cb 7a bd
       -0.021182492 -0.11834429 0.19001256 -0.06122953
0001d0 7f e2 12 3e 33 ae fa 3b ac 70 2c be 04 8d d1 bc
       0.14344214 0.0076501607 -0.16839856 -0.025579937
0001e0 bf 9a a8 3d 52 e1 f0 3c ba 04 2a 3c 17 c2 6c 3c
       0.082326405 0.029404316 0.010377103 0.0144505715
0001f0 c9 92 ba 3d 41 87 07 3e 94 f1 dc bb 2d d2 72 bc
       0.09110028 0.13235189 -0.0067426655 -0.014820618

rnn.weight_ih_l1 f4 [128, 128]
000000 b1 4a 0a 3d 61 49 47 be c2 6f 79 3e b7 7d ae 3d
       0.033762638 -0.19461586 0.24359038 0.08520072
000010 b1 3d a9 bd 0b 3e 9c 3d b0 20 8c bc 0d 8e fa 3c
       -0.0826372 0.07629021 -0.01710543 0.030585313
000020 fb 14 18 3e 51 1b 94 bd d0 aa 7e 3d 67 01 15 3e
       0.14851753 -0.07231773 0.06217462 0.14551316
000030 a7 3b 26 bb 3d 3d 89 bd e9 db 27 bc d2 b3 8b bd
       -0.0025365145 -0.067011334 -0.010245302 -0.068214074
000040 db bf 67 bd e8 b3 ca bc 07 7e 89 3d 7a 69 15 be
       -0.056579452 -0.02474399 0.06713491 -0.14591017
000050 7b cb 29 be a7 37 d0 bd 1b e9 f8 3d 8b 7c 41 3e
       -0.16581528 -0.10166865 0.12153836 0.18895166
000060 59 b2 0b 3e f8 cb a2 bd 45 a9 89 bd ce 8f c3 bd
       0.13642253 -0.0794906 -0.06721739 -0.09548913
000070 e2 e7 a9 3e b1 48 1d bc 3a d8 97 3c 7c a0 07 3b
       0.33184725 -0.0095998505 0.018535722 0.0020695021
000080 47 73 ea 3d df 1f 06 be a6 4f 97 3d 70 98 58 3e
       0.11447769 -0.13098095 0.073882386 0.211519
000090 69 d0 30 bc 3b c6 37 3d 6b e3 d6 3c cf 9b cb bd
       -0.010791876 0.04486678 0.026231488 -0.099418275
0000a0 ca fb f9 3b d8 37 bf ba 92 d3 c9 bd 0a d9 2a be
       0.0076288925 -0.0014588786 -0.09854807 -0.16684356
0000b0 2c ce 1b 3d e8 68 4a bd c0 ca fc 3d 81 e6 29 bd
       0.038038418 -0.049416453 0.12343359 -0.04147959
0000c0 69 b0 1f 3e b3 b3 7d 3c b8 6b 80 3d e2 1f ea 3d
       0.15594639 0.015484738 0.06270546 0.114318624
0000d0 15 4f 48 3d af 35 45 3e a4 4a 00 3e d9 a5 a7 3d
       0.048903544 0.1925876 0.12528473 0.0818593
0000e0 0f 2e d5 bc 4c fa 0b bd 80 44 8f bd ec f9 90 bd
       -0.026022939 -0.03417425 -0.06995487 -0.07078919
0000f0 bc eb 08 3d d8 30 90 3c f7 fe e6 bc 8c 3e 1d 3e
       0.03342794 0.017601416 -0.028197749 0.15355891
000100 cd 69 60 be 08 0f 1e 3c 50 47 12 3d 91 ba 66 be
       -0.2191536 0.009647138 0.03571254 -0.22532107
000110 57 05 51 be ff a1 7c bc fa 86 62 3d 82 1e ec bd
       -0.20412193 -0.015419482 0.055304505 -0.115292564
000120 ae 20 6b 3e 2f d6 a8 bc f2 ed b8 bd 0d 9a 17 3e
       0.22961685 -0.020609943 -0.090297595 0.1480486
000130 bf f1 22 3d 01 35 07 bd 64 d2 06 3e 47 bc 26 3e
       0.03978133 -0.033009533 0.13166195 0.1628276
000140 ed 08 d9 bc 6f 76 fa 3b e4 e8 1a 3d 58 bf 56 bd
       -0.026493514 0.007643513 0.037819758 -0.052428573
000150 a5 35 8e be 86 ef dc bd a0 73 22 be db 7a 60 3e
       -0.27775303 -0.10787873 -0.1586442 0.21921866
000160 ca c4 07 3e bd 0a 9d 3d 02 e9 cd 3b 78 b0 aa bd
       0.13258663 0.07668064 0.00628388 -0.0833444
000170 d1 69 2f bc b4 81 84 be d7 65 9e 3d 8e 90 c0 bc
       -0.010706381 -0.25880206 0.07734268 -0.023506429
000180 97 3e c1 bc 66 7c d2 bd 52 ee 13 3d f8 c5 d8 3b
       -0.023589415 -0.10277633 0.03611595 0.0066153966
000190 9a 98 fc 3d a0 c7 c5 3d ac 39 cd 3d 87 6e b7 3c
       0.12333794 0.09657216 0.10020766 0.02239157
0001a0 32 9f 9e bd ab 22 e0 bd 09 10 65 3c 80 06 52 3e
       -0.07745208 -0.109441124 0.013980874 0.20510292
0001b0 13 cb 3c be 71 02 9f 3c f5 3c 30 3d 77 a0 1a 3d
       -0.18436842 0.019410344 0.043026883 0.037750687
0001c0 2b f6 13 3d 41 90 15 be 5b 0c f7 bc b4 93 86 bd
       0.036123436 -0.1460581 -0.030157259 -0.06571141
0001d0 34 5c f3 3c 6d 4a 81 bc 4a 54 12 bd e4 35 76 3c
       0.029707052 -0.01578256 -0.035724916 0.015027497
0001e0 57 98 81 bb 30 7f 66 bd 29 1d 25 3e 68 b4 33 be
       -0.003954928 -0.05627364 0.16124405 -0.17549288
0001f0 b7 67 04 bd d5 9d 41 bd 4a 56 f9 bd 1a 3d cd bd
       -0.032325473 -0.04726966 -0.121746615 -0.1002142
000200 e6 7d b3 3b b5 80 44 be 1c 26 1c 3e 8a 83 bd bc
       0.0054776547 -0.19189723 0.15248913 -0.023134012
000210 d9 41 15 bd 79 70 10 3e 15 dc 15 3d 0b d1 7d bd
       -0.03643975 0.14105405 0.03658684 -0.061966937
000220 10 25 55 bd 5a 1e 3e 3c 4e 43 0a 3e 26 40 0f 3e
       -0.0520373 0.011603916 0.13502237 0.13989314
000230 eb ce 2c bd f0 cc 2d 3b 35 54 19 bd 27 1d 0f be
       -0.04218952 0.0026519857 -0.03743382 -0.13975964
000240 38 ed 90 bd 3f a5 a0 bd 57 7e 20 3d 66 24 ab bd
       -0.07076496 -0.07844018 0.039182987 -0.08356552
000250 10 f1 a4 bc ca eb 0d be 3f f0 33 3e e0 a9 44 3d
       -0.020134479 -0.13859478 0.17572115 0.048013568
000260 4b 14 e1 3d 4a be c2 bb 25 75 0c bd 49 11 07 be
       0.10990199 -0.0059430944 -0.034291405 -0.13190188
000270 c5 d1 b3 3c c7 e9 91 3d e1 a2 86 bd b1 e8 bd bd
       0.021950612 0.071246676 -0.065740354 -0.09272898
000280 93 95 d0 bc d3 95 e8 bc 7c 01 be 3d d7 d7 eb 3d
       -0.025461948 -0.028391754 0.09277627 0.115157776
000290 cd 6a a5 3d 36 4b 76 bd b0 68 39 bb 65 c3 78 bd
       0.08077011 -0.06013032 -0.0028291158 -0.060733218
0002a0 46 d2 a9 3d 31 71 6c 3d 48 42 fa 3c 74 e8 8e bc
       0.082920596 0.057725135 0.030549183 -0.017444827
0002b0 32 a3 01 3e 68 51 06 bb d2 7d e6 3b ce 2b 8c 3c
       0.1265991 -0.00204953 0.007034042 0.017110731
0002c0 1f d3 01 3e 08 1d 50 bd 98 ca d7 3c 30 63 04 3e
       0.12678193 -0.050808936 0.026341721 0.12928462
0002d0 73 bf 3a 3e 01 80 27 3d a3 c0 5a bd 50 85 51 3e
       0.18237095 0.04089356 -0.05340637 0.20461011
0002e0 4d a9 f8 bc 1e 42 0f bb 34 2e b1 bd d5 97 0a 3d
       -0.030354166 -0.0021859477 -0.08651391 0.033836205
0002f0 9d d2 48 bc 7e 6b e1 bd f0 9c e8 bd 0f a9 0b 3d
       -0.012257245 -0.11006831 -0.113580585 0.034096774
000300 48 40 51 be 5d b6 b5 3d 41 60 fe 3c ef 29 4d be
       -0.20434678 0.08872674 0.031051757 -0.20035528
000310 3d 28 05 be ad 6c dd bb 36 5f af 3d 5b 8f 00 bc
       -0.13003631 -0.00675734 0.08563082 -0.007846679
000320 91 a6 1f 3e 5a 8e e8 bb 00 17 d8 bd cb 47 b5 3d
       0.15590884 -0.0070970478 -0.10551262 0.08851584
000330 66 28 46 3e da 25 df bd 29 78 12 3d 4c e8 c5 3d
       0.19351348 -0.108958915 0.035759125 0.09663448
000340 3d b7 e7 3c a2 be 07 3c cc 95 00 3e cc ed 96 3c
       0.028285617 0.0082851965 0.12557143 0.018423937
000350 ec 6a ba bd 3c 3d f2 bd b2 4c 34 3c 4a ee 3e 3e
       -0.09102425 -0.11828086 0.011004614 0.18645588
000360 d2 ad 07 3e 2b b9 68 bc 7a b8 65 bb 3a db 73 3a
       0.13249901 -0.014204304 -0.0035052584 0.00093023817
000370 e1 39 29 be 0c b7 07 be 8f dc 09 bb 24 e6 d3 bd
       -0.16525985 -0.1325342 -0.0021036004 -0.1034663
000380 77 23 68 3d 7d 79 11 bc 14 1d 20 3e c1 e3 41 bd
       0.056674447 -0.008879063 0.15636092 -0.047336344
000390 f0 79 0d 3e 41 51 78 bd e5 5b 04 3e 54 3a b9 bc
       0.13816047 -0.060624365 0.1292568 -0.02261082
0003a0 7f c4 f5 3c bb 1d 1b be 34 e7 a1 bd 2d 62 0a 3e
       0.030000923 -0.1514806 -0.079054266 0.13514014
0003b0 83 f1 a7 bc 42 2d 42 bd 4e 84 99 bc d9 88 20 3e
       -0.020500904 -0.047406442 -0.018739846 0.15677203
0003c0 64 0c fd 3c 29 bf 40 bd a9 e4 32 bd 2d bc d7 bd
       0.030889697 -0.047057305 -0.0436751 -0.105339386
0003d0 e9 e3 95 bd c9 a0 08 be 99 18 97 3d 7a df 4c 3e
       -0.07318861 -0.13342585 0.073777385 0.20007125
0003e0 77 6d 6d bc 9a 20 2c be 36 c7 32 3e 55 42 68 be
       -0.0144914305 -0.16809312 0.17458805 -0.22681554
0003f0 1c 12 4b bd fa b5 23 3d 3d 5e 98 bc 99 e9 a1 3b
       -0.049577817 0.03996847 -0.018599624 0.004941177

rnn.weight_hh_l1 f4 [128, 128]
000000 23 69 98 3d 90 15 bf 3b 72 71 fd bc 7f 04 8f 3d
       0.07441928 0.005831428 -0.030937884 0.069832794
000010 b9 87 17 bd 82 1d 91 bd 84 46 9e bc 62 2d a8 bd
       -0.03699467 -0.07085706 -0.019320734 -0.08211781
000020 4d 14 85 3d a4 83 f7 3c a4 3d 00 3d fc 21 83 bd
       0.06498013 0.030214138 0.031308785 -0.064029664
000030 60 08 99 bb 19 7b 23 bd 92 15 19 3d 01 34 b1 bd
       -0.004670188 -0.039912317 0.037374087 -0.08652497
000040 c0 e2 e4 bb 9c 47 e1 3c aa 37 0b 3d e1 f4 99 bd
       -0.0069850385 0.027499966 0.033988632 -0.0751741
000050 76 e5 4e 3d 19 f5 a3 3d bc e9 92 3c a3 22 8e 3d
       0.0505118 0.08005733 0.017933719 0.069402
000060 00 ac cb b8 8c 58 9a 3c 9f f9 13 bd d8 b5 e7 3c
       -9.711832e-05 0.01884105 -0.03612673 0.028284952
000070 4c 38 71 bd 20 b7 31 3c 1e 16 ab bd 80 9f 75 3b
       -0.05889158 0.010846883 -0.08353828 0.0037479103
000080 ae 2c a5 bd 48 fd 34 bd 54 84 ea bc 81 9d 7b bd
       -0.080651626 -0.04418686 -0.028627552 -0.061429504
000090 db 52 06 bd ae 30 23 3d 40 ee b2 bd 4a b5 7c 3d
       -0.03279386 0.039841346 -0.08736849 0.06169633
0000a0 b0 93 e5 bb c2 6f 8f bd dd a1 ab 3d 3f 4c 94 3d
       -0.007006131 -0.07003738 0.08380482 0.07241105
0000b0 01 c4 5c bd c7 2a 57 bd fa 13 31 3d e0 62 66 bb
       -0.05389786 -0.05253103 0.04323194 -0.003515415
0000c0 f8 47 86 bd ef 0f 3b bd 8c b0 d8 3c db de 9e 3d
       -0.06556696 -0.045669492 0.026451372 0.0775735
0000d0 a0 ff b0 bc c6 dd 58 3d af f9 5d bd 88 86 2a 3c
       -0.021606266 0.052945875 -0.054193195 0.010408051
0000e0 20 8f 9f bc 88 63 ee 3c b9 d9 a7 3d 7a 42 34 3d
       -0.019477427 0.029100195 0.08195824 0.04400871
0000f0 e0 e0 a5 bb c9 25 a4 bd cd fd ad 3d c0 19 df ba
       -0.0050622076 -0.080150194 0.08495674 -0.0017021224
000100 d2 79 63 bd 62 ba 57 3d 00 5f af 3c 54 0f 00 3d
       -0.0555361 0.052667983 0.021407604 0.031264618
000110 9a 57 07 bd 6b 36 9f 3d f0 27 c0 bb a7 06 ac 3d
       -0.033042528 0.07774051 -0.005864136 0.08399706
000120 c0 e3 89 ba 4a d3 50 3d 9a 12 68 bd 89 93 98 bd
       -0.0010520145 0.05098275 -0.056658365 -0.07450015
000130 7d 83 46 bd 75 ca 8d 3d 60 ef 1c 3c 3c 0c ee 3c
       -0.04846524 0.06923381 0.009578556 0.029058568
000140 30 66 50 bd e0 e5 33 bd ac f7 84 bc 62 1e 63 bd
       -0.050878704 -0.043920398 -0.01623138 -0.055448897
000150 95 7e b4 3d ca 46 00 bd 8e 63 a4 bd d0 8c 90 bd
       0.08813206 -0.03131751 -0.08026801 -0.07058108
000160 eb a6 b3 3d 10 ea 29 bc 98 0d b1 bd 08 3f 14 3c
       0.087720715 -0.010370746 -0.08645171 0.009048231
000170 72 45 14 bd 00 72 a3 b9 40 57 fa bc 62 98 69 bd
       -0.03619904 -0.0003117472 -0.030559182 -0.05703009
000180 85 07 03 bd f7 8a 9b bd 26 d5 52 bd 65 8e a4 3d
       -0.031989593 -0.07594865 -0.051472805 0.08034972
000190 3c 65 b2 3c 60 79 eb 3c 52 37 5e 3d fb 75 b3 3d
       0.021776788 0.0287444 0.054251976 0.08762737
0001a0 c0 89 60 bb dc 84 8a bd 50 e6 5e 3c e2 cf 17 3d
       -0.0034261793 -0.06763622 0.0136047155 0.037063487
0001b0 00 1e 00 3c 6d eb 36 bd 8a 71 26 3d 32 07 80 bd
       0.007819653 -0.044658113 0.040635623 -0.062513724
0001c0 13 e3 81 3d 1a 3c 33 bd 3e 93 4c 3d 20 3a fd 3b
       0.06342139 -0.04375849 0.04994511 0.0077278763
0001d0 72 53 14 3d 07 96 5b bd 40 ec 87 bd 00 e5 53 3a
       0.036212392 -0.053609874 -0.06636858 0.0008083135
0001e0 e6 3a 34 3d 86 eb 1f 3d cb 1a 8c bd 12 8b 51 3d
       0.044001482 0.039042972 -0.06841048 0.05115802
0001f0 43 ad 6c bd c3 32 a7 3d 80 5b 1e 3c 70 68 f3 3b
       -0.057782423 0.08163979 0.00966537 0.0074282214
000200 44 05 b5 bc 6c 64 af 3c 85 0b a7 bd 1a 82 2a 3d
       -0.022097237 0.02141019 -0.08156494 0.04162798
000210 20 4d 08 3b 04 99 08 3d de 11 42 3d 9d 07 9d 3d
       0.0020797923 0.033349052 0.04738032 0.07667468
000220 10 2c d8 bb 00 d7 bc b9 56 4c 45 3d b4 37 ba bc
       -0.0065970495 -0.00036018342 0.048168503 -0.02273164
000230 b0 d5 a2 3b 83 5c 90 3d 68 11 69 bc 50 64 25 3c
       0.004969321 0.07048895 -0.014225341 0.010094717
000240 f0 b8 a1 bd ac 40 dc 3c 68 35 4d 3c f3 be 8f 3d
       -0.07896602 0.026886307 0.01252494 0.070188425
000250 72 43 a4 bd 30 05 d4 3c b5 91 98 3d 48 8c 07 bd
       -0.08020677 0.02588138 0.074496664 -0.033092767
000260 d6 04 66 bd d3 d0 83 3d 78 db 00 bc e0 cb 92 3b
       -0.056156956 0.064363144 -0.007864825 0.00447987
000270 4c 0b 14 3d 18 a5 99 bd 84 57 c4 3c 5a 05 69 bd
       0.036143586 -0.07502192 0.023967512 -0.05688987
000280 45 ac ab 3d 70 56 94 bb a0 24 48 bb 94 a1 98 3c
       0.08382467 -0.0045269057 -0.0030539408 0.018631734
000290 76 79 4b 3d d8 de 38 3c 60 96 51 bc 93 70 35 bd
       0.04967638 0.011283599 -0.0127922 -0.044296812
0002a0 73 81 a0 3d ec 77 90 bc 00 ac b0 39 28 fb c5 bc
       0.078371905 -0.017635308 0.00033697486 -0.024167612
0002b0 a7 80 17 bd 07 c2 b0 3d a8 6a 1f 3c 78 c9 12 3c
       -0.036987927 0.08630758 0.009730019 0.008959167
0002c0 e0 40 5e 3b c0 4e 4c 3c 9d 57 94 3d 47 35 b0 3d
       0.003391318 0.012469947 0.072432734 0.08603912
0002d0 7e a5 45 3d 9e 43 17 3d 4c 8a c0 bc 8d e4 02 bd
       0.04825353 0.03692972 -0.023503445 -0.031956244
0002e0 ec 58 d3 3c 7d 49 9a bd 00 e9 ac ba 50 cb 9a bd
       0.025799237 -0.07533548 -0.0013191998 -0.0755831
0002f0 78 69 50 3c 7b c8 98 3d d0 35 61 3c 6e c3 2c bd
       0.012720458 0.074601136 0.01374574 -0.042178564
000300 a5 46 3b bd 20 6c 6b bb a0 29 50 bb 6e 3c 00 3d
       -0.04572167 -0.0035922602 -0.0031763092 0.03130763
000310 50 5a 31 bc a4 51 2e bd d5 64 3f bd ab 0b a5 bd
       -0.010824755 -0.042558327 -0.04672702 -0.08058866
000320 c7 89 8f 3d fd 02 1d bd b1 c8 a5 bd 9d bb 85 3d
       0.07008701 -0.038332928 -0.080949195 0.06529925
000330 88 4d 87 bd 09 9d a9 bd ad 62 ae 3d 2c f2 9e 3c
       -0.06606585 -0.08281905 0.08514915 0.019402586
000340 a8 6c 91 bc c8 92 2b 3c b5 5e 8f 3d 6b 96 3f bd
       -0.017752007 0.010472007 0.07000486 -0.04677431
000350 3f 7c 80 3d fd 46 80 3d 59 a5 98 3d 18 6e 3b 3c
       0.06273698 0.0626354 0.074534126 0.011439823
000360 a0 97 a5 bd 17 4e 59 bd e8 6a 19 bc 2b 0a 85 3d
       -0.08085561 -0.053052988 -0.009363867 0.0649608
000370 6e 61 3f bd 85 a1 9a 3d 52 e4 5d 3d ce 9f 57 3d
       -0.046723776 0.07550339 0.05417282 0.052642636
000380 8d 96 83 3d 72 a6 72 3d dc 15 9e 3c f1 96 3e bd
       0.064252 0.059240766 0.019297533 -0.046530668
000390 c1 d7 82 3d 16 f0 54 3d dc a0 dd 3c 14 4c eb 3c
       0.06388808 0.051986776 0.027054243 0.0287228
0003a0 60 c6 89 3c 11 f3 80 3d ff f8 a9 3d f8 37 56 bc
       0.016818225 0.06296361 0.08299445 -0.013074867
0003b0 52 4e 48 bd 95 a6 88 3d 90 68 ef bb 05 3e 21 bd
       -0.048902817 0.06672398 -0.007306166 -0.039365787
0003c0 5b 33 9d 3d 09 c5 9a 3d 44 f3 81 bd 36 58 06 3d
       0.07675811 0.07557113 -0.06345227 0.03279897
0003d0 6f 45 87 bd d4 20 94 bd da 1c 89 bd 9b 20 87 3d
       -0.0660504 -0.07232824 -0.06694956 0.06598016
0003e0 88 35 bf bc 16 40 2b 3d 47 8c 62 bd 14 ed c1 bc
       -0.023340955 0.041809164 -0.05530956 -0.023672618
0003f0 ec ab a2 bc 50 fe 0e bc 2b d3 59 bd a9 75 92 3d
       -0.01985737 -0.008727625 -0.0531799 0.07151348

rnn.bias_ih_l1 f4 [128]
000000 8d c7 9b bd 3b 37 7a bd ed 13 bb 3d 3e 6e eb bb
       -0.07606421 -0.061087828 0.0913466 -0.0071847728
000010 62 49 41 be ab 6e 99 3c c9 1a 3e 3e 30 d7 f7 bd
       -0.1887565 0.018729528 0.18564905 -0.12101591
000020 e7 cd b5 3d c0 4a ca 3d 46 ee 0c 3c e1 0a 06 3d
       0.088771634 0.09877539 0.008601731 0.03272522
000030 1b 7a d0 bd b6 ea 8b 3d f8 9a a5 3c 81 c0 0e 3e
       -0.1017954 0.06831877 0.020215496 0.13940622
000040 61 3f 92 3d 13 52 67 3d 88 05 1b 3e 4c 26 49 bd
       0.07140995 0.056474756 0.15138829 -0.04910879
000050 33 54 36 3d 04 65 a0 bd 39 f1 a0 3c 38 dc d9 3d
       0.044513892 -0.07831767 0.019646274 0.106377065
000060 bd d9 4f 3e b4 ac 5a be 94 37 24 3e a2 ec d7 3d
       0.20297904 -0.21354944 0.16036826 0.10543181
000070 e2 03 12 bc 88 09 f9 3d 53 47 d8 3d 80 a6 2a be
       -0.008912059 0.12160021 0.10560479 -0.16665077
000080 2c b2 b2 3d 21 46 3c bc 26 e6 e7 3d 41 47 a6 bd
       0.0872539 -0.011491329 0.11323194 -0.08119059
000090 89 98 ad bd 06 a2 a1 3d 75 ad 8d 3c fb a8 ed bd
       -0.084763594 0.07892232 0.017294625 -0.11604496
0000a0 c3 be 25 3d 06 2a bf 3d c0 32 b0 3d e5 da af 3d
       0.040465128 0.09334187 0.0860343 0.08586673
0000b0 43 0a ba bd 22 83 f3 3c 34 e2 bf 3d b0 c8 da 3c
       -0.090839885 0.029725615 0.09369317 0.026707023
0000c0 65 bf 3a bd a8 a9 0b bd fd 65 fa 3d 0b e2 ae 3d
       -0.045592684 -0.034097344 0.12226484 0.08539208
0000d0 15 21 49 3d d5 d3 0d 3e 4b 8d 99 3c a8 b5 ba 3c
       0.049103815 0.13850339 0.018744132 0.022791699
0000e0 dd 03 2f bd f2 87 07 3e 16 df b9 3d ea dd 92 bc
       -0.042728294 0.13235453 0.090757534 -0.017928082
0000f0 a8 ca c4 3c f4 56 fc 3d 6e 15 cd bd e3 f6 c0 ba
       0.024022415 0.123212725 -0.10013853 -0.0014722015
000100 15 4c 3f bd 88 ce 3e 3e c6 ca 7b 3e e3 b7 ce bd
       -0.046703417 0.18633473 0.2458907 -0.10093667
000110 e9 a8 e3 bd 85 db 2b 3e 90 14 2f 3d 39 9a df 3d
       -0.111162014 0.16782959 0.04274422 0.109180875
000120 ac db 0b bd 81 be fd bd 6d 30 a4 3d 90 22 93 3d
       -0.034145042 -0.12389851 0.08017049 0.07184327
000130 f3 c2 d2 bd 72 d6 07 3e 08 bf 08 be ce b3 d2 3c
       -0.1029109 0.13265398 -0.13354123 0.025720503
000140 c1 7b d9 bd 9f f1 d5 3d e3 07 49 bd 8d 60 f3 3d
       -0.10619307 0.10446476 -0.049079787 0.1188365
000150 df 04 da 3d fd 6a 7f bc 6e c4 38 be 76 48 c8 bd
       0.1064546 -0.015589473 -0.18043682 -0.09779446
000160 9a 58 d7 3d 3f bb 2b be 53 fc 2d 3e 33 e1 13 3e
       0.10514946 -0.16770647 0.16990785 0.14441375
000170 00 8b 63 bd 5d 40 1e 3e 89 ce a1 3c 7c 13 79 3c
       -0.055552483 0.1545424 0.019751804 0.015202399
000180 55 d5 88 3b 43 cc 9b bd c4 af 94 bd c6 1f 2a be
       0.004175822 -0.07607319 -0.07260087 -0.16613683
000190 e8 8b 98 3c d5 12 f6 bb d5 06 fe 3d bd 14 ad 3d
       0.0186214 -0.007509569 0.12403647 0.08451221
0001a0 99 11 e4 bd 3a 55 36 3e 3c cc 8b bd 44 e8 27 3c
       -0.11136169 0.17805949 -0.06826064 0.0102482475
0001b0 39 df 46 3d 23 7e 40 3d 0a 93 00 3e 1c 33 b1 bd
       0.048552725 0.046995293 0.12556091 -0.086523265
0001c0 30 2f 05 3d 23 69 2c 3e a9 23 1a 3d 31 43 27 3e
       0.032515705 0.16836981 0.037631664 0.16334225
0001d0 3a 6e a2 bd fa 97 83 3b db da 97 bd 2c 8c 76 bd
       -0.0793118 0.0040159198 -0.0741479 -0.060192272
0001e0 4b e1 33 be 9d 94 b1 bd d7 ca 69 bd b9 ab 80 bd
       -0.17566411 -0.08670924 -0.05707821 -0.062827535
0001f0 e8 99 01 3d 1c e2 79 be f8 2c c2 bd a7 30 01 bd
       0.031640917 -0.2440266 -0.09481233 -0.03154054

rnn.bias_hh_l1 f4 [128]
000000 8e 93 00 bd 6c b3 6f 3c b3 ca c8 3d 40 e6 08 3e
       -0.03139072 0.01463018 0.09804287 0.13369083
000010 35 6c b6 bd 89 cb 4c 3d d9 ba 52 3e b0 12 80 be
       -0.089073576 0.049998794 0.20579089 -0.25014257
000020 16 09 2d 3d 50 b3 de 3c e0 14 68 bc b1 01 25 3e
       0.042244993 0.027185112 -0.014165133 0.16113926
000030 d0 ed f9 bc 21 63 18 3e 1f a3 81 bd 6f e5 a9 3d
       -0.030508906 0.14881565 -0.06329941 0.08295714
000040 c7 a2 61 bd 3a 4c 59 bc 04 2d 40 3e 59 72 08 be
       -0.055086877 -0.013262803 0.18767172 -0.1332487
000050 4d 13 e3 3d e5 ba 41 3d 59 be c6 3d a4 75 5d bc
       0.11087666 0.047297377 0.09704275 -0.013516817
000060 f5 a4 19 3e f5 cb 6d bd 89 50 4e 3d fa da ba 3d
       0.15004332 -0.058055837 0.050369773 0.09123798
000070 07 d6 03 bd 2e 9c bc 3d 00 d0 22 3e cd 0e c5 bd
       -0.032186534 0.092094764 0.15899658 -0.09621964
000080 7e 24 b5 3d 4e 14 a2 3b 27 2a bd 3d 5a 69 13 bc
       0.08844851 0.004946268 0.092365555 -0.008997286
000090 91 fd 85 bd 43 a0 fb 3c d0 d5 2d bb ad c8 13 bd
       -0.065425046 0.030716067 -0.0026525147 -0.03608005
0000a0 9b d8 23 3d 52 ef 0a 3d e6 38 d5 3d be 2f 76 3d
       0.040001493 0.03391964 0.10411243 0.060104124
0000b0 08 75 b7 bc a5 d3 2a 3e 47 7e 67 3e 87 c8 ac 3d
       -0.022394672 0.16682298 0.22606765 0.08436685
0000c0 d0 47 96 bd 27 a8 d2 3c b8 f3 7a 3d c1 e3 57 3e
       -0.07337916 0.025714947 0.061267585 0.21082975
0000d0 d1 83 53 bd 9a 86 d7 3d 74 f8 cd bd cb e5 b7 3d
       -0.05163938 0.1052372 -0.10057154 0.089793764
0000e0 6b 3d 9e 3c de 51 7c 3c 28 5b ea 3d 9d c0 c3 bd
       0.019316396 0.015400378 0.11443168 -0.095582224
0000f0 1c bb 8f bd d0 a9 d2 3d 9d 51 fc 3c 6e 11 9a 3c
       -0.0701811 0.102862954 0.030800635 0.01880714
000100 f7 e3 e7 3d 2b 3c d8 3d 76 95 aa 3d d1 23 3f 3d
       0.11322778 0.10558351 0.08329289 0.046665017
000110 18 dc 3b bd 43 68 8a 3d 58 e7 bd bc 21 41 96 bc
       -0.045864195 0.067581676 -0.023181602 -0.018341603
000120 2a e7 34 3c 34 ed 7d be 92 1e 0d 3e 00 51 44 3e
       0.011041442 -0.24797517 0.13781193 0.19171524
000130 d1 aa 00 be ab 8a b5 3d 5d cf a1 3c 1c a1 2e 3d
       -0.12565161 0.088643394 0.019752199 0.042634115
000140 e8 1c 06 be 36 98 6d 3d 67 3a 99 bd 52 2e 2c 3e
       -0.13096964 0.058006488 -0.074818425 0.16814545
000150 d1 61 9b 3c 73 83 92 bd de cc d1 bd 1a a6 2c be
       0.018967541 -0.07153978 -0.102441534 -0.16860238
000160 bd 86 38 3e 9d 88 21 be ce 17 19 3e e0 a9 d1 3d
       0.18020149 -0.1577477 0.14950487 0.10237479
000170 b4 15 08 bd 18 ce 0c 3e 15 61 ec 3d 5c 86 e2 3d
       -0.033223823 0.13750494 0.115419544 0.11060783
000180 70 b1 1f bd c3 10 99 bd a4 79 ab 3c f3 53 14 bd
       -0.038987577 -0.074739 0.020932026 -0.036212873
000190 03 70 24 bd 54 20 00 3d 2e 44 8b 3d 68 bf c0 3d
       -0.040145885 0.03128083 0.068001136 0.09411508
0001a0 50 27 2c be 61 43 70 3d 3f 69 b4 bd 5b 8b d2 3d
       -0.16811872 0.058658008 -0.088091366 0.10280486
0001b0 84 d6 a5 3d a7 2e c0 3d 2c c5 1d 3e 53 2e a5 bd
       0.08097556 0.09383898 0.15407246 -0.08065476
0001c0 90 a7 64 bd f1 d7 9d 3d 88 d5 82 bd da 6a fa 3c
       -0.055823863 0.07707203 -0.06388384 0.030568529
0001d0 ba 05 f6 bc ad bf 4b 3d 6b 87 02 bd b3 fd 01 be
       -0.030032028 0.049743343 -0.031867426 -0.12694435
0001e0 f3 48 08 be 5a 67 12 be 6d 10 d0 bd f5 e1 e5 bd
       -0.13309078 -0.14297238 -0.10159383 -0.112247385
0001f0 fd 53 0c be b0 7e 23 be 38 b6 fb bd 79 e6 d8 3c
       -0.13703914 -0.15966296 -0.12290615 0.026477085

rnn.weight_ih_l2 f4 [128, 128]
000000 7c 55 10 3e ad d1 04 3d dc dd f0 3d 76 47 2a be
       0.1409511 0.032426525 0.11761066 -0.16628823
000010 9f ee 45 3e 03 69 7d be d8 f9 44 bd de 9f 9a 3d
       0.19329308 -0.2474709 -0.048089832 0.075500235
000020 2f d2 ab 3c 2d 83 96 bd 96 96 9f 3c 2a 8d 27 be
       0.020974247 -0.073492385 0.019480985 -0.16362444
000030 df d3 a4 3d c3 98 50 be f0 18 45 bd 5f fb f8 3d
       0.08048224 -0.20370774 -0.048119485 0.1215732
000040 12 27 d1 3d 43 ea 90 bc 25 3e 90 bc c5 ef 3c bd
       0.1021253 -0.01768983 -0.017607758 -0.0461271
000050 91 c9 2f be 84 73 97 3c ec 82 bf bd c8 ae c1 3d
       -0.17166735 0.0184877 -0.09351143 0.09457165
000060 2b f8 35 be 18 7f a0 bc 00 1e e5 3d 22 98 a1 bd
       -0.1777045 -0.019591853 0.11187363 -0.07890345
000070 2b 8f 1a bd 29 3a 37 bd d2 0d 03 be 1c d4 dd bd
       -0.037734192 -0.0447332 -0.12798241 -0.10831472
000080 9f 68 72 bd 75 49 69 3e db 30 0d be 97 9b 50 be
       -0.059181806 0.22781928 -0.13788168 -0.20371853
000090 46 6a ca 3c 3b da 9c 3d 66 20 69 3e 50 d5 2d 3e
       0.024708878 0.07658812 0.22766265 0.16975904
0000a0 ac 51 89 be b6 b2 d0 3d 76 1b ad be ac 22 a0 be
       -0.26820123 0.101903364 -0.33810014 -0.31276453
0000b0 ac 7c 7b 3e 05 22 c6 bd d3 c9 8d bc 48 63 a6 3c
       0.24559277 -0.096744575 -0.017308151 0.020311013
0000c0 61 b6 10 be c8 0b 9e bd c0 2a 04 be 56 20 1e be
       -0.14132072 -0.07717091 -0.12906933 -0.15442023
0000d0 47 c7 23 3e 02 e9 de bd 2a 57 50 3e 87 a3 16 3d
       0.15993987 -0.108842865 0.2034575 0.036777046
0000e0 cb e2 03 3e d0 73 c0 3d 97 ad 35 be 5b 77 51 bd
       0.12879483 0.093970895 -0.17742 -0.051139217
0000f0 e6 6e 39 3e 89 26 88 be a8 6f d9 bb 99 2b f2 3b
       0.1810871 -0.265919 -0.006635625 0.007390451
000100 0b dc 79 3e 8d 83 78 3d de 56 7d bd 34 e0 28 be
       0.24400346 0.06067233 -0.06185042 -0.16491777
000110 34 cf 9b 3d 22 64 16 be fe 80 6d 3e d4 96 f1 bd
       0.0760788 -0.14686635 0.23193738 -0.11796346
000120 cc 58 b1 3d 73 74 10 3e 73 fb 91 3c 53 be 8e bd
       0.08659515 0.14106922 0.017820096 -0.06969895
000130 6e 45 3d 3d 4b f0 82 bd 3b 6c 7a bc 20 fc 8b 3e
       0.04620879 -0.063934885 -0.015284593 0.27340794
000140 cd 6a dc 3d fb dd 34 3e 3e 97 09 be 1f a3 0e be
       0.10762558 0.17662804 -0.134366 -0.13929413
000150 e0 56 f9 3d 56 cb 29 be 9f 8c 28 bd 86 3c a6 3c
       0.12174773 -0.16581473 -0.04114973 0.020292532
000160 93 4b d5 bc 21 ee 18 3d ad 16 0f be 59 c3 01 3e
       -0.026037013 0.037336472 -0.13973494 0.12672175
000170 82 cd 84 be 27 d7 6a bd 4e 57 88 3b b9 4d 28 3c
       -0.2593804 -0.05733409 0.004160798 0.010272437
000180 8b ba f2 bd b4 6b 43 3e b7 01 14 be ee 23 09 3e
       -0.118519865 0.19084054 -0.14453779 0.13392612
000190 6a 72 b4 be d5 05 00 3e ac c3 64 3e b7 98 9f be
       -0.3524354 0.12502225 0.22340268 -0.311712
0001a0 3f 04 c4 bd 5e 0d 34 be f2 9e d7 3d 03 27 dd 3d
       -0.095711224 -0.17583224 0.10528363 0.107984565
0001b0 96 a7 df bb 38 32 bb 3d d9 75 4b bc 97 16 59 bc
       -0.0068253977 0.09140438 -0.012418234 -0.013250015
0001c0 b9 c2 06 be 08 17 2d be 34 41 ae bd 4e f4 16 be
       -0.13160218 -0.16903317 -0.0850853 -0.14741632
0001d0 bb 4e 50 3e 75 61 ef bd 5c d8 5d 3e fd 1b bf 3d
       0.20342533 -0.1168851 0.21664566 0.0933151
0001e0 1d 29 69 3e 60 a4 2b 3e db 23 d3 bd dd 2c 5b 3e
       0.2276959 0.16761923 -0.10309573 0.21403833
0001f0 e1 a1 c5 3d 1f d1 5e 3e 8f c4 27 3d ba 81 5f 3d
       0.096500166 0.21759461 0.040958937 0.054567076
000200 9d a5 ca 3d c3 31 2d bd db 22 ad bd ee a5 f1 bc
       0.098948695 -0.042283785 -0.08453914 -0.029498067
000210 36 4a ce bd 4f bc 49 3d 5a 6f eb bd 87 73 1b 3e
       -0.10072748 0.04925185 -0.11495848 0.15180789
000220 5a bb 19 3e 73 00 5d 3d ff c5 1e 3e b6 bb f5 3d
       0.15012875 0.053955507 0.15505217 0.11998694
000230 92 57 c6 3c 22 27 4a 3e e9 e2 c3 3d dc 52 74 be
       0.024211679 0.1974149 0.09564764 -0.23859733
000240 9c 34 33 3e 6c fb 44 bd d2 4f 72 3c 52 d3 76 3e
       0.17500538 -0.048091337 0.014789538 0.2410405
000250 f8 bb 3d bd a0 e4 3e bc 37 2f e4 3d 5c 09 25 bd
       -0.04632184 -0.011651188 0.11141818 -0.04029213
000260 a7 a3 64 bd 68 ec ac 3d 9e 06 f9 bc de c3 8b bd
       -0.055820134 0.084435284 -0.030398663 -0.06824468
000270 d5 cb 27 bc 0d 44 54 bd eb b0 86 bd 83 3c f3 bd
       -0.010241468 -0.05182271 -0.06576713 -0.11876776
000280 a8 61 3c 3e a6 b6 07 be 91 dc fc 3d ea 10 3f 3d
       0.18396628 -0.13253269 0.12346757 0.04664699
000290 a6 92 ef bd eb 72 c1 bd 5c 60 a5 bc a7 54 06 be
       -0.11697893 -0.09445747 -0.02018755 -0.1311823
0002a0 1a 8a 62 3d 5a af 2d 3d d4 da 31 3e 27 9f 99 3e
       0.055307485 0.042403556 0.17368633 0.30004236
0002b0 a2 ac 76 bc 1f ba ce bd 59 5e 1c bd b9 65 b9 3d
       -0.015055807 -0.100940935 -0.038175914 0.09052605
0002c0 d4 97 d2 bc c6 77 80 bd 46 bd d1 bd 24 a4 c3 3d
       -0.025707163 -0.06272845 -0.10241179 0.09552792
0002d0 75 04 49 be 80 24 bd 3c ae af dd bb 3e bf 00 3d
       -0.19630606 0.023088694 -0.0067653274 0.031432383
0002e0 86 4d e2 bd 30 df 3c bd 3b bc 10 bc 0e ed 02 be
       -0.11049943 -0.046111286 -0.00883394 -0.12785742
0002f0 0b 6b ff bd 43 bc a0 3b b8 e8 90 bd e3 91 83 bd
       -0.12471589 0.004905255 -0.070756376 -0.0642431
000300 86 c6 00 bd b5 10 66 3c f9 0b d6 3d 1b 30 43 bd
       -0.031439327 0.014042069 0.10451502 -0.0476533
000310 a1 bc 8b bc ef 01 34 bd 09 1d 1e 3d c9 66 12 3d
       -0.017057719 -0.043947157 0.03860191 0.035742555
000320 51 aa 32 3e c3 ab fe 3d 4f d0 24 be a3 9b 85 be
       0.17447783 0.12435105 -0.16095088 -0.26095304
000330 d9 86 65 be bf 76 63 bd db fa a1 3c 5d 94 c5 bd
       -0.22414722 -0.055533167 0.019772938 -0.09647439
000340 74 b5 09 be 31 a0 2c bd bc 8e e8 bd 1a b8 1f bd
       -0.13448125 -0.042144958 -0.113553494 -0.038993932
000350 9e f1 ec bd 00 92 e9 bc f5 3b 92 bd de ad 21 3c
       -0.11569522 -0.028512001 -0.07140342 0.009868113
000360 27 b9 22 be 29 cb 7e bd 77 0d 71 bb 18 c5 90 bd
       -0.15890943 -0.062205467 -0.0036781707 -0.07068843
000370 6e 6a 18 be 7a b0 e2 bd 56 d7 1f 3d 86 63 00 bd
       -0.1488435 -0.110688165 0.03902372 -0.031344913
000380 1f 77 d2 3c fa d9 ec bd a7 23 af 3c 7d 45 fc bc
       0.025691567 -0.11565013 0.021379305 -0.030794853
000390 84 40 62 bd 42 ca 4e bd f0 84 3e 3d d4 2f ad 3e
       -0.05523731 -0.050485857 0.046513498 0.33825552
0003a0 f9 9f 33 be 7b f3 a3 3d b0 a7 b8 3d a7 e5 e6 bd
       -0.17541493 0.080054246 0.09016359 -0.112742715
0003b0 93 38 9c bd 9c 58 1d bc d6 00 91 3d 2a 3d 20 bc
       -0.07627978 -0.009603646 0.070802376 -0.009780208
0003c0 6c 3e 13 3e 14 56 08 3e d3 a5 d5 bd db b5 80 3d
       0.14379281 0.13314086 -0.10432019 0.06284686
0003d0 bb b8 8e bd dd 81 16 3d 54 91 46 3e 26 2f 59 be
       -0.06968828 0.03674494 0.19391376 -0.21209392
0003e0 f0 70 cd bd 1e 5c 1d 3d ad e1 0e bd 2e 52 60 bc
       -0.10031307 0.038417928 -0.03488319 -0.013691468
0003f0 64 b3 e7 bc a3 9c 1e be d3 78 c6 bd 65 61 87 3d
       -0.028283782 -0.1548944 -0.09691014 0.066103734
