src/rnn/models/user_5_model.pth (torch, 377610 bytes, 16 tensors)

rnn.weight_ih_l0 f4 [128, 11]
00000000: 46e8 00bc 55c3 143d 1a42 e63c 8605 a0bd
00000010: 9a98 3a3d 0b3c d8be d0d5 58be ccec d8bd
00000020: 5623 7bbd 30be b0bd 3e7d 92bd 6328 9abd
00000030: 1862 78be e884 93be a6a8 eabd 8425 27be
00000040: ed15 1c3e 7aa0 1b3d ee34 d6bd fe4d 00be
00000050: a105 193e 8109 1cbe 8e88 ca3d a6a5 8cbd
00000060: f535 c23c b7d7 88bd a558 82bd 0fb8 663b
00000070: c597 b4bd 04d0 31bd 3bd0 05bd e93c e7bb
00000080: 3e9b 263a 4fe5 c5bd aac4 2bbe 4e17 aebe
00000090: ae52 77be 2444 a5be 26f1 ecbb 2c41 d03e
000000a0: 1590 36be eb8e 83be 9b48 313d 4172 bdbe
000000b0: d681 143e 709c da3d 1201 a03e 927b 803e
000000c0: 3fe8 4d3e af29 0fbe 19ea 4fbd 8778 003e
000000d0: b221 123e 9273 e63d 7669 843e 91fd f03d
000000e0: 366f 0d3e f27d a23e 55e5 373e 12b7 703e
000000f0: 9bc2 54be 6e52 9bbe 2cd7 d83d 8e83 c73d
00000100: 0738 b83d 4729 5f3e ad51 18be 8c8f 1f3e
00000110: eade 8e3e 54fb c03d 9680 973e e874 80be
00000120: ba67 d8be 8d84 3d3e d882 453e 7d21 95bd
00000130: 9678 263e 405a 6bbd f24e 97bd 67e0 48be
00000140: ed26 a2bc f535 a8be f746 5d3c 7242 663e
00000150: fc45 d4bc d2e8 00be 69ad 90bc 5bbc 8abe
00000160: 1cb7 11bd 7d1a 71bd 73d5 86bd 9305 2c3d
00000170: a7f6 e5bd 1d7b 81bd 2b58 aa3d 9065 833c
00000180: f901 5cbd 4583 3ebd 576f dd3b 6adb 07bd
00000190: f9de 413d d465 523e d739 5a3d 8ec8 da3d
000001a0: df79 013d c8c0 8abc 68b5 1b3e e8b7 9a3d
000001b0: 4d80 b93c 21d1 2a3e 3752 24bd a32c 5c3e
000001c0: 3aba 823e ac73 503e d921 773e 6522 27be
000001d0: 9633 9fbe fae1 163e fd9b 133e 9fec 0f3c
000001e0: fb10 ea3d 6d1b cabd f999 ef3d 07ba 3d3e
000001f0: c679 933d 6165 2f3e 2e8e 3cbe 023a 5ebe
00000200: c586 f53d f2f2 083e e72a 3dbe 64b2 c23d
00000210: 6714 d43c b364 f0bd 6483 df3c 1c5f e4bd
00000220: 59e7 04be f990 01bd 6b7c 913e 441a 51bd
00000230: 6bb2 b1bd 7b17 503d 1c27 21be 948d f6bc
00000240: 113d fc3d 007c 263e cc06 363e 2797 8b3e
00000250: 258a 11be 1f1b 20be 8f76 5d3d 58bc c13d
00000260: 172c 703d 435c 9a3d af56 163e e492 8c3d
00000270: 0f93 923e 270a 233e dcbd 9e3e b650 51bd
00000280: b66b 6bbe df31 3d3e 0ec4 f83d a7e8 393c
00000290: 1906 6b3e eabd 94bd 306a dc3d da13 ae3d
000002a0: 92be 6f3d 4c8b 273d 1021 2fbd d026 b3bc
000002b0: 0b65 dc3d 3695 f9bc 918e 923d 95a3 21bd
000002c0: 2949 76bd e035 54be eb1e 17be dbc9 38be
000002d0: 383b 8cbe 495e cdbc 0ebd d33b 241f 21be
000002e0: ea53 cabc 2e98 96bd 3ce1 6dbe 8565 973d
000002f0: aebb 8a3e 8052 863e 8a66 2c3e 5804 243d
00000300: 04aa bc3d aa3f 3a3e cd15 983e d04e ef3d
00000310: 2eb4 553e 4366 b83d d266 ca3c 4c75 fcbd
00000320: b0f7 61be 83e2 18be d68e 8cbe 7698 b83e
00000330: 52e8 a63e 4e57 c7bd 6c72 39be a8a5 983d
00000340: e2df cdbd 7ce4 753e d814 97bc a964 f3bd
00000350: 0b79 633d 8aca 54ba ea49 da3e 939a de3e
00000360: 3b47 f03d fb84 13bd 80e0 213e 6419 1d3c
00000370: 28b8 383d a940 e53d a479 743e 27a3 333e
00000380: c939 5d3e 43f4 23be 40a3 41be 6eee 653e
00000390: fc91 263e e387 da3c 7f2e 2f3e 0c7b 083d
000003a0: 69c1 f53d e19a a13e 53cc 4e3e a09c b93e
000003b0: 3c09 a2be c317 02bf b8ab 583e 9e80 4f3e
000003c0: e0d3 33bd 1b75 503e e629 3c3d bba2 6a3d
000003d0: 8507 833e 8991 f03d a715 7b3e cd7e f2bd
000003e0: 1ddc b5bd e193 49bc 3481 8a3d 29e9 e63b
000003f0: 4d63 313e b0b2 d1bd 328c 48be eb5d bbbe
-0.007867878 0.036319096 0.028107692 -0.078135535 0.04555569 -0.4223331 -0.21175313 -0.105920404
-0.061312996 -0.086300254 -0.07152794 -0.075272344 -0.2425617 -0.28812337 -0.114579484 -0.16322905
0.15242739 0.03799484 -0.10459314 -0.12529752 0.14943554 -0.15238 0.09889327 -0.068675324
0.02370737 -0.06681769 -0.06364564 0.0035204922 -0.0881801 -0.04341127 -0.032669287 -0.0070568216
0.00063555303 -0.09662878 -0.1677424 -0.34002155 -0.24152634 -0.3227855 -0.0072308956 0.40674722
-0.178284 -0.25694975 0.043282133 -0.3700123 0.14502653 0.10674369 0.31250817 0.25094277
0.20108126 -0.13980745 -0.050760362 0.12545978 0.14270666 0.11252512 0.2586171 0.11767114
0.13811955 0.31736714 0.17958577 0.23507336 -0.20777361 -0.30336326 0.10587916 0.09741889
0.08995061 0.2179309 -0.14874907 0.15582103 0.27904445 0.09422937 0.2959029 -0.25089192
-0.42266637 0.18507595 0.19288194 -0.07281778 0.16256937 -0.057459116 -0.073881045 -0.19616853
-0.019793952 -0.32853666 0.013505689 0.22486284 -0.025912277 -0.12588814 -0.017660813 -0.2709683
-0.035575017 -0.05886315 -0.06583681 0.041997503 -0.11228686 -0.0632231 0.08317598 0.01603964
-0.05371282 -0.046511907 0.0067576575 -0.033168234 0.047331784 0.20546657 0.053277817 0.10682784
0.031610366 -0.016937628 0.1520592 0.075546086 0.022644186 0.16681339 -0.04011747 0.21501403
0.25532705 0.20356625 0.24134006 -0.16321714 -0.31094044 0.1473464 0.14414974 0.008784442
0.1142902 -0.09868512 0.1169929 0.18527995 0.07200961 0.17128517 -0.18413612 -0.21701816
0.11988596 0.13373926 -0.18473397 0.095066816 0.025888635 -0.11737957 0.027284332 -0.11150953
-0.12978877 -0.031632397 0.28415236 -0.05105044 -0.08676609 0.050803643 -0.15737575 -0.030096807
0.12316335 0.1625824 0.1777603 0.27263758 -0.14212854 -0.15635346 0.054068144 0.09459752
0.058635797 0.07537129 0.14681505 0.06863955 0.28627822 0.15921842 0.31004226 -0.051102363
-0.22990307 0.18476056 0.121467695 0.011346973 0.22951545 -0.07262786 0.10762441 0.0849988
0.05853135 0.04090433 -0.04275614 -0.021869093 0.1076146 -0.030466657 0.07156099 -0.039462645
-0.060128365 -0.20723677 -0.14757888 -0.18045752 -0.2738893 -0.025069373 0.006461746 -0.15734535
-0.024698216 -0.07353245 -0.23230451 0.0739241 0.27096313 0.26234818 0.1683599 0.040043205
0.092121154 0.18188348 0.29704133 0.11684954 0.20869514 0.0900388 0.024707232 -0.1232706
-0.22067142 -0.14930157 -0.27452725 0.36053818 0.3259912 -0.09733449 -0.18110055 0.074534714
-0.10052468 0.24012941 -0.018442556 -0.11884434 0.055535357 -0.0008117339 0.42634517 0.43477306
0.11732336 -0.036015492 0.15808296 0.009588573 0.0450975 0.111939736 0.23874527 0.17542706
0.21604075 -0.16011147 -0.18909931 0.22454235 0.16266626 0.026676124 0.1710758 0.03332047
0.11999781 0.31563476 0.20195131 0.36252308 -0.3164767 -0.5081751 0.21159256 0.20263907
-0.04390323 0.20357172 0.045938395 0.057284098 0.25591674 0.11746509 0.24519978 -0.118405916
-0.08879874 -0.0123033235 0.06762925 0.007046838 0.17323036 -0.1023916 -0.1958473 -0.3659509

rnn.weight_hh_l0 f4 [128, 128]
00000000: 6f1f 8a3d d9be 8fbd ac87 8b3c a7ea 15bd
00000010: 7adc 6f3d dc37 073d a04d 30bb 5a0a 4cbd
00000020: 9317 853d bad5 02bd e568 09bd dc5d 4ebd
00000030: d291 3a3d 8c6d 833c 90f4 e9bc 734e 8e3d
00000040: b026 c63b ef3f ac3d 1c71 66bd 2087 5ebb
00000050: fd4f ab3d d04e 3e3c 4f91 0bbd 9618 15bd
00000060: 25d3 b43d 2017 d3bb 80c7 1abd 40ef d73c
00000070: 3b20 7abd 4edf 1d3d 00cf ee3c dc5d 06bd
00000080: c0a1 b63b 4c69 123d cf16 883d 7269 103d
00000090: 80f3 843c c851 813c 6b31 acbd e0d3 113b
000000a0: 2f71 4ebd fa8e 7a3d 64e7 f93c a05d a03c
000000b0: 74f6 9bbc 38e9 1cbc ec4f c13c bcc9 11bd
000000c0: bcd8 c83c 2a84 a1bd 130b 49bd e096 a63b
000000d0: 3eaf 663d b031 5d3c 5c62 d53c 6aa3 97bd
000000e0: 5c7d dabc 046a b1bc 799d ad3d aa57 60bd
000000f0: 67c6 aabd 8ac1 193d e83e 553c d6cc a1bd
00000100: 376d 833d 4007 f03c 00a5 8b3c 33ca 74bd
00000110: 5e6a 443d 5054 f33c f8f2 27bc 8218 4e3d
00000120: d4d3 8abd db62 36bd fde9 923d b7fb 96bd
00000130: 57b6 5abd 2c2a dd3c b825 7fbd c286 97bd
00000140: 931a abbd 20cf 66bb 9f4a ad3d 00d2 3a3b
00000150: 9a0c 3d3d a8d1 c53c 4ab2 3d3d ac7c 9c3c
00000160: 8092 81ba b6c9 debc f5b4 843d a8ee 8abc
00000170: b20c 4f3d b4c7 8a3c 3a4b 53bd 5984 8a3d
00000180: c5a7 5bbd 107f 113c 8058 ffba facf 253d
00000190: dc04 da3c ac58 8d3c 6884 78bd c067 c0ba
000001a0: e82f 9dbc 43f5 9b3d f891 6fbd c83a 823c
000001b0: 6011 c93b aa51 dcbc b041 9dbb bcae 3fbd
000001c0: 6491 08bd f38d 3ebd 896b 8ebd 1ae4 a4bd
000001d0: f24c 253d 57d2 9e3d d25f 6a3d b073 1d3c
000001e0: e852 69bc e0ff 2cbd c46b d83c 75f8 ad3d
000001f0: 8894 89bc 14eb 8a3c d48f 96bd c80f 323c
00000200: 2349 23bd 70d2 1dbc e6a4 6c3d 0084 bb3a
00000210: 3e4a 03bd 0710 a9bd 7dff 943d a4af 80bd
00000220: c8e1 763c f8e6 533c a619 25bd 2f64 8ebd
00000230: 8f13 873d 3cf6 993c 6c8f ae3c 00c4 21bb
00000240: accd ae3c 3053 89bc ced5 773d 9b28 97bd
00000250: d0a2 20bc 371c 59bd 7c89 a83c b302 5cbd
00000260: af4d abbd 0c8f a4bd e05d 86bd c0aa 31bc
00000270: f3d1 9a3d 6284 5e3d b6bb 88bd 7b4f 923d
00000280: d05a 593c 4053 63bd a09d 96bb f082 c8bb
00000290: ce3f 213d dcbc d2bc 4834 e83c d41a 7abd
000002a0: 2795 923d f8e2 74bd 04c8 f43c a08f 10bc
000002b0: ed0b 933d 3eeb 3b3d 6a99 3c3d 8eb0 61bd
000002c0: cc91 d2bc dbf4 14bd db6c 92bd 28ba eabc
000002d0: 4b89 5cbd fcbe ebbc 4df8 93bd be01 4fbd
000002e0: bed0 2f3d 4f9f 953d 64c7 da3c e050 16bb
000002f0: 740e b83c 0833 6abd b01e 263c 9d6f b03d
00000300: 46cd 483d a3bd 853d b019 a0bd 4069 fcbb
00000310: b6cd d5bc 1df5 8d3d eca0 c4bc cd46 aa3d
00000320: c880 0b3d 51b0 813d ccce 93bd 7ca8 a4bd
00000330: 0f96 9c3d 5645 e8bc a837 6dbd 7362 8f3d
00000340: 40e0 85bd 3bdb b33d 5a94 573d 24ed 27bd
00000350: fe08 6d3d 00a8 013c ce86 76bd aca8 6dbd
00000360: 10da eb3b df55 92bd 26a5 6bbd 3438 a7bc
00000370: 21c3 ac3d 151d 2cbd 94ce d43c a620 163d
00000380: 6d30 b03d f4d6 803c 1044 b13c 53f8 b03d
00000390: f841 67bc 204c 8e3c 9af7 e3bc 08d4 8fbd
000003a0: 1259 dcbc 84d5 c6bc a8b7 32bc 4f04 92bd
000003b0: b850 18bd 6a75 85bd 664a 6d3d 1c66 da3c
000003c0: 54ae bcbc ccd4 b13c 0091 a7ba 0004 ff3b
000003d0: 2707 0abd 2c48 28bd a0cc e33c 3289 5f3d
000003e0: e013 d53c 9019 4ebc c451 a7bd e01d 523c
000003f0: e8a7 d4bc 0ec2 713d 405c 63bc e1ec b43d
0.06744277 -0.07018823 0.017032467 -0.036600735 0.058559872 0.033012256 -0.0026901737 -0.04981456
0.06498637 -0.031942107 -0.0335473 -0.05038248 0.04554922 0.016043447 -0.028559 0.06948557
0.0060470924 0.08410632 -0.056260213 -0.0033955052 0.08364866 0.01161547 -0.034074124 -0.0364004
0.08829335 -0.0064419657 -0.037787914 0.0263592 -0.061065894 0.038543038 0.02915144 -0.032804355
0.0055734813 0.03574495 0.066449754 0.03525681 0.016229391 0.015786067 -0.08407863 0.0022251531
-0.05040091 0.06117151 0.030505843 0.019575894 -0.019038416 -0.009577088 0.02359768 -0.03559278
0.02451741 -0.078865364 -0.049082827 0.0050839037 0.056319468 0.013500616 0.026047878 -0.07404216
-0.026671104 -0.021656998 0.08477301 -0.054771103 -0.083386235 0.03753809 0.013015486 -0.079003975
0.064173155 0.029300332 0.017046452 -0.059763145 0.047953002 0.02970329 -0.010250799 0.05031634
-0.06778684 -0.04452787 0.07173536 -0.073722295 -0.05339655 0.026997648 -0.06229183 -0.0739875
-0.08354678 -0.003521867 0.084614985 0.0028506517 0.046154596 0.024147823 0.046312608 0.019102417
-0.0009885579 -0.027195793 0.06479827 -0.016959503 0.050549217 0.016940929 -0.051585414 0.067635246
-0.053626794 0.008880392 -0.0019481331 0.040481545 0.026613645 0.017254196 -0.060673147 -0.0014679357
-0.019187883 0.07615139 -0.058488816 0.01589717 0.0061361045 -0.02689441 -0.0047990903 -0.0467975
-0.03334178 -0.046522092 -0.069541045 -0.080513194 0.040356584 0.07754963 0.057220288 0.009610102
-0.014240958 -0.04223621 0.026418574 0.08494655 -0.016794458 0.016957797 -0.07351652 0.01086802
-0.03986467 -0.009632692 0.057774447 0.0014306307 -0.032053225 -0.0825501 0.07275293 -0.06283501
0.015068479 0.012933485 -0.040307663 -0.06952702 0.065955274 0.018794172 0.021308623 -0.0024683475
0.021338306 -0.0167633 0.060506634 -0.07380792 -0.0098044425 -0.053005423 0.02057337 -0.05371351
-0.08364426 -0.080350965 -0.06560874 -0.010843933 0.07559576 0.05432547 -0.06676428 0.07144066
0.01326628 -0.055499315 -0.004596427 -0.0061191246 0.03936749 -0.02572482 0.028345242 -0.06106074
0.07157355 -0.059786767 0.029880531 -0.008823305 0.07180009 0.04587864 0.046044745 -0.055100016
-0.025704287 -0.036366325 -0.07149669 -0.02865322 -0.05384187 -0.028777592 -0.07225094 -0.05053877
0.04292368 0.07305776 0.026706405 -0.002293639 0.02246783 -0.057177573 0.010139152 0.086150385
0.04902389 0.06530311 -0.078173995 -0.0077029765 -0.026099067 0.06931517 -0.024002515 0.083142854
0.034058362 0.06332458 -0.07217178 -0.08039948 0.07645809 -0.028353374 -0.057914406 0.070011996
-0.06536913 0.08782049 0.052631713 -0.04099764 0.057869904 0.0079135895 -0.060187154 -0.058022186
0.007197626 -0.07145285 -0.057530545 -0.020412542 0.084356554 -0.042019922 0.02597741 0.03665223
0.086029865 0.015727498 0.0216389 0.08641114 -0.014114849 0.017370284 -0.027828027 -0.070228636
-0.02689794 -0.024271734 -0.010908045 -0.07129728 -0.037186354 -0.065165356 0.05793228 0.026660018
-0.023032345 0.021707915 -0.0012784302 0.0077824593 -0.033698227 -0.041084453 0.027807534 0.0545742
0.026010454 -0.012579337 -0.081698924 0.012824506 -0.02595897 0.059022956 -0.013876975 0.088342436

rnn.bias_ih_l0 f4 [128]
00000000: 2dcf 81bc 7de2 c7bb 9b94 e6bc 24cb 83be
00000010: 4b6e 013e 483c a93c 2b69 4dbd f068 b3bd
00000020: deaf b23d 595d ebbb 96e6 083e c597 82bc
00000030: 0d22 f2bd 8805 453d 027a 6e3d c3e9 b5bd
00000040: a7f4 34be 6ac4 8a3e 3889 ebbd 322c 3b3e
00000050: 618e 893a fa60 113e 3d9d 23ba cac0 09be
00000060: ec51 e9bc 3881 91bd 449a 873d f0cd 803d
00000070: d85c 083d 7323 fcbc baa9 4e3a cd03 3a3d
00000080: bfd8 bbbd bd03 03bc 9032 d83c 1126 a43d
00000090: 5027 563d c9e2 47be f159 18be 5bca 8ebd
000000a0: 9dc9 2d3d 2a54 cbbd 7d33 6c3d 8e2a 303d
000000b0: dcb7 763d 1925 87bd be43 9b3c 0abd 393e
000000c0: 1617 053d 5f2a b23d c98e 2dbe d9c7 0abe
000000d0: 0dfd ebbc 02ee cebd f873 aabd 5bc2 26bd
000000e0: f0b1 6c3b 3343 343e ebad abbc ba66 2c3e
000000f0: ddba bd3b 7b07 bfbd 7cb4 8dbd a643 03be
00000100: 7507 6f3c d06b 0fbd 54f1 8a3d 11a0 64be
00000110: 5f24 f03d 229e acbd 89aa 933d a186 9cbb
00000120: 784e 05be 68ba fa3c 9b4f 98bd b131 793d
00000130: 1b6b a4bc 9d36 debd 08ea 943c be98 94bc
00000140: 524e b33d 0228 ec3d 5194 a43d 46cf a3bb
00000150: c062 c2bc f26b ecbd 4332 2bbe 5702 a1bb
00000160: 742a 743d f16e ba3c 9c9c cdbd 0b22 2f3d
00000170: a015 3fbd 246c 863d 5c45 113e 505b 363d
00000180: 0210 043e c00f f4bd 29e3 1f3e 95ef 39bd
00000190: 7e4c 4ebe b280 c23c d3d4 9abd 44b9 093d
000001a0: 3f50 3d3d d441 37bd a5f6 193e 4c8b 24bc
000001b0: ded2 a4bd c91a 27bc bdba 9f3c 5e65 2fbd
000001c0: e835 c3bb a8de dcbd 1ef8 b43d 7a3c a9bd
000001d0: 36c2 a7bd 286f 6cbd bc17 d33d 364c 903d
000001e0: 2920 113e 9db3 613d 3990 ff3d c915 bcbd
000001f0: f632 06bd 2273 ba3d fa9e db3d b6ce 003e
-0.01584586 -0.0060999976 -0.028147032 -0.25740921 0.1263973 0.020658627 -0.050149124 -0.087602496
0.0872495 -0.0071827588 0.13369212 -0.01594151 -0.11822901 0.048100978 0.058221824 -0.08882477
-0.17671452 0.27102977 -0.11500782 0.18278578 0.0010494703 0.1419715 -0.0006241387 -0.1345245
-0.028481446 -0.07104725 0.06621221 0.062892795 0.033291668 -0.030778622 0.00078835676 0.04541378
-0.091722004 -0.007996497 0.026391298 0.08015073 0.052283585 -0.19520105 -0.1487806 -0.0697219
0.0424286 -0.099281624 0.05766629 0.043009333 0.060233936 -0.06598873 0.0189532 0.18138519
0.03249272 0.08699488 -0.16949 -0.13552798 -0.028807187 -0.1010399 -0.083229005 -0.040712696
0.0036116801 0.1760376 -0.020956954 0.16836062 0.005790098 -0.09327599 -0.0691919 -0.12818775
0.01458918 -0.035014927 0.06784311 -0.22326685 0.11725687 -0.08428599 0.072102614 -0.004776791
-0.13018215 0.030606464 -0.074370585 0.060838405 -0.020070603 -0.108502604 0.018178001 -0.01813924
0.08755173 0.115310684 0.080361016 -0.004999074 -0.023728728 -0.115440264 -0.16718392 -0.004913609
0.0596108 0.02275798 -0.100396365 0.042757075 -0.046651483 0.06563595 0.14186615 0.044520676
0.12896731 -0.119170666 0.15613998 -0.0453945 -0.20146367 0.023743007 -0.07560124 0.03362395
0.046219107 -0.044740513 0.15035494 -0.010042977 -0.08048032 -0.010199257 0.019498223 -0.04282128
-0.005957354 -0.10784656 0.08836387 -0.08263488 -0.0819134 -0.057723194 0.10307261 0.07045786
0.14172424 0.055102933 0.1247868 -0.09183843 -0.032763444 0.09103991 0.10723682 0.12578854

rnn.bias_hh_l0 f4 [128]
00000000: e3da 7abd 5081 9a3b 269e 643d 5e9e 09be
00000010: 2bdc 6d3d fa60 d93c 78b5 6c3c f896 bdbc
00000020: 6322 c03c 0632 133e 2874 2d3c cb44 483d
00000030: 6db5 c1bd 071c 6e3d 40ee ef3d 764b a13c
00000040: dd66 8abd e3d8 033e 6d35 6fbd bf9c 5c3e
00000050: 8cad 013e 18fd d93d 13e4 573d eb3a 1cbe
00000060: a1ad 1bbe 81ec a4bc af03 b33d aac3 8c3d
00000070: cf49 893d 2eae 843d 7b4b 163e 1c4f c03b
00000080: e34d c7bc c34d 67bd 1c30 ee3d 2313 fe3d
00000090: 5201 c3bb ae2c 94be 7a09 2cbe 3bc0 b4bd
000000a0: e4f3 9e3d f71d 8bbe 3231 7a3d 4c6e cf3d
000000b0: 2ba2 483e 667b 54bd f8a8 b6bc 0d6d b43d
000000c0: 0518 b5bb eed7 4c3c b7ab 38be 189f f7bd
000000d0: 34e4 ee3b 58bc fb3c a6ef 0d3c d46c 9a3d
000000e0: af8c 4cbd bfa7 953e da0f 323d ccaa 463e
000000f0: 8daa 113e faeb 16be 049e acbd 0b40 3fbd
00000100: 7ebc 9cbc 90a1 a2bd 69fa 93bb e7d5 33be
00000110: 7c67 8639 ceba c9bd ec3c 07bd 8d49 f53d
00000120: da86 4dbe 4067 143e a8b1 b5bc c965 b83d
00000130: 4f19 e0bc c858 3ebe 31b2 8fbd 6c0c 99bc
00000140: bf36 eb3b 4404 c43d ccff 633e a2d0 c7bd
00000150: 281f ae3d e955 09bd 7be6 9bbd 64d3 a43d
00000160: 7470 933d b11a 96bd b072 18be 856f 3a3c
00000170: 455d 24bd 601a 1bbd 3b1f 0c3e 6e49 093d
00000180: 2a39 e83d a0eb 33be db09 f13d 70e6 123d
00000190: db0e e1bd 8e29 a5bd 6b73 0fbe 26da 663d
000001a0: 8129 96bd 5a5b ecbd e478 983d 4e29 f8bc
000001b0: f4a5 2fbd 8dcd d93d ef71 82bc c4bb 683b
000001c0: 4f1b 843d e241 193c af8f 543e b693 2abd
000001d0: 1e04 9f3c 3b0b 9a3b defa 053e 24bf b73b
000001e0: 0ff3 653d 5f66 5c3c 7349 c93c 6d21 e8bd
000001f0: 80de d6bc 3421 023e 5e05 a53c 29c4 ae3d
-0.061243903 0.0047151223 0.055814885 -0.13439319 0.058071297 0.0265355 0.014447562 -0.023143277
0.023453897 0.14374551 0.010586776 0.04889373 -0.09458432 0.058132198 0.117153645 0.019689303
-0.06757901 0.12875704 -0.05840056 0.21544169 0.12663859 0.10643977 0.052707743 -0.1525685
-0.15202953 -0.020132305 0.08740937 0.068732575 0.06703531 0.06478535 0.14677231 0.0058688056
-0.024329131 -0.056470644 0.1163027 0.12405994 -0.005951085 -0.28940338 -0.1680049 -0.088257276
0.07761362 -0.271713 0.061082073 0.10128459 0.19593112 -0.051875494 -0.022297367 0.08809862
-0.005526545 0.0125026535 -0.18034254 -0.120908916 0.0072903875 0.030729458 0.008663094 0.075402886
-0.049938854 0.29229543 0.04347215 0.19401091 0.14225216 -0.14738455 -0.084285766 -0.046691936
-0.019132849 -0.07940972 -0.004515935 -0.17562066 0.00025635574 -0.09850083 -0.033017084 0.11976919
-0.20070973 0.14492512 -0.02217944 0.09003789 -0.027355818 -0.18588555 -0.07016409 -0.018682681
0.007178157 0.09571126 0.22265548 -0.097565904 0.08502036 -0.033529196 -0.0761232 0.08048132
0.07199183 -0.0732931 -0.148875 0.011379127 -0.04012801 -0.03786695 0.13683788 0.033517294
0.11339028 -0.17570353 0.11769458 0.035864294 -0.109891616 -0.080645666 -0.14008872 0.056360386
-0.07332135 -0.115408614 0.07444933 -0.030293133 -0.042882875 0.10634909 -0.015923468 0.0035512308
0.06450521 0.009354087 0.20757936 -0.041644774 0.019411143 0.004701046 0.1308398 0.0056075025
0.056140002 0.013452142 0.024571156 -0.113345005 -0.026229143 0.12707978 0.02014416 0.08533508

rnn.weight_ih_l1 f4 [128, 128]
00000000: abb4 87be 9969 ac3b 4948 31bc f1cd cfbd
00000010: e74c f83d 56d1 60bd 3e9f 333e abfa 52bd
00000020: 75f1 30bc 6853 d73d 2744 573e 47ac 3d3d
00000030: 3987 03be 918d 1fbe 4fa6 07bc 9e39 883b
00000040: 4b80 373c 2f49 033d 9446 253e 9358 613e
00000050: 5b53 023e a368 c03d 8ed7 123e 0589 573d
00000060: 1ddb 26be a71f 0ebe f9eb 0ebc 0e54 bf3d
00000070: b40e 323e 9deb c2bc 695b 433e 0a41 d83c
00000080: eaac 16be b558 17bd e099 663d bcb0 c03a
00000090: 9225 4abe abb1 2ebe 2eb3 2c3c 3c68 55be
000000a0: 51dc 29bb deba e7bc 3ecf 95bb 9645 4f3e
000000b0: 0a4e 303e 7b56 0c3e ed1f 8d3d 08e7 283e
000000c0: 10ec dabb 60dc 953e 5c64 bbbe 97c1 9cbe
000000d0: aaff b3bc 7476 ca3c 3c76 393d 4239 c6bc
000000e0: e5aa 0bbc 8417 8c3e 030e 473d 8717 343e
000000f0: 2074 123e 79de 36be 9264 35be b6cd a4be
00000100: 305a ee3b e070 f0bd 8142 483c 958a 89be
00000110: 9a48 acbc 2506 75be 9d8a df3d d030 843e
00000120: b246 9dbe cc92 483d cb05 0bbe 87c8 503e
00000130: f4ff abbd 57a2 bcbd e265 91bd ed8b 213d
00000140: c637 1c3e 794a cb3d 8df2 733e 6ab6 d7bd
00000150: b6b4 453e 7ab6 9abd eda0 2cbe 66d4 cdbc
00000160: d89b 1c3c 117c c43d 4a12 14be 1b61 293d
00000170: 09b5 f13d 6164 02bd 1cb1 5e3e de20 6c3d
00000180: 0016 073e 7fe6 adbd b9ac 733d aa5a a8bb
00000190: e050 54be 9b45 f3bd 2b99 0ebe 54ce 023e
000001a0: 8999 4a3e 4ce1 08bd 033d 873e e543 bfbc
000001b0: a4ce 8dbc f326 cd3d 1a28 bf3d 4425 4fbe
000001c0: 6812 2bbd b0ea 28be f5e3 a53e d185 a73c
000001d0: e8ae 8abd fc62 ae3d 530b dc3d e171 17bb
000001e0: 38b5 e83d 3ebb 313c 412c 373e 5ebd 18be
000001f0: 3a0f ff3c 6887 633e c7ff a53e 1af1 243e
00000200: 0934 79be a7c0 033e 06c5 fb3d 7552 6fbd
00000210: 1799 9ebd 1a0f b63d 478c 56be 42d1 bd3d
00000220: 92bd 963a 0f4f 5d3e bbe5 58bc 35fa 0ebe
00000230: c032 283e bb6d 4cbe 83b0 35bd 8de7 29bd
00000240: 92bb f43c af95 43be 3b0f cf3d 74cc 273b
00000250: f61e 40be 1a18 0bbe d0eb 48be 9b6b 5cbd
00000260: c90b 093b b2a7 b03d e5f0 dbbd a87a b6bb
00000270: b2d8 8fbc dcc4 e43c eb24 46bc ad46 733d
00000280: 8ab5 01be 6969 0abe a642 6bbd 0f35 88be
00000290: c6c8 63bd 8674 4c3e 4585 09bd 5df1 33bd
000002a0: 1d1c f63d 5472 d83d 24fe f1bd 34fe 30be
000002b0: 732a 683d fc93 9d3d 101b 043d a7f8 5ebd
000002c0: 9ca4 c73c 13ee 34be 5ace 943e 46e5 eb3d
000002d0: c9d5 283d 9984 913c d058 cebd 783e 8f3d
000002e0: 4512 90bd 83d8 313d d380 07be a127 aebd
000002f0: da7c 073d 1028 1fbd b5a5 933d 1527 49be
00000300: 0e7b 053e 1495 3c3d 92d0 50bd cba5 e53d
00000310: a11c 9bbd ab1d 5b3e 60a9 99bd f46d 97bd
00000320: e315 a33d 8799 2c3c e0b9 d43d 33ee 86bd
00000330: 13f4 a53d 3667 e93d 90ac 283b 4154 afbd
00000340: 7711 65bd 087d 2dbe 4948 eebd d46d a93d
00000350: fbdf b7bc 165b 283e 8d0f 373d 355b c03d
00000360: aa8d 50bd 58cb da3d 09b5 293d 7abf 953d
00000370: f4c8 a2bc 76e2 173d 2151 c33b c284 abbd
00000380: 4356 63be 347b a5b9 d9ed ad3d c586 973d
00000390: ea79 8e3c 72c5 833d 79e7 313d adea 633d
000003a0: 6251 45be 8a46 723d c660 1a3c a3b0 043e
000003b0: 6c7e 8e3d 3e6e 7dbd e2b7 273e 5e8e e33d
000003c0: ddc5 cfbd 430a 02be 941d 2bbd 6727 9a3c
000003d0: ad12 393e 9f9d 763d e872 4a3c 3fb8 283e
000003e0: a7f2 fcbd 88df db3d c9e2 09be a234 f13c
000003f0: 00c2 4abe 3ede ccbd 3cd7 90bc 8752 00be
-0.26505026 0.0052616117 -0.010820457 -0.10146702 0.12124043 -0.05488714 0.17541215 -0.051508587
-0.010799755 0.10513955 0.21022092 0.046306875 -0.12844552 -0.15581347 -0.008279397 0.004157259
0.011200021 0.032052215 0.16140205 0.22006445 0.1272711 0.09394958 0.1434004 0.052620906
-0.16294523 -0.13879262 -0.008723252 0.09342204 0.17388421 -0.02379399 0.19077839 0.0263982
-0.14714399 -0.036949832 0.05629909 0.0014701108 -0.19740894 -0.17059962 0.010540767 -0.20840544
-0.0025918672 -0.028287347 -0.0045718243 0.20241389 0.1721727 0.13704865 0.06890855 0.16494381
-0.006680973 0.29269695 -0.36600006 -0.30616447 -0.021972496 0.024714686 0.045278773 -0.024197225
-0.008524631 0.2736169 0.048597347 0.175871 0.1430211 -0.17858304 -0.17714146 -0.32188195
0.007273935 -0.11740279 0.012222887 -0.26863542 -0.021030713 -0.23928125 0.1091511 0.2581849
-0.30718 0.04896812 -0.13576429 0.20388995 -0.083984286 -0.09210651 -0.07099511 0.039440084
0.15255651 0.09926314 0.23822995 -0.105328396 0.19307217 -0.07554336 -0.16858263 -0.025125694
0.00955864 0.09593976 -0.14460102 0.041352373 0.11802108 -0.03183401 0.2174725 0.057648532
0.13191986 -0.08491229 0.059490893 -0.005137761 -0.20733976 -0.118785106 -0.13925616 0.1277402
0.19785132 -0.033417985 0.26413736 -0.023347804 -0.017310448 0.100171946 0.09333821 -0.2022906
-0.0417656 -0.16495776 0.3240048 0.02044955 -0.06771642 0.085149735 0.107443474 -0.0023108649
0.1136269 0.010847865 0.17887975 -0.14915988 0.03113519 0.22219622 0.32421705 0.16107598
-0.24336256 0.1286646 0.122934386 -0.058428247 -0.07744043 0.08889599 -0.20951949 0.092684284
0.0011500588 0.2161219 -0.013238366 -0.13962634 0.1642561 -0.19963734 -0.044357788 -0.04148059
0.029874597 -0.19100069 0.10110327 0.0025604041 -0.1876181 -0.13583413 -0.19621205 -0.053813558
0.0020911566 0.08625735 -0.10739306 -0.005568821 -0.017559383 0.027925901 -0.012093763 0.059393574
-0.12666908 -0.13516773 -0.057436608 -0.2660298 -0.055611394 0.19966325 -0.03357436 -0.043931354
0.12017081 0.10568681 -0.118160516 -0.17284471 0.056681108 0.076942414 0.03225237 -0.054436352
0.024370484 -0.17668943 0.29063684 0.1151834 0.041219506 0.017763423 -0.100755334 0.06994337
-0.07034735 0.043419372 -0.13232736 -0.08503652 0.033078052 -0.038856566 0.072093405 -0.19643815
0.13035223 0.04604061 -0.05098016 0.11213263 -0.0757382 0.21398036 -0.07503009 -0.07394019
0.07963159 0.010534651 0.10387015 -0.06588402 0.08103194 0.11396639 0.002573762 -0.08560992
-0.05592486 -0.16942227 -0.11634881 0.08272901 -0.02244567 0.16440997 0.044692565 0.09392396
-0.05091635 0.10683316 0.041432414 0.07311912 -0.019871213 0.037081204 0.005960599 -0.08374931
-0.22200875 -0.00031563046 0.084926315 0.07398752 0.017392118 0.06434144 0.04343364 0.055643726
-0.19269326 0.059149303 0.009422487 0.12958007 0.06957707 -0.061872713 0.1637874 0.11111139
-0.10145161 -0.12699227 -0.041776255 0.018817617 0.1807353 0.060208913 0.012356497 0.16476534
-0.1235097 0.107359946 -0.13465418 0.029444043 -0.19800568 -0.10003327 -0.017680757 -0.12531482

rnn.weight_hh_l1 f4 [128, 128]
00000000: f847 ca3c 6213 43bd 205d c1bc 4a68 793d
00000010: 480b 23bc 1443 d13c c0ae 083c 85eb 16bd
00000020: 98ec babc 5853 adbd eb2e 953d 6c17 b13c
00000030: 9bb1 8fbd 8a2d 693d b85e fb3c 0a03 4a3d
00000040: 854e 88bd 68c4 93bc 337c 86bd 4d2f abbd
00000050: d06c 5d3c dada 663d c271 6b3d de0f 573d
00000060: dece 4e3d b56d 0abd 560c 16bd 96c5 553d
00000070: 9b40 813d c0a0 1bbd c208 1d3d 608a 993b
00000080: 0236 a6bd 328f 503d a722 943d 9612 6c3d
00000090: eac8 753d 3d29 933d ab37 75bd 8c44 88bd
000000a0: ae2e 7e3d a31e a83d e049 9abc 82a9 1f3d
000000b0: 1840 0c3d 660d 83bd 7f6a 833d 35ea b33d
000000c0: 6749 23bd 5c59 acbc 24fe 41bd 2b7e ae3d
000000d0: ac56 f3bc 8a8a 113d c2fb 7b3d 9699 a6bd
000000e0: 0ade 563d 51b5 a73d c83d a53c 23f0 82bd
000000f0: 141e 8fbc 225c afbd fa3e 3bbd 4284 a3bd
00000100: f0db 0cbc 09ee 1dbd 0938 3ebd 9099 2fbc
00000110: 618f 4ebd 8914 4fbd 4d21 13bd 3380 813d
00000120: ae67 723d 88ef b0bc a47f ef3c 886e 10bc
00000130: 87b6 983d 663f 303d 58f7 ab3c 287b 18bd
00000140: 78a7 51bc 7029 df3b 8003 9bbd eea1 433d
00000150: 5001 eb3c cfe4 10bd c41c 983c f753 963d
00000160: e084 2dbc 10dd 9cbd e278 293d a971 943d
00000170: 940a 913c 00c9 b939 ca24 a6bd 80c7 a63a
00000180: dc9e f03c b0d0 60bc 240a cebc f6ca 093d
00000190: 9ebe 90bd 3551 a73d 8786 a63d 18f8 273c
000001a0: 805a 143a 105a 3cbc d9ca a33d 1ed1 523d
000001b0: 345e 893c f02c 2fbc f05e 4dbc a873 153c
000001c0: 7090 0d3d b599 8d3d d801 8abc 758f 923d
000001d0: 0b75 27bd 4011 513b 475c ad3d ce12 5a3d
000001e0: 7ec6 193d a24d aabd 9da7 9a3d f33b a73d
000001f0: 0003 2dba 1018 9ebb 08c9 023d c7f1 833d
00000200: 08d7 eb3c 6bfd 8f3d 9bdd aebd 3ff2 8a3d
00000210: c323 a53d b063 8fbb 46f9 3abd f287 7d3d
00000220: 889a 153c a6d7 343d c02f 85bd d8b5 463c
00000230: 4e1c 363d caba 6bbd 1cb0 93bc 7d36 a43d
00000240: 34f2 fa3c e54d 913d 073d a83d 57c9 99bd
00000250: fe62 093d e805 4bbd 89b8 853d 10fb f93c
00000260: d092 a4bb 7494 a2bd 78f7 193c b48a b63c
00000270: f22e 663d 9076 b8bb 6006 de3c 744f bfbc
00000280: 00a7 babc 556f 943d f0ff 5a3c ef1f b1bd
00000290: 031d 953d 0cf9 8dbc 8036 45bb 7ebd 623d
000002a0: 7888 6fbc fe83 673d 1815 383c eda0 08bd
000002b0: b0f9 06bd 8a30 4c3d 9018 7e3c b083 50bd
000002c0: 75ee a03d 00ac 45bc a0fe 8e3b aa76 243d
000002d0: 69da 5abd 5167 67bd 14e4 c0bc 8e7b 733d
000002e0: 807c 34bd 66b1 503d 8c95 ee3c 2ad8 2e3d
000002f0: c0c9 223b 8458 99bc c40a abbd 9ac5 363d
00000300: c533 963d aa8f 48bd 8270 4f3d 3881 a3bd
00000310: e06e f7bb 0043 ec3a ba72 643d 8cf5 a0bd
00000320: 5ce1 74bd 8ff7 a1bd c01b d73c 8062 8aba
00000330: 4958 05bd 405e 923c 463c acbd c078 033d
00000340: 4dfe b43d 4756 a93d 0f1d a2bd 4fd9 34bd
00000350: 70d7 83bc 90ec 643c ec8e c1bc f75f 07bd
00000360: 38a5 b9bc 1810 cdbc 5008 8d3c e6bd 303d
00000370: 40ae 51bb 5d11 9b3d e0e9 cbbc ec07 093d
00000380: 6db6 9cbd 06a1 3c3d c764 85bd b662 373d
00000390: 6011 c9bc 4b0c ab3d 2042 853b 5601 663d
000003a0: a943 a83d b030 d1bc 20f0 bfbc 58d0 963c
000003b0: 2860 903c 78ac 493c c0ba cc3b 86e4 543d
000003c0: 3f71 903d d201 1e3d 2c6c c53c 5c34 fabc
000003d0: de8a 003d 2a3f 35bd d878 b9bc 9a79 2b3d
000003e0: 80c8 e93c b85c 8abd ce26 403d e87f 3a3c
000003f0: 17e2 36bd 0088 efba bd03 923d c717 843d
0.02469252 -0.047625907 -0.023603976 0.060890473 -0.00995142 0.02554468 0.008342445 -0.036845703
-0.022817895 -0.08463162 0.072843395 0.021617614 -0.070162974 0.056928195 0.030684814 0.049319305
-0.066556014 -0.01803799 -0.06566658 -0.08358631 0.013514712 0.056361057 0.057481535 0.052505367
0.050490253 -0.03379603 -0.03663286 0.052190386 0.06311151 -0.0379951 0.03833843 0.004685685
-0.0811577 0.05091781 0.07233172 0.057634912 0.06000606 0.071856 -0.059867542 -0.06653699
0.062056236 0.082089685 -0.018834054 0.038980015 0.034240812 -0.0639904 0.06416797 0.08784906
-0.039864924 -0.021038704 -0.047361508 0.085201584 -0.029704414 0.03553251 0.06151939 -0.08134763
0.052457847 0.0818888 0.020171061 -0.06393459 -0.017470397 -0.08562495 -0.045714356 -0.079842106
-0.008597359 -0.038557086 -0.046440158 -0.0107177645 -0.050429706 -0.050556693 -0.03592043 0.0632328
0.059180908 -0.021598592 0.029235668 -0.008815415 0.07456689 0.04302921 0.020991966 -0.037226826
-0.012796275 0.0068103597 -0.07569027 0.04776185 0.02868715 -0.03537446 0.018568404 0.07340234
-0.010590762 -0.07659352 0.04137505 0.072482415 0.01770524 0.00035435706 -0.08112486 0.001272425
0.029372625 -0.01372163 -0.02515132 0.033640824 -0.07067607 0.08169786 0.08131128 0.010252021
0.00056592375 -0.011496082 0.079976745 0.05146896 0.016768552 -0.010691866 -0.012534842 0.009121813
0.034561574 0.06914083 -0.016846582 0.071562685 -0.040883105 0.003190115 0.08464866 0.05324059
0.037542813 -0.083155885 0.07551501 0.08165731 -0.00065998733 -0.004824646 0.03193 0.064426
0.028789058 0.070307575 -0.08538362 0.06784486 0.08063462 -0.0043758973 -0.045647882 0.061897226
0.009131081 0.04415097 -0.06503248 0.012128316 0.044460587 -0.057551183 -0.018028311 0.08018205
0.03063307 0.07094935 0.08214765 -0.07509106 0.033541672 -0.04956618 0.06529338 0.030515224
-0.005022384 -0.079384714 0.00939738 0.022282936 0.056197114 -0.005629368 0.02710265 -0.023353316
-0.02278471 0.072477974 0.013366684 -0.08648669 0.07280924 -0.017330669 -0.00300923 0.055356495
-0.014619939 0.056522362 0.011235498 -0.033356596 -0.032952964 0.049850978 0.015508786 -0.050906837
0.07857982 -0.012064934 0.0043638498 0.04015223 -0.05343095 -0.056495015 -0.023546256 0.059444003
-0.044064045 0.05095043 0.029124044 0.04268662 0.002483949 -0.018718965 -0.08351663 0.04462204
0.07334093 -0.048965134 0.050644405 -0.07983631 -0.007551059 0.0018025339 0.055773474 -0.07859334
-0.059785232 -0.07908546 0.02625835 -0.001055792 -0.0325549 0.017867208 -0.08409934 0.032097578
0.088375665 0.08268409 -0.07915699 -0.044152554 -0.01609394 0.0139724165 -0.02362772 -0.033050504
-0.02266179 -0.025032088 0.017215878 0.04314985 -0.003199473 0.07571671 -0.024891794 0.03345482
-0.076519825 0.046052 -0.065133624 0.044771872 -0.024544418 0.08351954 0.0040667206 0.056153618
0.0821603 -0.025535911 -0.02342993 0.018409893 0.017623976 0.012309186 0.0062478483 0.05197575
0.0705285 0.038575955 0.024099432 -0.030542545 0.031382434 -0.04424969 -0.02264063 0.041864015
0.028537989 -0.06755966 0.046912007 0.011383034 -0.04464921 -0.0018274784 0.07129619 0.06449848

rnn.bias_ih_l1 f4 [128]
00000000: 7818 4d3d d908 05bd 74e8 13be 05e1 0dbe
00000010: 6787 2f3d e42d 51bd cd6a 7cbc 7594 4cbd
00000020: ab16 d23c afba 3bbe 1147 5dbd c537 f9bd
00000030: a04e 7b3e 1a3f 0ebc fe88 b0bd 3f7f 163d
00000040: 251f 83bd f537 013e 2661 a33d 5797 3bbd
00000050: bb41 28bd 043b 283e e8d1 853e 5bcf 96bd
00000060: 575d 163e c447 6d3d 814e 2bbe 9ba2 70be
00000070: 28cf 783d 126f 7c3e 46c3 683d 90e4 40bd
00000080: 3be8 8b3e a4fd 12bc 9031 32be 1d73 bdbd
00000090: b3d9 82bd 3a7b e6bc 58e5 0bbe 6cb1 123c
000000a0: b332 8cbe ac06 89be df1d dfbc c20e 253e
000000b0: 114f 2c3e 46ec 3cbe 31b8 76be c5d6 9dbe
000000c0: c3de cdbd 98fa 1e3e 7e8c a43d a0f6 823e
000000d0: dde3 70bd 3654 55bb 344f 133e fd9d 6f3c
000000e0: 1984 58be a3de 483e fc63 43bc e427 b6bc
000000f0: 2207 0abd 6723 46bd eae0 3b3e 4cea c23d
00000100: 9fdf ab3c 795b 853c dc8f 88bd a0bd 98bc
00000110: a0cc afbd b430 453e 9559 13be d3a5 e13d
00000120: 4e53 db3c cbda 4e3c 08c8 cd3d 7e32 73be
00000130: e6c5 94bc 5534 46be 1d95 babd be09 9abc
00000140: 4833 5e3e 003c 663e 9d20 a83e d475 e3bc
00000150: 0299 11bd 7082 9c3e 7a10 1cbe ea3d ee3d
00000160: 371f 3abe 264c efbd 9b5b e8bd 072a a1bc
00000170: 3744 47be 3630 283e be65 05be b99b 023e
00000180: 89bd 9fbc 26f7 ae3c 12f4 4e3c f106 2abe
00000190: 4156 343e 4328 4a3e 74c1 a8bd 356b 67bd
000001a0: 7284 b8bd 128c 313c 3926 913e f8ef 05be
000001b0: 2b11 a4bd 3ed6 ed3d d924 0abe 9193 363e
000001c0: 864f fdbd e322 3bbe d2e2 8ebe 1db7 0f3d
000001d0: 1041 dcbd fe20 c23c 084a 08be a92a c23d
000001e0: ff5a f1bc a40c 923d 1f74 eebc dc2e 6e3d
000001f0: 489f e5bd baa0 203e 6373 cabd 1cb6 f8bd
0.050072163 -0.03247914 -0.14444143 -0.1385537 0.04285374 -0.051069155 -0.015406323 -0.049946267
0.025645575 -0.18332933 -0.054022852 -0.1216884 0.24541712 -0.008682037 -0.08619879 0.036742445
-0.06402425 0.12619002 0.07977514 -0.045798626 -0.04107831 0.16428763 0.26136708 -0.07363769
0.14684044 0.05792977 -0.16729166 -0.23499529 0.060744435 0.24651745 0.056826852 -0.047092974
0.27325615 -0.008971605 -0.17401719 -0.09250472 -0.06389179 -0.02813493 -0.13661706 0.0089534335
-0.2738243 -0.26762903 -0.027235923 0.16118911 0.16827036 -0.18449506 -0.24093701 -0.3082792
-0.10052254 0.15525281 0.08034609 0.25578785 -0.058811057 -0.0032551414 0.14385682 0.01462507
-0.21144141 0.19616179 -0.011925694 -0.022235818 -0.03369821 -0.048373606 0.18347517 0.09517345
0.020980654 0.01627897 -0.06668064 -0.018645108 -0.08583951 0.1925686 -0.14389642 0.110179566
0.026773121 0.0126254065 0.100479186 -0.2374973 -0.018160772 -0.193559 -0.09110472 -0.018803474
0.2169925 0.22483826 0.32837382 -0.027766146 -0.03554631 0.30568266 -0.1524066 0.11632903
-0.1817597 -0.11684446 -0.11345597 -0.01967336 -0.19459616 0.16424641 -0.13027093 0.12754716
-0.019499557 0.021358084 0.012631433 -0.1660421 0.17611028 0.19741921 -0.08240023 -0.056498725
-0.09009637 0.010836618 0.28349474 -0.13079822 -0.08011087 0.11613129 -0.13490619 0.1782973
-0.123686835 -0.18275027 -0.27907425 0.03508674 -0.10754597 0.023697373 -0.1330949 0.09480793
-0.029462336 0.07131317 -0.029108105 0.058150157 -0.11212021 0.15686312 -0.098852895 -0.121441096

rnn.bias_hh_l1 f4 [128]
00000000: b83f 5f3d ce2b 053d 0c48 35be f6bd 25be
00000010: afa5 383a 4edc 36bd 6791 383d de7a 01be
00000020: e864 a83d c3d7 6abe c6d5 113d 9f1f 06be
00000030: df27 953e 44af 213d 2ea7 093d de34 d03d
00000040: 87df d83c bcfe 9b3d 266c bf3d 55f2 f5bd
00000050: 5450 443d a0e0 5f3e fbcb 6f3e 3f48 27be
00000060: 5a5b 433e f84c 7e3d 8909 6dbe 455d 5dbe
00000070: 7424 5fbd 65a2 3e3e a133 d6bd 6e15 48bc
00000080: ebd9 563e 0c1e 083c 68c3 18be 3a84 83be
00000090: 89c5 37be ad0e 90bd 9e5f d9bd fec5 91bd
000000a0: 588c 70be 2139 4abe 2a8a 08be 33b8 813e
000000b0: e874 783e 5d64 e8bd bb76 34be be8c 38be
000000c0: 57d9 aebb 9ea6 723e bc4d a53a f1e9 903e
000000d0: 082e 19be bdde 4abb 1931 863e 4064 f73d
000000e0: 0904 35be 270d 273e 402c 063e 42c5 e43c
000000f0: 6cdb 413d e1de 25bd 8507 733e 41fd 7fbc
00000100: b1ff de3c e1e2 8e3d 9005 f1bb 6e1e 2abd
00000110: ec15 92bd 6873 593e 923d 79be 49a8 d43d
00000120: c31a ca3d 62f9 113d de1b 833d aa01 75be
00000130: 2ba8 cd3d bd64 35bd a91b 0cbe 670f a13d
00000140: bad1 a83d ca62 1a3e ec3c 663e 0ad1 10be
00000150: 8b94 eabd 2364 4a3e 309b 53bd 6b0f 893d
00000160: c70a adbd c9e3 9bbc 82d7 b4bd 53fe 09be
00000170: 178d 51bd 2078 2b3e 1906 a7bc 9f66 093e
00000180: 8326 85bd 70ab c9bd 2375 c63b d5bb 84bd
00000190: 5cf1 1f3e f98f 7f3d 6f9f 13be e440 50bc
000001a0: 91b7 aebd b0bb 013e 406d 2c3e d275 fdbd
000001b0: bb6b cfbd 97c6 3c3e d483 04be a072 353d
000001c0: 95ad 38be 5d15 8fbd 6ad3 15be cbdc 043d
000001d0: 43fc 4e3c 9128 4cbc 1203 cabd c0a0 ffbc
000001e0: 7667 9fbc cd5b 8e3d 5292 413d 1a41 04bc
000001f0: 3cd6 15be 53c0 9b3e 706b 2bbd b791 b5bd
0.054504126 0.03251248 -0.17703265 -0.16185746 0.0007043732 -0.044643693 0.04506054 -0.12644526
0.08222371 -0.22933869 0.03560426 -0.13098 0.29131982 0.039473787 0.0336067 0.101663336
0.026473774 0.07616946 0.093467996 -0.12009112 0.04792817 0.21863031 0.23417656 -0.16336153
0.19077817 0.062085122 -0.23148169 -0.21617611 -0.054478124 0.18616636 -0.10459066 -0.0122121405
0.20981567 0.008307945 -0.14918292 -0.25686818 -0.17946447 -0.07034049 -0.10613941 -0.07117842
-0.23491037 -0.19748355 -0.13333955 0.25335845 0.24263346 -0.11347268 -0.17623417 -0.18022439
-0.0053359675 0.23696372 0.0012611668 0.28303483 -0.14958966 -0.0030955516 0.26209334 0.12079668
-0.1767732 0.16313611 0.13102818 0.027926091 0.047328398 -0.040495757 0.23733337 -0.015624345
0.027221533 0.069768675 -0.0073553994 -0.041532926 -0.071330875 0.2123543 -0.24339893 0.1038366
0.09868386 0.03563822 0.064017996 -0.23926416 0.10041841 -0.044285525 -0.13682427 0.07864266
0.08243127 0.15076748 0.22484177 -0.14142242 -0.114541136 0.19764762 -0.05166167 0.06692394
-0.08449321 -0.019029515 -0.08830167 -0.13475923 -0.051159944 0.16745043 -0.02038865 0.13418053
-0.06501486 -0.09847152 0.0060564443 -0.064811386 0.15619415 0.062393162 -0.14416288 -0.012710784
-0.08531106 0.12669253 0.1683855 -0.12375988 -0.1012797 0.18435131 -0.12940913 0.044298768
-0.18034966 -0.069864966 -0.1463143 0.032437127 0.012633386 -0.012460844 -0.09863867 -0.031204581
-0.019458514 0.06951103 0.047258683 -0.008072162 -0.14632505 0.3042017 -0.041850507 -0.088656835

rnn.weight_ih_l2 f4 [128, 128]
00000000: e6c4 debd e95b 06bd e62f 833e f594 c5bc
00000010: b1cc 713d 3982 243e a197 b23a 5cb9 90bd
00000020: 5cde 1db8 6732 71bd 2a16 6a3d 7073 d1bd
00000030: ec07 67be ac03 363e d039 acbd 818a 863d
00000040: 6bf1 b83d 4013 28be 9a90 89be e693 b63d
00000050: 7dcc b4bd 683f 53be e944 33bd 6795 86bc
00000060: df39 44be 221e 17be 94aa fb3d 92eb 12be
00000070: 4ea9 3fbe 5345 39be 1f0e 833e d928 86bd
00000080: 3d6d 24be b9bf 8c3b 4b79 e9bc 135e 883d
00000090: 29b3 133e e0cd 5d3e b25e 503e 66d5 eb3d
000000a0: 78f1 c83d 6f66 a73e 2755 8b3d 66f8 65be
000000b0: 807a a4be 6770 0c3e 7528 db3d 0138 523e
000000c0: ecf1 85be bfda 35be 488c c1bd d0d3 46bd
000000d0: 62b7 183e 4b5a f03c 43d7 863d 0c44 513e
000000e0: 7ff4 a63d 0bda 57be faef 3ebe 0fe4 cabd
000000f0: c7db 06be 4685 b53c 81d2 53bd 4412 4fbe
00000100: c4f6 efbd d9d2 80bd 6d61 eabb 76da dbbd
00000110: bba1 af3d 201a 51be 0832 9d3e f827 3abd
00000120: 217a ef3d 0e24 28bd 8648 1bbe 797a 4f3d
00000130: 86a4 6b3d 19a7 5f3c e491 8fbd a629 fc3d
00000140: 1058 d23c f597 563c e203 91be c34d ec3d
00000150: 9eb3 ffbd 35ca 87bc d3bb abbd 2f48 4abe
00000160: ed18 973e 05ac c23c 80b8 3fbd 64f2 9d3c
00000170: 7986 c73d c401 eb3d b1f7 293c b99f aabe
00000180: 5ba7 57be c54d 61be eb2f d23d 4c37 123e
00000190: fce3 163d 59f7 0bbe 631d 2dbc 0f82 1ebe
000001a0: 752e edbd b503 5dbc d4da 07be 6c52 3e3d
000001b0: 6949 20be 468b afbd 354a 2e3e cccb bd3d
000001c0: 97c5 13bd 7f23 4b3e fa88 bb3d 41a4 b53d
000001d0: d16c 3abe 7e81 273e fda6 b13e 3e6b e93c
000001e0: ccf8 1e3d 15d5 95bd 25db 6bbe 7c64 543d
000001f0: a08c ca3b 06b1 3ebe 673a e4bd 0d12 753e
00000200: eb98 acbe 799f ffbd 36af 5cbd 1c22 52be
00000210: e3e0 80bc c08b f23b e85b 783e 958a 33be
00000220: e8c2 bf3d eada 16be c94d 73bd ba5e 15be
00000230: 85c5 b13d 2565 aa3d e608 1b3e 4502 6d3e
00000240: c844 b7bd e848 c2bd 3e05 21be f9c2 3ebe
00000250: 3a74 9dbe 6e5b 103d 8e6d 153e da97 233d
00000260: ee4e bf3c 5571 9cbd 5b15 38bd 54da d0bd
00000270: 95f6 f53c 9c84 9e3d d10a 9f3d 2a06 cf3c
00000280: fea6 583e 4350 ed3d 2296 abbe 2398 b13c
00000290: 182a b63d 377b 15be d13e f8bc b0b8 9a3e
000002a0: 3609 853c 067b 1f3e 9d53 98be 8ba6 543d
000002b0: 39be aabb 32f9 133e 00f2 cd3c 52f8 5dbe
000002c0: 4cbc 803e 9ec2 13be 7df8 66bd a04f d43d
000002d0: e230 61be 3fab 663e 8c29 acbc c1bc 59be
000002e0: 268c 693d 28c6 0bbd a257 a13e b10a 76be
000002f0: 5330 553e 6d46 52be 1ac4 0d3d 170c 05be
00000300: 83fd 23be 4e58 f23d 199d aabe 8fb5 8ebe
00000310: c6d3 5dbd b201 833c 1a7d 333d 1667 023d
00000320: 4172 2d3e 10e8 4bbe cae5 38be b812 2f3e
00000330: c3f7 8c3c 5b2f aa3c 3868 59be eb94 833d
00000340: 085f a33e 67a2 083d 43a6 8dbb f893 b5bd
00000350: 2783 66be ca4b 433e d0a5 153e 8fee b83c
00000360: 81d0 0c3e ec06 9abc 46d2 e8bd 9bc0 0bbf
00000370: 6b1e 25be 3162 633d 5d19 74bc 6557 f0bd
00000380: dda8 70be a0a5 02be a56b 6dbe be3e c53c
00000390: 4f9e 9d3d f08f 95bd e1b1 57be adf3 76bd
000003a0: 9bfa 10be 976e 3a3e 17a4 a43d 1066 ae3d
000003b0: 1afd edbe c07d 853d 6b8e 903c 6f88 8c3d
000003c0: 4091 bb3d dc1b c63d cc71 873d 8bee d3bd
000003d0: a420 22be d4ca 2d3e 58a9 793d 8b77 dd3b
000003e0: e1f6 6abc 1f7a 533e 5547 e8bd e810 d03d
000003f0: ba06 cc3d 6f14 513e 3ec4 9dbe a5a6 94bc
-0.10877399 -0.032802496 0.2562248 -0.02411888 0.0590331 0.16065301 0.0013625511 -0.070666045
-3.7638805e-05 -0.058885958 0.057150044 -0.10227096 -0.22561616 0.17774838 -0.08409464 0.06569386
0.09030422 -0.16413593 -0.26868135 0.08914928 -0.088280655 -0.20629656 -0.04376689 -0.016428662
-0.19162701 -0.14757589 0.122883946 -0.14347675 -0.18716928 -0.18092851 0.2559671 -0.0655076
-0.16057296 0.004295316 -0.02850022 0.06658568 0.14423813 0.21660566 0.20348623 0.11515312
0.098116815 0.32695338 0.06803351 -0.22458038 -0.3212471 0.13714753 0.10701076 0.20529176
-0.26161134 -0.17759226 -0.09450585 -0.048541844 0.14913705 0.02933993 0.06584027 0.20436114
0.08152103 -0.2107927 -0.18646231 -0.0990678 -0.13169776 0.022158276 -0.051714424 -0.20221812
-0.11716989 -0.06290216 -0.0071527273 -0.107350275 0.085757695 -0.20420122 0.30702233 -0.045448273
0.11693216 -0.04105001 -0.15164384 0.05065391 0.05752995 0.013650679 -0.07010248 0.12312631
0.025676757 0.013097753 -0.28323275 0.11538269 -0.12485431 -0.016575912 -0.08385434 -0.19754098
0.29511204 0.023763666 -0.046806812 0.01928062 0.097424455 0.11474946 0.010373996 -0.33324984
-0.21059935 -0.22002323 0.10263046 0.14278907 0.036838517 -0.13668574 -0.010566088 -0.15479301
-0.115811266 -0.013489653 -0.1326707 0.046465322 -0.15653004 -0.08571486 0.17020495 0.09267387
-0.03607711 0.1983776 0.091569856 0.088692196 -0.18205573 0.16357991 0.34697714 0.02849352
0.03881149 -0.07316033 -0.23032816 0.051853642 0.0061813146 -0.18622217 -0.11143952 0.23932667
-0.33710417 -0.12481589 -0.05387803 -0.20520824 -0.015732234 0.0074019134 0.2425381 -0.17533334
0.09363347 -0.14731947 -0.059400354 -0.14586917 0.08680252 0.08320073 0.15140113 0.23145397
-0.08948666 -0.09486562 -0.15724656 -0.18629064 -0.30752736 0.035243444 0.14592573 0.03993974
0.023353066 -0.07638804 -0.04494224 -0.10197893 0.030024806 0.07740137 0.07765735 0.025271494
0.21157452 0.11587574 -0.3351298 0.02167899 0.088947475 -0.14597784 -0.03030339 0.3021903
0.016239744 0.15574273 -0.29751292 0.05191664 -0.0052106646 0.14450529 0.025139809 -0.21676758
0.2514366 -0.1442971 -0.05638932 0.1036675 -0.21991304 0.22526263 -0.021015905 -0.2126341
0.05701842 -0.034124523 0.3151217 -0.24027516 0.20819215 -0.20534678 0.034610845 -0.12992893
-0.16014676 0.11833249 -0.3332298 -0.27872893 -0.05415704 0.01599202 0.043820478 0.03183659
0.16938116 -0.19912744 -0.18056408 0.17096984 0.017207986 0.020774534 -0.21231163 0.06424888
0.3190844 0.033358004 -0.0043227985 -0.088661134 -0.22510968 0.1907188 0.14614034 0.022574691
0.13751413 -0.018802129 -0.113682315 -0.5459077 -0.16124885 0.055513564 -0.014898625 -0.11735419
-0.23501916 -0.12758493 -0.23185594 0.02407777 0.076962106 -0.073028445 -0.21063949 -0.06029098
-0.14158098 0.18206249 0.0803911 0.085155606 -0.46482164 0.065181255 0.017646035 0.0686196
0.091585636 0.096732825 0.06613502 -0.10348233 -0.15832764 0.16971904 0.060952514 0.0067586354
-0.014341087 0.20652054 -0.113417305 0.101594746 0.099622205 0.20417951 -0.30813783 -0.018145869

rnn.weight_hh_l2 f4 [128, 128]
00000000: 02f3 01bd 37fc 853d fc05 e83c b029 54bd
00000010: b87a 79bc d439 d13c 75ed 933d 18e4 2fbd
00000020: dc6c f6bc 96fe a0bd 4450 973c a0ee c5bc
00000030: 485e c43c d6ba 0e3d 4e1d 233d b049 153d
00000040: a313 9cbd 328d a9bd 75d3 aa3d 9652 673d
00000050: 06a3 2f3d 30f1 d03b a4be 013d eef6 1dbd
00000060: f8a1 513c 4fae a33d d368 ae3d 8005 f03a
00000070: 96a3 163d fe71 dcbc 6420 943c 8dac 973d
00000080: 6267 683d 26e0 513d 7d2a 993d 5856 11bd
00000090: f941 7ebd 0eac 523d c6a0 373d 3bfe 2cbd
000000a0: 178f 8fbd 0072 173c 166d 1d3d 5d0c b13d
000000b0: 5b96 833d 3ebe eebc 8055 ebbb 85b4 97bd
000000c0: 1e41 8cbd 2c24 f53c c2ca 053d 61df aa3d
000000d0: a819 00bc 1062 843c 20d5 60bb 2895 20bc
000000e0: ac81 823c c103 8b3d a436 08bd 721d 083d
000000f0: 9df1 a0bd 0d4f 983d 681d 36bc 2aa1 6a3d
00000100: 108e 9bbc 0041 17bd 6d68 a0bd 91fb 3dbd
00000110: 5695 87bd f6c2 483d 7096 e9bb 3cfb 92bd
00000120: 6681 6b3d 28a2 8ebd 0400 80bc 25fb 4abd
00000130: 28f3 bc3c 55e9 9fbd e840 b43c a600 a5bd
00000140: 8d0f 983d fc97 8bbd 90f9 773c a06c 253b
00000150: f865 88bd c946 87bd 691b 903d c0d0 9dbd
00000160: 81e1 b3bd c8af 24bd 4107 95bd 986b 6d3c
00000170: 6487 02bd 00f5 ee39 fa74 753d 9e94 6f3d
00000180: 0617 2fbd 8c1f b33c 4829 f8bc c046 c83c
00000190: 1476 2abd ecb2 6dbd 8dd9 a03d a05a a73c
000001a0: 9025 9f3c d0d1 193c 5a01 9dbd 91ce a23d
000001b0: dce7 dcbc ee96 7c3d 785f 89bc 4463 a5bd
000001c0: 4236 1d3d dae4 4e3d 91d4 a23d 401b 073c
000001d0: 000c bdbc f6e6 98bd c489 f1bc c2e1 6c3d
000001e0: 9050 73bd 92c0 5d3d 7f85 95bd 9c63 b2bc
000001f0: e8c6 4ebc 3485 afbc 86f6 483d 002e b23c
00000200: 8829 cfbc 34b2 003d 3a8d 6e3d 62e8 343d
00000210: 40ec 37bb bee1 8ebd 4dc4 aa3d e725 ad3d
00000220: e8aa 0e3c 3147 9c3d 35d5 923d eb65 9c3d
00000230: d0c3 353c 5df4 13bd fc60 a03c 2054 b0bc
00000240: c645 253d 6246 7f3d 2b35 86bd a017 9e3c
00000250: 95bf 833d 5451 d83c aac2 7b3d a253 8fbd
00000260: 45aa 54bd a735 993d 680c ab3c 732e 2cbd
00000270: c7a9 813d 49d5 60bd 9e2b 3b3d ab8d 2ebd
00000280: 577b a13d 379f 62bd 1889 e43c d306 aebd
00000290: 0359 943d 508d da3c 6e3d 8abd b635 663d
000002a0: af00 933d adfd 853d aee1 403d 1eaf 8cbd
000002b0: c2c9 00bd c79a 7fbd ecb4 b1bc 1859 00bc
000002c0: b501 25bd dbda ab3d e763 9a3d 741e 8abd
000002d0: 0ae3 163d 4b52 ae3d 5c33 32bd e83e b03c
000002e0: fae4 233d d8db 53bc 189d ef3c d245 2f3d
000002f0: a566 7ebd 844e 92bd dac8 583d 6e6a 7abd
00000300: 6247 79bd bfc1 a73d f013 bc3c c071 aaba
00000310: b200 5bbd 187c 973c 97df 02bd 9cd8 943c
00000320: e801 f3bc ef7b a73d c4be babc 2a9a 773d
00000330: 1d4c 33bd 2aa6 84bd 1822 a1bc ff1a 47bd
00000340: 94e6 f93c a81c 6bbc c56e 07bd f067 c53b
00000350: d68a 3e3d 4481 aebd 55d4 9e3d dfe5 833d
00000360: d0ab f4bb 48ab 813c c07a 6bbd 7a60 7b3d
00000370: a4a7 0d3d 1791 a7bd 7362 b23d 4d7a 58bd
00000380: de1f 47bd 01f6 27bd a042 2d3b 3672 393d
00000390: 8407 8bbd 0e5e 5f3d d891 06bd 8041 253b
000003a0: 30e8 41bd 8be4 85bd 0a00 413d dd84 aebd
000003b0: ce17 8ebd a9ad 9d3d 74b6 f83c 80e5 743c
000003c0: 90ab 993b f8c7 fb3c f8a3 b0bd 0e45 363d
000003d0: dc3f acbd bacd 6b3d 0070 ad3a f033 ffbc
000003e0: c864 d83c 728d 3fbd 0a1b 483d 1a3b a8bd
000003f0: cfe3 813d 6403 893c 8099 babc b2e2 67bd
-0.03172589 0.06542247 0.028323166 -0.05179757 -0.015227012 0.02554027 0.07223026 -0.042942137
-0.030081205 -0.078610584 0.01847089 -0.024161637 0.023970738 0.03484615 0.03982287 0.036447227
-0.07620933 -0.08278884 0.083411135 0.056475244 0.04288008 0.006376408 0.03167595 -0.03856557
0.012794964 0.07992231 0.085160874 0.0018312186 0.0367771 -0.026909824 0.018081851 0.07405958
0.05673922 0.051239155 0.07478807 -0.035482734 -0.062074635 0.051433615 0.04483106 -0.04223464
-0.07009714 0.009243488 0.03843411 0.08644936 0.064251624 -0.029143449 -0.0071818233 -0.07407478
-0.068483576 0.029924475 0.032664068 0.083433874 -0.007818617 0.016160041 -0.003430672 -0.009801187
0.015930973 0.067878254 -0.033255234 0.033231206 -0.07858584 0.07436953 -0.011115409 0.057282604
-0.01898864 -0.036927223 -0.07832418 -0.04638249 -0.066202804 0.049014054 -0.0071285293 -0.071768254
0.05749645 -0.069645226 -0.015625007 -0.049555916 0.023065165 -0.078081764 0.022003606 -0.08056764
0.07424841 -0.06816098 0.015135184 0.0025241747 -0.06660074 -0.06605298 0.07036478 -0.077058315
-0.08783246 -0.0402067 -0.07276774 0.014490984 -0.0318674 0.00045577437 0.05992601 0.05849134
-0.042746566 0.021865629 -0.030293122 0.024447799 -0.041616514 -0.05803196 0.078539945 0.020428956
0.01942709 0.009388402 -0.076662734 0.07949556 -0.026966028 0.061667375 -0.016769156 -0.08075574
0.038381822 0.05051122 0.079507 0.008246243 -0.023077011 -0.07465927 -0.029484637 0.057832487
-0.059403002 0.054138727 -0.07300853 -0.021776013 -0.012620665 -0.02142582 0.049063228 0.02175045
-0.025288358 0.031419948 0.058240153 0.04416693 -0.00280644 -0.06976651 0.08338223 0.08454495
0.008707739 0.07630766 0.07169572 0.07636627 0.011094049 -0.036121715 0.019577496 -0.021524489
0.040349744 0.06232298 -0.0655311 0.019298375 0.06433026 0.026405968 0.061464943 -0.069983736
-0.051920194 0.074809365 0.02087994 -0.042036485 0.063312106 -0.054890905 0.045695893 -0.042615574
0.07884853 -0.05532762 0.027897403 -0.08497395 0.0724354 0.026678711 -0.06749998 0.056203566
0.07177865 0.065425254 0.047090225 -0.068693385 -0.03144241 -0.062403467 -0.021692716 -0.007833742
-0.04028483 0.08391353 0.07538586 -0.0674409 0.036837615 0.0851179 -0.04350601 0.021514371
0.04001329 -0.012930833 0.029249713 0.042791195 -0.06210961 -0.07143882 0.052925922 -0.061136656
-0.06085909 0.08191251 0.022958726 -0.0013003871 -0.05346746 0.01849179 -0.031951513 0.018169694
-0.029663995 0.08177935 -0.022796042 0.060449757 -0.04377376 -0.06477006 -0.019669577 -0.04860973
0.030505456 -0.014350094 -0.033064622 0.006024353 0.046519123 -0.08520749 0.07755343 0.06440329
-0.0074667707 0.015828744 -0.05749011 0.061371304 0.034583703 -0.081819706 0.08710184 -0.05285101
-0.048614375 -0.041006092 0.0026437417 0.045274936 -0.06788543 0.054533057 -0.03285393 0.0025216043
-0.047340572 -0.06537732 0.047119178 -0.085214354 -0.06938134 0.07699139 0.030360438 0.014947295
0.0046896413 0.030735001 -0.086250246 0.04449945 -0.08410618 0.057569243 0.0013232231 -0.031152695
0.026415244 -0.046765752 0.04885391 -0.08214398 0.06342279 0.01672525 -0.022778273 -0.056612678
