src/rnn/models/user_4_model.pth (torch, 377610 bytes, 16 tensors)

rnn.weight_ih_l0 f4 [128, 11]
000000 be 58 f1 bd 5b cc a8 bd a9 43 ac bd 3d 09 a8 bd
       -0.11784504 -0.08242103 -0.08411343 -0.08204887
000010 92 27 1c 3e 0c cc 71 3d 16 1a 77 3d 96 c5 21 bd
       0.1524947 0.059032485 0.060327612 -0.039495073
000020 c5 cc 37 3d 95 94 b8 3c 96 65 23 bb 08 cb 21 3d
       0.044873018 0.022531787 -0.0024932376 0.039500266
000030 4c 4f 9d 39 5b 1d 8b bd 1b 0e 19 3d 6b 17 93 bd
       0.00030004454 -0.067927085 0.037366968 -0.07182201
000040 08 69 88 bb 01 36 c6 3c b8 36 cf bb d0 25 75 3c
       -0.0041629113 0.024195673 -0.0063236617 0.0149626285
000050 f4 7e 55 bd f0 e0 b8 bd 98 cc b1 bd f0 78 3f 3d
       -0.052123025 -0.090272784 -0.08681601 0.046746194
000060 19 53 39 3e 1b f3 13 3c 61 99 a2 bd a0 d7 4a be
       0.18098105 0.009030129 -0.07939411 -0.19808817
000070 4f 9c 9d be 06 dc 57 3d 8e 20 a9 3c f6 9a be 3b
       -0.30783316 0.052700065 0.020645406 0.0058168126
000080 0a 2f 03 be 2c 70 46 bd 1c 18 82 bd 4d 80 30 be
       -0.12810913 -0.04844682 -0.06352255 -0.17236443
000090 b0 25 0d bd ad e2 f9 bb 50 b7 b4 3d 9f 6c 6f 3d
       -0.03445977 -0.007625899 0.088240266 0.0584532
0000a0 33 fb 1c be 07 dd b8 bd 02 52 f9 3c 3d aa 76 3d
       -0.153302 -0.090265326 0.030434612 0.060220946
0000b0 d7 87 dd bd ca 41 fd bc 6e 31 50 3d 67 46 49 3c
       -0.10816925 -0.03091516 0.05082839 0.012284852
0000c0 f4 35 83 bc bf 78 ac 3c 09 cf cb 3d 61 5c 16 be
       -0.016016938 0.02105367 0.09951598 -0.14683677
0000d0 98 7c 58 3c 0e f5 be 3d 4a 52 d0 3d e8 cb 4e 3d
       0.013213299 0.09324084 0.101719454 0.05048743
0000e0 f4 1d aa bc 6b 0e 43 be 81 47 15 be 9e 26 52 bd
       -0.020766236 -0.19048469 -0.14578058 -0.05130636
0000f0 2c dd 8e 3d e4 f5 04 3e 91 c4 5e be b9 1e 3e bd
       0.06975779 0.12984425 -0.21754672 -0.04641602
000100 9f 2b 94 bc 92 5b 31 3d 0c 90 c2 3d 5c 19 83 3d
       -0.018087206 0.04330022 0.09500131 0.06401321
000110 95 4b 74 3d 4e d6 49 bd c3 f5 af 3d dd f4 ea 3c
       0.059642393 -0.049276643 0.08591797 0.028681213
000120 c7 ec 01 3e 6e 29 44 3d 02 1a 77 3b 16 08 15 bd
       0.1268798 0.047891073 0.003770471 -0.036384664
000130 90 2b 04 3e d1 f0 5e 3d 63 8d 5e bd da eb 99 bd
       0.12907243 0.05442888 -0.054334056 -0.07515688
000140 11 44 31 3b b0 45 d6 3c 49 f8 12 3e 5c 38 74 bd
       0.0027048627 0.026156276 0.14352526 -0.05962406
000150 7e c4 6b bd 22 1d 9f 3d b8 1a 5f 3d 8b 2a b6 3d
       -0.057560436 0.077692285 0.05446884 0.08894833
000160 21 a0 d4 bc 89 8c c5 3d cd b1 9e bd bc 53 f8 3b
       -0.025955262 0.096459456 -0.077487566 0.0075783413
000170 af 88 39 3d 65 d7 ae 3c a7 9e 4b bd 95 64 fa 3d
       0.045296367 0.021342942 -0.04971185 0.12226216
000180 6c da d9 bc 02 eb 64 3d 88 aa 6e bc cf 1f 81 3d
       -0.02659341 0.055888183 -0.014567025 0.06304895
000190 01 9b be bc 99 fb 2f be 6c d9 42 be 40 cb 7a bd
       -0.023267271 -0.1718582 -0.19028252 -0.06122899
0001a0 f1 e9 a4 bc 58 dd 9a 3d 05 db 18 be 88 12 8b bd
       -0.020131083 0.07561749 -0.149273 -0.06790644
0001b0 99 8f 22 bc a7 3f b0 bc f1 e6 6f bd 61 63 37 bd
       -0.009921932 -0.021514727 -0.058569852 -0.04477251
0001c0 ed 82 8b 3b 19 b4 0f bd 46 03 8d 3c 38 60 00 3d
       0.004257551 -0.035083864 0.017213475 0.03134176
0001d0 79 17 8f 3d be 91 b1 3d 41 55 52 3d ba 59 98 3d
       0.06986899 0.08670376 0.051350836 0.07438989
0001e0 7f db 0f 3b ea cb 9c bd 10 9e ef bd 0d e5 03 be
       0.0021950898 -0.07656081 -0.1170007 -0.12880345
0001f0 0f 5a 25 be d2 54 8c be 79 50 9b bd 9b d9 96 bd
       -0.16147636 -0.27408463 -0.07583708 -0.07365724
000200 e4 58 16 be d3 ff 46 bd e6 c4 20 be f2 fa 45 be
       -0.14682347 -0.048583817 -0.15700111 -0.1933401
000210 9d 93 0e 3c 79 90 9a 3d 14 f4 1b bd 09 0f e3 3b
       0.008702186 0.07547087 -0.038074568 0.0069292826
000220 3f 99 18 3b 41 35 31 3e b5 78 e7 bd 53 69 3b 3d
       0.0023284701 0.17305471 -0.1130232 0.045754742
000230 d6 b6 c4 3d 2e 87 70 3d 64 0c e3 3c 56 0c d7 3d
       0.09605186 0.058722667 0.02771587 0.105004
000240 28 71 81 3e ff 34 3e 3e 56 4d df 3d 4f 27 3d 3e
       0.25281644 0.18574904 0.109034225 0.18472026
000250 72 9b 31 3e 25 36 a3 3d be d5 35 3e 1a dd c6 3d
       0.17344454 0.079693116 0.17757317 0.097101405
000260 09 aa 7d 3e dc c0 57 3e 4d d6 91 3c cf 49 4b bd
       0.24771895 0.21069664 0.017802382 -0.049630936
000270 5b 63 ab 3c b6 4f 45 3c 23 d5 5c bd 99 a5 c4 bd
       0.0209214 0.01204293 -0.0539142 -0.09601898
000280 ec 08 b3 3d 17 df 03 3d b4 ae 29 be 73 ad a6 bd
       0.08741936 0.032195177 -0.1657055 -0.081385516
000290 26 9f e5 3c 5d 72 5c 3d 3c c2 9c 3d 6a 31 5a 3e
       0.02802999 0.053820003 0.07654235 0.21307912
0002a0 e3 17 a1 3d 54 61 54 3d 4a a6 3e be cc 59 71 be
       0.07865884 0.05185063 -0.18618122 -0.23569411
0002b0 82 29 12 3e 70 64 b5 3d fe 43 95 ba 57 03 20 bd
       0.14273646 0.088570476 -0.0011388061 -0.039065685
0002c0 e1 01 b3 bd 60 4e 99 3c e7 64 d1 bd f0 8e 4f bd
       -0.08740593 0.01871413 -0.10224324 -0.050673425
0002d0 48 a2 93 bc d9 b3 c0 3d 33 d2 b0 3d 63 5d dd bd
       -0.018021718 0.09409303 0.08633842 -0.10808828
0002e0 88 ce 8c bd 54 a4 ae bd e9 60 75 bd 71 18 11 3e
       -0.0687533 -0.08527437 -0.059906874 0.1416948
0002f0 8e 6e c9 bb 72 0b 58 3d ed 61 25 bc 09 8a 28 3e
       -0.0061472123 0.05274529 -0.010094148 0.16458906
000300 b1 da dd bb 24 17 14 3e b1 eb 2e 3e 82 96 0b bc
       -0.006770455 0.14461952 0.17082097 -0.008519771
000310 d3 37 63 bc d4 94 de 3d 41 3a 2a be 04 8c 25 be
       -0.01386829 0.108682305 -0.16623785 -0.16166693
000320 db 5a a0 bd 06 c3 b6 bd 3e 7b 81 3d 16 61 9b bd
       -0.07829829 -0.089239165 0.06322335 -0.07586877
000330 f3 11 ae 3d 46 6b 16 be 85 4c bc bd 96 9f 0c be
       0.08499517 -0.14689359 -0.091942824 -0.13732752
000340 48 4a 3f bd 17 d3 ca bc 55 bb 2d 3d 87 f5 3b 3e
       -0.0467017 -0.024758859 0.042414982 0.1835538
000350 01 f7 45 3e 9b 49 33 3e 5e 46 3d 3e 96 34 5b bd
       0.19332506 0.17508547 0.18483874 -0.053516947
000360 69 2f 61 3e 06 7b f9 3d f5 d2 2c 3c 8a ec 88 3d
       0.21990742 0.12181668 0.010548343 0.06685741
000370 b1 f2 de 3b 8a 07 d1 bd 20 bc d0 bd 5e ab 0a be
       0.0068038334 -0.10206516 -0.10192132 -0.13541934
000380 3a 45 fc bd e1 ff 4c 3c 4c 46 60 3d d4 77 cb bd
       -0.123178914 0.012512178 0.05475454 -0.09934965
000390 64 b2 07 be bc ee 1a 3d 27 ea 18 be 2a 75 70 bc
       -0.13251644 0.03782533 -0.14933072 -0.014676372
0003a0 81 db ac 3d 0a 34 4a 3d 83 13 a8 bc d6 4c 0c be
       0.084403045 0.049366035 -0.020517116 -0.13701186
0003b0 b8 3c 1e be 81 ff 31 bd df 87 ad bc 36 2d 9b 3d
       -0.1545285 -0.04345656 -0.021182952 0.07576983
0003c0 6a 9b fd bd 1e 23 ed bd ba 9e 09 3d ec 0f 91 3c
       -0.123831585 -0.11578964 0.03359864 0.017707787
0003d0 c1 db 8c bc 2b fe 8a 3d ea b9 5e bd 65 37 75 bd
       -0.01719463 0.0678676 -0.05437652 -0.05986728
0003e0 4d 54 62 bd 75 e7 7e 3c 45 6c ae 3d 5f 14 b0 3d
       -0.055256177 0.015558113 0.085167445 0.085976355
0003f0 43 55 d6 bd 0b 7e 61 3d 08 cd b8 3d 44 74 c8 3d
       -0.10465481 0.055051845 0.090234816 0.09787801

rnn.weight_hh_l0 f4 [128, 128]
000000 da c3 9b bd f0 51 fc bb 23 18 93 3d 80 28 79 3a
       -0.07605715 -0.0077001974 0.07182338 0.0009504631
000010 7c 63 e3 bc 34 99 89 bd 38 ad e0 3c 11 7b a3 3d
       -0.027757399 -0.06718674 0.027426347 0.079824574
000020 c0 d6 63 bc 1c 99 df bc c6 af 3c 3d 15 70 36 bd
       -0.013906181 -0.027294688 0.046066068 -0.044540484
000030 f0 fd 3d 3c 13 12 a2 3d e0 1c 04 bc 79 0b a4 3d
       0.011596188 0.07913604 -0.008063525 0.08010001
000040 b4 0b 12 3d 38 14 96 bc 28 77 28 3c a4 87 ae bd
       0.035655692 -0.018320188 0.010282315 -0.08521965
000050 e8 bc 3c bc c0 01 6c 3c 30 0c 9b bb cc 06 96 bd
       -0.011519648 0.014404714 -0.0047316775 -0.07325515
000060 78 b6 4f bc 51 c3 39 bd 3f c3 3a bd 41 7d 9a bd
       -0.012677781 -0.045352284 -0.045596357 -0.075434215
000070 5c ff a6 bd 1a 48 36 3d 44 b6 14 3d 78 31 01 3d
       -0.08154175 0.044502355 0.036306635 0.031541318
000080 0e 07 65 3d c0 8e 2e bd 43 0b 82 bd c7 ae 11 bd
       0.05591493 -0.042616606 -0.06349804 -0.03556707
000090 6c 18 f3 3c 6e 8b 2c 3d 00 c0 9d 36 5c ed 87 bc
       0.029674731 0.042125158 4.7013164e-06 -0.016592674
0000a0 89 14 a1 3d 40 98 d3 3b b0 d4 e4 3c 00 40 49 ba
       0.07865245 0.0064573586 0.027933449 -0.0007677078
0000b0 f8 60 4f bc b0 89 fd bc d4 f9 a0 3c 70 0e 3e 3c
       -0.0126573965 -0.030949444 0.019650377 0.011600122
0000c0 bc 56 fc 3c e4 45 da 3c c7 40 9e bd 28 06 b8 3c
       0.030803077 0.026644655 -0.07727199 0.022463873
0000d0 d4 32 12 3d 9d 05 b0 3d a5 e5 54 bd b8 67 88 3c
       0.035693005 0.08594821 -0.05197682 0.01665102
0000e0 66 f9 f6 bc 42 f4 f1 bc 2e 7c 28 3d 71 6c ab 3d
       -0.03014822 -0.029535417 0.041134052 0.08370293
0000f0 b4 43 10 3d 50 c6 ad bc a2 87 28 bd ba 41 42 bd
       0.035220817 -0.021212727 -0.041144975 -0.047425963
000100 13 c4 25 bd 68 91 7d bc 00 92 f9 3a 76 cb 0b 3d
       -0.040470194 -0.015476562 0.0019040704 0.034129582
000110 1e 1c 47 3d c6 18 4c 3d 24 68 1c bd 7e 3c 2e 3d
       0.0486108 0.049828313 -0.038185254 0.04253816
000120 cb c7 13 bd a8 7b c1 bc 98 12 a6 bd a0 1d 5f bb
       -0.03607921 -0.023618534 -0.08109015 -0.0034044757
000130 6b b0 9b 3d 74 a1 b8 bc d2 b7 3f 3d bc 97 b1 bd
       0.076020084 -0.022537924 0.046806164 -0.08671519
000140 62 03 76 bd 41 2a 80 3d 40 ad 2f bd 4f 9c a6 3d
       -0.06006182 0.06258059 -0.042889833 0.08135282
000150 df 09 21 bd 34 ee 85 bd 54 70 a1 bd a1 03 89 3d
       -0.039316054 -0.06539574 -0.07882753 0.06690145
000160 50 0c 9a bc ba f4 24 3d c0 8e fd 3b af a8 14 bd
       -0.0188047 0.040272452 0.0077379644 -0.03629368
000170 aa 16 73 bd 04 4e 9d bd c5 34 9c 3d 7b a2 54 bd
       -0.059347786 -0.07680896 0.076272525 -0.051912766
000180 28 fb 6c bd a0 76 08 bb d8 f0 18 3c 4c 80 13 3d
       -0.05785671 -0.002082266 0.009334765 0.036011025
000190 bf 88 8d 3d 29 74 a8 bd 6f 06 8e 3d a4 b7 47 bd
       0.06910848 -0.08225281 0.06934821 -0.048759118
0001a0 74 62 96 3c da 47 83 bd 3e a4 75 bd 1e 4d 21 3d
       0.018357493 -0.06410189 -0.059971087 0.039380185
0001b0 bb e7 a9 3d c1 9e b4 3d a8 91 45 3c 0d 17 ad 3d
       0.08296152 0.088193424 0.012058653 0.08451662
0001c0 87 e2 46 bd 60 6a c3 bb c0 92 b9 bc dc 3b 31 bd
       -0.048555877 -0.0059636086 -0.022652984 -0.043269977
0001d0 10 55 d1 bb c2 63 47 3d bd 37 16 bd be 98 a1 bd
       -0.006388314 0.04867912 -0.03667425 -0.078904614
0001e0 29 f2 1a bd ce 28 44 3d 47 58 a9 3d 26 da 4b bd
       -0.0378286 0.047890477 0.08268791 -0.04976859
0001f0 80 ef b9 3b 12 54 89 bd 60 92 d1 3c c9 e0 7e bd
       0.0056743026 -0.06705488 0.025582492 -0.06222609
000200 a8 17 55 3c 3b 2d 33 bd c1 af b2 bd dc 79 8b 3c
       0.013006128 -0.043744307 -0.08724929 0.01702588
000210 e7 4e 5e bd 18 9c 90 bd 62 85 ff bc 55 89 89 3d
       -0.054274466 -0.070610225 -0.031191532 0.06715647
000220 db d6 8a bd 69 ff 94 3d 16 e7 4b bd 20 21 1a bc
       -0.06779262 0.07275278 -0.049780928 -0.009407312
000230 35 2c 56 bd 21 c5 61 bd a6 04 71 3d ec f4 b5 3c
       -0.052288253 -0.055119637 0.058842324 0.022211514
000240 d2 db 3f 3d 73 6e af bd b0 ad c4 3b d2 eb 1b 3d
       0.046840496 -0.085659884 0.0060021505 0.038066693
000250 6e 56 56 3d 6a 77 a1 bd 2e e6 78 3d 2a c5 0a bd
       0.05232852 -0.078841045 0.06076639 -0.033879437
000260 65 07 9e bd ea 0a 3e 3d 28 c9 22 bc a6 bd 4b 3d
       -0.07716254 0.046397127 -0.009935655 0.04974141
000270 32 77 7b 3d 8e dd 00 3d 70 26 46 bd 80 a4 f5 3c
       0.06139297 0.03146129 -0.0483765 0.029985666
000280 92 81 11 3d f1 a9 91 3d 56 02 a6 bd b8 f1 6e 3c
       0.03552396 0.07112492 -0.08105914 0.014583997
000290 96 de 6d bd d0 9c 75 3c ef 4d a4 3d f4 75 9c 3c
       -0.058073603 0.014991 0.08022677 0.019099213
0002a0 f1 0e 9f bd f3 35 22 bd 6e a5 65 3d 2e 25 38 3d
       -0.07766522 -0.03960223 0.05606597 0.044957332
0002b0 60 fc 5d bb fe 83 22 3d e2 ee 58 3d 6a 1f 17 3d
       -0.003387235 0.03967666 0.05296219 0.036895193
0002c0 89 89 a6 3d c9 62 61 bd 5c 25 5c bd 16 e4 6f 3d
       0.081317015 -0.05502585 -0.053746566 0.05856713
0002d0 00 42 0e 3c 14 f2 87 bd ee 07 77 bd 97 c8 a9 3d
       0.008682728 -0.066379696 -0.060310297 0.082902126
0002e0 67 4e 8a 3d 31 c8 a0 3d b8 1b 2b bc 20 31 28 3b
       0.06753235 0.078506835 -0.01044362 0.0025664046
0002f0 58 af 2a bc 57 74 91 3d d0 78 27 3c 68 94 5f bc
       -0.010417782 0.07102268 0.010221675 -0.013646223
000300 21 71 ab bd 9d ad 07 bd c5 4b 95 3d 97 8e 09 bd
       -0.08371187 -0.033124555 0.072898425 -0.03358325
000310 67 e0 b3 3d df 2b 1e bd 4f b7 93 3d 78 60 d8 bc
       0.08783036 -0.038616057 0.07212698 -0.026413187
000320 30 54 94 3c a6 26 aa bd 50 07 8e 3c 20 d8 14 3c
       0.01810655 -0.08308153 0.017337471 0.009084731
000330 de 34 92 bd df 45 59 bd d8 5c 70 bc 60 f3 8c bd
       -0.0713899 -0.05304515 -0.014670573 -0.068823576
000340 f6 88 e3 bc 23 74 95 3d 32 66 39 3d 10 85 17 bc
       -0.027775269 0.07297542 0.045263477 -0.009248033
000350 70 7b 2c bd 01 92 82 bd 20 03 1c bc 32 b3 a0 bd
       -0.042109907 -0.06375504 -0.009522229 -0.07846679
000360 1c 74 a1 3c bc 76 d5 3c 2a af 7d 3d 0a 3c 3b bd
       0.019708686 0.026057594 0.061934628 -0.045711555
000370 00 1a a7 bd b5 60 b2 3d 72 0f 74 3d 80 2f f4 3b
       -0.08159256 0.08709852 0.059585042 0.0074519515
000380 ba d8 19 3d d4 08 c9 3c 3a 1a fd bc c8 29 8c bd
       0.037560202 0.024540342 -0.030896295 -0.06843907
000390 75 30 8a bd e8 44 85 bc 00 06 27 ba 66 b8 0d bd
       -0.06747524 -0.016268209 -0.00063714385 -0.034599684
0003a0 48 ed b3 3c 89 a3 8f bd 0c ac fc bc 31 5f 8c 3d
       0.02196373 -0.07013614 -0.030843757 0.06854094
0003b0 88 3f 5c 3c 8c 04 98 bc 78 78 dc bc 0c 29 a1 bd
       0.013442881 -0.018556856 -0.026912913 -0.07869157
0003c0 48 c2 1b bd 80 fe ae bc c8 76 59 3c de d4 01 bd
       -0.038027078 -0.02136159 0.013272949 -0.031697147
0003d0 a0 87 d0 bc 4f 15 91 3d c0 be 47 bb 1d 28 a4 bd
       -0.025455296 0.070841424 -0.0030478686 -0.080154635
0003e0 62 bb 6f 3d b0 5b 8e bd 12 17 e7 bc 97 ba 65 bd
       0.05852831 -0.06951082 -0.028209243 -0.05608615
0003f0 4d 09 40 bd 33 58 87 3d 91 0e b3 3d 4c cf a4 3c
       -0.04688387 0.066086195 0.08743013 0.020118378

rnn.bias_ih_l0 f4 [128]
000000 be 04 85 3c c0 71 aa bd 53 ff d7 bd 17 cc 54 bd
       0.016237613 -0.08322477 -0.10546746 -0.051952448
000010 83 3c 61 bd cc 23 30 bd df 57 92 3d 16 99 49 3d
       -0.05498935 -0.04300289 0.07145666 0.04921826
000020 79 bb 63 3d 0e 42 04 be b3 07 1f bd dd 12 36 be
       0.05559871 -0.12915823 -0.038825702 -0.17780633
000030 64 cb f7 3d 67 2a 33 3e 4b 36 09 be dc 97 a7 3c
       0.120993406 0.17496644 -0.13399617 0.020458154
000040 97 25 af bd 19 a8 f7 3d e2 cd eb bc ff 14 0c 3e
       -0.085520916 0.12092609 -0.028784696 0.13679884
000050 3c 0e b7 bd 81 27 72 bc 17 be d1 bc 24 98 92 bd
       -0.08938262 -0.014779926 -0.025603337 -0.07157925
000060 8d 4a 8d bc 31 43 71 3c 02 3d 3f bc 42 53 d1 3d
       -0.017247463 0.014725492 -0.01167226 0.10220958
000070 b2 39 eb bd 9e 16 e8 3c 5f fd bf 3d 1c 25 c6 3d
       -0.11485614 0.028331097 0.093744986 0.09675047
000080 9d c8 4a 3d fd b5 53 3e 8c 66 22 3d 5d db 06 3c
       0.049507726 0.20674892 0.039648578 0.008231011
000090 e6 b9 92 bc e0 1a c2 3c 32 ea b3 bd 18 c9 eb bd
       -0.017910909 0.023694456 -0.087849036 -0.11512965
0000a0 24 b5 e8 bb 0c 9c a8 bd 2b af e7 bc 35 d7 1d 3d
       -0.007101672 -0.082328886 -0.028281769 0.038535316
0000b0 dd 4b a8 3c 0e 06 62 bd de dc ff 3d 1d a1 13 3e
       0.020543987 -0.055181555 0.12493299 0.14416929
0000c0 22 a4 da 38 4b 45 09 be 8a ad 55 3d 87 06 61 3c
       0.00010425622 -0.1340534 0.052167453 0.013734466
0000d0 eb 61 34 bd ad 8f 86 3d 0a 67 c2 bd b4 68 00 3e
       -0.044038694 0.06570373 -0.094923094 0.12539941
0000e0 35 ac 52 3d be f4 2f bd 89 20 12 bd 8d 33 f5 bc
       0.05143376 -0.042958014 -0.03567556 -0.029931808
0000f0 be 0c 48 3b a8 60 7c 3d 34 85 f2 3b 66 e6 dc 3d
       0.0030525173 0.061615616 0.007401133 0.107861325
000100 8b cf 99 bd a9 45 91 bc a0 2f 58 bd 5d 0c fc bc
       -0.07510289 -0.017733412 -0.052779794 -0.030767614
000110 38 22 a1 bd b8 27 a1 bb 8d aa a7 bd 30 9f b9 bd
       -0.07867855 -0.004918065 -0.08186827 -0.09063566
000120 06 90 74 3d b5 23 cb 3d 38 87 61 bd 2b 41 03 be
       0.059707664 0.0991892 -0.055060595 -0.12817828
000130 58 ee 36 bd e5 9d 3e bd 0e c6 d1 bc 49 18 62 bc
       -0.044660896 -0.0465373 -0.025607135 -0.013799735
000140 37 aa 51 3e 2c 44 a6 3b ac 65 d7 3d 68 fd 2b 3d
       0.20475088 0.0050740447 0.10517439 0.041989714
000150 b9 ee 4c 3d 3a db a8 3d 27 5b cb 3c 95 a9 ab 3d
       0.05003235 0.08244939 0.024823738 0.083819546
000160 bf c3 a2 bd f7 ac 8b 3d d0 56 51 3d 51 d9 4e bb
       -0.07947492 0.068201 0.05110818 -0.0031562636
000170 ee f2 c3 bc 78 b8 52 3a e4 7f 8b bd 11 19 c5 3d
       -0.023919549 0.0008038352 -0.068115026 0.09623922
000180 d8 f6 48 3d 9e 18 eb bd 7f b4 bc 3d 5e 67 59 bd
       0.049063534 -0.11479305 0.092141144 -0.053077094
000190 21 b0 d2 3c bc 5d cb 3d 95 5f 37 3c e1 57 24 bd
       0.02571875 0.09929988 0.011192222 -0.04012287
0001a0 45 a6 c0 3d 5e 10 a8 bd 44 21 8b 3d 9c 82 ce bc
       0.094067134 -0.08206247 0.06793454 -0.025208764
0001b0 24 41 e8 3b 85 0a 6b 3d b4 9c 1e bd 9b 5c 13 be
       0.0070878435 0.05738308 -0.038723662 -0.14390795
0001c0 81 9c b3 3d 30 64 29 3d 85 c1 8b bd d7 ae 40 bc
       0.08770085 0.041355312 -0.0682402 -0.011760435
0001d0 6d 7b 92 bd 11 f9 29 3d e4 3f 04 bd d8 80 40 bd
       -0.07152448 0.041497294 -0.032287493 -0.046997875
0001e0 b1 32 55 3e 3a 2c e9 3d fc d9 10 be 21 c4 b8 bc
       0.20820118 0.11385389 -0.14145654 -0.022554459
0001f0 84 62 bf 3d 20 58 6e bd e5 b3 49 bd 01 17 b5 bd
       0.09344962 -0.05818951 -0.049243826 -0.08842278

rnn.bias_hh_l0 f4 [128]
000000 aa 07 30 bd 07 f1 a2 3a ba 30 a3 bd 25 f0 33 bb
       -0.04297606 0.0012431451 -0.07968278 -0.002745637
000010 0e 20 0f bd e2 76 a3 3c bc 83 55 3c 52 90 65 3d
       -0.03494268 0.019954149 0.013031896 0.056045838
000020 95 18 16 bd fa 23 95 bc 3c 2b ba 3d 12 a1 cd bd
       -0.036644537 -0.018205632 0.090902776 -0.10040487
000030 e4 37 48 3d eb 5d 49 3e 1a 0f 1f be c1 cd 4c bd
       0.048881426 0.19664733 -0.15533105 -0.05000091
000040 71 cc 14 3d 63 36 05 3e 6a 15 8b 3c de 3b de 3a
       0.036327783 0.13009028 0.016977984 0.0016955098
000050 dc b3 bd bd a0 c1 13 bd d1 18 11 3d 16 6a 42 bd
       -0.09262821 -0.036073327 0.035424057 -0.047464453
000060 a5 7c db bc b7 6e 06 be d0 35 10 3c a8 f1 90 3d
       -0.026792834 -0.13128172 0.008801892 0.07077342
000070 4f ec 38 be 5d 31 09 3c 0e 7e 96 3d b6 d2 35 3e
       -0.18058895 0.0083735855 0.07348262 0.17756161
000080 1a c7 59 bd 3f 51 45 3e 84 a4 bc bd 2b c1 b8 3d
       -0.053168394 0.19269274 -0.09211066 0.09021219
000090 0a 9a bc 3b a2 b3 f2 3b 69 5f 1c 3d 57 03 99 bd
       0.0057556676 0.007406668 0.038176928 -0.0747134
0000a0 e8 d6 46 3d d0 6b 04 3d a4 63 1d 3d 75 58 7c bd
       0.048544794 0.03232938 0.038425103 -0.061607797
0000b0 d4 f4 fe 3c f6 83 9e 3d 97 2d 2e bd 08 5d a5 bc
       0.031122603 0.07740013 -0.042523947 -0.020185962
0000c0 e3 ac 84 bd 12 b9 94 bc b7 36 b3 bc bf 89 b0 bc
       -0.06478288 -0.018154655 -0.021876676 -0.021550057
0000d0 bf fb be bd e3 56 b9 3d 69 dd 2a bd b4 b5 28 3e
       -0.093253605 0.090497755 -0.04171506 0.16475564
0000e0 f5 16 d6 bd 4b f2 40 be ef b1 89 bd 06 01 2d be
       -0.104535975 -0.18842427 -0.06723391 -0.16894922
0000f0 da d4 c3 bd a1 a5 51 3e d6 6b 1f 3e 08 39 61 3d
       -0.095620826 0.20473339 0.1556848 0.05498603
000100 51 4c 69 bd db b4 3c 3d aa 82 f2 3d c1 47 e3 bd
       -0.056957547 0.046070915 0.118413284 -0.1109767
000110 05 3f 7f bd 7a bb 68 bb 8a 71 84 bc e9 2d f4 bc
       -0.06231596 -0.0035512135 -0.01616742 -0.029807048
000120 89 38 0d bd 7b 54 a2 3d 1d dd 11 bd fa a9 17 be
       -0.034477744 0.079262696 -0.03561126 -0.14810935
000130 c1 ac 40 3c f7 45 88 bc 8c 80 70 3d e1 b4 c3 3c
       0.011759938 -0.016634924 0.05871634 0.02388996
000140 76 5d 11 3e 28 c2 ad 3c a6 f0 60 3d 3e 26 9b 3d
       0.14195809 0.021210745 0.054917 0.075756535
000150 89 d2 9d 3d 79 cb 6e bc 54 65 be 3d 74 94 f6 3c
       0.07706172 -0.014574879 0.092966706 0.030100085
000160 01 71 22 3c eb 19 e4 3b 84 6b 05 3d 87 69 83 3b
       0.009914638 0.0069610975 0.032573238 0.0040103826
000170 ea 56 cf bc 85 65 b6 bc 6a cd 16 3d 17 81 2d 3c
       -0.025309999 -0.022265205 0.036816992 0.010589859
000180 62 af 3f 3d d2 6a a9 bd e0 8c 7c 3d 5b 92 d9 ba
       0.046798117 -0.082723275 0.061657786 -0.0016599403
000190 87 9c b2 3c ed 07 0d 3d 32 12 3b bc 82 eb 91 3d
       0.021803154 0.034431387 -0.011417912 0.07124998
0001a0 ee 6e 9e 3d ea 4f 79 3d be 75 68 3d 3f 63 6b 3d
       0.07736002 0.060867228 0.056752913 0.057467695
0001b0 b1 09 ac 3c c0 03 b7 3c 43 24 00 be 9d ed 04 be
       0.021000715 0.022340655 -0.12513833 -0.12981267
0001c0 02 af a6 3d ad 27 8f 3d c9 be be bc 96 59 03 be
       0.08138849 0.069899894 -0.023284333 -0.12827143
0001d0 f1 ce c9 bd a8 1e c9 bc 49 22 86 bd 96 1c 20 bc
       -0.09853924 -0.02455075 -0.06549508 -0.00977244
0001e0 23 49 52 3e 9a 65 17 3e 3f b4 d9 bc c9 26 b0 3c
       0.20535712 0.14784852 -0.026575206 0.02150287
0001f0 46 88 24 3d b9 38 36 bd 30 d6 4f 3d d5 a7 9e b9
       0.040169023 -0.04448769 0.050741374 -0.00030261153

rnn.weight_ih_l1 f4 [128, 128]
000000 70 1f 0c 3e ac 87 02 3d cf b5 34 3c 4d 28 98 bd
       0.13683867 0.031867668 0.011029675 -0.07429562
000010 8f ff 18 3e 5f 9c db 3d ce c2 89 bd 87 2f 90 bd
       0.14941238 0.10723185 -0.06726609 -0.07040315
000020 fa e3 5a bd 39 07 0d 3e af bf d0 bc aa ab a2 3d
       -0.05344007 0.13772286 -0.025482027 0.079428986
000030 cd 8e 29 bd 2d 5f 0f 3a bd c8 a6 3d 21 97 6b ba
       -0.04139595 0.00054691994 0.081437565 -0.00089870585
000040 6a 92 99 bd b4 19 49 bd cf 36 c2 3d ff 08 0e be
       -0.074986294 -0.049096778 0.0948311 -0.13870619
000050 99 ea 07 3e 66 d3 d0 bd 61 49 dc bb 98 65 98 bc
       0.13273086 -0.10196571 -0.0067226146 -0.018603131
000060 a6 4b dc 3c d5 ae 0e 3e 38 df 70 3e a1 ca 13 be
       0.02689154 0.1393388 0.23522651 -0.14432766
000070 b9 39 ff 3c 64 30 8d be 46 7c 9e 3d 3f 0b 1a 3b
       0.031155454 -0.27575982 0.07738547 0.0023505238
000080 c0 84 17 3e 20 ee 2f be e6 32 82 bc b7 2d 31 3c
       0.14796734 -0.17180681 -0.01589341 0.010814122
000090 1d 0a b1 bd cd dc e4 3d 4d 54 32 bd 7a 86 da 3d
       -0.08644507 0.11174927 -0.043537427 0.106701806
0000a0 72 a3 73 bd d9 e3 fc 3d 4a 4f 0b bd 81 d8 ba bd
       -0.059482045 0.12348146 -0.034011163 -0.09123326
0000b0 1d d2 c0 bd cf 06 85 3d df d9 a3 bc b4 97 77 be
       -0.09415076 0.06495439 -0.02000135 -0.24178964
0000c0 0c 1f 98 3c 8a 73 86 bd 47 0e d2 3d af 37 37 3b
       0.018569492 -0.06565006 0.102566294 0.0027956774
0000d0 ff 1e cc bd 44 de 8b bd 05 8e b2 bd c4 60 ca 3c
       -0.099668495 -0.06829503 -0.08718494 0.024704345
0000e0 2a 3a 5f bd 4f 57 3c 3d 88 33 f2 3d 3d 46 03 3e
       -0.05449883 0.0459817 0.11826235 0.12819763
0000f0 a2 bc 97 bd b1 4b 30 bd c0 91 5b bd ad ff 15 be
       -0.07409026 -0.043040935 -0.053605795 -0.14648314
000100 73 49 49 3e 94 3b b2 bd 8e a4 03 be b2 fb 01 3d
       0.19656925 -0.0870277 -0.12855741 0.031734176
000110 db 18 87 bd b7 03 37 3d c8 f7 33 bd b3 50 bb bd
       -0.06596538 0.044681277 -0.043937474 -0.091462515
000120 53 80 ad bd 1f 67 a8 3d 94 98 ab bb 45 b3 aa bc
       -0.084717415 0.08222794 -0.0052366946 -0.020837435
000130 8c d0 47 be 99 21 16 3d 99 e7 e3 3d ac c7 14 3c
       -0.19513148 0.036653135 0.11128158 0.009080809
000140 7a 7e 80 be 53 f6 83 3d 97 35 00 be 8c 2e 54 bd
       -0.25096494 0.06443467 -0.12520443 -0.051802203
000150 5b 0f 00 be ea 3c 49 bd 9e a2 cf 3d bc 20 83 bd
       -0.12505858 -0.049130358 0.10138439 -0.06402728
000160 ed e0 e4 3b 22 31 b8 bd d4 04 f1 3d da 95 ac bd
       0.006984821 -0.08993746 0.11768499 -0.084270194
000170 57 45 2f 3d 73 4d c5 bc 06 3d bd 3d 26 f0 47 3d
       0.042790737 -0.024084782 0.09240155 0.048813008
000180 dc 3a 28 be c4 e0 bf 3d 5f ac 3f bc 3a 31 e8 3d
       -0.16428703 0.093690425 -0.011698811 0.11337514
000190 63 9a 24 3e 4b be f2 bd 68 c6 21 3e 39 6d 4e bd
       0.16074519 -0.11852702 0.15798342 -0.05039713
0001a0 69 44 17 3d 47 a3 87 3e d4 52 ba bc e9 81 bb 3d
       0.036930475 0.26491758 -0.022744574 0.09155638
0001b0 cc 02 89 bd 48 67 0c 3e 1e 62 a6 3d 94 62 93 3c
       -0.066899866 0.13711274 0.08124183 0.017991342
0001c0 40 09 19 bd 35 8f ce 3d b9 f6 73 3b 61 8a b2 bc
       -0.037362337 0.10085908 0.0037225916 -0.0217945
0001d0 34 72 b8 bd e1 b6 21 3d b2 ea 15 bd c2 21 52 3c
       -0.090061575 0.039481048 -0.036600776 0.012825431
0001e0 db 49 6e be 90 8f f1 ba ca b7 e4 bd 1d e2 ab bd
       -0.23270361 -0.0018429626 -0.111678675 -0.08392737
0001f0 4a b0 24 3d 7e a4 39 3d 9b 07 4c bd 1a 1e b0 3d
       0.040207185 0.045322888 -0.04981194 0.085994914
000200 6d 27 d0 3d d2 7e 20 be c7 2f dc 3c 67 2d a4 bd
       0.1016377 -0.15673378 0.02687825 -0.08016472
000210 1b 88 2a bd 35 30 f9 3d 3d 32 ff 3d 9f 97 47 bc
       -0.041633707 0.12167398 0.12460754 -0.012182145
000220 27 2e 15 3e fd e7 d3 3d 0a c8 9c bc 72 9c 65 be
       0.14568387 0.10346983 -0.019138355 -0.2242296
000230 db cf 51 bc ad 11 45 3e fc fc 11 3e 7b fa 16 3d
       -0.012805904 0.19245024 0.14256662 0.03685997
000240 22 65 ae b9 9a 6a b2 3d 66 47 02 3e 12 8c 85 3b
       -0.00033263216 0.08711739 0.12722549 0.0040755356
000250 44 25 9d bc 94 5c 26 be ad 5e 50 bd 6f 40 f9 bd
       -0.019182809 -0.16246253 -0.05087154 -0.12170493
000260 89 35 b8 3d 81 7c 2f bc 6f f6 9b bd 7e 44 b7 bd
       0.08994586 -0.010710836 -0.07615363 -0.08948611
000270 87 cc de bd 15 0e 2d be cb 13 65 3c e5 32 c6 3d
       -0.10878854 -0.16899903 0.01398177 0.09677676
000280 5e 5a 69 bd 33 3d 8d 3e e1 55 ae 3d ee 75 a5 3c
       -0.056970946 0.27585754 0.08512474 0.020197835
000290 f7 0c b7 bd 25 5d bb bd 32 00 24 bd 7a e0 ae 3d
       -0.0893802 -0.09148625 -0.04003925 0.08538909
0002a0 ac 0b 49 be 0b fb 7a 3d 26 d1 89 bd 72 a0 03 3d
       -0.19633359 0.06127457 -0.06729345 0.032135434
0002b0 52 b7 ea 3b bd 23 96 3d 92 0d 4e 3c 2e 16 eb 3d
       0.0071629668 0.07331035 0.012576478 0.1147884
0002c0 3d 33 37 3d d7 2a 72 3c 73 55 2c 3d 94 c3 d4 bb
       0.0447266 0.014780722 0.04207368 -0.0064930413
0002d0 73 ae 61 3b ea de 29 3c 28 f2 43 bd 4d b0 b2 3d
       0.0034436255 0.010368088 -0.04783836 0.08725033
0002e0 47 76 1b 3d f0 84 aa 3d 24 d4 87 bc e2 aa e6 3c
       0.037954595 0.08326137 -0.016580649 0.028157655
0002f0 47 4f a1 bd 56 05 c1 3c 95 e7 28 3e 0b 4e f5 3d
       -0.07876449 0.023562115 0.16494592 0.11977776
000300 44 2a 6c bc 7c fa de 3d 5c b2 d6 3d 22 76 05 3d
       -0.014414374 0.1088762 0.10483238 0.032583363
000310 db 1b 94 bc 27 55 85 bb a8 01 ff bc 59 4e 09 3e
       -0.018079689 -0.004068989 -0.03112872 0.13408794
000320 eb 32 99 bd 1a 0b 16 3e 48 18 0e 3e 25 25 82 bd
       -0.07480415 0.14652672 0.1387645 -0.06354741
000330 b0 a5 29 bd b6 54 22 bd 5d c3 3d 3d 3c 01 6b bd
       -0.041417778 -0.039631568 0.04632889 -0.057374224
000340 3a 02 0e 3e 84 34 e7 3b a5 7e 9c 3c 60 46 82 3d
       0.13868037 0.007055821 0.019103358 0.06361079
000350 40 92 a7 bd 8a 53 19 3e ef 56 0b 3e da 2a 29 3d
       -0.08182192 0.14973274 0.13607381 0.041300632
000360 fc 90 66 be 47 db 12 3e 46 03 3a 3d 3c cd 8b bc
       -0.22516245 0.1434146 0.045413278 -0.017065637
000370 74 15 3c bc e7 bd 6c bc 3b c0 53 3d dc 17 94 3d
       -0.011479724 -0.014449573 0.051696997 0.07231113
000380 43 0c f6 3c ed 90 07 3e 7d 5f 07 3d 93 98 9f 3d
       0.030035144 0.13238879 0.03305005 0.07792773
000390 91 1e 56 3d 1c 97 b0 bd 92 d3 37 3d d2 48 1d bd
       0.052275244 -0.08622572 0.044879504 -0.038399525
0003a0 7c 5f ba 3d ba c8 60 be e8 0e ed 3d 50 2a dc 3d
       0.091002434 -0.21951571 0.11575109 0.10750258
0003b0 f5 36 ac bd 83 fe 39 be 6e 3c 4c bd df 97 30 be
       -0.0840892 -0.18163495 -0.049862318 -0.17245434
0003c0 7c ba 51 3d 82 1b a4 bd 41 3a 3e bd 79 92 11 bd
       0.051203236 -0.08013059 -0.046442274 -0.035540078
0003d0 7a 99 2e 3d 7b 00 45 3d b6 9c 9e 3d a5 89 98 bd
       0.042626835 0.04809616 0.07744734 -0.074481286
0003e0 8e f7 16 3e 93 2c 08 3e f1 2d 3d bd 88 2b 10 bc
       0.14742872 0.13298254 -0.04618639 -0.008799441
0003f0 6a 9a 94 3c c3 9c 12 3e b5 80 37 be 7f 5a c4 3d
       0.018140037 0.14317612 -0.17920192 0.09587573

rnn.weight_hh_l1 f4 [128, 128]
000000 c6 2d 56 3d 3b 21 2b bd 70 56 28 3c 0c 3a ac 3c
       0.052289747 -0.041779738 0.010274515 0.021023773
000010 e6 ab 71 bd 57 51 8b 3d 57 eb b4 bd 70 0f 16 bc
       -0.059001826 0.06802624 -0.0883395 -0.009158954
000020 83 f9 26 bd 96 d5 43 3d 2f 75 ae 3d 35 3a 95 bd
       -0.040765297 0.047811113 0.08518445 -0.07286493
000030 f9 20 5e bd c0 e8 80 ba 4a ff 59 3d 1c 6f a7 bc
       -0.054230664 -0.000983499 0.05322198 -0.020438723
000040 88 32 24 bc 56 06 4a 3d e7 08 98 3d 0c 62 ad bd
       -0.010021813 0.04932245 0.07423573 -0.084659666
000050 ab 9b b0 bd 90 3b f3 3b 9a 07 0d 3d 08 48 48 3c
       -0.08623441 0.007422872 0.034431078 0.012224205
000060 21 51 85 3d 80 33 cf 3c 40 6a 3a 3b c6 c1 42 3d
       0.06509615 0.025293112 0.0028444678 0.047548078
000070 e7 ce 9a bd 16 61 7d 3d 96 86 21 bd d0 14 f6 3c
       -0.07558995 0.061860166 -0.03943499 0.030039221
000080 a3 7a 07 bd 26 23 30 bd 3a 79 6c 3d c6 06 00 bd
       -0.03307594 -0.04300227 0.0577328 -0.03125646
000090 63 e7 9a 3d 23 56 19 bd 58 cf 54 3c 6f 8d 99 3d
       0.07563665 -0.037435662 0.012988888 0.074976794
0000a0 03 6f 12 bd ed 39 80 3d 67 86 1c bd ae a9 24 3d
       -0.0357504 0.062610485 -0.038214114 0.04020088
0000b0 94 89 04 3d 44 0d 9b bd a4 2f 7b bd 1c 63 d3 bc
       0.032357767 -0.075708896 -0.06132473 -0.025804095
0000c0 d2 7a 2d 3d 2d 86 9c bd 02 a8 20 3d 50 aa b4 3c
       0.04235346 -0.076427795 0.039222725 0.022053868
0000d0 78 b1 6c bd b8 3b 9d 3c 00 23 dc ba 9a cf 6d 3d
       -0.057786435 0.019193515 -0.0016795099 0.058059312
0000e0 48 17 cb bc 8e e0 2e 3d ce c5 94 bd 10 36 77 bc
       -0.024791375 0.04269462 -0.07264291 -0.015088573
0000f0 aa f9 05 3d 50 8d 70 bd 89 dd 82 3d 6a 7c 45 3d
       0.0327088 -0.058728516 0.06389911 0.048214354
000100 e8 b4 93 bc 58 5f a5 bd cf 55 95 3d f2 6a 41 3d
       -0.018030599 -0.08074826 0.07291757 0.04722113
000110 00 ea 1f ba 2b 20 96 3d 0f 87 9b 3d 8d ad 31 bd
       -0.00061002374 0.07330354 0.0759412 -0.0433784
000120 c6 37 69 3d e8 70 ba bc 9a 97 2f 3d 6c 05 a2 bc
       0.056937955 -0.022758916 0.042869188 -0.019777976
000130 52 88 95 bd ad a5 a4 3d 74 f8 34 bd 59 b4 a5 3d
       -0.07301392 0.08039413 -0.044182256 0.08091039
000140 a1 80 aa bd c2 ea 71 3d ea fb 65 3d 86 0f 4a bd
       -0.08325315 0.059061773 0.056148447 -0.04933121
000150 08 5d 63 bd c9 b5 a8 3d 1f 0d 4f bd d7 23 a6 3d
       -0.055508643 0.08237798 -0.050549623 0.08112305
000160 a6 bc 66 bd 18 ca 85 3c 2a 07 4e 3d 00 40 4e b8
       -0.056332253 0.016331717 0.0502998 -4.9173832e-05
000170 ab 23 5a bd be 3f f6 bc da ef 27 3d 6f 73 a9 3d
       -0.053256672 -0.030059692 0.041000225 0.0827397
000180 27 cc 81 3d 11 f1 8b 3d e8 d6 ff bc 5c 80 05 3d
       0.06337767 0.06833089 -0.031230405 0.032593116
000190 aa bf b1 bd e0 c9 6b bb 17 55 af bd 21 cc b2 3d
       -0.08679135 -0.0035978481 -0.085611515 0.08730341
0001a0 30 65 69 bc eb 71 9d 3d 0a 8a e7 bc 20 33 11 3d
       -0.014245316 0.07687744 -0.028264064 0.035449147
0001b0 f8 68 09 3d e4 0d 43 bd 92 95 69 3d df 24 19 bd
       0.03354737 -0.04762067 0.057027407 -0.03738868
0001c0 a1 b9 ae 3d d0 d9 a5 bc 60 6d 90 bb 5e ca 21 3d
       0.085315 -0.020245463 -0.0044075698 0.039499633
0001d0 00 37 09 3a f3 ec 4e bd ff f4 1f bd 80 9b 21 bc
       0.0005234331 -0.05051894 -0.039052006 -0.009863734
0001e0 1e d1 87 bd 0f 8d 85 bd b8 d0 ac bd 60 b1 30 bd
       -0.06631683 -0.065210454 -0.084382474 -0.043137908
0001f0 fe f5 a8 bd 04 da 93 bd 8c 43 db bc 80 45 f7 bc
       -0.08250044 -0.072193176 -0.026765607 -0.030184507
000200 a7 30 97 3d d5 93 87 bd 4b ce 9d 3d a6 06 77 bd
       0.073823266 -0.066199936 0.07705363 -0.060309075
000210 79 23 29 bd 60 cf 70 bb 9e 97 f6 bc 00 23 fc bb
       -0.041293595 -0.00367447 -0.030101594 -0.007694602
000220 c2 a1 49 3d 41 21 b3 3d 5a 68 18 bd ab 85 85 bd
       0.04922653 0.08746577 -0.037208892 -0.06519636
000230 d0 1b a1 3c 72 c4 53 3d 1e 4b 6a 3d 13 6f ac 3d
       0.019666582 0.051701017 0.057200544 0.08419623
000240 3e c6 f6 bc 7d a9 a1 bd 89 8b ab 3d d4 b2 b2 3c
       -0.030123826 -0.078936554 0.083762236 0.021813788
000250 f5 95 8d bd 6e d3 0e 3d 46 08 24 3d b3 12 a9 3d
       -0.06913368 0.034869604 0.040046953 0.0825552
000260 bc 75 cd 3c 6a 6b 3a 3d 00 44 01 3a d6 01 97 bd
       0.025080554 0.045512594 0.0004931092 -0.07373397
000270 06 10 58 bd b0 c8 c1 3b 29 be a3 3d 3a ae 3b bd
       -0.052749656 0.0059138164 0.079952545 -0.045820452
000280 e0 35 13 3d 42 bd 10 3d ef d8 a9 3d 30 bb df bc
       0.03594005 0.03533674 0.0829333 -0.027310938
000290 9a c5 6f 3d 9c db a7 bc e3 18 75 bd e8 58 bc bc
       0.058538057 -0.02049046 -0.059838187 -0.022991613
0002a0 66 aa 6f 3d b8 10 b7 bc f8 8d d4 bc c9 e4 b2 3d
       0.058512114 -0.02234684 -0.025946602 0.087350436
0002b0 74 44 09 3d a3 df ac bd 7a 93 35 bd 18 d9 30 3c
       0.033512548 -0.08441093 -0.044330098 0.010793947
0002c0 c0 da 6f bc 85 ba 9b 3d e0 fe 30 bb 01 60 69 bd
       -0.014639556 0.07603935 -0.0027007386 -0.056976322
0002d0 fc d8 4e bd 00 24 a7 3c 30 a1 f9 3b 90 41 41 3c
       -0.0504999 0.020402908 0.007618092 0.0117954165
0002e0 c2 e2 58 3d 40 6f 61 3b 07 dd 9d 3d ef 1f 0a bd
       0.052950628 0.0034398586 0.07708173 -0.03372186
0002f0 52 0f 63 3d 0e 69 43 3d 0b cf 2c bd 20 c2 c4 3c
       0.055434532 0.04770761 -0.04218964 0.024018347
000300 d2 43 0a bd 6e 2d 9c bd 10 2d 10 3d 34 f3 de bc
       -0.033756085 -0.076258525 0.035199225 -0.027215578
000310 00 ca b6 3b 4e fd 76 3d 84 26 8f bd aa 74 63 bd
       0.0055782795 0.060300164 -0.06989768 -0.05553118
000320 20 1b 34 3b a8 55 98 bd 14 a2 9b bc 8e 84 45 bd
       0.0027481988 -0.07438213 -0.018998183 -0.048222117
000330 20 7d ab 3c 58 94 34 3c 4b b5 ab bd 40 02 51 3b
       0.020933688 0.011021696 -0.08384188 0.003189221
000340 ff 05 84 bd b9 5e a5 3d 76 26 1f 3d 22 2f 8e bd
       -0.06446456 0.080747075 0.03885504 -0.069425836
000350 43 45 2d bd 1d 5b 8a 3d 00 0b 00 3c a2 b5 29 3d
       -0.04230238 0.0675566 0.007815123 0.041432984
000360 2a 91 66 3d 90 70 b1 3c 66 f9 28 3d dc 49 e1 bc
       0.056290783 0.02166012 0.04125347 -0.02750104
000370 c1 7b 42 bd 19 85 9b 3d 3e 83 58 3d 76 cc 6d 3d
       -0.047481302 0.07593746 0.052859537 0.058056317
000380 98 1c a1 3c 6c 44 bc bc 47 7a 5a bd a6 5b 61 3d
       0.019666955 -0.022981845 -0.05333927 0.055019043
000390 14 0b 98 bd a6 49 61 bd 10 3e 87 bc 08 fa ab bd
       -0.07423988 -0.055001877 -0.016509086 -0.08397299
0003a0 34 72 b4 3c ff cb 4b bd 64 b6 00 bd 93 43 8f bd
       0.022027113 -0.049755093 -0.03142394 -0.06995311
0003b0 8f b0 80 bd 58 a7 ad bd 68 4a 97 3c bf df 3f bd
       -0.06283676 -0.08479184 0.018468097 -0.04684424
0003c0 6b 2f 66 bd 12 d9 3d 3d 90 e3 54 3c 60 d7 23 3c
       -0.056197565 0.046349593 0.012993708 0.01000008
0003d0 f0 7a b1 bd 68 d5 f1 bc 17 f7 af 3d 58 ae 38 bc
       -0.086660266 -0.029520705 0.085920505 -0.011272036
0003e0 f6 a2 71 bd 8f 73 87 3d c0 d1 f3 3a ac 2e 92 bc
       -0.058993302 0.06613838 0.0018601939 -0.01784452
0003f0 87 58 a9 bd 83 12 3c bd e4 55 bc 3c 48 90 b1 bd
       -0.082688384 -0.04591609 0.022990175 -0.086700976

rnn.bias_ih_l1 f4 [128]
000000 b1 b9 fa bd 61 41 31 3e d7 50 95 3d 92 70 15 3e
       -0.12242449 0.17310096 0.072908096 0.14593723
000010 52 9a 9b bd 04 ab b2 3d 70 3e 7e bd 87 01 3e 3d
       -0.07597794 0.08724025 -0.062071264 0.046388175
000020 73 8c f8 3d 82 bd a8 3d 52 1b 0e 3d a4 c7 81 bd
       0.121361636 0.08239271 0.034694023 -0.063369066
000030 ff 7f 2d be 55 20 80 bc 5a 9d cf 3d 51 59 5f bd
       -0.16943358 -0.015640417 0.10137434 -0.05452854
000040 1e 78 ec 3d ac d5 45 3d 0f be c3 bb 3a 3d e8 3d
       0.11546348 0.048299477 -0.0059735845 0.11339803
000050 ea 6f f3 bd 39 48 0a be 8a 46 e1 bd 82 a9 b1 3d
       -0.1188658 -0.13504113 -0.109997824 0.08674909
000060 81 6e 1b 3e 94 c3 22 3d d6 18 55 be de 22 e1 3d
       0.15178873 0.0397373 -0.20810255 0.109929785
000070 9c 69 d2 bc a3 31 bb 3d ff 8a b6 bd 62 b0 36 bc
       -0.025685124 0.09140327 -0.0891323 -0.011150451
000080 f3 6a 7e be 54 c3 9b 3d 88 42 9d bd 4c 3c c4 3c
       -0.24845485 0.07605615 -0.076787055 0.023954533
000090 a9 80 2d 3e 2c 3c 8d bb e6 58 56 bd 4b 71 f1 3d
       0.16943611 -0.0043101516 -0.052330874 0.11789187
0000a0 5a f0 b3 bd 9a 2a 81 3d 11 6f cd bd 03 79 0b bd
       -0.08786078 0.06306954 -0.1003095 -0.034050953
0000b0 aa 3c fa bd 50 5e 1a bb c8 6a c9 3d 59 53 54 3d
       -0.12218602 -0.002355475 0.0983482 0.0518373
0000c0 54 e6 eb bd b1 01 19 be f3 71 3d be 97 2a fb 3d
       -0.11518541 -0.14942051 -0.185005 0.12263983
0000d0 06 25 a6 bc 55 ca 43 3d 9b 69 f5 3b 31 0a a1 3d
       -0.020281326 0.04780038 0.007489396 0.07863272
0000e0 5e f4 73 3d 12 b9 aa bb cc 16 2c 3d aa 53 64 3d
       0.05955922 -0.0052100504 0.04201393 0.05574385
0000f0 a5 c8 4d be 79 b8 06 3d 23 7a b2 bd 9b e3 1e 3e
       -0.20096071 0.03289077 -0.08714702 0.15516512
000100 1c 1a 35 be 6d ff f4 bd 60 ab 01 be 1c c1 1b 3e
       -0.17685741 -0.11962781 -0.1266303 0.15210384
000110 dd f9 bb 3d 8b 93 bc 3c 03 15 15 be d6 3a 4a bd
       0.09178517 0.023019573 -0.14558797 -0.049372517
000120 18 88 30 be 62 c9 01 3d 27 1c 00 3b 62 f1 37 be
       -0.17239416 0.031686194 0.001954803 -0.17963174
000130 05 1a e3 bc 79 00 4a bc df 03 bd 3d 3b 8e ef bc
       -0.027722368 -0.012329214 0.09229254 -0.029242625
000140 16 b0 d4 bd da 33 63 bd fb 73 d7 bb e0 c0 3b bd
       -0.10385148 -0.05546937 -0.0065751052 -0.045838237
000150 05 d9 df bc c1 a1 ab 3d 58 0f 10 3e ed 7a b8 bd
       -0.027325163 0.083804615 0.14068353 -0.09007821
000160 64 f8 6b 3d 72 23 c6 bd 8f fb 8c bd 5b 1f 23 3c
       0.05760993 -0.096747294 -0.068839185 0.009956206
000170 56 1b cf 3c a2 81 08 3e 88 60 a7 3d e8 42 34 bd
       0.02528159 0.13330701 0.08172709 -0.04400912
000180 b2 d9 ba bd 09 99 60 bd 14 a2 43 3d 7b 65 bf 3d
       -0.09123553 -0.054833446 0.04776199 0.09345528
000190 3d 68 33 3d 3a 89 05 3c 6b 13 01 be a6 07 d6 bc
       0.04380058 0.008150393 -0.12605064 -0.026126694
0001a0 d8 06 16 be fb 1f 54 3e fd 30 2c be c1 0d e4 bd
       -0.14651048 0.20715325 -0.16815563 -0.11135436
0001b0 6a 9f 93 bb cb 7a d2 3d 47 06 41 3d 81 a8 82 bd
       -0.0045050876 0.10277327 0.047125127 -0.06379796
0001c0 c0 a2 74 bd 39 9b 80 3e 8a 21 95 3d 5d 77 8f bd
       -0.059725523 0.25118425 0.07281788 -0.070051886
0001d0 01 06 9e bd 2b 95 d8 bb bb ae df 3d 11 38 d8 3d
       -0.07715989 -0.006609579 0.10921999 0.10557569
0001e0 7a b5 6f 3d 1c fb 42 bd 37 82 f4 3c c4 58 ed bd
       0.05852268 -0.047602758 0.029847248 -0.11589196
0001f0 32 b3 e9 3c 15 75 ee 3c 0b 27 32 bd f0 63 78 bd
       0.02852783 0.029108563 -0.043494266 -0.060642183

rnn.bias_hh_l1 f4 [128]
000000 1f 21 d4 bd 11 8b cb 3d d3 1a d8 3d 17 d8 f6 3d
       -0.1035788 0.09938634 0.10551991 0.120529346
000010 0e 4f 08 be 7f 29 37 bd ac a8 e5 3d 35 08 f9 bb
       -0.13311407 -0.044717308 0.11213812 -0.0075998553
000020 f9 50 0e 3e 55 c9 8a 3c 39 cc ea 3c 14 b6 06 be
       0.13898076 0.016941706 0.028661834 -0.13155395
000030 ed cb 30 be 09 bf 8b 3c 71 74 1b 3d ec 5c 76 3a
       -0.17265292 0.017058866 0.037952844 0.0009398002
000040 8f 30 00 3e 5e ba 9e bd 85 30 50 3d 5b 48 57 ba
       0.12518524 -0.077503905 0.05082752 -0.0008212381
000050 0f de 9d bd e7 c6 3d bd 69 58 9a bd cd 94 ba 3d
       -0.0770837 -0.046332266 -0.07536394 0.09110413
000060 98 09 43 3e 92 90 ed 3d e4 db 2f be db eb 1c 3d
       0.19046628 0.1159984 -0.17173725 0.038310867
000070 e6 5b 8f bc ba 6e e1 3d 34 17 85 3d ff 4e 04 bd
       -0.017499875 0.110074475 0.06498566 -0.0323019
000080 4c 6e 31 be 0d d8 25 3e bc 67 a3 bd c7 80 91 3d
       -0.17327231 0.16195698 -0.0797877 0.071046405
000090 2e 0a b2 3d aa 27 ed bd 13 2a 0a bd 6d 8c 19 3e
       0.08693348 -0.11579831 -0.03373153 0.14994974
0000a0 0c 97 90 bd d4 88 31 3e 0d 78 b2 bd 88 46 ce bd
       -0.0706006 0.17337352 -0.08714304 -0.100720465
0000b0 9d e0 f0 bd df 4f 40 bc 9d 95 c9 3d b7 c3 5c 3d
       -0.117615916 -0.011737793 0.098429896 0.053897586
0000c0 db a2 f3 bc 3f 9d 00 be 6e d7 12 be ae 3c 3c 3d
       -0.029740741 -0.12559985 -0.14339992 0.045956306
0000d0 28 d0 f8 bd ac 9f 00 3e c1 80 2c bd f3 62 a3 3d
       -0.12149078 0.1256091 -0.042114977 0.079778574
0000e0 a5 95 06 3e aa 86 b6 bd 2e fd 22 3e 17 f4 70 bd
       0.13143022 -0.08912404 0.15916893 -0.058826532
0000f0 05 0b 46 bd 2f 04 b0 3d b8 76 f0 3c 96 7b f3 3d
       -0.048350353 0.08594548 0.029353485 0.118888065
000100 87 f5 92 bd e0 7e 33 be 14 9f 63 be df f2 3e 3e
       -0.07175737 -0.17528868 -0.22228652 0.18647335
000110 b1 7f 6a 3d df ed 2d 3c da 33 98 bd 28 1d 24 bd
       0.057250682 0.010615795 -0.07431765 -0.040066868
000120 66 b8 14 be 24 af 06 3d 91 1a 66 3d 66 a3 29 be
       -0.14523467 0.03288187 0.05617768 -0.16566238
000130 5f 0a 4a 3b 16 20 d8 bc 8d 33 08 3e f5 ef 51 bc
       0.0030828936 -0.026382487 0.13300915 -0.012813558
000140 3c 2e 81 bc e1 02 53 bd a5 43 ed 3d 24 d8 23 bb
       -0.015769117 -0.051516417 0.11585168 -0.0025000656
000150 1f af bd 3d 61 8f c6 3c 8e cc 39 3d 23 97 c8 bd
       0.09261917 0.02423829 0.045361094 -0.09794452
000160 f3 aa b3 bd 27 26 a9 bd 9d 22 dc bd 1e a4 a2 bc
       -0.0877284 -0.0825923 -0.107487895 -0.019853648
000170 77 23 d8 3d 28 73 87 3c b6 92 8c bd 67 0b cc 3c
       0.105536394 0.016534403 -0.068639204 0.02490778
000180 ba f7 a9 3c ce 05 ac bd 42 24 94 3d cc 65 64 3e
       0.020748008 -0.08399545 0.07233478 0.22304457
000190 c9 d4 ac bc 6f 8e a5 bd c3 d8 db bd 20 a7 84 3d
       -0.021097558 -0.08083808 -0.107347034 0.06477189
0001a0 2b 64 d7 bd cd 91 41 3e e8 6f fd bd 38 99 32 bd
       -0.105171524 0.18903275 -0.1237486 -0.043603152
0001b0 1c 6f c3 bc 69 14 d6 3d 0c 49 b1 3d 01 98 f3 3c
       -0.023856692 0.10453112 0.08656511 0.029735567
0001c0 38 f4 1f bb 09 90 58 3e 57 1d 63 3d c0 a4 f8 3c
       -0.002440704 0.21148695 0.055447903 0.030351996
0001d0 97 27 9f bd 70 48 7d 3d 93 17 e1 3d 53 19 c6 bb
       -0.07771223 0.06183666 0.109908246 -0.0060454994
0001e0 50 84 ac bd 79 69 a0 3d 9a 99 49 bb 41 9e 46 be
       -0.08423674 0.07832617 -0.003076172 -0.19396307
0001f0 1f 3a ea 3d 5a de c5 3d b7 f2 99 bd e2 de cd 3c
       0.11436867 0.09661551 -0.07516997 0.025130693

rnn.weight_ih_l2 f4 [128, 128]
000000 59 24 d6 3d e1 99 c8 bd 13 91 d2 bd 5e bc 65 be
       0.104561515 -0.09794975 -0.10281577 -0.22435138
000010 88 d9 f5 3d e8 7f b6 3d e7 2b e1 bd 7d de 21 bd
       0.120043814 0.08911115 -0.10994702 -0.039518822
000020 72 23 da 3d ed 3a 66 bd 32 c2 c5 3c 39 2c 4a 3d
       0.10651292 -0.05620854 0.024140451 0.04935858
000030 70 31 04 3d ee 9f 9c b9 e4 04 9c 3d 24 3a be 3d
       0.03227371 -0.00029873796 0.0761812 0.09288433
000040 f1 2b d8 bd d2 6c d7 bc 96 03 cc bd 89 29 03 3e
       -0.10555256 -0.026297007 -0.099616215 0.12808813
000050 94 1e 77 bd 1e 21 db 3c fc 99 59 3e 02 36 89 be
       -0.060331896 0.02674919 0.21250147 -0.26799017
000060 4a 07 ba 3d 2c a1 9d be a4 8b 34 bc 04 52 5b be
       0.090834215 -0.30787027 -0.011019621 -0.21418005
000070 bb a9 97 3d 50 98 e5 bd c0 cf ee 3d 71 22 ab 3e
       0.074054204 -0.11210692 0.11660719 0.33424714
000080 c8 95 a1 bc 62 7d 31 be ac 72 8f 3d 14 ca 53 be
       -0.019724742 -0.17332986 0.07004294 -0.20682555
000090 8f 47 3d be 4d 25 08 3e 4a 3c f1 bd 8f 2c 53 3d
       -0.18484329 0.13295479 -0.11779077 0.051556166
0000a0 a1 eb 28 3d eb 7a 85 bd 28 13 1a 3e 17 4f a7 bc
       0.04124034 -0.06517585 0.1504637 -0.020423455
0000b0 66 5a d1 3c 4d 0f 87 3d ae 26 47 be cc 5c ef bd
       0.0255558 0.06594715 -0.19448349 -0.116876215
0000c0 44 5f 5f 3e 5a 5a 4d 3e 6d bd 85 bc b4 e8 61 be
       0.21813685 0.20053998 -0.016325677 -0.22061425
0000d0 a7 9b 01 3e 1a 59 38 be 0f 87 f7 3d b9 38 4a 3e
       0.12657033 -0.1800274 0.12086307 0.197482
0000e0 52 30 72 bd 10 81 db 3d c3 cb 20 be 6b 44 ac bc
       -0.059128113 0.10717976 -0.15702729 -0.021028718
0000f0 31 45 22 3e 7e 2f b2 bd 33 62 38 3d a3 0b 13 be
       0.15846707 -0.08700465 0.045015525 -0.14359908
000100 33 57 5b ba b0 62 ee 3d 69 1a 0a 3e 81 0b bc bd
       -0.00083671807 0.11639917 0.13486637 -0.09181882
000110 9f ad c2 bb 1b a5 10 3e 0b 5a ba bd 8c a7 d9 bc
       -0.0059411074 0.14125483 -0.090992056 -0.02656915
000120 17 25 04 3d 84 68 23 3d 7c 2c 4b bc af 19 7a 3e
       0.032261934 0.039894596 -0.012400743 0.2442386
000130 f0 3a 9d 3c f1 1e 45 3e 1d a1 17 be 1e 2c c6 3d
       0.019193143 0.19250084 -0.14807554 0.096763834
000140 52 dd bf bd 4d 45 38 be 49 e4 2a be 2b 92 13 be
       -0.093683854 -0.17995186 -0.16688646 -0.14411227
000150 17 3e b2 bd 2b d8 57 bc 4c 5b fb bd 56 c6 15 3e
       -0.08703249 -0.013174097 -0.12273273 0.1462644
000160 88 01 3d be b5 b8 88 3e fd 7c ed 3d 38 d2 3a bd
       -0.18457615 0.2670342 0.11596105 -0.045610636
000170 96 96 f7 bd 4f 6b 0a bd 14 95 2e be ea 39 78 3e
       -0.12089269 -0.033793744 -0.17049056 0.24240842
000180 ef 9f 3c 3d 8f 88 2c 3c 92 84 04 bd a8 ae 3e be
       0.046050962 0.010530605 -0.03235299 -0.18621314
000190 7c 41 08 bd fb 30 5c be a6 7b 4c bd f8 50 29 be
       -0.033265576 -0.2150306 -0.049922608 -0.16534793
0001a0 a4 71 4e 3d 13 24 b1 bc 0f 78 1c 3e 4a 7c 63 3d
       0.050401345 -0.021623647 0.15280174 0.055538453
0001b0 61 28 c0 3d 1c c4 49 be 2e 7c 2e be 2b a5 ab 3c
       0.09382702 -0.19703716 -0.17039558 0.020952782
0001c0 11 f4 33 3e eb 52 d6 bd 32 9c 3a 3d d5 41 87 3d
       0.17573573 -0.10465034 0.045559116 0.06604353
0001d0 76 18 fb 3d 72 d5 69 bd 74 8a 51 be 94 fc fc bc
       0.12260525 -0.057088323 -0.20462972 -0.030882157
0001e0 fe ae 29 3d 17 fa 51 bc 48 04 8a 3e f8 bb 6d bd
       0.04142665 -0.012815974 0.2695639 -0.05804059
0001f0 f8 f1 c8 bc 16 64 c5 3c 03 23 8c 3d d8 32 e0 3d
       -0.024529442 0.024095576 0.068426155 0.10947198
000200 61 6f ee bd 31 8f 46 3e 33 52 85 bd 94 7f 56 3e
       -0.116423376 0.1939056 -0.06509819 0.20947105
000210 62 30 5a be be 6a da bd 89 ee 29 3d 47 d3 1e 3a
       -0.21307519 -0.10664891 0.04148725 0.00060587045
000220 f4 44 b3 bb 90 fa ba 3d a7 de 16 3a 8d de 1c 3e
       -0.0054708663 0.09129822 0.00057552237 0.15319271
000230 9e 77 6e be 5b 2d 51 3a 23 dd ab bd 8d c7 15 bd
       -0.23287818 0.0007979476 -0.08391788 -0.03656726
000240 f7 22 15 3e 06 29 79 3e 21 1b 4c 3e 55 1f 0f be
       0.1456412 0.24332055 0.19932224 -0.13976796
000250 9e 3a 93 bc de 94 2d 3d 3a d2 4b bc eb fc ba 3e
       -0.017972287 0.0423783 -0.012440259 0.36521086
000260 f4 71 a6 3e 63 1a 47 3e f5 a3 2c bd fb de 02 3e
       0.32508814 0.1944366 -0.04214855 0.12780373
000270 36 9b 8e bd 9b c3 90 bc d9 37 e6 3d 36 5d 62 be
       -0.06963198 -0.017671397 0.11241121 -0.2210587
000280 37 5b 76 be 9d fc 1f 3e b9 f6 82 be 10 0a 63 3e
       -0.24058233 0.15623708 -0.2557886 0.22171807
000290 db 86 76 3e 27 c6 80 3d ba 90 9a 3d f5 34 80 bd
       0.24074881 0.062877946 0.07547136 -0.06260101
0002a0 1d d3 e5 bd 1c 54 0d 3c 4c 7c 84 bd 00 73 e1 3d
       -0.11221907 0.00862601 -0.0646902 0.11008263
0002b0 be 72 1f be df cf 38 3c 32 67 48 3e 0c 75 a2 3d
       -0.15571114 0.011280029 0.19570616 0.07932481
0002c0 78 bb e2 3c 9c 2d 41 3c 86 fa 53 be be c2 59 3d
       0.027677283 0.011790659 -0.20701036 0.053164236
0002d0 5f d7 f6 bd a3 f5 12 3e 8b cf 7c 3d 88 0d 09 3d
       -0.120527975 0.14351515 0.061721366 0.03346017
0002e0 11 cd 9f 3c 54 a4 ca bd 0e a0 54 3c 51 08 75 3e
       0.019506963 -0.09894624 0.012977613 0.23928954
0002f0 76 d4 02 be 97 f4 77 3d 3d 8e 79 bc 0b 4b 25 3d
       -0.1277636 0.060535993 -0.015231666 0.04035477
000300 c6 9c 59 bd 62 cd 9a be dc 3c c8 bd f5 75 7d 3e
       -0.053128026 -0.3023482 -0.09777233 0.24752028
000310 92 e6 31 bd 8e 39 a9 3d 3f 85 04 be 8f 57 01 be
       -0.04343278 0.08262931 -0.12941454 -0.12631057
000320 a2 86 da 3c 1d 95 9a 3a da 91 63 bd 35 95 4f bd
       0.026675526 0.0011793707 -0.055559017 -0.050679404
000330 be 38 32 bd 4e ff 87 bd 44 6f 27 3d 1c 80 22 be
       -0.043511145 -0.066404924 0.040877596 -0.15869182
000340 b2 a2 fb bc e1 76 2a bd 2b 8b 72 3e 04 3f 1e 3e
       -0.030717228 -0.041617278 0.23685901 0.15453726
000350 11 41 85 3d 98 ff 94 be 17 fd cf 3d 13 db 77 be
       0.06506551 -0.29101253 0.10155695 -0.24204664
000360 21 c1 fd 3d ed 45 43 bd ad 42 27 be 2c cf 9c 3d
       0.12390352 -0.04767411 -0.16334029 0.076567024
000370 20 b9 f5 bc 34 a7 3e 3e 21 36 34 3e d8 f4 c7 bd
       -0.029995501 0.1861847 0.17598774 -0.09763497
000380 e7 da be b8 3b aa fc 3d 51 49 75 3e 3a 59 88 3e
       -9.10068e-05 0.123371564 0.23953749 0.26630574
000390 bc c1 66 bd 73 98 1d 3d 19 9a 64 be 91 0c 7a 3d
       -0.056337103 0.038475465 -0.22324409 0.06104714
0003a0 81 d1 da bd f5 45 71 bd ce 77 8d be 3f d8 b7 bd
       -0.10684491 -0.058904607 -0.27630466 -0.089767925
0003b0 8c 36 b2 bc de c9 03 3e ac cd d2 3d dd cf 06 be
       -0.021754526 0.12869975 0.10293135 -0.13165231
0003c0 93 18 44 3d a9 16 c8 3d c5 63 46 be 12 f2 f8 bc
       0.047875 0.09769947 -0.19373997 -0.030388866
0003d0 b0 85 59 bd 2d e8 65 3c 35 5e d6 3d b0 bc 3c 3d
       -0.05310601 0.014032406 0.10467187 0.046078384
0003e0 dc e0 18 3d dd 1e 34 3d b0 4a 80 3d 58 06 b9 3a
       0.037323818 0.043974746 0.062642455 0.001411627
0003f0 2b 7d cf bd 20 7a 47 bd ce 84 3f 3d f4 af 2b be
       -0.10131296 -0.04870045 0.04675751 -0.1676634
