src/rnn/models/user_6_model.pth (torch, 377610 bytes, 16 tensors)

rnn.weight_ih_l0 f4 [128, 11]
000000 95 ff 05 bd 4e c3 5d bb 77 57 8b bd d0 1e 1a 3d
       -0.032714445 -0.0033838334 -0.06803792 0.03762704
000010 53 7e 14 3d d7 09 44 be e7 5f a9 bd b4 60 0b 3d
       0.036253285 -0.19144379 -0.08270245 0.03402777
000020 5d 14 6c 3d fd 79 55 3b e0 91 4d be 2f 7f 8a 3c
       0.057636607 0.0032573931 -0.20075178 0.016906349
000030 8f ef c3 3d 35 af 1a 3e 71 1b 88 3b 7d 37 9b bd
       0.095671766 0.15105899 0.004153662 -0.07578943
000040 14 04 44 be ce 6b 9d be 6f b2 7a 3c ca c6 90 3e
       -0.1914218 -0.3074631 0.015301331 0.28276664
000050 94 b7 2e be db a6 23 be 37 b1 02 3e 2d ca 12 be
       -0.17062217 -0.15981619 0.12762915 -0.14334936
000060 27 60 07 be 68 29 cc bd 05 88 8e be 81 e5 0e 3e
       -0.13220273 -0.09968835 -0.2783815 0.13954736
000070 e2 65 3e 3e 5c 4b c6 bd 3a 69 c8 be eb f8 e1 3c
       0.18593553 -0.096823424 -0.39142781 0.027584514
000080 ee 2e d5 bd e3 f6 72 3e 89 ca 2f 3e 26 e3 67 3e
       -0.10409342 0.23726992 0.17167105 0.22645244
000090 25 6f 69 3e ee fd 8b 3e 3c 63 31 3e 01 d7 64 3e
       0.22796305 0.2734217 0.17323011 0.22347642
0000a0 d2 4b 42 3e 66 1a 52 3e eb 41 90 3e 5c 74 57 3e
       0.18974236 0.20517883 0.2817529 0.21040481
0000b0 60 35 9e 3d 8b b2 0e 3d d4 6d 0b be 64 9c b5 bd
       0.07725024 0.03483824 -0.13616115 -0.0886772
0000c0 6c da 99 bb 4c 67 11 3e 48 05 5f 3e b4 ed 90 bd
       -0.0046952274 0.14199561 0.21779358 -0.07076588
0000d0 76 48 63 bd 5c fb af 3d 45 80 07 3e 13 ee 74 bc
       -0.055489026 0.08592865 0.13232525 -0.014949339
0000e0 3c b2 e8 3b 3b b5 68 3c 8e 0d 36 3d 81 c2 d3 3d
       0.0071013253 0.014203365 0.04444652 0.10339833
0000f0 82 a9 85 3d 08 19 69 bd 13 74 91 bd dc 41 10 bd
       0.06526472 -0.056908637 -0.071022175 -0.03521906
000100 00 4d 4d 3d ab f5 58 3e 51 70 3b bd 0d 13 10 3e
       0.05012226 0.21187465 -0.04576141 0.14069767
000110 18 54 29 bc 17 33 04 3d 30 e3 88 bd ad 8a 40 be
       -0.010334991 0.032275286 -0.066839576 -0.188029
000120 32 ba fd be 17 9a f3 3d 86 ce 4a 3e 77 7a 62 be
       -0.49556118 0.11894625 0.19805345 -0.22117029
000130 b6 2d 92 3d 58 d5 b9 3d a0 fa e3 3d 75 a1 d0 3d
       0.07137625 0.09073895 0.11131787 0.101870455
000140 11 e9 11 3d 43 a1 fd 3d 03 4d c0 bd 94 05 8c be
       0.03562266 0.12384274 -0.09389689 -0.27348006
000150 23 29 22 3e a9 dc 03 3e 3e d0 a2 bc da 78 43 bd
       0.15836005 0.12877144 -0.019874688 -0.047722675
000160 6d bc fa bd da 76 72 3d 21 e2 66 3d 9a 1b e2 3d
       -0.122429706 0.059195377 0.056367997 0.11040421
000170 5a e3 07 3d 02 a4 7c be 00 e4 ad be c4 91 85 3d
       0.033175804 -0.24671939 -0.33963013 0.06521943
000180 af c1 0f 3e 63 74 22 bd 01 d4 e1 3c 75 c6 46 bd
       0.14038728 -0.039661776 0.027566912 -0.048529107
000190 d9 42 06 be dd 5b f4 3c ba 1a 05 3b 59 0d 7b be
       -0.13111438 0.02982896 0.002031012 -0.2451681
0001a0 42 ab 24 be 7d b2 ba 3d c7 17 ff bc 6e 59 35 bd
       -0.16080955 0.09116075 -0.031139268 -0.04427474
0001b0 b3 cc 37 3d 33 06 19 be ad 16 8d bd 63 d3 21 bd
       0.04487295 -0.14943771 -0.06889091 -0.039508235
0001c0 01 58 4e bd da 25 3a 3d 45 8c 94 bd 95 e5 c6 3d
       -0.050376896 0.045446254 -0.07253317 0.09711758
0001d0 1e 72 07 3e e8 6f 34 be 86 c3 4a 3b 2d 51 37 bd
       0.13227126 -0.17620814 0.0030939295 -0.04475515
0001e0 c3 53 68 3d c6 51 96 3c 84 29 04 3e c9 3d 0b 3e
       0.056720506 0.01834954 0.12906462 0.13597788
0001f0 1a f2 92 3d 50 a6 89 3d 43 fc 17 be 3b 7f 19 be
       0.071750835 0.06721175 -0.14842324 -0.14989941
000200 06 67 19 3d 95 86 0c 3e c9 fe 82 bd c5 53 a8 3d
       0.037451766 0.13723214 -0.06396253 0.08219103
000210 ae 80 fc bd 45 6f 94 3d 3e 4f d1 3c 34 0a 78 bd
       -0.12329231 0.072477855 0.025550481 -0.060556605
000220 50 97 f5 3d 13 c8 4e be 9f e3 7a be 38 f3 51 3e
       0.11991751 -0.2019351 -0.24500893 0.20502937
000230 e3 e6 d8 3d b7 f5 4f bd 3d 45 e6 3c fa 8d b0 3a
       0.10590913 -0.05077144 0.028109187 0.0013470047
000240 48 44 ec 3c 09 40 c4 bd fa 35 86 bd 62 3a 79 bd
       0.028841153 -0.09582526 -0.06553264 -0.060846694
000250 59 9e 0e 3e 4e e6 98 3d 9a 89 56 be 0c 4e c8 3d
       0.13927592 0.07465802 -0.20950928 0.09780511
000260 68 df 28 bc 4c 5a e1 3d 1c a9 e3 3c a4 d4 3c 3e
       -0.01030717 0.11003551 0.027790599 0.18440491
000270 07 65 88 3d 26 74 43 3d 7e c3 64 bc fd 3e eb bd
       0.066598944 0.04771819 -0.013962625 -0.114866234
000280 96 c3 48 be ed bf 82 3e f4 97 b7 3e 4a af 65 bd
       -0.1960586 0.25537053 0.3585812 -0.05607537
000290 4a 6c 62 bb b0 ee 90 bd 46 15 45 bd 6f ea c6 3d
       -0.0034549409 -0.07076776 -0.04811599 0.097126834
0002a0 56 8c 37 3d 2e 1c 3d 3d f0 de 25 bd a3 e8 77 bd
       0.04481157 0.046169452 -0.040495813 -0.060524594
0002b0 cb b2 97 bb c1 53 f9 3a 16 68 ff bc c4 a7 7a 3d
       -0.004629468 0.0019022153 -0.031177562 0.06119515
0002c0 0a ec ff bc cb a3 22 3e dc f3 3c 3e c4 e5 11 3e
       -0.031240482 0.15882795 0.184524 0.14247805
0002d0 78 71 2c 3c 50 ae 14 bd 0a 27 cb 3c 73 da 37 3e
       0.0105251 -0.03629905 0.024798889 0.17954426
0002e0 47 4b d4 3d 38 d6 c9 bc 26 c6 5f ba cb 11 14 3d
       0.103659205 -0.02463828 -0.00085363013 0.03614978
0002f0 2a f2 d6 3c d1 05 8f 3d d9 17 51 3d 9d 40 9a 3d
       0.02623852 0.06983531 0.051048134 0.07531855
000300 8e a8 0e be 4a be d4 bd 00 10 fb 3d ee 9e 2c 3e
       -0.13931486 -0.10387857 0.12258911 0.16857502
000310 25 42 27 3d a0 5b ff 3c 69 e6 97 3d a1 53 46 bc
       0.040834565 0.03117162 0.07416994 -0.0121049
000320 7c 6a 33 3e b4 99 d5 3d 4d 4b 6d 3d 99 ad 18 be
       0.1752109 0.10429707 0.05793314 -0.14909972
000330 1e 26 5e be f8 35 12 3e 1a ce d7 3d b7 11 c1 3d
       -0.21694228 0.142784 0.10537358 0.09427207
000340 95 69 bf 3d a6 46 a5 ba 19 06 ff bd bd 2e 05 be
       0.0934631 -0.0012609556 -0.12452335 -0.1300611
000350 91 e2 90 bd 8d fb f2 bb a2 00 84 3d 6d 72 21 3e
       -0.07074464 -0.007415241 0.06445433 0.15766306
000360 be 3e 20 3e ce 18 7e bd 2f 08 95 3c 38 b2 aa bc
       0.15648934 -0.062035374 0.018192379 -0.020836934
000370 e7 c0 62 3e 67 c6 22 3e f7 29 03 3e 02 28 dd 3d
       0.22143899 0.15895997 0.12808977 0.107986465
000380 c4 29 3a 3e e2 ad 60 3c 64 4c 69 3e 2b 49 2c 3e
       0.18179995 0.013713332 0.22783047 0.16824786
000390 39 11 bf 3d 5b b5 37 3e 2d 02 86 3d 0f 3a df bd
       0.09329457 0.17940275 0.06543384 -0.10899746
0003a0 ee a5 73 bd 62 8a 38 bd 07 75 95 bd a3 d1 5b bd
       -0.059484415 -0.045053847 -0.07297712 -0.053666722
0003b0 39 9c a4 bd 84 21 ea 3d ea cb 9f 3d a4 80 67 bc
       -0.080376096 0.11432174 0.078025654 -0.014129791
0003c0 83 88 71 3d f9 2f 31 bd da d6 5f bd 0b cf 4b bd
       0.05896808 -0.04325864 -0.054648258 -0.049758
0003d0 ae a2 b2 bc dc 07 39 3c d0 d7 4e 3c 49 c8 b5 bd
       -0.021806087 0.011293378 0.012624696 -0.08876092
0003e0 d9 86 d9 3c e7 51 77 3d b9 13 23 3c 70 05 81 bd
       0.026553558 0.060380843 0.009953433 -0.06299865
0003f0 f8 92 65 be d5 bb d5 3c 26 45 8b bd fd 00 dd bd
       -0.22419345 0.026090542 -0.068002984 -0.10791204

rnn.weight_hh_l0 f4 [128, 128]
000000 dd 28 0e bd a0 15 a7 bd f0 8c 28 bd 40 c5 4a bb
       -0.03470694 -0.081584215 -0.041150033 -0.0030940324
000010 6d 2c 91 3d 90 bd 8a bd cc a8 fd bc c0 bb 74 bc
       0.07088552 -0.067744374 -0.030964278 -0.014937341
000020 d2 3b 3e 3d 9e 25 2d bd 60 67 a3 3c 3d 75 98 bd
       0.046443768 -0.042272203 0.019946754 -0.074442364
000030 ac 7f ee 3c 6a 1b 52 bd 0c 05 c4 3c 4c 6f be bc
       0.029113613 -0.051295675 0.023928188 -0.02324643
000040 94 33 b5 bc b0 cd 2e bc 3a 85 79 3d c7 24 85 3d
       -0.02211932 -0.010669157 0.06091807 0.06501155
000050 c8 87 88 3c 38 54 4c 3c 4e 54 06 3d 94 33 1b bd
       0.016666308 0.012471251 0.032795243 -0.037890986
000060 8b f8 90 3d 1e b8 4b bd 7d e0 ab bd 26 22 44 3d
       0.07078656 -0.049736135 -0.08392427 0.04788413
000070 c2 62 4d 3d 80 c9 80 3a 52 e3 7f 3d b6 f9 37 3d
       0.05014301 0.0009825677 0.06247265 0.044915877
000080 10 02 d5 bb 46 0b 0a bd 21 01 96 3d 18 81 26 bd
       -0.00650049 -0.033702157 0.07324434 -0.040650457
000090 00 b2 5d 3a 4c e2 a5 bd 50 10 0b bc 50 17 e4 3b
       0.0008457005 -0.08099803 -0.008487776 0.006960787
0000a0 b4 00 83 bd 65 85 af 3d 70 38 06 3c 8a a4 0a bd
       -0.063966185 0.08570365 0.008192167 -0.033848323
0000b0 83 0e 1f bd 50 bd d5 bb e6 bc 6f bd da fd 00 3d
       -0.0388322 -0.006522812 -0.058529757 0.03149209
0000c0 09 e0 87 bd 16 11 27 3d 96 71 6b 3d 11 17 18 bd
       -0.06634528 0.04078778 0.05748137 -0.037131373
0000d0 24 6f 34 bd eb f3 89 3d ce d6 2b 3d c0 41 c1 ba
       -0.044051304 0.06735977 0.0419529 -0.0014744326
0000e0 8c e6 c4 3c 04 53 ac bc 0b db 1d bd 78 03 c7 bc
       0.024035715 -0.021035679 -0.038538974 -0.024293646
0000f0 f0 f4 4a bc 0c 24 8c bd 00 aa f2 b9 00 26 45 3c
       -0.012387499 -0.06842813 -0.00046284497 0.012032986
000100 0f 69 8b 3d a8 04 a2 bd 68 1e ad bc 06 ca 6b 3d
       0.06807148 -0.07911044 -0.021132663 0.05756571
000110 b2 70 7c 3d f0 5b 3b 3c f5 bc 80 3d 20 ec 48 3b
       0.061630912 0.011435494 0.06286041 0.003065832
000120 3c 29 a8 3c 32 46 25 3d f2 07 1a 3d b0 72 77 bc
       0.020527475 0.040350147 0.037605233 -0.015103027
000130 a6 68 1e 3d 42 9c 52 3d 62 83 84 bd 3d e4 64 bd
       0.03867402 0.05141855 -0.06470372 -0.055881727
000140 19 3d 94 3d a6 03 7c bd 60 5d 78 3c 1c ce ee 3c
       0.07238216 -0.061526917 0.015158981 0.029151015
000150 b0 e4 45 bd 32 90 52 bd a0 40 d5 bb 3d dd ac bd
       -0.048313797 -0.051407047 -0.006507948 -0.08440635
000160 31 64 96 bd a2 ad 62 3d 84 dd a6 bc aa e9 72 bd
       -0.07343329 0.05534137 -0.020369299 -0.05930487
000170 e2 9f 29 3d 6a 50 39 3d 35 cd a0 3d f7 b9 0e bd
       0.04141224 0.045242704 0.0785164 -0.03484532
000180 84 e9 ca bc c4 20 d0 bc 78 2c 55 bc d6 c7 05 3d
       -0.024769552 -0.025406249 -0.01301109 0.03266128
000190 41 5c 9e 3d 61 a6 a4 bd c0 26 db 3b f4 84 6f bd
       0.0773244 -0.08039547 0.006687969 -0.058476403
0001a0 86 df 71 3d 55 9a 36 bd d4 b9 76 bd 22 4a 3c 3d
       0.05905106 -0.044580776 -0.060235813 0.045969136
0001b0 8f da 4b bd 32 9f 7b 3d 45 4a 92 3d 96 9a 1e 3d
       -0.04976898 0.061431117 0.07143072 0.038721643
0001c0 58 41 79 3c 08 78 5c bc 9f 69 85 3d c3 9f 5f bd
       0.015213333 -0.013456352 0.06514286 -0.05459572
0001d0 50 23 2b bc c0 6e b1 3c 88 06 3d 3c 03 0f af 3d
       -0.010445431 0.021659255 0.011537202 0.08547785
0001e0 59 44 b0 3d de 58 2c bd 44 d5 b0 3c 75 93 85 3d
       0.08606786 -0.042076938 0.021586068 0.06522266
0001f0 b4 eb f1 3c f6 ff 43 3d d8 38 0d bd 23 ec 96 3d
       0.029531337 0.047851525 -0.03447804 0.07369258
000200 5e d2 34 3d 24 76 84 3c e0 58 72 bd c7 3d 8c 3d
       0.044145934 0.016169615 -0.05916679 0.068477206
000210 e8 e5 55 bd 80 44 ae 3b cb 81 aa bd b6 49 55 3d
       -0.05222121 0.0053182244 -0.08325537 0.05207225
000220 84 46 4b bd 92 a8 ed bc 80 02 83 bc 81 7b b0 bd
       -0.049627796 -0.029011045 -0.015992403 -0.086173065
000230 4e 43 45 3d ba e0 fc bc 64 b2 a9 bc 42 3d 7b 3d
       0.04815989 -0.030868877 -0.020714946 0.061337717
000240 cc db 8c bd 71 c8 91 3d 96 a2 3f 3d 82 3c 10 bd
       -0.068778604 0.07118309 0.046785913 -0.035213955
000250 3e e3 f0 bc 4e 5a 3f 3d 04 86 d2 bc 45 62 23 bd
       -0.029405233 0.04671698 -0.02569867 -0.03988864
000260 39 77 91 3d 60 99 03 3b 80 9f e4 3a 31 4d 0e bd
       0.07102818 0.0020080432 0.0017442554 -0.034741584
000270 e0 92 04 bc 71 a3 a4 bd c9 a5 22 bd c3 b3 a2 3d
       -0.008091658 -0.080389865 -0.039708886 0.07944443
000280 16 e7 94 bd c6 e0 a5 bd c0 06 08 3c 11 b5 8f 3d
       -0.07270639 -0.08099513 0.008302391 0.070169576
000290 69 04 ad 3d f7 87 24 bd 3a f2 20 3d 2a ea 64 3d
       0.08448107 -0.04016873 0.039293505 0.05588738
0002a0 db 98 48 bd b5 36 a2 bd 75 e7 9b 3d 80 31 2a bd
       -0.0489739 -0.07920591 0.07612506 -0.041551113
0002b0 f5 e1 8c 3d 96 63 3d 3d 04 30 b2 3c 84 1d 84 3c
       0.068790354 0.04623755 0.021751411 0.016127355
0002c0 50 e1 20 bc de f6 35 bd 55 fd 1c bd 24 04 ee 3c
       -0.009819344 -0.044424884 -0.038327534 0.029054709
0002d0 2f c0 51 bd 84 48 83 3c 1c 10 d3 3c a6 07 02 3d
       -0.05120867 0.01602579 0.025764517 0.031745575
0002e0 90 af 37 bc 54 f7 12 bd 80 da ab ba 81 10 8f 3d
       -0.011211291 -0.0358804 -0.0013111383 0.0698557
0002f0 f8 6c a7 bc 26 61 0d 3d 5d d8 5b bd 00 e3 23 3c
       -0.020437703 0.034516476 -0.053673137 0.0100028515
000300 36 2b 13 3d 18 cb 8a bd 30 2a 0f 3c 70 82 dd 3b
       0.03592988 -0.06777018 0.008738086 0.006759934
000310 89 56 52 bd 54 bf f6 bc 6c 62 fc bc e3 bf a5 bd
       -0.051352058 -0.03012053 -0.03080865 -0.0809324
000320 4d 50 8b bd 01 94 57 bd 0d f3 8b 3d 5e 81 59 3d
       -0.068024255 -0.052631382 0.06833468 0.05310189
000330 8d 47 78 bd 38 f5 1f bc b8 80 af bd 0e aa 28 3d
       -0.06061511 -0.009763055 -0.08569473 0.0411778
000340 1b 64 b4 3d 40 52 cd bc 90 1b a3 bd c2 69 a8 bd
       0.08808156 -0.025063634 -0.079642415 -0.08223297
000350 6a b2 82 bd 10 ec 93 bb 58 14 6a bc 05 7d 87 3d
       -0.06381686 -0.004514225 -0.014287077 0.066156425
000360 62 89 46 3d d3 2c 94 3d c0 13 96 bb 37 c2 ab bd
       0.048470862 0.07235112 -0.004579991 -0.08386653
000370 d0 4f ab bb 00 8f 96 39 78 dd 7c 3c 60 ae 19 3c
       -0.0052280203 0.00028716773 0.015433662 0.009379953
000380 9a 0a 4a 3d 5e bf 2d 3d f8 ff 45 bc 6c 47 81 3c
       0.049326517 0.04241883 -0.0120849535 0.015781127
000390 fa 77 09 3d 45 67 9f 3d 75 c0 ab 3d aa 54 7a bd
       0.033561684 0.07783369 0.08386318 -0.0611159
0003a0 1c 49 39 bd 1e ee 33 3d b2 a9 74 3d 4f b4 98 bd
       -0.04523574 0.043928258 0.059732147 -0.07456266
0003b0 ff 8c 49 bd f0 96 af 3b 80 31 3f bc 60 ee 15 bd
       -0.04920673 0.0053585693 -0.011669517 -0.036604285
0003c0 c0 e8 f9 3c 00 67 df 39 bf 38 86 3d e0 c5 6d 3b
       0.030506492 0.00042610615 0.06553792 0.0036281273
0003d0 7e 5c 2c 3d 18 ea fe 3c db 70 10 bd 6e 69 2f 3d
       0.042080395 0.031117484 -0.035263877 0.042825155
0003e0 67 a4 98 3d 62 35 16 bd ba 40 13 3d b7 85 08 bd
       0.07453232 -0.036672004 0.0359504 -0.033330645
0003f0 38 0a b3 3c cd 51 40 bd 39 5a 92 bd e0 77 e8 3c
       0.021855459 -0.04695301 -0.07146115 0.028377473

rnn.bias_ih_l0 f4 [128]
000000 12 69 b2 bc 18 af 04 be 23 4c 05 3d a6 73 98 3e
       -0.021778617 -0.12957418 0.032543313 0.29775733
000010 65 21 26 3c 0a ad 05 3e 5f ea 04 be f9 90 0f bd
       0.010139798 0.1305429 -0.1298003 -0.035050366
000020 56 fb 1c bc 3d 0d 3c bc 74 07 03 3d 15 f0 f9 bc
       -0.0095814075 -0.011477766 0.03198953 -0.030509988
000030 e5 0d 04 3d db 37 20 3e 84 34 cf bb 14 5b 98 3d
       0.032239813 0.15646307 -0.006323399 0.07439247
000040 6e 6b 5e 3d 36 0c ac bd 0c e2 2b 3c 2a 72 11 bd
       0.05430167 -0.084007666 0.0104909055 -0.035509266
000050 f1 f3 b6 3d 68 55 ff bd 2a 31 61 bd 2c 12 00 3d
       0.08933247 -0.12467462 -0.054978527 0.03126733
000060 3b d4 4b 3d a5 8f b0 bc 2b b6 2d bd 77 b4 04 3d
       0.049762946 -0.02155287 -0.042410057 0.032398667
000070 89 17 2f 3d b6 b0 03 3d 3f dd a6 bd e1 97 9e 3c
       0.042747054 0.032150947 -0.08147668 0.01935953
000080 7e c1 34 3e 3d 80 30 bd 96 6e d9 3d c8 2c d0 bc
       0.17651936 -0.043091048 0.10616796 -0.025411978
000090 60 44 d5 bb 46 fa e7 bc 67 5e 15 3d 41 ea 5a 3d
       -0.006508395 -0.028317582 0.036466982 0.05344606
0000a0 b2 92 85 3d 9d af 71 bc f8 49 2d be f6 94 22 3e
       0.065221205 -0.014751342 -0.16922748 0.15877137
0000b0 f2 42 15 3e 12 3d 37 be 24 9a d3 bc d3 8d 50 bc
       0.14576319 -0.1789439 -0.025830336 -0.012729126
0000c0 de 8e 87 3b f1 47 08 3d 6f 72 eb bb 54 56 ae bd
       0.004136904 0.033271734 -0.0071852724 -0.085125595
0000d0 ea d5 6b 3c 4e 3e 4d 3d 91 ab 3a 3d 9f c3 ee bc
       0.014394263 0.050108247 0.045573775 -0.029146014
0000e0 2d a9 77 be c7 89 e5 3c 29 4d bb bb 78 62 38 bd
       -0.24185629 0.028019799 -0.0057159853 -0.045015782
0000f0 84 61 4a 3d 20 17 83 3a ee ca 17 3e 5f 81 4a 3d
       0.049409404 0.0010001399 0.14823505 0.049439784
000100 e0 af 31 3e b2 77 31 bd 14 57 38 3d 76 9b ad 3b
       0.17352247 -0.04332704 0.04500492 0.0052980734
000110 cc ef 3b bc 7b 20 3e 3d 84 da 0d bd c9 15 04 be
       -0.011470746 0.046417695 -0.03463222 -0.12898935
000120 03 a7 1a be 16 94 90 bd 81 61 8c 39 33 53 33 bd
       -0.15102772 -0.07059495 0.00026775527 -0.043780517
000130 95 17 37 3d ca 7b e5 3d 27 e4 39 3d 1e 3b e8 3d
       0.044700224 0.112052515 0.0453836 0.11339401
000140 f7 e6 4b bd 43 51 ff 3c 2c 26 4f 3d d8 5d d9 bc
       -0.049780812 0.031166678 0.050573513 -0.026534006
000150 c8 94 3c 3c dc 5d d5 3d f3 ba 46 bd 1d e1 d6 bd
       0.011510082 0.10418293 -0.048518132 -0.10492156
000160 7f 0f 08 3d a2 07 ef bd f5 22 ab bd 98 b5 c9 3d
       0.033217903 -0.11671378 -0.08356277 0.098490894
000170 be b5 f1 bb cd 53 2a be 58 1d 88 3b 93 97 9d 3d
       -0.0073764017 -0.1663353 0.0041538887 0.07694926
000180 1e 84 19 3e 7a 7d 7f 3d a6 7c af 3d dd ba 93 3d
       0.14991805 0.062375523 0.08568697 0.07213376
000190 04 81 68 bc b0 1f c4 3d 81 91 5c bd e2 d7 f2 3d
       -0.014190916 0.095763564 -0.0538497 0.11857583
0001a0 6c 71 1a be 79 c5 83 3c 7d 2a aa bd 1e 45 03 be
       -0.1508233 0.016085373 -0.08308885 -0.12819335
0001b0 74 e6 1b 3c af a3 c9 bd 66 5a fc 3d a3 1e 1c be
       0.0095153935 -0.09845673 0.1232193 -0.15246062
0001c0 d8 97 39 3c fb 4e 29 3c d7 c1 d3 3d 67 c8 f2 3d
       0.011327706 0.010333772 0.103397064 0.1185463
0001d0 34 78 8d bd 5a 1b 0c 3d a3 b3 01 be 07 46 47 3d
       -0.069076926 0.034205772 -0.12666182 0.048650768
0001e0 83 59 10 bd ca 77 42 3d a0 4c e8 bc 25 c6 24 bd
       -0.035241615 0.04747752 -0.02835685 -0.040228028
0001f0 a5 3a c6 3d 29 9c d9 bc 96 b2 05 3d c2 c2 f2 bd
       0.09679154 -0.02656372 0.032641016 -0.11853553

rnn.bias_hh_l0 f4 [128]
000000 89 11 c5 bd d9 17 03 be 8d be 89 3d 4f 6f 21 3e
       -0.09622485 -0.12802066 0.06725798 0.15765117
000010 43 7f 99 3c 85 25 3c bc 48 15 81 bd c5 07 32 bd
       0.01873744 -0.011483555 -0.06302887 -0.04346444
000020 9c ca 4d 39 d2 60 db 3c f2 6f 1a 3d 8c a5 ff bc
       0.00019625801 0.026779566 0.037704416 -0.031206869
000030 b8 56 02 be 2d 38 8b bb ee da 32 3c 56 37 2b 3d
       -0.12728393 -0.00424864 0.010916455 0.04180082
000040 9e 52 c2 3c 94 43 8c bd f3 5d 40 bd d7 c4 3f bd
       0.023721036 -0.06848827 -0.046964597 -0.04681858
000050 05 4a 90 3d 8a 9f fb bb 92 b2 ed bd 36 52 3b 3d
       0.07045368 -0.0076789306 -0.11606325 0.0457327
000060 8b 26 62 3d 2a 9e 99 bd eb 40 74 3b 93 63 c7 3c
       0.05521254 -0.075008705 0.003727014 0.024339473
000070 0b 6a ad bd f1 09 81 bd 9d 42 8e 3b 59 7e 6b bd
       -0.08467492 -0.06300724 0.004341437 -0.05749354
000080 1d 11 8d 3d 41 5e 78 bd f7 70 47 bd c6 7d 8a bd
       0.0688803 -0.060636763 -0.048691716 -0.06762271
000090 56 b4 23 bd 3e 73 f2 bc 3f 60 7f 3d b2 e7 34 ba
       -0.039966904 -0.029595967 0.062347647 -0.00069009804
0000a0 74 3a 18 3d c5 39 2d be 68 e5 39 be 03 39 45 3e
       0.03716512 -0.16916569 -0.18153918 0.1926003
0000b0 93 de 22 3c d9 13 74 be ba b4 88 3d 3c 46 ec bc
       0.009940761 -0.23835696 0.06675096 -0.028842084
0000c0 d1 22 e5 3c 75 35 f2 bc 90 96 41 bd 9a 36 46 bd
       0.027970703 -0.029566506 -0.04726273 -0.048391916
0000d0 08 0c a3 3c 9a e6 63 bd 6c 22 0b 3d d1 a1 19 bd
       0.019903198 -0.05563984 0.033968374 -0.037507836
0000e0 88 b9 76 be 42 85 fc bc 7c 07 a0 bd f8 92 10 3d
       -0.24094212 -0.030825261 -0.078139275 0.03529641
0000f0 2a e7 8c 3d b4 ec a5 3b 8d 4c 89 bc 5f 3e 32 3d
       0.068800285 0.0050636176 -0.016760135 0.043516513
000100 3f 0e bc 3d 98 f4 e8 3c fe c1 32 3d 16 af ed bc
       0.09182405 0.028436944 0.043642037 -0.029014152
000110 a7 a8 01 3d 44 ba 28 bc 14 d2 2b bd 14 e0 fc bb
       0.03165498 -0.010298315 -0.041948393 -0.007717142
000120 74 6d e8 bd c2 d9 05 be 38 f7 67 3c 39 f5 d8 3b
       -0.113490015 -0.1307135 0.014158063 0.0066210297
000130 81 a4 90 3c a8 b8 2c 3e 05 88 9a 3c 33 61 4e 3d
       0.017656567 0.16867316 0.018863687 0.050385665
000140 f7 31 80 3d df 4a ba 3d 8d 05 35 3c 88 bb e5 bc
       0.0625953 0.09096312 0.011048687 -0.028043523
000150 76 c3 27 3d 18 4b 91 3c 7d 8b a4 bd 85 5d 42 bd
       0.04095789 0.017736003 -0.08034418 -0.04745247
000160 79 50 84 3c 6e 47 43 be 04 42 67 3c 2b 49 25 3e
       0.016151654 -0.19070217 0.01411486 0.16141193
000170 3f 69 9e 3d bd 78 31 be 41 b7 60 bc 5b 40 ac 3d
       0.07734918 -0.17331214 -0.013715566 0.08410712
000180 c3 1f 3e 3d c1 56 7f 3d da 6c 3b 3e b5 6a de 3c
       0.04641701 0.062338594 0.18303242 0.027150491
000190 72 b3 1b bd d8 30 e3 3c cc e0 ba bd b8 52 fd 39
       -0.03801293 0.027733251 -0.09124908 0.0004831755
0001a0 bc e9 07 be 89 6b a1 3d ad 21 10 3c d6 b2 5d bd
       -0.13272756 0.07881839 0.008797091 -0.05412563
0001b0 dc d9 ad 3d 3e 63 85 bd f8 5d 23 3e ad 6e 02 be
       0.08488819 -0.065130696 0.15953815 -0.12737532
0001c0 0a 2a 1f 3d df 18 c4 bd 49 91 16 3c 17 2e 6d 3e
       0.03885845 -0.09575056 0.009189912 0.23162113
0001d0 cc 72 58 bd d5 61 5e 3c a3 9c fc bd 61 eb 37 bd
       -0.052843854 0.01357313 -0.123345636 -0.04490221
0001e0 0c e3 b7 3d 88 54 9a 3d 64 cd b9 bc 0b d0 f5 bd
       0.08978853 0.07535654 -0.022680946 -0.12002572
0001f0 bd 5c 11 3d 33 08 d1 3c cc 26 0e 3e fa 0f 26 bd
       0.035488833 0.025516605 0.13881987 -0.04054258

rnn.weight_ih_l1 f4 [128, 128]
000000 37 0c 09 bd 8e 24 8c bd 23 3c 33 3e 35 d8 db 3e
       -0.033458915 -0.0684291 0.17503409 0.4293839
000010 67 14 d4 3c 3d 4c 91 bc f1 75 d3 3c 80 72 66 3d
       0.025888635 -0.017736549 0.025813075 0.05626154
000020 f0 09 6a bc 12 5c a8 be d2 c0 6d 3e b1 91 9e bd
       -0.014284596 -0.32882744 0.23218086 -0.07742632
000030 1c 45 0b be 9e ca b9 3d 10 0b b6 bc 05 04 97 3d
       -0.13600582 0.09071849 -0.022222072 0.073738135
000040 c6 5e 0b 3e 06 9b 7b be 52 bb 32 3b 18 86 1b be
       0.13610372 -0.24570855 0.0027272296 -0.15187871
000050 89 a4 db 3d 76 8d d0 bd 73 38 68 be 02 3f 8b 3e
       0.10724742 -0.101832315 -0.22677784 0.2719651
000060 c4 2e f0 3d 89 4d bc 3d 82 b4 a3 bc 0b 11 a2 3d
       0.1172767 0.09194476 -0.019983534 0.07913407
000070 35 1f 3f 3d 9d 10 84 3c a6 7b 80 bd 4b 14 07 be
       0.04666062 0.016121203 -0.06273584 -0.13191335
000080 cb 54 9a 3d 8e 43 ef bd 07 5f a2 3d 6a 48 d5 bd
       0.07535704 -0.11682807 0.07928281 -0.104142025
000090 91 f8 f3 3b df 6d e4 bc ee 4a 48 3d 16 7b 23 bd
       0.007445403 -0.027884422 0.048899584 -0.039912306
0000a0 89 cd 10 3d a2 91 3b be 9c 38 48 be 15 63 64 3e
       0.035352264 -0.18317273 -0.19552845 0.22303422
0000b0 48 83 d0 bd 3b 14 fc be fb 91 b6 3d ad 06 cb 3c
       -0.1018129 -0.49234185 0.08914562 0.024783457
0000c0 ff 5f 89 bd 1e f9 3d 3e 4b cd 11 3c 63 99 9e bd
       -0.06707763 0.18552062 0.008899043 -0.077441
0000d0 a1 f4 45 3e 20 06 82 bd 7a 8b af 3d 78 46 93 bd
       0.193316 -0.063488245 0.08571525 -0.07191175
0000e0 9b 1d 61 be 38 23 3f 3d 4f a1 72 be 86 79 a2 3d
       -0.2198395 0.046664447 -0.23694347 0.07933335
0000f0 67 6c 0c be a5 22 99 bb fe 9c 14 3e 8c 74 29 3e
       -0.13713227 -0.0046733194 0.14513013 0.16548365
000100 0c 69 34 3e f9 36 d7 bc 70 0a 04 be 17 6e f4 3d
       0.17618197 -0.02627133 -0.12894607 0.119350605
000110 01 4b 93 3d 90 dc 62 3d 36 fa 2b bd da a7 4b be
       0.0719204 0.055386126 -0.041986667 -0.19888249
000120 6c 94 69 be 57 e9 9e 3c 74 1a 94 3d 4b 87 30 3a
       -0.22810525 0.019398374 0.07231608 0.00067340274
000130 a1 03 e4 3d bb d8 2a 3e 6c e4 dc bd 5e d8 8d 3e
       0.11133505 0.16684239 -0.107857555 0.27704138
000140 ea bf b8 bd 39 01 0b 3e e0 00 bb bb ca d7 44 bd
       -0.0902098 0.13574685 -0.0057068914 -0.048057355
000150 c4 1b 8d bd f0 af bd 3d 82 17 41 be 37 3f 89 bd
       -0.068900615 0.09262073 -0.18856624 -0.067015104
000160 fd 9a b6 bb 9d 7f 77 bd 22 07 94 bd 94 38 a2 3d
       -0.0055726753 -0.060424436 -0.07227923 0.07920948
000170 1a 56 a0 3d 59 2a fe bd 70 29 0a 3b e1 41 af 3d
       0.078289226 -0.12410421 0.0021081828 0.08557487
000180 bd 1b 4f 3e 07 46 db 3d b4 68 3e 3e 94 f7 22 3e
       0.20225425 0.10706716 0.18594629 0.15914756
000190 ea cb 9b bd 53 e8 3a 3e fc ef 68 bd ad 2b 5a 3e
       -0.07607253 0.18252687 -0.056869492 0.21305723
0001a0 69 0b 28 be ba 17 7c 3c d4 56 fc bd 78 51 2d 3d
       -0.16410603 0.015386516 -0.12321249 0.042314023
0001b0 dd 47 a1 3c e9 54 b6 3d 92 f8 3f 3e 19 ef cf bc
       0.019687587 0.08902914 0.18747166 -0.025382565
0001c0 a9 a6 91 3d 77 76 00 be 78 ce f7 bc 65 8a 87 3e
       0.07111866 -0.12545191 -0.03024982 0.26472774
0001d0 cf 62 86 3d fc 81 d2 3c 90 22 fd 3c a0 2a 8c bd
       0.06561815 0.025696747 0.03090027 -0.068440676
0001e0 79 f2 30 3e 96 96 50 3e b1 71 d0 3d 7e ba e5 3d
       0.17279996 0.20369944 0.10177935 0.11217211
0001f0 3d cc c7 3d 5b c8 bb bc 21 01 a8 bb 08 ba 1c bd
       0.09755752 -0.022922685 -0.0051270877 -0.03826335
000200 be 99 0c 3e 72 04 8b bc e5 22 7b 3b 70 7e ba be
       0.13730523 -0.016969893 0.003832036 -0.3642459
000210 20 f7 85 bc c0 86 83 3c dd a0 81 bd c8 81 c5 bd
       -0.01635319 0.016055465 -0.0632951 -0.096438944
000220 cb ce 45 3d bf b5 fe 3d 91 19 b2 bc 05 dd 86 bd
       0.048292916 0.12437009 -0.021740707 -0.06585125
000230 7f 4d 88 bd c7 4d 07 bd 20 4d 28 bd a2 52 85 3d
       -0.06655406 -0.03303316 -0.041089177 0.065099016
000240 e1 b0 27 be 0e 52 86 bd d0 6e 12 3d cc 38 db 3d
       -0.16376068 -0.065586194 0.03575021 0.107041925
000250 94 08 84 bd 4b 1b 90 bd 48 c9 f0 3c a8 ed 0a be
       -0.06446949 -0.07036456 0.029392853 -0.13567221
000260 9a c7 19 3d dc 55 24 be e2 84 56 3e a0 08 ae 3d
       0.03754387 -0.16048378 0.20949128 0.08497739
000270 23 79 ab 3c 16 08 68 3d 8f fa 4c bd 13 34 8a bc
       0.020931786 0.056648336 -0.05004364 -0.016870534
000280 56 73 43 bd db 61 c7 3d 4c f4 48 3d 3c 90 3d be
       -0.047717415 0.09735461 0.049061105 -0.18512052
000290 9e 59 36 3d 7c a6 a3 bc 67 eb 1d be e4 b7 ba 3d
       0.04451906 -0.019976847 -0.1542183 0.091171056
0002a0 c2 83 93 bd 00 44 2d 3d 8b 3c 5d bc fa 09 77 be
       -0.07202865 0.042301178 -0.013503204 -0.241249
0002b0 82 20 21 bd 71 6e 43 3e 95 1c 3b bd a9 ee 9d 3d
       -0.039337642 0.19085099 -0.045681555 0.077115364
0002c0 e1 73 92 bd dc 52 7a 3d 90 ec 76 3c a5 14 2d bd
       -0.071510084 0.061114177 0.015071049 -0.042256016
0002d0 64 66 62 3b ed fa 03 bc aa 4b c3 3c 9b 53 10 3d
       0.0034545893 -0.008055431 0.02383979 0.035235982
0002e0 1f 8c 5f 3e 6b 58 d9 bd 1d 09 b5 3d 38 53 10 be
       0.21830796 -0.106125675 0.08839629 -0.14094245
0002f0 cb 50 0b 3e 42 24 c1 bd fc 23 a7 bc c5 02 8d bc
       0.13605039 -0.09430744 -0.0204029 -0.017213235
000300 12 5e c1 bd de f0 dd bc 5d d3 15 be c9 1b a3 3d
       -0.094417706 -0.027092393 -0.1463141 0.07964284
000310 9e 7a c6 bd a8 a4 2b 3d b1 5c e0 3d 0e 20 59 3e
       -0.09691356 0.041905075 0.109551795 0.21203634
000320 85 36 c8 3e 84 8d 9b 3d 65 64 ac bd 9f b8 c5 bd
       0.39104095 0.07595351 -0.08417586 -0.09654354
000330 e7 8f 94 3b 32 fa a2 bd 3b 01 9c bd 0a ff 8a bd
       0.004533756 -0.07957877 -0.07617422 -0.06786926
000340 ce 9c 59 3d 0f 44 2a 3d 31 9d f1 3d 66 ae d8 bd
       0.053128056 0.041568812 0.1179756 -0.10580139
000350 ec f5 52 3a ea 0a b2 bd 5e 76 2e 3e 58 d5 e9 3d
       0.00080475095 -0.08693488 0.17037341 0.11417645
000360 05 08 6e 3d 12 2c a6 3d 6f c4 0c 3e a0 67 08 be
       0.058113117 0.081138745 0.13746808 -0.1332078
000370 6f e7 95 bd 9a 1a 5d 3d 80 fd 3a 3d 8d 7a 56 be
       -0.07319533 0.053980447 0.045651913 -0.20945187
000380 50 35 c0 bd 21 cd da bd 32 63 e2 bc a8 ca 03 bd
       -0.093851686 -0.106836565 -0.02763519 -0.03217569
000390 84 63 6c 3d 56 6f 0a bb c8 47 c8 3c 1f 4b 14 bd
       0.057712093 -0.002112349 0.02444829 -0.036204454
0003a0 4d 9a cf bc 05 cb 1e be 2b aa 4d 3e 5b a4 13 3e
       -0.025342131 -0.15507133 0.20084445 0.14418165
0003b0 b5 61 ba 3d 58 bb 61 bb fd d4 7c bd 47 74 21 bd
       0.091006674 -0.003444394 -0.06172656 -0.03941753
0003c0 0e 30 3e be 63 a5 a2 3d a5 ac 73 be 38 bd 9e be
       -0.18573019 0.07941701 -0.23796327 -0.31003737
0003d0 8b 1f 7e 3d f9 8c ee 3c 6a d1 01 3e 78 2e 08 bd
       0.0620418 0.029119955 0.12677541 -0.03324744
0003e0 2f cd aa 3b b2 96 73 bd d6 38 43 bb f3 e4 b6 3d
       0.005212448 -0.059469886 -0.0029788516 0.08930387
0003f0 d6 58 00 be dc 08 6b 3d c4 20 85 3d 03 f1 53 3c
       -0.12533888 0.057381496 0.0650039 0.01293588

rnn.weight_hh_l1 f4 [128, 128]
000000 7e 78 01 3d 27 c3 8e 3d 2e 3f 64 3d 0d 7c ae 3d
       0.03160905 0.06970816 0.055724315 0.085197546
000010 42 b3 84 bd 00 b3 01 bc 74 f9 4e bd 8c f0 ba 3c
       -0.06479503 -0.007916212 -0.050530866 0.02281978
000020 16 0a 78 3d 00 5a cd bc 84 a8 5e bd e8 3a 94 bd
       0.060556494 -0.02506733 -0.054359928 -0.07237798
000030 60 1e 18 3b 09 e1 ac bd 6f 86 87 3d 25 cf ad 3d
       0.0023211464 -0.084413595 0.06617438 0.08486775
000040 d7 b5 67 bd 92 21 94 bd 88 b7 47 3c d6 e1 47 3d
       -0.0565699 -0.072329655 0.012189753 0.04879936
000050 68 02 c5 bc d5 58 a1 3d 3d 69 80 3d c0 57 9a bd
       -0.024048999 0.078782715 0.062700726 -0.07536268
000060 00 09 5a 3a cc 1c fb bc 86 b9 08 3d 4f 26 90 3d
       0.0008317381 -0.03065338 0.033380054 0.07038557
000070 20 b3 23 3c 32 62 6d 3d f0 6a 8d bd 8e 88 49 bd
       0.009991437 0.057954974 -0.06905162 -0.049202494
000080 30 12 ff 3c f8 a8 5b 3c 50 57 f7 3c 7e a0 34 3d
       0.031136602 0.0134069845 0.030193001 0.04409837
000090 07 38 46 bd e0 c8 95 bc 3a 9f 65 3d 76 8b 68 bd
       -0.048393276 -0.018284261 0.056060053 -0.056773625
0000a0 ca 3c 4c bd 40 8f af bb 75 a1 85 3d 6a 68 57 3d
       -0.04986266 -0.005357653 0.06524936 0.05258981
0000b0 fc 51 9e bd 60 e1 a3 3c 15 6c 98 3d df 5d 80 bd
       -0.07730481 0.020004928 0.0744249 -0.062679045
0000c0 58 80 13 bc 3c c3 b7 3c 10 0e aa 3b b8 33 0b bc
       -0.0090027675 0.022431962 0.0051896647 -0.008496217
0000d0 cb 78 ae 3d 31 9f 84 bd db 04 9b 3d e8 be 35 bd
       0.08519133 -0.06475676 0.075692855 -0.044371516
0000e0 00 c5 78 3a cf 08 9f 3d 9e bc a9 bd d6 0e 20 bd
       0.00094898045 0.07765352 -0.08287929 -0.03907665
0000f0 a0 15 16 bc 3d 98 3d bd 24 9b 88 bc a0 2e 32 3c
       -0.009160429 -0.046287764 -0.01667554 0.010875374
000100 bc 23 b5 bc 68 41 76 3c 8a af 66 3d e6 23 7c bd
       -0.022111766 0.0150302425 0.05631975 -0.061557673
000110 1a 30 75 3d 88 a7 fa 3c d5 94 96 bd 90 0e 90 bc
       0.059860326 0.030597463 -0.07352606 -0.017585069
000120 04 41 6b bd 78 30 91 3c 0f 1a 92 bd f4 66 bc bc
       -0.05743505 0.017723307 -0.071338765 -0.02299831
000130 10 a0 bb bb c4 2f cb bc 00 4d 12 bc 18 02 5c bd
       -0.005725868 -0.02480305 -0.008929491 -0.053712934
000140 8e ce 06 bd 80 c9 55 3a 06 c9 56 3d 4a b5 48 3d
       -0.03291183 0.0008155331 0.052437805 0.049001016
000150 78 78 a6 3c f2 b1 63 3d b5 01 10 bd 53 ff a0 3d
       0.020321116 0.055589624 -0.035157878 0.07861199
000160 7e 06 67 3d b4 30 fc 3c ac 79 f6 3c e6 87 a5 bd
       0.056402676 0.030784942 0.030087315 -0.08082561
000170 93 68 9b 3d b9 05 9c 3d be 52 1e 3d 8e 7f 60 3d
       0.07588305 0.07618279 0.038653128 0.054809146
000180 5d c0 b2 3d 93 cf ac 3d ad b4 a3 bd 5e ac 47 3d
       0.08728097 0.08438029 -0.079934455 0.048748367
000190 e6 42 63 bd 20 fa 9b 3c fe 9e 00 3d 3c e3 9f 3c
       -0.05548372 0.019040167 0.031401627 0.019517533
0001a0 b0 fd 6f bc 94 1e 10 bd 80 25 78 3c cf b9 a3 bd
       -0.014647886 -0.03518541 0.015145659 -0.079944246
0001b0 ca 7b 79 3d fe b6 61 3d 00 5a bd 39 c2 f4 46 bd
       0.06090907 0.055106156 0.00036115944 -0.048573263
0001c0 ba 59 66 3d e8 08 24 bd 3e 8f 11 3d 83 77 a9 3d
       0.056237914 -0.040047556 0.035536997 0.08274748
0001d0 17 bf 49 bd 60 33 f8 bc a7 80 9c 3d 28 0f c7 3c
       -0.049254503 -0.030297935 0.07641726 0.02429922
0001e0 60 27 2f bb dc d5 fb 3c 40 7a 8c 3c 5c ec 94 bd
       -0.002672635 0.030741625 0.017148137 -0.072716445
0001f0 b0 ea 5e 3c e8 b0 66 bc 98 f7 ba bc f1 d6 ae bd
       0.013605759 -0.014080264 -0.02282314 -0.085370906
000200 3c 10 99 3c 1c c3 89 bc 24 d3 1f bd 7e a8 98 bd
       0.018684499 -0.016816668 -0.03901972 -0.07454012
000210 18 a0 0b bd 68 8a 22 bd a0 18 80 bd b4 39 80 3c
       -0.034088224 -0.039682776 -0.06254697 0.015652515
000220 a8 83 a1 bc d0 a1 60 bd f0 59 a6 bd 80 75 67 ba
       -0.019716099 -0.054841816 -0.08122623 -0.00088294595
000230 9c 7f 9c bd 9b a4 9a bd 4f e4 7a bd e8 b4 72 3c
       -0.07641527 -0.07550927 -0.06125289 0.014813639
000240 a5 ed a7 3d 00 58 c1 39 00 cf 22 ba c8 e0 10 3c
       0.08199624 0.00036877394 -0.0006210655 0.0088426545
000250 cc 58 b0 bd b2 1e 42 3d c7 4c 91 bd 7c f3 86 bc
       -0.08610687 0.047392555 -0.07094722 -0.016473524
000260 1f e7 79 bd a6 7f 74 3d 7d 30 51 bd 28 ee 79 bc
       -0.06101143 0.059692048 -0.051071633 -0.015254535
000270 a0 45 36 bb c0 48 71 bd d4 0f c4 bc 14 5a 0b 3d
       -0.0027812496 -0.05890727 -0.023933329 0.034021452
000280 8c 71 a9 bc a2 c9 6d 3d 69 eb 5f bd 18 ff 60 bd
       -0.020684026 0.05805362 -0.054667864 -0.054930776
000290 99 3d 2c bd 06 e6 a1 bd 6b 3f ac 3d 18 82 8d 3c
       -0.04205093 -0.079052016 0.084105335 0.017273948
0002a0 d0 05 e0 3c 08 9b 07 bd 10 8b 0c bc a6 3a 32 3d
       0.027346522 -0.033106834 -0.008578077 0.043512963
0002b0 b8 d3 c1 bc 31 a2 a4 3d 70 7b bc 3c 6e b7 7c bd
       -0.023660526 0.08038748 0.023008078 -0.06169837
0002c0 4d 7c b2 3d 3f 0b a2 bd fd 37 45 bd 5e 44 2a 3d
       0.08715115 -0.07912301 -0.048149098 0.041569106
0002d0 55 7a 87 bd 7a cc 0d bd 38 86 6b bd 9e 0a 5e 3d
       -0.0661513 -0.034618832 -0.057501048 0.054209344
0002e0 80 97 9e 3b 9e 43 6f 3d 0c 53 c1 bc d0 10 7b bc
       0.0048398376 0.058414094 -0.02359917 -0.015323833
0002f0 d2 22 46 3d d9 9a af bd 12 0e dc bc ff 77 9b bd
       0.04837305 -0.08574457 -0.026862178 -0.07591247
000300 d2 1d 7f bd 71 b8 a0 3d fc bf 8f 3c 5d 31 92 3d
       -0.0622843 0.078476794 0.0175476 0.071383215
000310 f8 1c 9d bc 05 9e b0 bd 90 ba cc bb e0 aa c3 bc
       -0.019178852 -0.0862389 -0.006247826 -0.02388519
000320 c7 b3 82 bd 5c 34 11 bd 60 6d da 3b d7 ee 02 bd
       -0.06381946 -0.035450324 0.0066658705 -0.031966057
000330 2b 5a a7 bd 7d bc 95 bd 98 fd 64 bc c0 14 9e ba
       -0.08171495 -0.07311342 -0.013976477 -0.0012060627
000340 30 b1 bd 3b c9 df a9 3d 76 57 48 3d 18 d1 ea 3c
       0.0057889447 0.08294637 0.048911534 0.028664157
000350 e4 3e 72 bd 7b 7f 8d 3d c2 2c 81 bd 00 b8 5b 39
       -0.05914201 0.069090806 -0.06307365 0.00020954013
000360 95 ab 8a bd f8 7c 8a 3c 00 a2 2f 3c 7e 28 e9 bc
       -0.06771008 0.016905293 0.010719776 -0.028461691
000370 b0 65 ca bc 2c dc ac bc d6 27 48 3d 69 63 8f 3d
       -0.024706692 -0.02110108 0.048866116 0.07001383
000380 c0 8f b3 bd bd 01 98 bd dc b5 8f bd 66 01 84 bd
       -0.087676525 -0.074222066 -0.07017109 -0.06445579
000390 a4 a3 c9 bc b0 ac 2d bd c7 80 0e bd 38 aa 75 3c
       -0.024614163 -0.042401016 -0.03479078 0.014994197
0003a0 c0 c1 11 3c ca ba 9d bd 0e 78 aa bd 73 53 82 3d
       0.008896291 -0.07701643 -0.0832368 0.06363573
0003b0 0d 11 54 bd 34 c6 9c 3c 5c 6a 96 bc 03 dc 91 bd
       -0.051774073 0.01913748 -0.018361263 -0.07122042
0003c0 40 54 be 3a 10 ca 3f 3c f8 3e 39 3c a0 bc 45 3c
       0.0014520958 0.01170589 0.011306517 0.0120688975
0003d0 40 4b dc 3a 8d 9e 45 bd 12 59 12 bd d1 26 97 3d
       0.0016807094 -0.04824691 -0.035729475 0.073804505
0003e0 2f 06 a3 3d dc 07 ca 3c 77 d7 7d bd c0 c5 6b 3c
       0.07960164 0.02466195 -0.06197306 0.014390409
0003f0 00 d6 7c b9 2b 92 93 bd 40 61 6f 3b 20 08 7e 3c
       -0.00024112314 -0.07205614 0.0036526471 0.015504867

rnn.bias_ih_l1 f4 [128]
000000 dc 35 09 3e 8c df cc bd 21 7d b3 3c 37 bf 43 3e
       0.13399452 -0.10003576 0.021910252 0.19115911
000010 cf 1d ed bd 08 60 3f bd 89 6f 08 be 3f 10 3d be
       -0.11577951 -0.046722442 -0.13323797 -0.18463229
000020 26 d5 2c be 74 01 b0 3d 93 39 92 bd 03 d4 a2 bd
       -0.16878185 0.08594027 -0.07139888 -0.07950594
000030 67 89 2d 3e 3d 0c e0 3c 8d 19 df bd 51 fc 62 3c
       0.16946946 0.027349586 -0.10893545 0.013854102
000040 24 e3 cb 3c bd c6 33 3e 8a e4 5e 3c 06 46 a8 bd
       0.024888583 0.17556281 0.013604293 -0.08216481
000050 ce 1e 0c 3e 1b 4c 24 3c 0d 42 c1 3c 35 87 23 3d
       0.13683626 0.010027911 0.023591066 0.039923865
000060 17 df 41 3e 93 23 0c bd 30 6b 17 3e 77 3c 50 3e
       0.18932758 -0.034213614 0.14786983 0.20335566
000070 ab 34 fa 3c 43 15 5d bd f7 b0 cc 3c 25 2f 11 bd
       0.030542692 -0.053975355 0.024986727 -0.03544535
000080 21 db 37 3e a4 f0 7d be 59 24 1d 3e 44 e8 ba bd
       0.17954685 -0.24798828 0.15345897 -0.091263324
000090 bb 66 31 3c c9 8c e6 bc 83 ac 10 3e 44 d6 81 3e
       0.0108277155 -0.028143303 0.14128308 0.25358784
0000a0 9d 6f f0 bd 4f 76 ce 3d 28 2c bd bc 57 c5 99 bd
       -0.117400385 0.10081159 -0.023092344 -0.07508343
0000b0 47 ff a1 bd 4d f6 00 3d 6f 1c 5b bd 6f f9 07 3e
       -0.079100184 0.03148489 -0.053493913 0.13278745
0000c0 7c 42 90 3d 54 5c aa bd d6 69 04 be 18 ea 16 bc
       0.07043931 -0.083183914 -0.12930998 -0.009211086
0000d0 a8 6d 25 bd 26 57 1f bd 9c 7b 08 be 96 b7 3a 3c
       -0.04038778 -0.03890147 -0.13328403 0.011396309
0000e0 f5 b4 43 3b d4 92 0d bd ec 96 89 3d 7f fb 91 bd
       0.0029862497 -0.034563854 0.06718239 -0.07128047
0000f0 7e c4 5c bd a0 a4 8c bd 25 bb 14 3e f7 31 14 be
       -0.053898327 -0.06867337 0.14524515 -0.14472185
000100 0f 3b d8 3d d4 ab a2 bd 23 be 79 3e 4f c5 07 3d
       0.105581395 -0.0794293 0.24388938 0.033147153
000110 6c cb 8a 3c 72 d8 59 be 81 56 ec 3c 99 a1 98 bc
       0.016942702 -0.21273974 0.028849842 -0.018631743
000120 b7 4a 08 bc 7b ca f1 3d 88 d3 27 3e 48 10 16 3d
       -0.008318595 0.11806198 0.16389287 0.03663662
000130 ac 52 b5 ba 1a 93 38 be 2e 29 14 bd 4d c4 02 3e
       -0.0013833842 -0.18024865 -0.036172085 0.12770195
000140 56 28 ca bb 78 57 09 bd d2 7c 07 3e 5a 64 47 3e
       -0.006169359 -0.033530682 0.13231209 0.19471875
000150 7b 0c 08 3b e7 e3 0a bd 90 63 94 bc f9 fc 92 bc
       0.0020759392 -0.03390875 -0.018113881 -0.017942892
000160 4f 55 64 3d d6 8f 9f bd 73 ca 1d 3c 7a 36 f4 3d
       0.05574542 -0.077911064 0.009630787 0.11924453
000170 52 3b a9 bc f7 e0 4a 3a 4a 75 3e 3e e0 8b fb bd
       -0.020658169 0.0007739211 0.1859943 -0.122825384
000180 e6 b1 c1 bd a2 43 83 3d bc 1e 4a 3e 45 66 d0 3d
       -0.094577596 0.06409384 0.19738287 0.10175756
000190 eb cb 3b 3d c8 9b 79 ba 2e ce 5e 3d fa 1f 9b bd
       0.04584877 -0.00095218094 0.054395847 -0.075744584
0001a0 2d 0e af 3d 4e 87 bf 3a b1 fa f1 3d fa b1 cf 3c
       0.08547626 0.0014612467 0.11815394 0.02535342
0001b0 98 4b 35 3e cd e6 81 bd d0 6a a0 bd b4 42 24 be
       0.17704618 -0.0634285 -0.07832873 -0.1604107
0001c0 2b 12 4e be 86 5a 21 3e 28 65 33 be 4e f0 30 3e
       -0.20124118 0.15757188 -0.17519057 0.17279169
0001d0 48 6b f1 b9 c7 0b 03 3d dc af d6 bd 1f 3b 85 be
       -0.00046047033 0.031993654 -0.10482761 -0.26021668
0001e0 52 77 8c 3d 1e e0 c9 bd ff db 13 be c0 d6 07 be
       0.06858696 -0.098572 -0.1443939 -0.13265514
0001f0 8f c2 75 bd 4e e0 cb bd c0 c7 2d 3e d6 0a 19 3e
       -0.06 -0.09954892 0.1697073 0.1494554

rnn.bias_hh_l1 f4 [128]
000000 fe e6 12 3e 0f 2d 28 be 5e 4a 93 3d dd ed 34 3e
       0.14345929 -0.16423438 0.07191919 0.17668863
000010 98 77 eb bd 2b 85 89 bd ca 37 4f be ed e1 4f be
       -0.1149742 -0.06714853 -0.20236126 -0.20301028
000020 e8 42 c7 bd 74 16 e5 bb de bb 92 bd 1e ad 45 bb
       -0.09729558 -0.006991202 -0.07164739 -0.0030163
000030 5f 16 1f 3e 37 53 af bc db 16 f9 bd 66 8c 6d 3d
       0.15535878 -0.021401985 -0.121625625 0.057995223
000040 c3 de 76 bd 76 aa b9 3d 2b ab 05 bd 6c 2a ff 3c
       -0.060271036 0.09065716 -0.03263394 0.031148158
000050 7e ef ba 3d 6d 2d 00 bd 20 aa f3 3c 3d 64 24 3d
       0.09127711 -0.03129332 0.029744208 0.040134657
000060 dc 2d d7 3d 14 72 33 3d 24 87 4b 3e de ef e3 3d
       0.10506794 0.043809965 0.19875771 0.111297354
000070 74 c9 be 3d 0c ce c7 bc 03 42 9c 3d 49 0a 13 bd
       0.09315768 -0.024390243 0.07629778 -0.03589848
000080 53 a9 c6 3d 5a 89 32 be 3f a3 6f 3e 99 6f a4 3c
       0.09700265 -0.17435208 0.23402117 0.020072745
000090 f7 e3 b3 bd 14 4e 83 bd ff eb ae 3d 4c 75 07 3e
       -0.08783715 -0.064113766 0.085411064 0.13228339
0000a0 bf 89 45 be e9 62 3d 3e 9a a2 89 3c c7 c0 53 bd
       -0.19290827 0.18494762 0.016801167 -0.05169752
0000b0 6c cc 58 3d 11 db 85 3c 1c 48 21 be 49 4c 32 3e
       0.052929327 0.01633981 -0.15750164 0.17411913
0000c0 8c 3c 47 3e 1d 23 1d be 64 5b 0b be 05 ef 94 3d
       0.1945669 -0.15345426 -0.13609082 0.07272152
0000d0 b8 03 86 3c f5 b8 ad bd c7 c5 97 be 3c d0 33 3d
       0.016359195 -0.084825434 -0.2964308 0.04389976
0000e0 85 33 40 bd 89 fc e1 bc 13 a3 66 3d 75 f6 1c bd
       -0.046924133 -0.027586238 0.056307863 -0.038320977
0000f0 79 28 22 bd 6c b6 d9 bc a0 7f 8a 3d 12 80 e7 bd
       -0.03958938 -0.026576243 0.06762624 -0.11303724
000100 71 65 b1 3d 2a 1c 9e bd bf 44 1b 3e 86 57 86 3c
       0.086619265 -0.077202156 0.15162943 0.016399156
000110 d3 8e 12 3d 8f 03 32 be db 6b d5 3c 49 a7 98 3d
       0.03578074 -0.1738417 0.026052406 0.07453782
000120 f9 66 f2 bb 63 f3 0e 3e f2 94 29 3e 33 71 eb 3d
       -0.007397529 0.13960032 0.16560724 0.114962004
000130 df 48 bc bd 6b b5 7f be 73 4e 80 3d a4 52 4b 3e
       -0.091935866 -0.24971549 0.06264963 0.19855744
000140 16 93 3f bd e8 e8 91 bc 5e f8 02 3e 9f 19 ac 3d
       -0.04677113 -0.017811254 0.12790057 0.08403324
000150 35 5e 2a 3d 0f 83 9d bc d6 d0 a4 bd d4 2b 92 3c
       0.04159375 -0.019227533 -0.08047645 0.017843165
000160 fb 39 f5 3d 90 95 9c bd f7 a7 16 3e e3 6c 59 3e
       0.119739495 -0.07645714 0.14712511 0.21232943
000170 b5 26 6d 3c d9 67 4a 3d 76 ba 1d 3e 41 1e 3e be
       0.0144745605 0.049415443 0.1540316 -0.18566228
000180 c2 f5 2c be ff 29 27 3d 02 ae f0 3d 6a 58 2b 3e
       -0.16890624 0.040811535 0.11751939 0.16732946
000190 c8 65 c0 3d 94 ee a8 3d 95 8c 75 3c af 93 21 bd
       0.09394413 0.0824863 0.014987131 -0.039447483
0001a0 7e 3a 4b bd 36 5d 48 3d 65 05 e9 3d 53 76 4a bd
       -0.04961633 0.048917018 0.11377982 -0.04942925
0001b0 a6 66 28 3e fd 6e b5 3d 3e 81 14 be c6 b8 22 be
       0.16445407 0.0885906 -0.14502427 -0.15890798
0001c0 d5 27 38 be 1c 1a 5c 3e e0 b3 4a be 24 27 42 3e
       -0.17983945 0.21494335 -0.1979518 0.18960243
0001d0 44 f5 b2 3d a6 a1 94 3d 5e 95 00 be ab 2c 51 be
       0.08738187 0.072573945 -0.12556979 -0.20427196
0001e0 2b 6f 78 3e cb d2 12 be ca 74 71 3c 9d f3 45 be
       0.24261157 -0.14338224 0.014737317 -0.19331212
0001f0 b8 99 48 bd ad 75 29 be 36 c0 4b 3e cf 5b 39 3e
       -0.048974723 -0.16548796 0.19897541 0.18101428

rnn.weight_ih_l2 f4 [128, 128]
000000 19 15 50 be 12 6e 16 3e dc 7a 2e bd 94 b8 4a be
       -0.20320548 0.14690426 -0.042597637 -0.19796973
000010 28 5b 11 3e 88 b0 1c 3e 42 a7 36 3e 6d 79 8c 3e
       0.1419493 0.15301716 0.17837241 0.2743639
000020 84 98 4a 3e 72 fe a9 3d aa 8a b9 3c bb e0 08 3c
       0.19784743 0.08300485 0.022649128 0.008354361
000030 58 18 cd bd a0 23 de 3c f3 bc 1b 3c 05 88 4f 3e
       -0.10014409 0.027116597 0.009505498 0.20266731
000040 b6 bc 81 be 39 65 74 be 61 f9 a0 bd e1 ac 80 bd
       -0.25339288 -0.23866738 -0.07860065 -0.06282974
000050 1f 00 15 be 73 24 ef bd 35 1c 2c be 3f 77 97 bd
       -0.14550827 -0.11676874 -0.16807635 -0.07395791
000060 08 ab de bd 4f bd 17 be 1c 4c 41 be d0 54 56 be
       -0.10872465 -0.14818309 -0.1887669 -0.20930791
000070 45 46 15 be 9a 82 ac bb f4 06 db bd b9 c4 22 be
       -0.14577587 -0.0052645924 -0.106946856 -0.15895356
000080 c0 f0 1a be 1e cd b6 3e 5b 62 a8 be 16 d8 34 3d
       -0.15130901 0.35703367 -0.3288754 0.044151388
000090 9d 09 09 3e 6b fe 91 3d e4 81 20 3e 41 c0 38 be
       0.13382573 0.071286045 0.1567455 -0.18042089
0000a0 7f de f0 3d 1b d7 a5 bd 59 2d be bb 49 37 4f 3e
       0.11761188 -0.08097669 -0.0058037457 0.20235933
0000b0 f3 0b ee bc ce b1 38 bd ff 11 97 bd 90 86 50 be
       -0.029058432 -0.045091443 -0.07376479 -0.20363832
0000c0 ff ea 64 be e9 29 62 3d 3d fe 6d 3d 1e 2e b0 bd
       -0.22355269 0.05521575 0.05810379 -0.08602546
0000d0 85 4a b6 bd da a0 e8 3d 54 05 97 3e 06 93 bb 3d
       -0.08900932 0.11358805 0.29496253 0.09158902
0000e0 6e 3e 23 3d 89 e0 68 3c 56 02 49 bd 9c f1 bc bd
       0.03985446 0.01421369 -0.049074493 -0.09225771
0000f0 0a 6c 18 bd 2d a7 3f 3d 71 81 b2 bd b7 6a 15 3e
       -0.03721241 0.04679029 -0.08716095 0.1459149
000100 20 f0 cc bc 21 6f 9f 3d b1 86 93 be ce 77 6b 3c
       -0.025016844 0.07784868 -0.288137 0.014371825
000110 52 9f ac bd 26 28 b0 3e 64 0c 6e 3d 1e 2b 54 3d
       -0.084288254 0.3440563 0.058117285 0.051798932
000120 0a 0f d4 bc a1 1b 9b bd c3 b4 08 3d da 9b 62 bd
       -0.025886077 -0.07573629 0.033375513 -0.055324413
000130 71 a3 3e 3e aa c3 77 3e 9e 21 74 bd cd b4 8f be
       0.18617035 0.24195734 -0.059602372 -0.28067628
000140 b8 82 4a 3d d2 ab 29 3e d6 d1 0b be bf d7 63 bd
       0.04944107 0.1656945 -0.13654265 -0.055625673
000150 bf f9 13 3c 5e b1 97 3d 72 71 4a 3d 87 34 2a be
       0.009031712 0.07406877 0.049424596 -0.166216
000160 c3 39 78 bd 7c 3e 9a 3d 46 14 1f be 1d 6a 31 be
       -0.06060196 0.07531449 -0.15535077 -0.17325635
000170 e3 d3 a8 bc 4a 80 25 bd fb 35 2a be 4c f9 dd 3d
       -0.020608848 -0.04040555 -0.16622154 0.10838565
000180 91 25 49 bc 03 c6 89 3d b3 e2 e6 bd 49 d4 57 bc
       -0.012277023 0.06727221 -0.11273708 -0.013173171
000190 2d aa 0a be 26 ba 31 be 56 f8 fb bd c5 68 6f 3e
       -0.1354148 -0.17356166 -0.12303226 0.2337981
0001a0 ab 1d 9c bd a6 fe 0c 3e 74 74 1b be 01 d1 01 bc
       -0.07622846 0.13769016 -0.15181142 -0.007923366
0001b0 fc 63 7f bd 00 3e c1 bc 4a f5 79 3d 38 c3 f7 3d
       -0.062351212 -0.023589134 0.06102494 0.12097782
0001c0 f8 29 c3 3d 12 3b b8 bb c2 5c 88 3d b8 52 b9 bb
       0.09529489 -0.005622276 0.06658317 -0.005655613
0001d0 f6 19 03 be 80 dd 15 be f2 2a 90 3d 44 32 39 3e
       -0.12802872 -0.14635277 0.07039441 0.18085581
0001e0 a9 ee fe bd bb 77 10 3e 0b 68 ad 3d 57 f5 7a 3e
       -0.124478646 0.14108174 0.0846711 0.24507652
0001f0 7b fa 01 bd 06 bf 16 3e 6d 9b e8 ba 33 43 f4 bd
       -0.031733017 0.14721307 -0.0017746516 -0.1192688
000200 17 8f 8a 3d ca d1 e9 3d 85 f1 05 3d 63 76 ce 3d
       0.067655735 0.11416967 0.032701034 0.10081174
000210 9b 62 ae 3d 25 f1 af bd ee ee 1e be e3 5d 70 3d
       0.08514901 -0.085909165 -0.15520832 0.058683287
000220 94 33 14 bd 1e 36 dc bb f2 e6 da 3d 69 3d 24 3d
       -0.036182 -0.0067203185 0.106885806 0.040097628
000230 fe 76 49 bd 41 fb 39 be ae 11 cf 3d 2a 90 be 3b
       -0.049185745 -0.18162252 0.10110794 0.0058155255
000240 1e 7b f1 bd e6 0e 29 3d 54 31 fe 3c 06 45 8b bc
       -0.11791061 0.041273974 0.03102938 -0.017000686
000250 97 59 2a bd cc 8f e8 bd 46 e4 3c bd 38 37 80 3d
       -0.041589346 -0.11355552 -0.046116136 0.06260532
000260 f6 a9 94 bd 91 f8 9e 3b 16 d4 66 bd 28 73 60 3d
       -0.0725898 0.004851409 -0.056354605 0.05479732
000270 07 ef f2 3c 18 d5 32 3e 1e fd 49 3e 3f eb 8d bd
       0.029654993 0.17464101 0.19725463 -0.06929635
000280 44 b9 db 3d 6a 77 db bb 53 65 03 be 13 b9 1e bd
       0.10728696 -0.006697585 -0.12831621 -0.03875072
000290 63 7d b7 3d e2 12 84 3d 84 33 31 bd 29 c2 d3 3c
       0.089594625 0.06448914 -0.04326202 0.025849419
0002a0 35 fa 7e bd 56 72 09 be 7f 7a ce bd 3e f8 c2 3d
       -0.062250335 -0.13422522 -0.10081958 0.09520005
0002b0 ba 84 13 3e ed a6 41 3d 31 76 ba bd 8e bb fc bd
       0.144061 0.047278333 -0.091045745 -0.12340461
0002c0 90 4d 0c bc 9f c3 c3 bd 90 c7 3b bd 47 dd 6a bd
       -0.008563414 -0.09558796 -0.045844615 -0.057339933
0002d0 9a 2c 2d be 85 1a 8f bd a3 44 88 bd eb a1 d1 bc
       -0.16911545 -0.0698748 -0.066537164 -0.025589904
0002e0 49 a5 55 3c 92 94 37 3d 0f 2f 0f 3c 7b be 84 3d
       0.013039895 0.044819422 0.008739247 0.06481644
0002f0 a0 76 f6 bd 14 d2 ac bc 8c 92 47 be a3 33 4e bd
       -0.12034345 -0.021096267 -0.19489497 -0.050342213
000300 7d 2e c4 bd 29 1f e7 bc be 74 2e bd 75 d2 b7 3d
       -0.095791794 -0.0282131 -0.042591803 0.08975688
000310 7e d0 86 3d 4a 28 81 3d b0 c8 92 3c ee d9 f8 3d
       0.065827355 0.06306513 0.01791796 0.12150942
000320 d4 aa 81 3d 87 41 59 bd 54 1f 9b 3e 25 78 02 be
       0.06331411 -0.053041007 0.3029734 -0.12741144
000330 1b f8 78 bd ee f5 2a bd e2 99 0c 3d 8e 3f 1a bd
       -0.060783487 -0.041738443 0.03432644 -0.037658267
000340 97 77 25 3c 49 36 2b 3e 98 5b 1d bd 06 97 c5 bd
       0.010099313 0.16719927 -0.03841743 -0.09647946
000350 3f 88 35 3d 8a 55 1a be c1 bb ef 3c ca 54 3b be
       0.044319388 -0.15071693 0.029264333 -0.18294063
000360 64 df 40 bd 94 e0 70 3c 94 b6 8c bd e2 8d 6d bd
       -0.047088042 0.014701981 -0.068707615 -0.057996638
000370 9e c5 a1 bd c0 4f 89 3d f1 a6 c5 bd 18 b7 02 ba
       -0.078990206 0.06704664 -0.09650982 -0.00049863895
000380 9f 20 bd bd d6 3b e7 3c ae ca d4 bd 37 7a 16 3e
       -0.092347376 0.028226774 -0.103902206 0.14695059
000390 f9 36 67 3d df 78 b4 bd 41 28 83 bd e0 92 92 3d
       0.05644891 -0.08812117 -0.06404162 0.071569204
0003a0 7c f5 f8 bd 95 d8 65 3e 15 80 f1 3d 04 05 41 bd
       -0.121561974 0.224459 0.11792008 -0.047123924
0003b0 56 2b 95 3d 00 f9 09 be c8 3a aa 3d ac 94 a9 bc
       0.07283656 -0.13473892 0.08311993 -0.020700775
0003c0 9d fc 20 be 92 7d 76 3c 51 88 d0 3c eb c4 0a 3c
       -0.15721364 0.015044587 0.025455626 0.0084698
0003d0 2e 9f 19 3c fc d7 bc bc 41 47 6b bc d3 86 5a 3d
       0.00937633 -0.023052208 -0.01436025 0.053351235
0003e0 4e 88 b7 3d d5 01 f4 3c 45 25 3b 3d b4 75 ee 3c
       0.08961545 0.02978603 0.04568984 0.02910886
0003f0 09 84 51 3d 02 20 53 bd fe 01 cf bb f3 e3 11 3e
       0.05115131 -0.051544197 -0.006317376 0.14247112
