src/rnn/models/user_2_model.pth (torch, 377610 bytes, 16 tensors)

rnn.weight_ih_l0 f4 [128, 11]
0.061424885 -0.041665897 -0.088314675 -0.035526954 0.10562462 0.20097317 0.053768508 0.12396728
-0.18280843 -0.0040897485 0.12472363 0.22223417 0.2236792 0.093183205 0.10109787 0.094341554
0.08487682 0.23789993 0.2694357 0.06970514 0.22001638 0.16912884 -0.28397068 -0.10642844
-0.07656376 -0.123618945 -0.07805397 -0.13112438 -0.26944235 -0.19062382 0.03373427 -0.21636052
-0.16429569 -0.07542436 0.03785943 0.16609186 0.11202048 -0.05835727 -0.38613686 -0.0043784045
-0.1533978 0.123108186 -0.0006091577 -0.119945906 0.19234939 0.1508131 0.12902333 0.21476918
0.1867765 0.16606835 0.16693819 0.23060483 0.20091207 0.28559414 0.2555901 0.09291679
0.011788241 0.025828695 0.0042250534 -0.045835752 0.025524773 -0.008894903 0.08185638 0.024728974
0.14659911 0.012347244 -0.25323966 -0.12668274 -0.20057696 -0.26992872 -0.23872535 -0.037424497
-0.10866936 -0.27430767 -0.23000959 -0.09479948 -0.1366586 -0.13505076 0.015882222 0.05550986
0.0600163 -0.10037614 -0.035234675 -0.020198487 -0.17552358 0.107580125 -0.07836292 -0.15617849
0.015443766 0.018962186 0.015161717 0.08349578 -0.020230783 -0.0034015558 -0.041655388 -0.17070062
0.014148901 -0.032356273 -0.025739541 0.065332174 -0.081521444 -0.13668804 -0.08174865 -0.09485315
0.24296148 0.17635974 0.015371027 -0.12517375 -0.10016608 0.0723095 0.14149478 0.011911277
0.16750701 0.16913246 0.19235942 -0.106033 0.11063552 0.21341097 0.20856692 0.13040093
0.19902396 -0.12819688 0.04266764 0.1537576 0.1145767 -0.10511071 -0.39082098 -0.3908445
-0.13625842 0.26832518 -0.082457885 -0.0929399 -0.018265976 -0.13765384 -0.13728204 -0.22598971
-0.2456369 0.054109424 -0.15798701 -0.07344945 -0.23765968 -0.1706413 -0.1912086 -0.18535684
0.05924837 -0.10592195 -0.0143423835 -0.14469975 -0.10461559 -0.10618292 -0.11495193 -0.05709296
-0.08270881 -0.06133996 0.22348836 0.04173279 0.0821195 0.11243787 0.18751873 0.23343514
0.29016206 0.16543053 0.024479646 0.072629265 0.3175022 -0.009452292 0.13204086 0.21251309
0.009186626 0.039441556 -0.28672513 -0.31783742 -0.17711417 0.28538513 0.05243788 0.049798142
-0.19040643 -0.15936081 -0.20318665 -0.2734598 -0.1578722 -0.28488487 -0.36840954 -0.33478597
-0.0979549 -0.26358664 -0.15409507 0.020750433 0.057547368 -0.02940806 -0.056656685 0.010946813
0.050470266 0.10154809 0.20065747 -0.019320408 0.16437852 0.049501095 0.045827426 0.06975417
0.1625302 0.12371065 0.106115825 -0.17068657 -0.012506878 0.12737933 0.024533015 0.08401669
0.13681771 0.3511775 0.23757415 0.035892006 0.29887155 0.112093106 0.22500055 0.2736431
0.41265264 0.04223794 0.25279248 0.1712118 0.06688319 0.0229116 -0.017889041 0.11219748
0.07509498 0.1653854 0.16291742 0.114119485 0.10448404 0.10787668 0.2006567 0.0034948455
0.07964402 -0.17053387 -0.2022924 -0.09648411 0.1492795 0.06526873 -0.13556336 -0.14114177
-0.16246603 -0.07405426 0.16437383 -0.08944603 -0.09826356 0.067426205 0.14024691 0.40837812
0.46385747 0.27337286 -0.18701945 0.17225897 0.076890424 0.13949007 0.022989798 -0.115568995
00000000: a998 7b3d dca9 2abd 53de b4bd b684 11bd
00000010: b951 d83d e9cb 4d3e 5e3c 5c3d 8fe2 fd3d
00000020: 2232 3bbe 4c03 86bb 1a6f ff3d 5b91 633e
00000030: 290c 653e d6d6 be3d 660c cf3d 2536 c13d
00000040: e6d3 ad3d 0a9c 733e 7af3 893e 92c1 8e3d
00000050: f94b 613e 1c30 2d3e 9b64 91be 27f7 d9bd
00000060: 76cd 9cbd ee2b fdbd c3da 9fbd 7845 06be
00000070: 59f4 89be e432 43be f22c 0a3d 9d8d 5dbe
00000080: 213d 28be 1678 9abd 7d12 1b3d fc13 2a3e
00000090: fe6a e53d 0808 6fbd bbb3 c5be b878 8fbb
000000a0: 5014 1dbe 2520 fc3d e2af 1fba 33a6 f5bd
000000b0: 3df7 443e c06e 1a3e b11e 043e 74ec 5b3e
000000c0: 5742 3f3e d20d 2a3e d8f1 2a3e ac23 6c3e
000000d0: e5bb 4d3e 6539 923e b5dc 823e 284b be3d
000000e0: 7723 413c b396 d33c 5172 8a3b 45be 3bbd
000000f0: 5419 d13c edbb 11bc 51a4 a73d 6b94 ca3c
00000100: 141e 163e 184c 4a3c a1a8 81be 1fb9 01be
00000110: 0c64 4dbe 1934 8abe 6b74 74be 6e4a 19bd
00000120: 0b8e debd 0e72 8cbe a287 6bbe 3b26 c2bd
00000130: 3bf0 0bbe bf4a 0abe 6f1b 823c 4f5e 633d
00000140: a7d3 753d 0192 cdbd 3c52 10bd 4c77 a5bc
00000150: 74bc 33be f852 dc3d bd7c a0bd 41ed 1fbe
00000160: d907 7d3c 9656 9b3c da68 783c d6ff aa3d
00000170: 07bb a5bc a3ec 5ebb d79e 2abd 25cc 2ebe
00000180: cbd0 673c 0388 04bd bbdb d2bc e0cc 853d
00000190: b7f4 a6bd f3f7 0bbe d66b a7bd 5e42 c2bd
000001a0: e5ca 783e a697 343e c3d6 7b3c 8c2d 00be
000001b0: e023 cdbd 0117 943d 02e4 103e 8427 433c
000001c0: f586 2b3e 0f31 2d3e def9 443e d427 d9bd
000001d0: e094 e23d 6888 5a3e 9192 553e d287 053e
000001e0: f0cc 4b3e 0b46 03be 43c4 2e3d a272 1d3e
000001f0: 30a7 ea3d 4944 d7bd b019 c8be c51c c8be
00000200: 5487 0bbe eb61 893e aedf a8bd 4657 bebd
00000210: 87a2 95bc 21f5 0cbe aa93 0cbe d969 67be
00000220: 3d88 7bbe d8a1 5d3d 59c7 21be aa6c 96bd
00000230: 0f5d 73be 98bc 2ebe 30cc 43be 2fce 3dbe
00000240: 6bae 723d 9bed d8bd 51fc 6abc 2c2c 14be
00000250: b340 d6bd 6e76 d9bd eb6b ebbd 4fda 69bd
00000260: 3d63 a9bd 9c3f 7bbd 22da 643e 01f0 2a3d
00000270: 452e a83d d345 e63d e904 403e 9f09 6f3e
00000280: 1f90 943e 9f66 293e 8a89 c83c a7be 943d
00000290: a68f a23e c9dd 1abc b835 073e 089d 593e
000002a0: 8183 163c 788d 213d a3cd 92be 96bb a2be
000002b0: 6b5d 35be 001e 923e 1ac9 563d 23f9 4b3d
000002c0: e7f9 42be 7b2f 23be 2910 50be ec02 8cbe
000002d0: 40a9 21be 6edc 91be 2da0 bcbe 1169 abbe
000002e0: 949c c8bd d4f4 86be 19cb 1dbe d0fc a93c
000002f0: cab6 6b3d 2ce9 f0bc d710 68bd 435a 333c
00000300: e9b9 4e3d 72f8 cf3d 2779 4d3e d545 9ebc
00000310: d852 283e a9c1 4a3d 8ab5 3b3d 46db 8e3d
00000320: 516e 263e 025c fd3d 4153 d93d 76c8 2ebe
00000330: a6e9 4cbc ba6f 023e 76f9 c83c f110 ac3d
00000340: f119 0c3e 8acd b33e a346 733e 7f03 133d
00000350: b105 993e 1291 e53d 8b66 663e f31a 8c3e
00000360: 3547 d33e b101 2d3d 046e 813e 2552 2f3e
00000370: 0efa 883d 1cb1 bb3c 0a8c 92bc cbc7 e53d
00000380: 66cb 993d ca5a 293e d3d3 263e 7ab7 e93d
00000390: bafb d53d 73ee dc3d f378 4d3e c709 653b
000003a0: 671c a33d 6ea0 2ebe bd25 4fbe 7699 c5bd
000003b0: badc 183e 9dab 853d 1fd1 0abe 7887 10be
000003c0: 7f5d 26be c3a9 97bd 9d51 283e 7b2f b7bd
000003d0: 683e c9bd c016 8a3d e39c 0f3e f016 d13e
000003e0: ba7e ed3e 87f7 8b3e 0782 3fbe a864 303e
000003f0: ba78 9d3d 7cd6 0e3e 1a55 bc3c 70af ecbd

rnn.weight_hh_l0 f4 [128, 128]
-0.03935033 0.036462225 0.0480996 -0.031743996 0.0015919581 0.015818283 -0.06393253 0.027833492
-0.050783012 -0.042057116 0.06939799 0.077874966 0.027358688 0.06553831 0.08605673 -0.0061693117
0.0062322766 0.01841516 -0.06614764 -0.07464747 0.035064153 0.07489463 -0.050864987 -0.035408303
-0.06539631 0.02825199 0.057385407 0.053592242 -0.0049061477 -0.012033522 0.00536862 -0.047990434
0.016193375 0.067398556 -0.0048111677 -0.027638648 -0.014150649 0.025132872 -0.0066335276 0.00024981797
-0.038984053 -0.06417206 0.0075126737 -0.03886477 0.020721436 -0.06947932 -0.08185064 -0.016859636
0.024991617 0.077707894 0.059377633 0.08236394 -0.078223914 -0.088258415 -0.008195624 -0.02415701
0.053697743 0.021515667 -0.06930776 -0.034980524 0.08584649 0.015674286 -0.055209916 0.081866436
0.014465839 -0.07838381 -0.036525942 0.041170634 -0.025265515 -0.037256423 0.054633312 0.03476567
-0.038350977 -0.021022744 0.068902455 0.009677693 -0.05025683 0.06663752 -0.019421428 0.00763759
-0.08468069 0.045696713 -0.06361049 -0.027354695 -0.07915321 0.063576095 0.0024370179 -0.01397834
-0.0128005445 0.057435803 0.016710475 0.018492438 0.03324558 -0.05693092 -0.00978639 0.068704806
-0.037866488 -0.08626431 0.031546675 -0.0022974461 0.020236619 0.023686253 -0.020489782 -0.03574825
0.027322955 -0.034402553 -0.017696619 -0.014404371 -0.032139204 -0.03802041 0.05169598 -0.02442053
-0.0681193 -0.0813835 0.025064997 0.05340887 -0.019404665 0.020389505 -0.021583714 0.048270904
-0.07619706 0.007268667 0.037314586 0.013311945 0.077890165 0.030615471 0.055276684 0.006314397
0.030351013 0.04408405 0.025841005 -0.015000366 0.078434564 -0.059288476 -0.04847523 0.044669174
-0.016481407 -0.012878537 -0.08417256 -0.08497169 -0.021793544 -0.000111036 -0.0070731565 -0.0857012
0.038749628 0.016505972 0.01904305 0.041588478 0.056182526 -0.06163492 0.035596333 -0.025637172
0.022903495 0.043880053 -0.040541157 0.07621863 0.06022037 -0.03493409 0.050184034 0.01663965
-0.076023914 -0.0065495223 0.0047569275 0.034189902 -0.07194111 -0.054101054 -0.056904525 -0.05211212
-0.042857274 -0.049689997 -0.061796002 -0.006659761 -0.0075446516 -0.06274769 -0.052045647 -0.056274597
-0.06565477 0.008579299 0.058040895 0.08609053 -0.014401063 -0.072495095 0.030170888 -0.08362919
0.044416063 -0.076988466 0.060142003 0.02916734 -0.066966526 -0.019505993 -0.015463918 -0.030300055
-0.049542185 -0.033507872 -0.035009667 -0.026234768 -0.014506578 0.043854408 -0.009388223 -0.04768078
-0.08571409 0.08571724 -0.08128447 0.0803111 0.06337985 -0.014993854 0.026233055 -0.0522797
0.06563596 0.038124673 0.031182893 0.034831338 0.06422026 -0.07705301 -0.001738824 -0.054203555
-0.0068293065 -0.040267963 -0.066963725 0.050497048 0.07326221 0.0799605 0.066831164 -0.07748178
-0.009801447 0.018393852 -0.084294155 -0.003228858 -0.06761654 0.048091225 0.008189239 -0.028500773
-0.016999193 -0.08753056 0.085288115 -0.034256693 0.054588042 0.026141047 -0.06118576 -0.074139215
-0.051784176 0.0021430925 0.04164242 0.063325666 -0.07232277 -0.029760785 -0.08044102 -0.04810439
0.06745721 -0.02500213 -0.02194073 -0.060915954 0.012780316 0.05126182 0.04753963 -0.08627301
00000000: d02d 21bd 6a59 153d 1604 453d fe05 02bd
00000010: 40a9 d03a 5895 813c 0fef 82bd 1003 e43c
00000020: d901 50bd 1544 2cbd 8920 8e3d e97c 9f3d
00000030: 541f e03c f338 863d 833e b03d f027 cabb
00000040: 2038 cc3b 64db 963c 6a78 87bd c6e0 98bd
00000050: 6e9f 0f3d 5b62 993d ce57 50bd 4c08 11bd
00000060: 80ee 85bd b870 e73c f60c 6b3d 8a83 5b3d
00000070: c0c3 a0bb 4028 45bc 40eb af3b 9e91 44bd
00000080: f8a7 843c 4108 8a3d 00a7 9dbb 726a e2bc
00000090: 20d8 67bc 74e3 cd3c 105e d9bb 00fa 8239
000000a0: bead 1fbd a46c 83bd e02c f63b aa30 1fbd
000000b0: 00c0 a93c 2c4b 8ebd 4fa1 a7bd 381d 8abc
000000c0: 38bb cc3c 5125 9f3d f635 733d 6dae a83d
000000d0: dc33 a0bd d4c0 b4bd f046 06bc ece4 c5bc
000000e0: 2af2 5b3d a041 b03c 3af1 8dbd bd47 0fbd
000000f0: 49d0 af3d 5c67 803c cb23 62bd 97a9 a73d
00000100: 2002 6d3c b187 a0bd 3a9c 15bd 8aa2 283d
00000110: a0f9 cebc 319a 18bd 2ec7 5f3d 7266 0e3d
00000120: ea15 1dbd e437 acbc bb1c 8d3d 308f 1e3c
00000130: 1bda 4dbd 4179 883d b019 9fbc c044 fa3b
00000140: 126d adbd 7a2c 3b3d 3746 82bd f416 e0bc
00000150: 141b a2bd 2f34 823d 60b6 1f3b 6805 65bc
00000160: 60b9 51bc ce41 6b3d 68e4 883c 747d 973c
00000170: 842c 083d 6530 69bd 1857 20bc 1bb5 8c3d
00000180: e419 1bbd 58ab b0bd 1637 013d c090 16bb
00000190: 44c7 a53c ac09 c23c 30da a7bc c26c 12bd
000001a0: 64d4 df3c b1e9 0cbd 80f8 90bc 5000 6cbc
000001b0: 66a4 03bd 4abb 1bbd 2abf 533d 900d c8bc
000001c0: 2282 8bbd 64ac a6bd 1c55 cd3c 42c3 5a3d
000001d0: 88f6 9ebc e407 a73c 54d0 b0bc b6b7 453d
000001e0: 340d 9cbd 002e ee3b 2ed7 183d 581a 5a3c
000001f0: e184 9f3d 4ccd fa3c ce69 623d 00e9 ce3b
00000200: b0a2 f83c 7a91 343d 84b0 d33c 18c4 75bc
00000210: 4da2 a03d 79d8 72bd f68d 46bd 06f7 363d
00000220: 0404 87bc 8000 53bc aa62 acbd a305 aebd
00000230: 6088 b2bc 00dc e8b8 f0c5 e7bb 1c84 afbd
00000240: eeb7 1e3d 8837 873c 2c00 9c3c ae58 2a3d
00000250: a61f 663d e674 7cbd 76cd 113d 0c05 d2bc
00000260: 1ca0 bb3c 92bb 333d 7c0e 26bd 8318 9c3d
00000270: a2a9 763d 0c17 0fbd c68d 4d3d e04f 883c
00000280: 6db2 9bbd 609d d6bb 00e0 9b3b b60a 0c3d
00000290: dc55 93bd 1199 5dbd b814 69bd 8573 55bd
000002a0: 1c8b 2fbd bd87 4bbd ce1d 7dbd 203a dabb
000002b0: 2039 f7bb dc81 80bd d12d 55bd 3180 66bd
000002c0: 0276 86bd 3090 0c3c 4abc 6d3d 3b50 b03d
000002d0: 70f2 6bbc 4f78 94bd f028 f73c c845 abbd
000002e0: 9eed 353d 21ac 9dbd 7657 763d 58f0 ee3c
000002f0: bf25 89bd 08cb 9fbc 605c 7dbc d237 f8bc
00000300: bfec 4abd 8d3f 09bd 4c66 0fbd 4cea d6bc
00000310: 00ad 6dbc aea0 333d 10d1 19bc ec4c 43bd
00000320: de8a afbd 858c af3d 7978 a6bd 257a a43d
00000330: 4bcd 813d c8a8 75bc b4e6 d63c 3d23 56bd
00000340: 256c 863d 9e28 1c3d 4473 ff3c 4eab 0e3d
00000350: e985 833d f8cd 9dbd 40e9 e3ba 8c04 5ebd
00000360: 60c8 dfbb 05f0 24bd 4724 89bd fed5 4e3d
00000370: 7f0a 963d 55c2 a33d c7de 883d c4ae 9ebd
00000380: 4096 20bc b4ae 963c 6aa2 acbd 409b 53bb
00000390: 8a7a 8abd 4efb 443d 282c 063c 747a e9bc
000003a0: e441 8bbc 3943 b3bd 89ab ae3d bf50 0cbd
000003b0: b697 5f3d c025 d63c eb9d 7abd 4dd6 97bd
000003c0: a51b 54bd 2073 0c3b 3e91 2a3d e3b0 813d
000003d0: f61d 94bd e4cc f3bc 43be a4bd 1c09 45bd
000003e0: 0127 8a3d 44d1 ccbc 0cbd b3bc 0283 79bd
000003f0: 8864 513c eaf7 513d eab8 423d e7af b0bd

rnn.bias_ih_l0 f4 [128]
0.009936999 0.17923471 -0.1626486 -0.16265672 0.30469182 -0.025712127 -0.17737456 -0.12857929
0.06541962 -0.04902579 0.09839614 -0.11830123 -0.16471176 -0.033164557 0.23515455 -0.09115466
-0.29694507 0.039598625 -0.077035375 0.2692361 0.1405537 0.028694123 0.14098896 0.036509167
-0.09388263 -0.09146135 -0.04684311 0.10430982 -0.1666054 0.11305514 0.24052475 0.19938475
0.0007347526 -0.05242999 0.087948576 -0.09195495 -0.023996532 0.22529662 -0.05800942 0.024651706
-0.085518725 0.10836096 -0.1677529 0.077705674 0.09646068 -0.078683995 0.02176099 0.16924393
-0.0008171933 0.046186227 -0.10409524 0.24959958 0.07384042 0.17821226 0.010640179 0.009492895
0.019565169 0.24302295 0.03159159 0.19364193 -0.019026227 -0.03176987 -0.022243382 -0.04483727
0.09845789 -0.06250526 0.030762829 -0.100167595 0.08520255 0.1592759 -0.02819128 -0.010904932
-0.115056805 0.19419217 0.023419162 -0.14854358 0.056327455 -0.13787071 0.1788525 0.12626556
0.37676835 0.00619994 0.094434276 0.112567484 0.21003263 -0.029322393 0.04504411 0.36391923
-0.08000145 0.2500799 0.10609066 -0.000388349 -0.2507153 -0.0922634 -0.041807998 0.0124259535
0.13059951 0.1936445 -0.0356359 -0.13380584 0.22840388 -0.12074168 -0.009539483 0.03960365
-0.20378788 0.054087333 -0.1334607 -0.036815118 -0.08499599 -0.07163756 -0.1765537 0.16908377
0.18958513 0.06623026 -0.038192067 -0.30675143 0.07252407 -0.07471701 0.14975819 -0.046189506
0.111435354 -0.25782374 -0.25038165 -0.057852205 -0.0019108182 -0.09896256 0.05057431 -0.17383566
00000000: cbce 223c 4e89 373e 5b8d 26be 7c8f 26be
00000010: 9100 9c3e 3da2 d2bc ada1 35be 4aaa 03be
00000020: b9fa 853d 44cf 48bd ea83 c93d ea47 f2bd
00000030: 33aa 28be 8fd7 07bd 5bcc 703e 4baf babd
00000040: 2f09 98be 2b32 223d b9c4 9dbd 50d9 893e
00000050: 4fed 0f3e f00f eb3c 695f 103e a38a 153d
00000060: 8945 c0bd 1750 bbbd 90de 3fbd 63a0 d53d
00000070: 9b9a 2abe 7489 e73d 1f4c 763e 842b 4c3e
00000080: 6a9c 403a d4c0 56bd 621e b43d e052 bcbd
00000090: 6094 c4bc 28b4 663e 499b 6dbd 60f2 c93c
000000a0: 7124 afbd 5aec dd3d 6bc7 2bbe 2724 9f3d
000000b0: 2d8d c53d 1325 a1bd 1b44 b23c 484e 2d3e
000000c0: ea38 56ba c52d 3d3d e32f d5bd 0897 7f3e
000000d0: a539 973d 467d 363e 2554 2e3c 1688 1b3c
000000e0: 2247 a03c 02db 783e 2f66 013d 124a 463e
000000f0: e4dc 9bbc 2021 02bd c137 b6bc 49a7 37bd
00000100: 4aa4 c93d c202 80bd 5402 fc3c ab24 cdbd
00000110: ad7e ae3d 3919 233e 66f1 e6bc 9aaa 32bc
00000120: e7a2 ebbd 50da 463e 8bd9 bf3c cf1b 18be
00000130: 9eb7 663d fb2d 0dbe 1c25 373e c24b 013e
00000140: c8e7 c03e de28 cb3b c266 c13d c889 e63d
00000150: cb12 573e 8435 f0bc 2c80 383d 9f53 ba3e
00000160: cdd7 a3bd 790a 803e 0f46 d93d 529b cbb9
00000170: c15d 80be 98f4 bcbd dd3e 2bbd 3a96 4b3c
00000180: e1bb 053e be4a 463e f3f6 11bd 6604 09be
00000190: b5e2 693e 6a47 f7bd 7e4b 1cbc 7037 223d
000001a0: c5ad 50be ae8a 5d3d eca9 08be 73cb 16bd
000001b0: 6112 aebd b7b6 92bd 7eca 34be 4c24 2d3e
000001c0: 9b22 423e bba3 873d 496f 1cbd 860e 9dbe
000001d0: 8087 943d 3b05 99bd 365a 193e 3531 3dbd
000001e0: 3838 e43d 7901 84be 0632 80be 6ff6 6cbd
000001f0: 6b74 faba e2ac cabd 0227 4f3d fa01 32be

rnn.bias_hh_l0 f4 [128]
0.06379417 0.14130223 -0.20765592 -0.14646922 0.20911236 0.05184215 -0.14803155 -0.009967178
-0.08346366 0.091369316 0.14104088 -0.012282301 -0.19438691 -0.124407515 0.09983683 -0.00095480063
-0.30439177 0.031603478 0.011111696 0.28464526 0.21919428 0.07425157 0.0862989 0.1565545
0.014934945 0.036715493 -0.0061400863 -0.060739983 -0.09660312 0.018785123 0.29342893 0.14241035
-0.017732803 -0.18057512 0.20755762 -0.05211557 -0.046259135 0.17521009 -0.062238492 -0.006767961
-0.16053575 0.115297094 -0.0793157 0.050629564 0.03064148 0.048450813 0.029954273 0.17314306
-0.09531855 -0.007947386 -0.106213816 0.24326062 -0.032311603 0.13461544 0.050431192 -0.06778717
-0.0013884087 0.19174963 0.122947074 0.17030144 -0.0002042894 -0.12956494 -0.16379985 -0.052044284
0.1659559 -0.030903453 0.017559387 -0.21461448 0.13776588 0.20856738 -0.025333552 0.09498876
-0.1627361 0.1921668 0.015177129 -0.15537103 -0.0936849 -0.15216433 0.11524482 0.16315621
0.22309323 -0.15570931 0.11020597 0.07730443 0.13917072 -0.042648103 -0.04513902 0.33560032
-0.12549718 0.13961239 0.18016985 0.11484145 -0.12006768 0.051285204 -0.076222435 -0.024188349
-0.012326078 0.123385094 -0.015868962 -0.15147068 0.14833005 0.014293282 0.092888646 0.039013073
-0.20235512 0.19094187 -0.078428335 0.02646456 -0.20968252 -0.09199441 -0.17693657 0.13351841
0.08534485 0.17664167 -0.042688332 -0.20139843 0.14117754 -0.052215017 0.15746279 -0.10618252
0.059232622 -0.23078118 -0.2340081 -0.16242777 -0.009436188 -0.15132126 0.0053357645 -0.11778499
00000000: 85a6 823d 88b1 103e c1a3 54be 07fc 15be
00000010: 8d21 563e 6f58 543d 9595 17be 604d 23bc
00000020: ffee aabd d61f bb3d 056d 103e b43b 49bc
00000030: 5d0d 47be 5ec9 febd 4077 cc3d 964b 7aba
00000040: 3dd9 9bbe a672 013d d50d 363c 06bd 913e
00000050: 7774 603e 3511 983d 7abd b03d d34f 203e
00000060: b3b1 743c fc62 163d c732 c9bb 7dca 78bd
00000070: dbd7 c5bd 42e3 993c 513c 963e 05d4 113e
00000080: 6244 91bc afe8 38be fc89 543e 2377 55bd
00000090: 387a 3dbd 466a 333e caed 7ebd c6c5 ddbb
000000a0: 7c63 24be e220 ec3d 4570 a2bd f260 4f3d
000000b0: d703 fb3c 5c74 463d aa62 f53c 6a4c 313e
000000c0: 5f36 c3bd c135 02bc a186 d9bd 5019 793e
000000d0: 2c59 04bd a1d8 093e f090 4e3d 00d4 8abd
000000e0: 44fb b5ba 045a 443e adcb fb3d 8063 2e3e
000000f0: 8536 56b9 acac 04be 26bb 27be 632c 55bd
00000100: 58f0 293e 3d29 fdbc b4d8 8f3c e6c3 5bbe
00000110: 8012 0d3e b092 553e 4f88 cfbc 7889 c23d
00000120: 4ba4 26be 60c7 443e 7ea9 783c 9519 1fbe
00000130: dedd bfbd f7d0 1bbe 7a05 ec3d 6c12 273e
00000140: 8d72 643e 4372 1fbe abb3 e13d c951 9e3d
00000150: c582 0e3e c7af 2ebd b1e3 38bd ced3 ab3e
00000160: 5582 00be 8df6 0e3e 727e 383e fe31 eb3d
00000170: 0be6 f5bd 6f10 523d 821a 9cbd a526 c6bc
00000180: 51f3 49bc 53b1 fc3d a0ff 81bc 211b 1bbe
00000190: d5e3 173e 5f2e 6a3c 673c be3d 2ccc 1f3d
000001a0: 2e36 4fbe 4486 433e 099f a0bd 34cc d83c
000001b0: 04b7 56be 9167 bcbd dc2e 35be 0db9 083e
000001c0: 48c9 ae3d 8ee1 343e f6d9 2ebd 643b 4ebe
000001d0: d890 103e 6adf 55bd ed3d 213e 3976 d9bd
000001e0: e89d 723d e751 6cbe d29f 6fbe 7753 26be
000001f0: 3e9a 1abc f6f3 1abe a3d7 ae3b 4239 f1bd

rnn.weight_ih_l1 f4 [128, 128]
-0.21240233 0.113065235 -0.2606657 0.034811642 0.28399116 -0.14917268 -0.18900186 0.10324865
-0.05726779 -0.014229929 0.21981372 0.1018767 -0.25901827 -0.03910704 0.030076606 -0.16656338
-0.23674218 -0.17664544 0.011785081 0.407012 0.098516494 -0.25102988 -0.16558406 0.024689468
0.23820356 0.11782415 0.17116615 -0.058779776 -0.02128354 -0.017209038 0.26583207 -0.13127172
-0.16027774 -0.2570896 0.23764992 0.1608993 0.072032526 0.11155355 -0.06524298 -0.03439883
-0.12993264 -0.005612926 0.05994446 0.054821715 0.02000379 -0.106004275 -0.026888201 -0.020673184
-0.20826954 -0.05496668 0.04347401 0.38371268 0.105578214 0.031392727 -0.17139892 0.19834135
0.22557808 0.15424763 0.16766854 0.2561987 -0.16863362 -0.12108683 0.12886319 -0.123006254
0.05768578 0.04885648 -0.096549 -0.14857234 0.16781282 -0.10818315 0.10877975 0.06193293
-0.3114761 0.19081496 0.008798762 0.02773008 -0.17037235 0.024388025 -0.29517135 0.13730955
0.34332123 -0.061327983 -0.09888675 -0.07857185 0.12191829 -0.071721725 0.046548527 0.28061262
-0.18999742 0.23965316 0.25010112 -0.116577774 -0.07408573 0.18925744 -0.05887911 -0.05572117
0.17744076 0.12541851 0.07569523 0.0558672 0.20570622 0.1585034 0.20631507 0.08231872
-0.3095001 0.03540568 -0.065176934 0.2671701 -0.037956264 -0.08676304 0.15720989 -0.087847255
0.20467655 0.08894268 0.011766617 -0.19223198 0.046893045 -0.23428158 -0.12500069 -0.03593707
0.27142286 -0.10059329 -0.30528763 0.045531232 -0.2205735 -0.13249703 -0.031725686 -0.13681681
0.011044289 -0.030274076 0.22058627 0.0021807584 0.048227195 0.13578725 0.07467705 -0.15002434
-0.06946688 -0.06402506 0.0517487 -0.07318096 0.25305036 0.051316626 -0.017484242 -0.018921025
-0.21782728 0.045906913 0.018734904 0.003179042 0.014563248 -0.08082123 0.021505147 0.27447915
-0.060646676 -0.11553103 -0.050606627 0.012930339 0.1276204 0.038420632 0.3212606 0.014686444
0.071188465 0.15727644 -0.047498826 -0.053868137 0.29246208 0.10216363 0.058640752 0.16540697
-0.05384198 0.070956364 -0.12934753 0.10406413 -0.06982831 -0.011675542 0.1786472 0.027277175
0.004141208 -0.05173767 -0.04450398 -0.17185654 0.14794128 -0.14763306 0.20168002 -0.09900574
0.01379267 0.03980081 -0.06569315 0.00010349464 0.16324718 0.075915776 0.2197623 0.13622196
-0.119088046 -0.044173382 0.29650667 -3.988998e-05 -0.18317083 0.10590347 -0.06666717 0.079323016
-0.08417139 0.04422543 -0.08587908 -0.1315868 0.10269866 -0.24990937 0.17109215 0.066528276
0.110611625 -0.042137686 0.013743691 -0.0018847295 0.08926647 -0.000101653386 0.13557203 -0.041040026
0.1033575 0.095059775 -0.08178444 0.15918492 -0.020898111 -0.1186833 -0.08006842 0.25424373
-0.10949209 -0.23975278 -0.059607226 0.06787002 -0.006625526 -0.26431593 0.35385922 -0.06989264
0.1333825 0.01856405 0.05271982 -0.13626614 -0.01388479 0.011010575 -0.032707587 0.05574045
-0.21313396 0.13782422 -0.043077953 0.0073236874 0.1274366 0.07300917 0.025310053 0.031525828
-0.15359797 -0.021946568 -0.014887248 0.08201066 0.0365295 0.050899096 0.042152755 0.17328206
00000000: ff7f 59be bf8e e73d fa75 85be a796 0e3d
00000010: 4a67 913e b9c0 18be b489 41be 0774 d33d
00000020: a191 6abd a624 69bc d916 613e bba4 d03d
00000030: 0b9e 84be b42e 20bd 3763 f63c 978f 2abe
00000040: 8b6c 72be 8be2 34be 3616 413c e063 d03e
00000050: 04c3 c93d fd86 80be de8e 29be 9141 ca3c
00000060: a2eb 733e ca4d f13d 2e46 2f3e 10c3 70bd
00000070: d25a aebc f8f9 8cbc 241b 883e 186c 06be
00000080: d91f 24be 40a1 83be 805a 733e c9c2 243e
00000090: ca85 933d 3076 e43d 1d9e 85bd cae5 0cbd
000000a0: 100d 05be a3ec b7bb 5288 753d bc8c 603d
000000b0: fdde a33c c518 d9bd a544 dcbc cf5a a9bc
000000c0: 9c44 55be be24 61bd ce11 323d fd75 c43e
000000d0: 6439 d83d a995 003d 3383 2fbe ff19 4b3e
000000e0: f1fd 663e 17f3 1d3e 4db1 2b3e 7a2c 833e
000000f0: 4bae 2cbe 5ffc f7bd b6f4 033e b4ea fbbd
00000100: ed47 6c3d bb1d 483d 7bbb c5bd 5923 18be
00000110: 20d7 2b3e 218f ddbd ebc7 de3d 62ad 7d3d
00000120: cc79 9fbe ff64 433e af28 103c 312a e33c
00000130: 1776 2ebe 65c9 c73c b320 97be e09a 0c3e
00000140: cdc7 af3e 0d33 7bbd 2385 cabd 47ea a0bd
00000150: 4cb0 f93d d7e2 92bd aba9 3e3d 75ac 8f3e
00000160: af8e 42be a367 753e 410d 803e 54c0 eebd
00000170: 42ba 97bd b4cc 413e 392b 71bd e23b 64bd
00000180: 08b3 353e b66d 003e 1a06 9b3d 01d5 643d
00000190: a7a4 523e b74e 223e 4244 533e b896 a83d
000001a0: cc76 9ebe 8c05 113d 7c7b 85bd 85ca 883e
000001b0: 0778 1bbd d2b0 b1bd a1fb 203e 43e9 b3bd
000001c0: bb96 513e 9427 b63d c5c8 403c 76d8 44be
000001d0: ec12 403d 83e7 6fbe 2e00 00be c032 13bd
000001e0: f0f7 8a3e db03 cebd a94e 9cbe f57e 3a3d
000001f0: 05de 61be 4dad 07be cbf2 01bd b519 0cbe
00000200: 1bf3 343c 5701 f8bc 5ee1 613e 0eeb 0e3b
00000210: e189 453d d00b 0b3e 48f0 983d fb9f 19be
00000220: a744 8ebd 921f 83bd 72f6 533d e6df 95bd
00000230: d18f 813e 6231 523d 1d3b 8fbc 4400 9bbc
00000240: 1d0e 5fbe e308 3c3d f179 993c 7957 503b
00000250: b09a 6e3c 9a85 a5bd 902b b03c 8888 8c3e
00000260: a668 78bd 889b ecbd e548 4fbd c6d9 533c
00000270: ecae 023e f45e 1d3d 457c a43e 699f 703c
00000280: 42cb 913d 130d 213e 218e 42bd d6a4 5cbd
00000290: 97bd 953e 2a3b d13d 4931 703d 7260 293e
000002a0: 6889 5cbd 9251 913d ae73 04be 931f d53d
000002b0: 2502 8fbd c64a 3fbc 4bef 363e 6274 df3c
000002c0: f8b2 873b e1ea 53bd ce49 36bd 29fb 2fbe
000002d0: eb7d 173e 1f2d 17be 3585 4e3e 85c3 cabd
000002e0: a7fa 613c 2d06 233d 218a 86bd 430b d938
000002f0: 452a 273e bb79 9b3d 5e09 613e c57d 0b3e
00000300: 6fe4 f3bd 26ef 34bd b9cf 973e 8a4f 27b8
00000310: 2291 3bbe ebe3 d83d cc88 88bd 1b74 a23d
00000320: 0d62 acbd b925 353d 5fe1 afbd b1be 06be
00000330: ad53 d23d 3ee8 7fbe c832 2f3e fa3f 883d
00000340: 5988 e23d 9198 2cbd 382d 613c 0709 f7ba
00000350: 57d1 b63d bf2e d5b8 65d3 0a3e 9619 28bd
00000360: 19ad d33d b3ae c23d 9a7e a7bd 5f01 233e
00000370: 8432 abbc 3b10 f3bd e9fa a3bd 3c2c 823e
00000380: 643d e0bd c181 75be b526 74bd 70ff 8a3d
00000390: f11a d9bb 6b54 87be 092d b53e df23 8fbd
000003a0: 6c95 083e a213 983c bdf0 573d 5a89 0bbe
000003b0: 087d 63bc b365 343c 64f8 05bd 1950 643d
000003c0: ca3f 5abe cb21 0d3e 8272 30bd 8bfb ef3b
000003d0: bd7e 023e d585 953d 0757 cf3c 3a21 013d
000003e0: c948 1dbe 4ac9 b3bc a5e9 73bc 34f5 a73d
000003f0: f59f 153d 927b 503d 5ea8 2c3d da70 313e

rnn.weight_hh_l1 f4 [128, 128]
-0.08276817 0.05837933 -0.03063903 -0.06531036 0.037328742 -0.07946459 -0.048177473 -0.071675435
0.062010966 0.006880529 0.076591395 0.02930998 0.048623033 0.0719615 -0.0024858937 -0.05088016
-0.08036903 -0.040894635 -0.067106284 0.007817358 -0.06294286 -0.07457034 0.031314 0.045038916
-0.027001135 -0.071257636 -0.003008917 -0.004566945 0.01122912 0.0131859705 0.02538687 0.034512356
0.05891464 0.076921634 0.0050769895 -0.081307076 -0.021882929 0.06026333 0.036778323 0.04188315
-0.057549 -0.02111023 -0.08074658 -0.0034073964 0.021828994 -0.005956359 0.081457876 -0.0005764216
-0.025309615 -0.057592634 -0.03179415 0.052778848 0.010556616 0.023465142 0.036206387 0.055990525
0.059936933 0.02237951 -0.040752873 0.012934826 0.005959742 -0.082798146 -0.06863594 0.08484208
0.025719441 -0.046103057 0.071591504 0.059640385 -0.07163174 0.054788746 -0.034028932 0.032272287
-0.046147816 0.0067354217 0.04475645 0.015689187 0.06256851 -0.050145045 0.019018762 0.078884356
0.07432241 0.069856994 -0.069984645 0.038853697 -0.008964159 0.0023921207 0.04201313 -0.020847462
0.068315335 -0.019872822 0.06336736 -0.06232088 0.07483793 0.07896728 0.088259004 -0.07121076
-0.050538115 0.017131463 0.037470974 0.043542333 -0.08255218 0.052606277 0.036504336 -0.07314389
-0.022050433 0.059358634 -0.0037979484 0.08535086 -0.06693281 -0.005190149 0.04924021 -0.029209893
0.012323804 0.0831412 -0.042047687 -0.0648273 -0.043011323 0.0048336536 -0.014640287 -0.03843603
0.04978641 -0.07159181 -0.01874777 -0.0038150921 -0.06113311 -0.076893255 -0.08021637 -0.084127456
0.016096875 -0.086104736 -0.061688613 -0.06997723 0.069137566 0.07317623 0.005954802 -0.026381776
-0.08339762 0.06143924 0.050993107 0.08376866 -0.027991693 0.0028272197 -0.025792375 0.073628806
0.05141031 0.056715883 -0.026732314 0.06788894 -0.016024485 -0.004065506 0.00748609 0.0010364428
0.054522954 0.036023065 -0.04508697 0.012311451 -0.061114244 -0.010807939 -0.06897388 0.034842163
0.016481504 0.036000893 -0.05677642 -0.06521891 -0.070757926 -0.08288817 -0.007071167 -0.036397595
-0.042179722 0.046136685 -0.06534289 0.03773003 -0.017292738 -0.044983447 0.07281638 -0.08579392
-0.00016439706 0.034915015 -0.07223169 0.08420717 -0.076882996 0.04474216 0.03263481 -0.03804201
-0.06574848 -0.064983346 -0.029985163 0.029251195 -0.06297648 -0.07985602 -0.04661475 0.075513296
0.04849205 0.06607563 -0.008229226 0.0023031011 0.017614707 0.03875544 0.060625188 -0.053839806
-0.0031024292 0.06175778 -0.052130446 0.026833117 0.0873201 0.04070791 -0.00825543 0.018364653
0.064130805 -0.07210727 -0.015144572 0.063809045 0.0856319 0.04688426 -0.040961478 0.02608788
-0.02212622 0.06009493 -0.07049884 -0.025374308 0.015103228 0.013415858 0.08153606 0.059285812
0.01705119 0.056642003 -0.019700974 -0.051176306 0.025714636 -0.02741035 -0.026687626 0.019241624
-0.07356616 -0.040459078 0.07099465 0.08131153 -0.0012652576 -0.026557498 0.018100135 -0.020652764
0.008653499 -0.04841003 -0.045924257 0.0335991 0.08027863 -0.08407391 -0.048536804 0.052570812
-0.043011278 -0.039335378 -0.012976654 0.019223936 -0.073894806 0.0668186 0.06837916 0.08307328
00000000: 5c82 a9bd 2a1f 6f3d b4fe fabc 70c1 85bd
00000010: 06e6 183d 55be a2bd be55 45bd 92ca 92bd
00000020: 36ff 7d3d 1076 e13b f3db 9c3d 7c1b f03c
00000030: f228 473d 8d60 933d 60ea 22bb b767 50bd
00000040: 8598 a4bd 2281 27bd 056f 89bd 6014 003c
00000050: 30e8 80bd 56b8 98bd 1c43 003d ba7a 383d
00000060: 7c31 ddbc 86ef 91bd 4031 45bb 50a6 95bb
00000070: 58fa 373c f809 583c 20f8 cf3c d45c 0d3d
00000080: 7a50 713d 1789 9d3d e05c a63b 5384 a6bd
00000090: d443 b3bc aed6 763d dea4 163d aa8d 2b3d
000000a0: 80b8 6bbd 5cef acbc 775e a5bd a04e 5fbb
000000b0: b8d2 b23c 902d c3bb 63d3 a63d 001b 17ba
000000c0: 1c56 cfbc 41e6 6bbd 953a 02bd a22e 583d
000000d0: a8f5 2c3c f839 c03c 264d 143d 5256 653d
000000e0: 6e80 753d 3c55 b73c 7cec 26bd 98ec 533c
000000f0: f049 c33b 1392 a9bd 0091 8cbd afc1 ad3d
00000100: 94b1 d23c 8fd6 3cbd 919e 923d 7a49 743d
00000110: a9b3 92bd 2a6a 603d ec61 0bbd f22f 043d
00000120: 7e05 3dbd d0b4 dc3b 8a52 373d 9c86 803c
00000130: eb23 803d e464 4dbd 3ccd 9b3c 1f8e a13d
00000140: 5936 983d 2f11 8f3d 1c54 8fbd 0e25 1f3d
00000150: 68de 12bc 20c5 1c3b f615 2c3d 4cc8 aabc
00000160: e9e8 8b3d 54cc a2bc bfc6 813d 2e44 7fbd
00000170: a144 993d 99b9 a13d 23c1 b43d f2d6 91bd
00000180: 0e01 4fbd 4857 8c3c 2a7b 193d 7259 323d
00000190: 1e11 a9bd ae79 573d 9285 153d 77cc 95bd
000001a0: 1ca3 b4bc 0a22 733d 00e7 78bb 6fcc ae3d
000001b0: 1214 89bd 2012 aabb 1ab0 493d 9649 efbc
000001c0: c8e9 493c ef45 aa3d 323a 2cbd 2dc4 84bd
000001d0: a42c 30bd a063 9e3b d0dd 6fbc 196f 1dbd
000001e0: d6ec 4b3d ba9e 92bd ec94 99bc a006 7abb
000001f0: b666 7abd 367a 9dbd 7b48 a4bd 044b acbd
00000200: 98dd 833c ae57 b0bd 33ad 7cbd 3950 8fbd
00000210: ff97 8d3d 6bdd 953d 8020 c33b 981e d8bc
00000220: 5fcc aabd b6a7 7b3d 26de 503d e78e ab3d
00000230: d64e e5bc e048 393b 884a d3bc b3ca 963d
00000240: 9e93 523d ea4e 683d bafd dabc 5b09 8b3d
00000250: c845 83bc f037 85bb e04d f53b 40d9 873a
00000260: 7653 5f3d ec8c 133d 1dad 38bd f8b5 493c
00000270: ee52 7abd c813 31bc 2d42 8dbd a8b6 0e3d
00000280: 3804 873c ac75 133d 648e 68bd 7e91 85bd
00000290: 88e9 90bd 46c1 a9bd 40b5 e7bb a515 15bd
000002a0: a5c4 2cbd d2f9 3c3d 7ed2 85bd ce8a 1a3d
000002b0: 80a9 8dbc 9040 38bd c120 953d b9b4 afbd
000002c0: 0062 2cb9 0c03 0f3d 35ee 93bd cf74 ac3d
000002d0: d574 9dbd 8e43 373d 14ac 053d f0d1 1bbd
000002e0: 24a7 86bd fd15 85bd 72a3 f5bc 34a0 ef3c
000002f0: d0f9 80bd 8e8b a3bd 1cef 3ebd b7a6 9a3d
00000300: 9a9f 463d a952 873d e0d3 06bc a0ef 163b
00000310: b84c 903c 06be 1e3d 1e52 783d 2187 5cbd
00000320: 2052 4bbb baf5 7c3d bc86 55bd 20d1 db3c
00000330: e1d4 b23d 56bd 263d c841 07bc 7871 963c
00000340: 0357 833d faac 93bd f020 78bc 51ae 823d
00000350: c75f af3d b609 403d 39c7 27bd 40b6 d53c
00000360: 0c42 b5bc 1a26 763d b261 90bd c8dd cfbc
00000370: 8873 773c 30ce 5b3c 61fc a63d aed5 723d
00000380: f0ae 8b3c 7201 683d f063 a1bc 3f9e 51bd
00000390: 80a7 d23c ac8b e0bc 02a0 dabc 9ca0 9d3c
000003a0: dba9 96bd 6bb8 25bd a565 913d a986 a63d
000003b0: 00d7 a5ba 1c8f d9bc bc46 943c fc2f a9bc
000003c0: 68c7 0d3c 9849 46bd 131b 3cbd 369f 093d
000003d0: 1f69 a43d f12e acbd 87ce 46bd 7e54 573d
000003e0: 982c 30bd 221e 21bd 089c 54bc 847b 9d3c
000003f0: 2956 97bd 31d8 883d 5f0a 8c3d 5322 aa3d

rnn.bias_ih_l1 f4 [128]
0.24410866 -0.04081345 0.25221038 -0.32709932 -0.08602361 0.2220713 -0.029322574 -0.23969868
-0.111708544 0.03809565 -0.03589104 -0.16772103 0.18241923 0.13716006 0.08284226 -0.01137392
-0.28107467 -0.25955462 0.083114624 0.092655696 0.080807224 -0.12448781 -0.09575058 0.37639514
0.096276544 -0.14965938 -0.02870272 -0.10021778 -0.10605426 -0.047097526 -0.04595712 0.10289091
0.09735276 0.02145565 0.124577664 -0.0853439 0.006678134 0.23595287 -0.11062177 0.10230076
-0.17132692 0.05032825 0.18032375 0.11000906 0.18312375 0.022588376 -0.20458609 -0.07697493
-0.18114765 -0.20727268 0.052434932 0.17222165 -0.096396536 0.17870024 -0.07228208 0.24667652
-0.024779048 5.075683e-05 0.18130313 0.25494552 0.19842403 0.27771264 -0.14083025 0.28589836
-0.06787469 -0.0064695287 0.015078782 0.0666478 -0.21279372 -0.23240188 -0.12480621 -0.026882846
0.007092797 0.13096882 -0.16119376 -0.05427293 0.19985507 0.037287753 0.008800722 0.060705744
0.10258729 0.21742502 -0.112995304 -0.14539276 0.019001087 0.09054541 0.2602939 0.1779071
-0.09864988 -0.07315186 -0.2148791 0.1343843 0.00083231105 -0.054035038 0.006581149 -0.15066294
-0.09189136 0.21077417 -0.07686108 -0.13733225 -0.21789464 0.15325089 0.06662207 0.102677286
0.04522112 -0.022096902 -0.22028174 -0.2799087 0.07983523 -0.058993667 -0.0077198395 0.0670718
0.17891032 0.058457952 0.011174634 -0.035733074 -0.028840713 -0.21598448 0.020419609 0.121434316
-0.13036829 0.34448934 -0.008392222 0.068945944 0.12017101 -0.14012389 0.013326949 0.05656253
00000000: 9ff7 793e 012c 27bd b821 813e 9079 a7be
00000010: 252d b0bd a966 633e e535 f0bc 9273 75be
00000020: 73c7 e4bd 2f0a 1c3d 7c02 13bd 10bf 2bbe
00000030: 1bcc 3a3e b073 0c3e 34a9 a93d ae59 3abc
00000040: 05e9 8fbe 58e4 84be 0038 aa3d 45c2 bd3d
00000050: 427e a53d 77f3 febd e118 c4bd ddb6 c03e
00000060: a32c c53d 4f40 19be f721 ebbc fb3e cdbd
00000070: fa32 d9bd 56e9 40bd 883d 3cbd 78b8 d23d
00000080: e260 c73d c2c3 af3c 9322 ff3d c8c8 aebd
00000090: 40d4 da3b a19d 713e ab8d e2bd 1083 d13d
000000a0: 5370 2fbe ff24 4e3d caa6 383e 6e4c e13d
000000b0: cb84 3b3e 420b b93c 047f 51be 08a5 9dbd
000000c0: c57e 39be 4a3f 54be 03c6 563d df5a 303e
000000d0: 8c6b c5bd 32fd 363e a108 94bd c598 7c3e
000000e0: 6efd cabc bbe3 5438 87a7 393e 3888 823e
000000f0: ab2f 4b3e 5a30 8e3e ce35 10be 4561 923e
00000100: e301 8bbd 57fe d3bb ff0c 773c a47e 883d
00000110: 99e6 59be c2fa 6dbe 669a ffbd 6a39 dcbc
00000120: b26a e83b b11c 063e fa0f 25be 4b4d 5ebd
00000130: cfa6 4c3e 0bbb 183d e730 103c 96a6 783d
00000140: 4919 d23d aaa4 5e3e 156a e7bd d7e1 14be
00000150: 2ba8 9b3c df6f b93d 3e45 853e 472d 363e
00000160: f308 cabd a4d0 95bd 4409 5cbe 0a9c 093e
00000170: 732f 5a3a d853 5dbd aea6 d73b 6347 1abe
00000180: 8a31 bcbd 2fd5 573e 5869 9dbd d3a0 0cbe
00000190: c61f 5fbe cded 1c3e 2771 883d 7848 d23d
000001a0: c839 393d 9004 b5bc 8991 61be 3150 8fbe
000001b0: a780 a33d 58a3 71bd b5f6 fcbb f15c 893d
000001c0: 4434 373e 9b71 6f3d d015 373c d85c 12bd
000001d0: 5c43 ecbc 092b 5dbe 0647 a73c 8eb2 f83d
000001e0: 447f 05be e860 b03e 887f 09bc 8833 8d3d
000001f0: 381c f63d a37c 0fbe 4759 5a3c 1dae 673d

rnn.bias_hh_l1 f4 [128]
0.1622536 -0.01794813 0.16594279 -0.21364462 -0.0792818 0.2501226 -0.015028495 -0.1374448
-0.15460838 -0.055306677 0.052244123 -0.20075731 0.044875387 0.1463565 -0.013330374 -0.051094145
-0.22178882 -0.28328526 -0.055165067 0.050679263 -0.031041052 -0.08637483 -0.0029010754 0.34382907
0.11152535 -0.022214554 0.012752603 -0.08067204 -0.1262053 -0.13684642 -0.1460296 0.07922431
0.00037248465 -0.017934568 0.16121788 -0.0018585589 0.02302918 0.13409235 0.026107987 0.040058214
-0.23301089 0.10879499 0.19403428 0.106928185 0.16385144 0.067798026 -0.10535467 -0.15945135
-0.18855144 -0.266267 0.09148997 0.22177118 -0.17841807 0.16496736 -0.1373967 0.2759713
-0.049821597 -0.03279866 0.048413727 0.27131924 0.20987527 0.20813935 -0.15216984 0.30130473
-0.12937856 0.018959226 -0.07623344 0.003942744 -0.11634015 -0.20092347 -0.24453855 -0.09186672
-0.12146178 0.0680223 -0.14180154 -0.04549767 0.16250308 -0.027397342 0.016999194 0.079400286
0.14478175 0.14585572 -0.10093264 -0.12527919 0.07547646 0.041031327 0.1846955 0.1999496
-0.13003573 -0.20053576 -0.07250116 0.13131043 0.067387834 -0.06986931 0.04043753 -0.0213622
-0.11932253 0.24031469 -0.062124956 -0.1783818 -0.047448236 0.13460441 0.123286106 0.15198384
-0.06265428 -0.08328891 -0.25401646 -0.3447413 -0.051078476 0.016014682 -0.09498318 0.03266021
0.20732328 -0.07126175 0.065571904 0.039245848 -0.0049892645 -0.14502905 0.037858427 0.04670796
-0.005004787 0.2055065 -0.03138484 -0.08419344 0.114297174 -0.16911365 0.04784404 0.10019409
00000000: cf25 263e f507 93bc e8ec 293e a8c5 5abe
00000010: 7f5e a2bd 1210 803e 143a 76bc 54be 0cbe
00000020: a951 1ebe 4189 62bd effd 553d 5393 4dbe
00000030: 41cf 373d 7ade 153e a467 5abc 1848 51bd
00000040: 9c1c 63be c40a 91be c4f4 61bd 0f95 4f3d
00000050: ce49 febc 49e5 b0bd f81f 3ebb 5d0a b03e
00000060: 6767 e43d 4cfb b5bc 4bf0 503c 6237 a5bd
00000070: f63b 01be 7821 0cbe c988 15be 5b40 a23d
00000080: 0b4a c339 84eb 92bc 4d16 253e e39a f3ba
00000090: b1a7 bc3c 814f 093e 6be0 d53c 1514 243d
000000a0: 689a 6ebe e8cf de3d ecb0 463e 2afd da3d
000000b0: acc8 273e b1d9 8a3d 30c4 d7bd 3747 23be
000000c0: a113 41be 2654 88be 185f bb3d fc17 633e
000000d0: 3ab3 36be 34ed 283e b8b1 0cbe 1c4c 8d3e
000000e0: bb11 4cbd e357 06bd 794d 463d 5bea 8a3e
000000f0: 8be9 563e 7b22 553e 69d2 1bbe 9d44 9a3e
00000100: d07b 04be 6150 9b3c 4720 9cbd 2232 813b
00000110: bf43 eebd e2be 4dbe 5068 7abe 9e24 bcbd
00000120: f4c0 f8bd 474f 8b3d 6c34 11be c45b 3abd
00000130: 3567 263e 6470 e0bc e541 8b3c 9e9c a23d
00000140: ab41 143e 345b 153e c6b5 cebd 3049 00be
00000150: 6793 9a3d 7710 283d d120 3d3e 97bf 4c3e
00000160: 1628 05be 3f59 4dbe 7d7b 94bd 3e76 063e
00000170: a202 8a3d a417 8fbd d3a1 253d c8ff aebc
00000180: 5f5f f4bd 0e15 763e bd76 7ebd b8a9 36be
00000190: 1559 42bd bdd5 093e 6d7d fc3d a7a1 1b3e
000001a0: e350 80bd 6093 aabd 720e 82be ef81 b0be
000001b0: aa37 51bd 3931 833c 8b86 c2bd b6c6 053d
000001c0: 8e4c 543e aef1 91bd 904a 863d 41c0 203d
000001d0: fc7c a3bb 7f82 14be 7011 1b3d d950 3f3d
000001e0: 32ff a3bb 4c70 523e 648d 00bd 9c6d acbd
000001f0: a314 ea3d 212c 2dbe 1df8 433d 8f32 cd3d

rnn.weight_ih_l2 f4 [128, 128]
0.064752586 -0.120667435 0.12817267 -0.23602135 -0.1203171 -0.008414966 0.06184864 -0.1919438
-0.015058777 0.10541485 0.16650453 -0.22153291 -0.11498982 0.14746237 0.15493795 -0.068633445
-0.032111008 -0.034658667 0.14409761 0.15838428 -0.06581103 0.15391026 -0.026252182 0.10579772
0.20643558 -0.0843075 -0.118087225 0.030074399 -0.088469855 0.12724374 -0.11805933 -0.027230913
-0.05364681 0.05500165 0.018765792 -0.21309356 0.05269224 0.11680203 -0.014975953 -0.02300971
-0.012310357 0.06622259 0.20849085 0.089253426 0.050989434 -0.16449836 -0.25617412 -0.17263384
-0.16770768 -0.14437866 0.105864376 0.005718889 -0.077401206 0.10650021 -0.03718067 0.046088714
-0.051148105 0.15263459 0.103571095 0.18051633 0.044061504 0.09004913 -0.12280952 0.15302077
-0.045928072 0.053136963 -0.023955435 -0.17306745 -0.1401712 -0.15290992 -0.060697746 -0.12251094
-0.17554572 0.022280624 -0.27320057 -0.21828893 0.09474148 0.07535968 -0.17253457 0.109548956
-0.041243684 -0.0846353 -0.07776456 -0.07693032 0.08528823 -0.06906655 0.14357595 0.059645694
-0.12791306 -0.061421305 -0.12134104 0.019619575 -0.12732303 0.07990846 -0.15209213 -0.09489077
-0.2172204 0.19368848 -0.11098597 0.16598785 -0.048962656 0.021497108 0.17706905 0.14192672
0.021956727 -0.12490598 -0.15747471 0.0071722683 0.10866846 0.049135026 0.07236438 0.034833506
0.08378601 0.054829802 -0.105775885 -0.026439248 -0.15579133 -0.160077 0.016623061 0.059943732
0.025318278 -0.01757309 -0.054670468 0.033187512 0.022141306 -0.050360013 -0.24348398 0.21742679
-0.14806746 0.033724364 0.04010301 0.05129765 0.1488186 -0.25456446 -0.037151955 0.3213999
0.11648467 -0.027253235 -0.122363046 -0.07857073 0.026361356 -0.0112898415 0.007563372 0.07582132
-0.11498231 0.16736904 0.011138281 0.04274459 -0.104815416 0.06571851 0.10837906 -0.12164944
-0.10419121 0.020938234 -0.03267056 0.057781674 0.0891292 -0.15367088 -0.019021325 -0.015447321
-0.007966639 0.21667644 -0.11502983 -0.01280156 -0.094994605 -0.028018195 -0.08234699 0.10894637
0.056113265 -0.03846454 -0.026480967 -0.23882778 0.024999281 -0.033442765 0.17468724 0.007939236
0.18835415 0.14615345 -0.20002568 -0.102193974 0.07129448 -0.0067031602 0.20307639 -0.15863484
0.010205591 0.08978349 -0.080448024 -0.29700074 -0.20787439 -0.018312579 0.058336426 -0.08720431
0.055740256 0.21820766 0.068539895 -0.046218183 0.12647332 0.069432475 0.14223607 -0.06654889
-0.097752854 0.019797273 0.084728606 0.045590673 -0.041099958 0.15508904 -0.08818825 -0.11214764
0.03998322 -0.03853857 -0.000392081 0.20205738 0.033740107 0.09399124 -0.27869445 -0.14400446
0.075371064 0.16136315 -0.036855176 -0.10603138 0.04215237 0.11582534 0.0148056 0.13095795
0.08177689 -0.16150045 -0.009030995 -0.0011860149 0.15437862 -0.12410246 -0.12127757 -0.078909926
0.09259074 0.14774068 0.09451231 0.09948497 -0.13841084 -0.0024736233 -0.0361911 0.00026559207
-0.022301663 -0.031456836 -0.11407926 0.12821688 -0.017734474 0.23789795 -0.16784932 -0.25388655
0.016215498 -0.109008774 -0.058090854 -0.107998595 -0.13645427 0.11577968 -0.108528316 -0.0065433327
00000000: 019d 843d 7d20 f7bd b23f 033e 95af 71be
00000010: d068 f6bd edde 09bc 0055 7d3d ea8c 44be
00000020: 17b9 76bc bee3 d73d 2a80 2a3e 86d9 62be
00000030: c87f ebbd 6000 173e 0ea8 1e3e b18f 8cbd
00000040: d586 03bd 3ff6 0dbd 538e 133e 7d2f 223e
00000050: efc7 86bd a79a 1d3e d10e d7bc 7aac d83d
00000060: d963 533e 69a9 acbd b7d7 f1bd 965e f63c
00000070: af2f b5bd 2f4c 023e 17c9 f1bd 5d13 dfbc
00000080: c2bc 5bbd 6949 613d b8ba 993c 3335 5abe
00000090: d1d3 573d e735 ef3d b35d 75bc dc7e bcbc
000000a0: 61b1 49bc b69f 873d a07e 553e 80ca b63d
000000b0: 4cda 503d 4272 28be 4129 83be edc6 30be
000000c0: 90bb 2bbe 00d8 13be 6ccf d83d 8565 bb3b
000000d0: 8684 9ebd c81c da3d c24a 18bd 85c7 3c3d
000000e0: ad80 51bd 3e4c 1c3e 151d d43d 46d9 383e
000000f0: d679 343d ae6b b83d 8f83 fbbd 7ab1 1c3e
00000100: 131f 3cbd 25a6 593d 303e c4bc 9838 31be
00000110: 0a89 0fbe 6b94 1cbe 339e 78bd 04e7 fabd
00000120: 42c2 33be db85 b63c f2e0 8bbe 2287 5fbe
00000130: d207 c23d 2d56 9a3d e7ac 30be 345b e03d
00000140: 23ef 28bd 4655 adbd 0743 9fbd a58d 9dbd
00000150: 98ab ae3d c372 8dbd 9305 133e 0b4f 743d
00000160: a4fb 02be e894 7bbd a781 f8bd 3bb9 a03c
00000170: f860 02be 0ca7 a33d 0abe 1bbe 1856 c2bd
00000180: 066f 5ebe 4656 463e 9d4c e3bd b8f8 293e
00000190: 118d 48bd b41a b03c 9751 353e 3d55 113e
000001a0: 98de b33c b5ce ffbd 0d41 21be 5905 eb3b
000001b0: 928d de3d cf41 493d c733 943d 94ad 0e3d
000001c0: 0098 ab3d 3795 603d 07a1 d8bd 1f97 d8bc
000001d0: c387 1fbe 3aeb 23be 162d 883c 8f87 753d
000001e0: 4768 cf3c 71f5 8fbc 24ee 5fbd a1ef 073d
000001f0: af61 b53c 4d46 4ebd dd53 79be 21a5 5e3e
00000200: ff9e 17be 8f22 0a3d 0e43 243d 7c1d 523d
00000210: e763 183e 4656 82be a62c 18bd 878e a43e
00000220: 848f ee3d 2d42 dfbc 7a99 fabd b1e9 a0bd
00000230: c5f3 d73c 07f9 38bc 2ad6 f73b 3548 9b3d
00000240: d87b ebbd ca62 2b3e 567d 363c f414 2f3d
00000250: 77a9 d6bd 6d97 863d d7f5 dd3d 5723 f9bd
00000260: 3362 d5bd a986 ab3c 91d1 05bd 7aac 6c3d
00000270: 5f89 b63d e65b 1dbe 9cd2 9bbc c316 7dbc
00000280: 8186 02bc 6ee0 5d3e c294 ebbd a2bd 51bc
00000290: 888c c2bd 6a86 e5bc 8aa5 a8bd 461f df3d
000002a0: 06d7 653d fe8c 1dbd 9dee d8bc 458f 74be
000002b0: 4bcb cc3c 48fb 08bd 36e1 323e 9213 023c
000002c0: e9df 403e 40a9 153e 88d3 4cbe 134b d1bd
000002d0: d702 923d 2fa6 dbbb 42f3 4f3e 2c71 22be
000002e0: 5a35 273c 68e0 b73d efc1 a4bd 7b10 98be
000002f0: 06dd 54be 4304 96bc 2df2 6e3d 2c98 b2bd
00000300: e54f 643d d471 5f3e a55e 8c3d 474f 3dbd
00000310: 3982 013e 9d32 8e3d 55a6 113e c94a 88bd
00000320: a632 c8bd e42d a23c 3186 ad3d 49bd 3a3d
00000330: 6e58 28bd a9cf 1e3e 0b9c b4bd a9ad e5bd
00000340: 72c5 233d 9fda 1dbd 3990 cdb9 21e8 4e3e
00000350: 1133 0a3d 7b7e c03d 0ab1 8ebe e875 13be
00000360: 255c 9a3d 623c 253e 74f5 16bd fb26 d9bd
00000370: f7a7 2c3d d635 ed3d 3093 723c d719 063e
00000380: a47a a73d 6060 25be bdf6 13bc 0e74 9bba
00000390: 6e15 1e3e 6e29 febd 6060 f8bd 879b a1bd
000003a0: 37a0 bd3d 5549 173e ac8f c13d c7be cb3d
000003b0: 92bb 0dbe 831c 22bb 1e3d 14bd 2a3f 8b39
000003c0: fab1 b6bc e2d8 00bd 63a2 e9bd 494b 033e
000003d0: e347 91bc 859b 733e b1e0 2bbe 6bfd 81be
000003e0: 5dd6 843c fe3f dfbd adf0 6dbd 5e2e ddbd
000003f0: abba 0bbe e61d ed3d 1844 debd 7469 d6bb

rnn.weight_hh_l2 f4 [128, 128]
-0.034056064 0.055647425 -0.015872337 -0.022017427 -0.04276882 0.03072279 0.048198827 0.03761331
0.08661535 0.045745023 -0.06407516 0.017633379 -0.084501185 0.01052653 -0.0022737458 -0.030891638
0.021783605 -0.045941867 -0.020040952 -0.054699548 -0.066550866 0.040830903 -0.010872021 0.03782194
0.061202876 0.021137215 0.038518585 -0.03684723 0.054070152 0.004787922 0.07067635 0.07577779
-0.023020029 0.04063732 -0.053369794 0.06441548 0.025349423 -0.058795117 -0.062823765 -0.07817136
-0.08138566 0.016746305 0.023524001 0.018068656 0.0474455 0.0069020838 -0.06185484 -0.013715394
0.04077918 -0.0081665665 -0.03210794 0.017410733 0.03627809 0.0702746 -0.05024032 -0.08448885
-0.035175253 0.060725294 0.025126345 -0.05438094 0.021672584 0.035396166 -0.013102412 0.012153402
-0.008929335 0.030716352 0.038478397 -0.06751415 -0.070068106 0.06397026 -0.051570598 -0.056091566
-0.087268725 -0.030860145 0.04076346 -0.06412003 0.006814711 0.025202699 0.007951796 -0.038020175
0.030995294 -0.037857626 -0.0073391646 -0.04668933 0.030285515 0.047991864 0.07457908 -0.06902444
-0.06561672 0.06368249 0.04421354 -0.04316131 0.00391189 0.03639073 0.030507699 0.028842658
0.016427152 -0.01065959 0.047531955 -0.02532532 0.02916763 -0.042380836 -0.040348526 0.04708364
-0.08295838 0.019500017 -0.047540486 -0.018479593 0.010335915 0.06840295 -0.068560526 0.010494113
0.08232661 -0.086570255 -0.06698738 -0.01982823 0.054539047 -0.05863009 0.020549327 0.061032556
-0.0632171 0.059980787 0.023309886 -0.012369856 -0.020244963 0.028748758 0.054484077 0.042794354
0.08536693 -0.0043740943 -0.024927542 -0.067090966 -0.07872234 -0.08155858 -0.084956266 -0.08598899
0.042448975 -0.079621 0.06235712 -0.021934599 0.083977334 0.013070568 0.03857165 0.05237616
0.049669676 -0.08493282 0.083150946 0.0092941 0.032942638 0.07893773 0.009540163 0.06578984
-0.0068553314 0.07655949 0.038145892 -0.057881027 0.026504971 -0.012255326 -0.03417474 -0.00340385
-0.03131864 0.08240705 -0.078985535 0.083419956 -0.0030057356 0.03342163 -0.0253376 -0.06614408
-0.071285315 -0.06286271 -0.07036117 0.047031842 0.0070079044 0.029319853 -0.082854636 -0.05313415
0.008528918 0.06778496 0.041782044 0.013392054 -0.048600983 0.064690836 -0.0144606605 0.03460352
-0.07046797 -0.049882766 -0.0011046678 0.01441884 0.02463264 0.088346176 0.044746153 -0.0041474923
-0.069345556 -0.08009969 -0.040788803 0.043905072 0.08216793 0.010071918 -0.009779595 -0.039773736
0.013511077 -0.06402087 -0.0035735443 -0.08153772 -0.08438786 -0.019370228 0.07534797 0.033085518
0.0628336 0.032207146 -0.026687711 0.07677642 0.02724269 -0.013901211 0.00424771 -0.021071568
-0.009250358 -0.009186067 0.00858964 -0.081791 0.045077957 -0.03485715 0.019978136 0.0554296
-0.035658993 -0.07179816 0.078071974 -0.015552588 -0.040467832 -0.02812237 0.057123534 -0.03898971
-0.053610265 0.08583618 -0.0808621 -0.000987269 0.050846018 0.002430737 -0.062619254 0.033433527
0.06016206 -0.058347844 0.02903299 -0.06386587 -0.058588922 -0.05792197 -0.014020182 -0.080932334
-0.006210789 -0.042633254 -0.038310327 -0.019315436 0.06831492 -0.043733306 -0.051529285 -0.02108007
00000000: 5f7e 0bbd 8eee 633d b406 82bc e45d b4bc
00000010: 5c2e 2fbd 5cae fb3c 226c 453d 6a10 1a3d
00000020: 6363 b13d 225f 3b3d d639 83bd e073 903c
00000030: f50e adbd 7877 2c3c 2003 15bb 7610 fdbc
00000040: 8873 b23c 8a2d 3cbd ec2c a4bc a20c 60bd
00000050: d24b 88bd 4e3e 273d 9020 32bc 2eeb 1a3d
00000060: deaf 7a3d f427 ad3c aac5 1d3d 1fed 16bd
00000070: aa78 5d3d 00e4 9c3b c3be 903d 6331 9b3d
00000080: 8094 bcbc 5273 263d 499a 5abd 43ec 833d
00000090: 98a9 cf3c 26d3 70bd bfa9 80bd 4e18 a0bd
000000a0: 86ad a6bd 8c2f 893c 68b5 c03c b804 943c
000000b0: 3656 423d e02a e23b 805b 7dbd 88b6 60bc
000000c0: 1208 273d 10cd 05bc 9e83 03bd f4a0 8e3c
000000d0: 5698 143d 21ec 8f3d cbc8 4dbd 7d08 adbd
000000e0: ed13 10bd 16bb 783d c4d5 cd3c 8cbe 5ebd
000000f0: b48a b13c 92fb 103d 80ab 56bc 101f 473c
00000100: 584c 12bc dca0 fb3c 869b 1d3d dc44 8abd
00000110: de7f 8fbd d702 833d b13b 53bd 45c0 65bd
00000120: f2b9 b2bd 6ace fcbc 96f7 263d 5d51 83bd
00000130: f04d df3b e475 ce3c 4048 023c 0bbb 1bbd
00000140: d8e9 fd3c 9910 1bbd 607d f0bb 503d 3fbd
00000150: 5419 f83c 1e93 443d ebbc 983d b05c 8dbd
00000160: 0f62 86bd f76b 823d 4219 353d eac9 30bd
00000170: 502f 803b 720e 153d 48eb f93c 7047 ec3c
00000180: 3c92 863c 90a5 2ebc deb0 423d 0c77 cfbc
00000190: f4f0 ee3c 8797 2dbd 7f44 25bd c6da 403d
000001a0: 15e6 a9bd 80be 9f3c d0b9 42bd 8462 97bc
000001b0: f857 293c d916 8c3d 7669 8cbd 80ef 2b3c
000001c0: db9a a83d bf4b b1bd ae30 89bd d06e a2bc
000001d0: 5664 5f3d 1b26 70bd 1057 a83c 46fd 793d
000001e0: f877 81bd 6aae 753d 60f4 be3c f0aa 4abc
000001f0: c4d8 a5bc 8482 eb3c b22a 5f3d 2249 2f3d
00000200: dbd4 ae3d 9054 8fbb d834 ccbc fd66 89bd
00000210: 2e39 a1bd 2f08 a7bd 8dfd adbd ff1a b0bd
00000220: fade 2d3d 5610 a3bd 2e6a 7f3d 30b0 b3bc
00000230: 4ffc ab3d f025 563c 4efd 1d3d 6288 563d
00000240: 6e72 4b3d 42f1 adbd 0b4b aa3d 4846 183c
00000250: dcee 063d 1baa a13d 584e 1c3c d3bc 863d
00000260: b0a2 e0bb 39cb 9c3d de3e 1c3d a814 6dbd
00000270: f420 d93c 90ca 48bc d0fa 0bbd 2013 5fbb
00000280: f947 00bd 07c5 a83d 2bc3 a1bd 15d8 aa3d
00000290: e0fb 44bb 1ee5 083d cc90 cfbc 8c76 87bd
000002a0: 09fe 91bd 2abe 80bd 8419 90bd 76a4 403d
000002b0: 90a2 e53b 3030 f03c b1af a9bd 32a3 59bd
000002c0: e0bc 0b3c d7d2 8a3d a623 2b3d 586a 5b3c
000002d0: d311 47bd a17c 843d 68ec 6cbc 6cbc 0d3d
000002e0: 8351 90bd df51 4cbd 80ca 90ba 003d 6c3c
000002f0: 64ca c93c d7ee b43d be47 373d b0e7 87bb
00000300: 0b05 8ebd 4e0b a4bd 2912 27bd ced5 333d
00000310: a947 a83d b004 253c 983a 20bc c9e9 22bd
00000320: 905d 5d3c 601d 83bd 2032 6abb 40fd a6bd
00000330: 8bd3 acbd 50ae 9ebc 0950 9a3d ae84 073d
00000340: e7ae 803d a4eb 033d 30a0 dabc f53c 9d3d
00000350: 102c df3c e8c1 63bc 6030 8b3b 489e acbc
00000360: d08e 17bc 2881 16bc 90bb 0c3c 0a82 a7bd
00000370: aaa3 383d 5fc6 0ebd 30a9 a33c 260a 633d
00000380: 2a0f 12bd ea0a 93bd 33e4 9f3d 48d0 7ebc
00000390: 99c1 25bd e260 e6bc 5efa 693d adb3 1fbd
000003a0: 7096 5bbd e1ca af3d 079b a5bd 4067 81ba
000003b0: ea43 503d 004d 1f3b 863e 80bd 98f1 083d
000003c0: 7e6c 763d 26fe 6ebd 98d6 ed3c 1ccc 82bd
000003d0: f0fa 6fbd 963f 6dbd e8b4 65bc dabf a5bd
000003e0: e083 cbbb 35a0 2ebd 4aeb 1cbd 683b 9ebc
000003f0: b1e8 8b3d b221 33bd 5f10 53bd 1cb0 acbc
