src/rnn/models/user_1_model.pth (torch, 377610 bytes, 16 tensors)

rnn.weight_ih_l0 f4 [128, 11]
-0.03644978 -0.09115442 -0.048310418 -0.14306612 -0.035204403 0.067841284 0.029722271 -0.16738169
-0.059507076 -0.10115834 -0.015341123 0.10932894 0.010551319 -0.023883967 -0.010040315 0.033769853
0.30106583 0.08449408 0.08247799 -0.013440718 -0.03362577 -0.056830253 -0.19932714 -0.12009631
-0.047556557 -0.1315145 -0.09507616 -0.18498997 0.19359928 -0.28950787 -0.065140195 -0.22748856
-0.027041517 -0.18542397 -0.07851176 -0.1656917 -0.1254721 -0.123660155 0.28211388 0.31732807
-0.091772616 -0.10506154 0.006116072 -0.059319824 0.123305574 0.16664532 0.21773817 0.1831975
0.14778575 0.24407838 0.039064333 0.15956032 0.15899934 0.19754662 0.26111913 0.057966355
0.0626419 -0.014035421 0.025699329 0.05861178 -0.0042055543 0.04597787 0.0003347565 -0.0096676955
0.058339912 -0.042178366 -0.31629622 -0.29096964 -0.18291423 -0.35095468 -0.30627117 -0.1645993
0.08432663 -0.2870089 -0.23743133 -0.26378655 -0.20936723 0.32465532 0.115397 0.24386199
0.102534726 0.116641276 0.054455638 -0.21597023 0.07900379 0.0944602 0.17510183 -2.8729371e-05
0.010460096 0.017593354 0.17569663 0.014406766 0.17449076 -0.02344041 0.089091785 0.10743685
-0.014907324 0.015999679 0.21102531 -0.10254688 -0.15436007 -0.0017944229 0.032767493 0.033258893
0.032960802 0.15085141 0.037422474 -0.16706719 0.004143963 0.12877153 -0.053670898 0.025299683
-0.16420974 -0.11447221 -0.0383413 0.039755452 -0.08782295 -0.07411523 -0.0186511 -0.0028493986
-0.1156022 -0.22362296 -0.1669675 -0.14515033 -0.17937244 -0.17219938 -0.03531881 0.14640528
-0.18561134 -0.22529173 -0.17145632 -0.03968632 -0.15875459 -0.05237824 -0.15033312 -0.14750291
-0.12466785 0.20208868 0.27347466 -0.043260243 -0.18311024 -0.09354937 0.03156196 -0.014552153
0.1453736 -2.027552e-05 0.10602869 0.07372064 -0.00055562006 -0.011077774 -0.009300561 0.08632092
-0.047685515 -0.07403616 -0.17676112 -0.20862296 -0.03863618 -0.009543817 -0.0065525435 -0.14646553
0.030004693 -0.12035997 -0.05418519 -0.11314747 0.10494214 0.36341205 0.20680985 0.30443558
0.26047477 0.2630888 0.22027762 -0.118237406 0.090167165 -0.00045039982 0.34014273 0.11193984
-0.29068753 -0.20160384 -0.19579533 -0.26873705 -0.14463042 -0.10695587 0.1084412 -0.21864815
-0.26690543 -0.23576443 -0.14613193 0.15106896 0.17661278 0.041810688 0.15216213 0.08997578
0.24594754 0.036555123 0.2210565 0.03789075 0.15907219 0.029992482 0.07278684 0.0487118
-0.12380297 0.0335083 -0.056477137 -0.005497563 0.019235762 -0.17342289 0.012475742 -0.09034892
-0.17972599 -0.24330789 -0.15227358 -0.24511054 -0.17885107 -0.19927798 -0.029016433 -0.0169274
-0.17360024 -0.15798819 -0.22867106 -0.21124177 -0.029955938 -0.12323686 0.11323933 0.027596882
0.017145863 -0.23192953 -0.021594673 0.05945072 -0.010434592 -0.107456945 -0.047621462 -0.059368934
-0.038079176 -0.0918081 0.0016114643 -0.074124135 0.21457562 0.057562985 -0.16950525 -0.168394
-0.00016458404 -0.08563497 -0.24678667 -0.241443 -0.19404782 -0.25529927 -0.13222408 0.016137188
0.30250105 -0.22088 -0.1815401 -0.23680913 -0.100824505 0.24995585 0.16311708 0.26209584
00000000: 5d4c 15bd 2baf babd 25e1 45bd ed7f 12be
00000010: 7e32 10bd 5ff0 8a3d 1f7c f33c 1b66 2bbe
00000020: b1bd 73bd 1b2c cfbd 5559 7bbc dae7 df3d
00000030: 71df 2c3c 4fa8 c3bc 2280 24bc 4252 0a3d
00000040: 4d25 9a3e 3b0b ad3d 38ea a83d 7536 5cbc
00000050: 2dbb 09bd d7c6 68bd 6a1c 4cbe 0ef5 f5bd
00000060: aaca 42bd bdab 06be 4ab7 c2bd 036e 3dbe
00000070: e43e 463e 603a 94be 3968 85bd c3f2 68be
00000080: 2c86 ddbc c8df 3dbe c6ca a0bd 16ab 29be
00000090: c27b 00be 8941 fdbd 3b71 903e d378 a23e
000000a0: 48f3 bbbd 812a d7bd 5569 c83b 58f9 72bd
000000b0: a287 fc3d 12a5 2a3e c1f6 5e3e 2098 3b3e
000000c0: 2655 173e afef 793e ec01 203d c863 233e
000000d0: b9d0 223e a949 4a3e 68b1 853e 216e 6d3d
000000e0: 654a 803d d3f4 65bc 6687 d23c e812 703d
000000f0: bfce 89bb 4a53 3c3d 4282 af39 4165 1ebc
00000100: d5f5 6e3d 39c3 2cbd 94f1 a1be f9f9 94be
00000110: de4d 3bbe 55b0 b3be 93cf 9cbe b88c 28be
00000120: 71b3 ac3d d5f2 92be 3321 73be 080f 87be
00000130: 5d64 56be 3939 a63e 4355 ec3d f5b6 793e
00000140: bafd d13d 9fe1 ee3d e00c 5f3d 4d27 5dbe
00000150: bdcc a13d 5974 c13d e54d 333e dbff f0b7
00000160: d360 2b3c f01f 903c d1e9 333e 5b0a 6c3c
00000170: b5ad 323e 1a06 c0bc c175 b63d da07 dc3d
00000180: d93d 74bc c211 833c 0517 583e 1904 d2bd
00000190: 9110 1ebe d732 ebba 3537 063d 7a3a 083d
000001a0: e801 073d cb78 1a3e 4f48 193d a913 2bbe
000001b0: 15ca 873b afdc 033e 04d6 5bbd 4841 cf3c
000001c0: 9926 28be 6870 eabd c40b 1dbd 9dd6 223d
000001d0: 85dc b3bd bac9 97bd 31ca 98bc fabc 3abb
000001e0: d9c0 ecbd 6bfd 64be 87f9 2abe 4aa2 14be
000001f0: 69ad 37be 0955 30be 75aa 10bd 44eb 153e
00000200: e610 3ebe e0b2 66be 3f92 2fbe 1f8e 22bd
00000210: 9090 22be 918a 56bd edf0 19be 010b 17be
00000220: dc51 ffbd 56f0 4e3e df04 8c3e a731 31bd
00000230: 4081 3bbe d096 bfbd 1d47 013d 276c 6ebc
00000240: d1dc 143e 5915 aab7 9225 d93d d9fa 963d
00000250: 08a7 11ba 8d7f 35bc 6161 18bc 06c9 b03d
00000260: e351 43bd 45a0 97bd de00 35be 42a1 55be
00000270: f940 1ebd ab5d 1cbc b8b6 d6bb 0ffb 15be
00000280: 67cc f53c 4a7f f6bd 4af1 5dbd dcb9 e7bd
00000290: e8eb d63d 2511 ba3e f6c5 533e fbde 9b3e
000002a0: f35c 853e 93b3 863e 7590 613e 7426 f2bd
000002b0: 90a9 b83d a423 ecb9 3027 ae3e b740 e53d
000002c0: ffd4 94be 3d71 4ebe 927e 48be e797 89be
000002d0: ff19 14be ae0b dbbd 6b16 de3d 4de5 5fbe
000002e0: d4a7 88be 3b6c 71be 9ca3 15be d2b1 1a3e
000002f0: fbd9 343e af41 2b3d 64d0 1b3e 3945 b83d
00000300: acd9 7b3e d3ba 153d a35c 623e 5533 1b3d
00000310: d2e3 223e cbb2 f53c 4411 953d 0686 473d
00000320: 698c fdbd 0040 093d 9254 67bd e724 b4bb
00000330: 5194 9d3c c595 31be 0e67 4c3c db08 b9bd
00000340: 170a 38be b425 79be 9bed 1bbe 42fe 7abe
00000350: bc24 37be 870f 4cbe dfb3 edbc 55ab 8abc
00000360: 43c4 31be a8c7 21be bf28 6abe c34f 58be
00000370: 2866 f5bc 9b63 fcbd 06ea e73d db12 e23c
00000380: 7b75 8c3c ef7e 6dbe 50e7 b0bc 9982 733d
00000390: daf5 2abc 6312 dcbd b90e 43bd d72c 73bd
000003a0: e9f8 1bbd e305 bcbd c537 d33a 65ce 97bd
000003b0: b6b9 5b3e 2ac7 6b3d c992 2dbe 7a6f 2cbe
000003c0: 3194 2cb9 6361 afbd a5b5 7cbe d53c 77be
000003d0: 79b4 46be 96b6 82be c065 07be 2332 843c
000003e0: 6be1 9a3e 5e2e 62be a6e5 39be 187e 72be
000003f0: 147d cebd 6df4 7f3e 2a08 273e 6d31 863e

rnn.weight_hh_l0 f4 [128, 128]
-0.08027943 0.07692056 -0.0068725497 -0.0038023293 -0.0689839 -0.03389934 -0.046572153 -0.002534248
-0.053454626 0.030174464 0.03210199 -0.07293039 0.034069657 0.036515236 -0.07263458 -0.08058154
-0.041760243 0.06367255 -0.03885808 0.08161632 0.036905028 -0.065607876 0.042309783 0.03130374
-0.026891164 0.014814258 -0.06101578 -0.06037099 -0.032657012 -0.008155741 -0.08023648 -0.029585898
-0.039717294 0.02768834 -0.0147106275 -0.041727286 0.017484844 -0.02698277 -0.07608934 -0.043115035
0.017832585 0.07366305 0.080350704 -0.068232834 -0.017864428 0.0010670498 0.08304419 -0.05401577
-0.07696977 -0.08364004 0.017974831 0.0041231215 0.085220225 0.012953594 0.024489135 0.056661494
0.06659108 -0.051785715 0.032329828 -0.028589599 -0.083031595 -0.05470018 0.047100313 -0.021329395
0.019645542 0.04265768 -0.0032131374 0.03291636 0.006641872 -0.08128813 0.080398194 0.015595876
-0.03939842 0.01257392 0.04113508 0.05763427 -0.054271918 -0.0832274 -0.05336185 0.08780069
-0.008788243 0.030567326 -0.018028766 0.07172077 -0.0569824 -0.0069217533 -0.02372174 -0.08109001
-0.08153381 0.05070793 0.049831994 -0.08620572 -0.07769202 0.02091822 -0.045921624 0.0727996
-0.0021607429 0.08670939 0.041490205 -0.029219758 -0.06976607 0.01938977 0.07179605 0.0011098534
0.03744047 0.0029665455 -0.013676807 -0.06281231 0.034913763 0.044641696 -0.022928752 0.04872977
0.032460198 0.00019840896 -0.021151423 -0.049445584 0.08456045 -0.005053766 0.08009105 -0.0066344067
0.024320409 0.046614178 -0.07765819 0.037910335 -0.013615362 0.07070062 0.029788442 -0.07370093
-0.013893738 -0.08095406 -0.059933543 0.04940716 9.43318e-05 -0.004366845 0.08028894 -0.021045625
0.04052242 0.031430215 -0.060974583 -0.021743558 0.015296534 0.043348797 -0.07091415 -0.016626403
0.06251425 0.021452934 -0.025617346 0.028119154 -0.0617581 0.015832707 0.028666578 -0.081523865
-0.021691531 0.08815663 -0.06574395 -0.0028873682 0.074636914 0.026251175 -0.08731248 -0.05689398
-0.08396928 -0.03342679 -0.038555376 0.013231203 0.050276943 0.04847441 -0.011017323 0.008561477
0.027639799 0.04122504 0.06918567 -0.040170267 0.05367636 -0.034658037 0.009710118 -0.014666505
0.027088188 -0.06744474 0.08187703 -0.06797592 -0.008575596 -0.03864869 0.065762304 0.01838775
0.019042455 -0.0028831735 -0.03535993 -0.04901789 -0.00024275482 0.027895398 0.07670864 -0.08415584
0.08356788 0.0311573 0.08332186 -0.003182657 -0.015885621 -0.06857901 -0.07116134 -0.048829854
0.07681682 0.052537568 0.0037890524 -0.04931057 -0.06481222 -0.053675275 -0.046417695 -0.054090768
0.016780801 0.08409602 -0.0036233515 0.058606304 -0.050557368 -0.07960576 -0.006140761 0.054146774
-0.08751615 -0.047603726 -0.04990292 0.080003895 -0.007141143 -0.06794583 -0.010137789 0.060920574
-0.027426101 0.07456792 -0.065298215 0.04167486 -0.057828635 -0.057235178 0.04638814 -0.07256734
-0.047572296 0.031328417 0.0008112192 0.08118201 -0.02617355 0.079363145 -0.021701083 0.059731193
-0.015659206 0.06043101 0.06421708 0.075691156 -0.07139532 -0.009758331 0.038595088 -0.04152354
0.073463984 -0.07114507 0.00095681846 -0.046092004 0.017694965 -0.042749286 -0.037160832 -0.08323417
00000000: 8b69 a4bd 8788 9d3d 2033 e1bb 8030 79bb
00000010: 6e47 8dbd 09da 0abd 71c2 3ebd a015 26bb
00000020: 3df3 5abd 7030 f73c 607d 033d 875c 95bd
00000030: a08c 0b3d 0091 153d 70c1 94bd ef07 a5bd
00000040: ca0c 2bbd c166 823d a629 1fbd 7526 a73d
00000050: ba29 173d 6c5d 86bd 064d 2d3d 5a38 003d
00000060: dc4a dcbc 80b7 723c afeb 79bd 9247 77bd
00000070: 5cc3 05bd a89f 05bc 0653 a4bd 205e f2bc
00000080: 9aae 22bd a8d2 e23c d804 71bc 3bea 2abd
00000090: 603c 8f3c f80a ddbc bad4 9bbd 6499 30bd
000000a0: a415 923c a7dc 963d e98e a43d a8bd 8bbd
000000b0: 6c58 92bc 40dc 8b3a 1313 aa3d a43f 5dbd
000000c0: 54a2 9dbd 784b abbd f43f 933c 401b 873b
000000d0: f187 ae3d 503b 543c 709d c83c e215 683d
000000e0: e760 883d 421d 54bd 486c 043d bc34 eabc
000000f0: 780c aabd 4c0d 60bd 42ec 403d fcba aebc
00000100: b0ef a03c d2b9 2e3d 8093 52bb 4ed3 063d
00000110: 10a4 d93b 647a a6bd cfa7 a43d d885 7f3c
00000120: 3d60 21bd d802 4e3c 427d 283d ea11 6c3d
00000130: 3b4c 5ebd 2173 aabd f591 5abd d9d0 b33d
00000140: 90fc 0fbc 5468 fa3c 10b1 93bc 57e2 923d
00000150: 6166 69bd e0cf e2bb 1854 c2bc 8512 a6bd
00000160: 33fb a6bd 1eb3 4f3d a21c 4c3d a08c b0bd
00000170: fe1c 9fbd b05c ab3c 5018 3cbd f517 953d
00000180: 409b 0dbb b194 b13d a2f1 293d 465e efbc
00000190: 83e1 8ebd 4cd7 9e3c cf09 933d 8078 913a
000001a0: 2e5b 193d 606a 423b b014 60bc bea3 80bd
000001b0: bc01 0f3d 36da 363d 14d5 bbbc de98 473d
000001c0: fcf4 043d 000c 5039 c045 adbc 7487 4abd
000001d0: 072e ad3d 109a a5bb c706 a43d 7065 d9bb
000001e0: 983b c73c 82ee 3e3d 420b 9fbd de47 1b3d
000001f0: f812 5fbc 7dcb 903d e406 f43c 83f0 96bd
00000200: 90a2 63bc 3ecb a5bd e07c 75bd 2a5f 4a3d
00000210: 00d4 c538 c017 8fbb 876e a43d e067 acbc
00000220: d6fa 253d f8bc 003d 7cc0 79bd 8c1f b2bc
00000230: 509e 7a3c 828e 313d 703b 91bd 1834 88bc
00000240: 7907 803d 10be af3c 78db d1bc 245a e63c
00000250: 10f6 7cbd 98b3 813c 2cd6 ea3c fcf5 a6bd
00000260: 70b2 b1bc 778b b43d c4a4 86bd 003a 3dbb
00000270: 3ddb 983d b40c d73c e3d0 b2bd a909 69bd
00000280: 16f8 abbd 88ea 08bd 3eec 1dbd b0c7 583c
00000290: 32ef 4d3d 1a8d 463d 0082 34bc 7045 0c3c
000002a0: dc6c e23c 96db 283d 37b1 8d3d 9489 24bd
000002b0: bedb 5b3d 96f5 0dbd 3017 1f3c c84b 70bc
000002c0: 0ce8 dd3c 7820 8abd 25af a73d f636 8bbd
000002d0: a880 0cbc 174e 1ebd 63ae 863d e8a1 963c
000002e0: ecfe 9b3c a0f3 3cbb 93d5 10bd fcc6 48bd
000002f0: 008c 7eb9 e484 e43c 6b19 9d3d e659 acbd
00000300: a325 ab3d 983d ff3c a7a4 aa3d 2094 50bb
00000310: 9022 82bc 2773 8cbd 09bd 91bd d001 48bd
00000320: 2352 9d3d a231 573d c051 783b e1f9 49bd
00000330: 45bc 84bd 9bda 5bbd 7b20 3ebd 488e 5dbd
00000340: e477 893c 893a ac3d c075 6dbb 2a0d 703d
00000350: 3e15 4fbd 5808 a3bd 7038 c9bb 02c9 5d3d
00000360: ab3b b3bd 20fc 42bd 0167 4cbd 15d9 a33d
00000370: 4000 eabb 2f27 8bbd f818 26bc da87 793d
00000380: b4ac e0bc 11b7 983d 12bb 85bd 42b3 2a3d
00000390: b8dd 6cbd 6f6f 6abd 7e01 3e3d 309e 94bd
000003a0: 2bdb 42bd 3a52 003d 00a8 543a c142 a63d
000003b0: ea69 d6bc 2589 a23d 78c6 b1bc b2a8 743d
000003c0: bc47 80bc 8286 773d 3f84 833d f703 9b3d
000003d0: b637 92bd 68e1 1fbc e215 1e3d 9614 2abd
000003e0: 4974 963d 82b4 91bd 00d3 7a3a f8ca 3cbd
000003f0: 08f5 903c e019 2fbd f535 18bd ad76 aabd

rnn.bias_ih_l0 f4 [128]
-0.17397183 0.09749862 -0.22366403 -0.07730913 0.28767002 -0.00059148145 -0.23333767 0.20722613
0.04346401 0.024789881 -0.038747076 -0.23626156 -0.083206065 0.028279876 -0.065429635 0.2006065
-0.14112015 0.20003097 -0.100913934 -0.20784104 -0.053477764 -0.0697628 -0.19717856 0.27204415
0.18527748 -0.12916867 -0.05680053 -0.26260406 0.11385792 0.15464821 0.030962767 0.13919388
-0.26472586 -0.36530307 -0.018807828 -0.20994955 -0.07590114 -0.018860018 0.14523263 -0.034276746
-0.2324323 0.020058043 0.09141272 -0.17277753 0.03824136 0.051522873 -0.24602191 -0.24658018
0.26563713 -0.10895988 -0.059238408 -0.15031375 0.14906251 -0.07362112 -0.065055974 -0.08555111
0.17528327 -0.10295316 -0.04596388 0.25440106 -0.3076629 -0.17549305 0.20572269 0.17153333
0.124616325 -0.03320454 -0.13142268 0.08860941 -0.00024166337 -0.23642485 -0.19364694 0.06638116
0.0632225 -0.23521502 0.19567864 -0.099015184 0.15241985 0.062516235 -0.24576539 0.26427478
-0.051844414 -0.24166279 -0.22781613 -0.08748732 -0.1203964 -0.24039936 0.16847807 0.29669595
-0.27064535 -0.035636004 0.07969545 -0.28116548 -0.105299994 -0.1761362 0.16209278 0.042890377
-0.03204591 0.19940305 0.23224144 0.05021692 0.30450508 0.23226881 0.07907619 0.12718287
-0.0009346842 0.030067714 -0.011428095 -0.0045619938 0.060484882 0.0038295472 -0.14203113 0.04737797
-0.082751505 -0.15023205 0.10468327 -0.09936512 -0.07053822 0.1983042 -0.006431139 0.15271841
0.05729345 -0.07505145 0.031974632 -0.16399772 0.22571225 -0.15357237 -0.14072043 -0.2612472
00000000: ac25 32be 5bad c73d 2f08 65be 4054 9ebd
00000010: 7c49 933e a60d 1bba 12f0 6ebe 1633 543e
00000020: 5107 323d 2614 cb3c 41b5 1ebd 8dee 71be
00000030: f167 aabd 33ab e73c f9ff 85bd ca6b 4d3e
00000040: cd81 10be ebd4 4c3e f7ab cebd 48d4 54be
00000050: 800b 5bbd cddf 8ebd 2de9 49be 5f49 8b3e
00000060: 61b9 3d3e cb44 04be aca7 68bd 0a74 86be
00000070: 572e e93d 1a5c 1e3e a1a5 fd3c d788 0e3e
00000080: 268a 87be 0109 bbbe e012 9abc 04fd 56be
00000090: 0f72 9bbd 5380 9abc ddb7 143e c665 0cbd
000000a0: bc02 6ebe c450 a43c 9836 bb3d 98ec 30be
000000b0: f9a2 1c3d a609 533d 2bed 7bbe 847f 7cbe
000000c0: 9701 883e 5c26 dfbd f9a3 72bd d9eb 19be
000000d0: d8a3 183e abc6 96bd 113c 85bd 6c35 afbd
000000e0: 757d 333e 1bd9 d2bd 9f44 3cbd db40 823e
000000f0: fe85 9dbe 73b4 33be f8a8 523e 6fa6 2f3e
00000100: d836 ff3d 7c01 08bd ab93 06be da78 b53d
00000110: 0467 7db9 5b19 72be 624b 46be d8f2 873d
00000120: cc7a 813d 35dc 70be fb5f 483e 79c8 cabd
00000130: f313 1c3e 8308 803d eca9 7bbe 064f 873e
00000140: cf5a 54bd 7376 77be a248 69be 8d2c b3bd
00000150: 6392 f6bd 402b 76be 8485 2c3e 88e8 973e
00000160: 0792 8abe 0ff7 11bd 5e37 a33d ecf4 8fbe
00000170: 86a7 d7bd 0c5d 34be a6fb 253e d2ad 2f3d
00000180: 9242 03bd 5030 4c3e b3d0 6d3e 42b0 4d3d
00000190: 17e8 9b3e e0d7 6d3e b3f2 a13d 3a3c 023e
000001a0: 9805 75ba 9150 f63c e83c 3bbc c77c 95bb
000001b0: ffbe 773d 24f9 7a3b 9c70 11be 670f 423d
000001c0: 9f79 a9bd 6ed6 19be 2f64 d63d f17f cbbd
000001d0: 5876 90bd 4210 4b3e 4ebc d2bb 3762 1c3e
000001e0: 89ac 6a3d 93b4 99bd d5f7 023d 05ef 27be
000001f0: 1d21 673e 1342 1dbe 0419 10be 31c2 85be

rnn.bias_hh_l0 f4 [128]
-0.056570422 0.080323435 -0.24532674 -0.060927197 0.19534548 0.04954812 -0.26270235 0.16206953
0.097346865 -0.05171286 0.017841615 -0.18460716 -0.08132082 -0.042967558 -0.210503 0.25456735
-0.17938787 0.29528552 -0.08381576 -0.15779588 -0.0022146194 -0.027349167 -0.06078508 0.26088846
0.21395124 -0.20932518 0.011163326 -0.26563677 0.17239818 0.06562196 0.022669038 0.19822916
-0.19438836 -0.2735463 -0.024326378 -0.24067062 -0.12587473 -0.02456242 0.056915805 -0.10648537
-0.11166177 0.033520307 -0.06728449 -0.013147799 -0.08144968 0.024042672 -0.11634554 -0.116474114
0.21226098 -0.22170243 -0.054176386 -0.15813391 0.15158395 -0.11737167 -0.017466197 -0.05770901
0.02560144 -0.0011623445 0.028693479 0.27159944 -0.1456782 -0.17708378 0.23899183 0.09177418
0.1410286 -0.046513233 -0.09457401 0.1595668 -0.09136949 -0.18744195 -0.17884038 0.1252504
0.060349718 -0.1256794 0.22275728 -0.09715349 0.1551239 -0.069960095 -0.13835971 0.19553502
-0.11243734 -0.14263642 -0.2111903 -0.17490843 -0.14772855 -0.10873896 0.045162316 0.26366872
-0.27091256 0.0698965 0.027927745 -0.1313793 -0.025792522 -0.15364364 0.16460918 0.0708931
-0.0524738 0.15559268 0.34138834 0.097567 0.16141918 0.3515717 0.13116446 0.06857274
-0.0033910775 0.12236517 0.03491345 0.1032886 -0.048221577 0.006655883 -0.044678334 0.03873722
-0.062253926 -0.135409 0.11234465 -0.066538796 -0.0697646 0.13575341 0.055335306 0.10927959
0.0475317 -0.2004319 -0.023672013 -0.06953748 0.22529757 -0.1132943 -0.09029819 -0.22826597
00000000: 63b6 67bd 9d80 a43d ef36 7bbe cc8e 79bd
00000010: a508 483e f8f2 4a3d ec80 86be 8ef5 253e
00000020: cb5d c73d ddd0 53bd 9428 923c a909 3dbe
00000030: 888b a6bd c0fe 2fbd 198e 57be a756 823e
00000040: 74b1 37be aa2f 973e 99a7 abbd 3e95 21be
00000050: 2623 11bb 5c0b e0bc c7f9 78bd 2c93 853e
00000060: 0916 5b3e 5759 56be 62e6 363c 8b01 88be
00000070: 2689 303e ce64 863d 6bb4 b93c 96fc 4a3e
00000080: be0d 47be 430e 8cbe 1d48 c7bc 5c72 76be
00000090: 4ee5 00be 2137 c9bc 8c20 693d 0015 dabd
000000a0: edae e4bd 974c 093d 73cc 89bd de69 57bc
000000b0: 17cf a6bd 23f5 c43c 9246 eebd fb89 eebd
000000c0: f15a 593e f605 63be 0fe8 5dbd dbed 21be
000000d0: d338 1b3e 8f60 f0bd 4515 8fbc 4860 6cbd
000000e0: 1cba d13c cf59 98ba 960e eb3c 150f 8b3e
000000f0: ab2c 15be 7355 35be 46ba 743e 1af4 bb3d
00000100: cd69 103e a984 3ebd 05b0 c1bd 7b65 233e
00000110: ed1f bbbd c8f0 3fbe ef21 37be a441 003e
00000120: 4431 773d 1ab2 00be 7c1a 643e 69f8 c6bd
00000130: cdd8 1e3e 3d47 8fbd 2bae 0dbe 553a 483e
00000140: 8c45 e6bd 480f 12be 4542 58be 321b 33be
00000150: 2746 17be 88b2 debd 1ffc 383d 96ff 863e
00000160: 0db5 8abe e525 8f3d bac8 e43c 4c88 06be
00000170: d74a d3bc c254 1dbe 4f8f 283e 6730 913d
00000180: c4ee 56bd b053 1f3e 74ca ae3e 35d1 c73d
00000190: 124b 253e 3501 b43e fa4f 063e dd6f 8c3d
000001a0: d73c 5ebb 979a fa3d 6801 0f3d f988 d33d
000001b0: fd83 45bd 9819 da3b a100 37bd ebaa 1e3d
000001c0: f9fd 7ebd a8a8 0abe f414 e63d 7e45 88bd
000001d0: bee0 8ebd f102 0b3e 46a7 623d facd df3d
000001e0: 9ab0 423d 053e 4dbe cfeb c1bc ab69 8ebd
000001f0: 68b4 663e d806 e8bd 42ee b8bd 8ebe 69be

rnn.weight_ih_l1 f4 [128, 128]
-0.012073593 0.0029611709 0.105841555 0.07849648 0.015561974 0.061124016 0.03524371 -0.073033996
-0.04615325 0.023506738 -0.14359343 -0.1139147 0.09168349 -0.011424333 0.14908156 -0.109439045
-0.020552613 -0.08616915 -0.057503175 0.111496516 -0.031829804 0.07269656 0.10991749 -0.08496686
-0.19201343 0.082335174 0.15864174 -0.041953553 0.047559347 0.05154406 0.052449804 0.06011645
0.13694002 0.09987423 0.09593052 -0.07641839 -0.017584354 -0.05363951 0.070518516 0.043031685
0.11371958 0.053659294 0.023260718 0.058158807 0.02020176 0.101936996 0.1437654 0.06165607
-0.10949092 0.077439 -0.12403307 -0.052666843 -0.027585203 -0.05091051 0.11606472 0.013116374
-0.030966122 0.09458513 0.052838888 -0.11251804 0.10100903 0.044629008 0.024857583 0.061263442
-0.005447022 -0.02593692 0.109326325 -0.15843587 0.09319126 -0.026571037 0.09042257 0.09608082
-0.018251522 0.050861306 -0.137448 -0.0145967435 -0.16831824 0.036694765 0.10758403 -0.09662716
0.062538445 -0.14046508 0.14215119 0.08283469 0.12785783 0.10113197 -0.13409169 -0.013275149
-0.014262771 -0.0226374 -0.042712554 -0.049090587 -0.019141577 0.0076782065 -0.03500267 -0.016318982
-0.102022916 0.018574657 -0.008847199 -0.004076201 -0.02689248 -0.19156535 -0.14902142 0.02197939
0.044723146 -0.14129476 0.03770315 0.04633577 -0.043143842 0.061597053 -0.016414694 -0.08866577
0.07579072 -0.0036212956 -0.07208727 0.023378529 -0.04195067 0.004016442 0.006740664 -0.14114304
0.07877826 0.0010698806 0.036739085 -0.046512794 0.0033056708 0.0131344 -0.03077433 0.059893087
-0.085578434 -0.19499621 0.02684415 0.05098629 -0.017927827 -0.027192574 -0.036694713 -0.020353386
-0.025388254 0.10119743 0.041247424 0.043686517 0.028889269 -0.17501968 0.06254011 -0.046315156
-0.1809147 -0.093801744 0.07812385 -0.10569148 0.14203377 -0.06391316 -0.13844498 0.062605485
0.05515649 -0.18106844 -0.006771382 0.0794509 -0.04381946 -0.08734562 0.020407496 -0.046996504
-0.11267733 0.16427553 -0.109551646 0.07359956 -0.11016303 0.09389196 -0.07384571 -0.058069203
0.06637636 -0.09530881 -0.09230813 -0.16950618 -0.04678992 0.056496702 -0.20527872 -0.02963363
-0.07402106 0.02857877 0.19425604 0.08091469 -0.13199396 -0.11518583 -0.07199347 -0.10388725
-0.09375529 0.05537961 0.16972941 0.09662155 0.04054066 -0.023317916 -0.027568588 0.05938408
0.053242877 -0.058046244 -0.009228462 -0.083025314 0.1377843 0.03691159 -0.09576641 -0.001173322
0.13216048 -0.018066673 0.050811548 -0.12689556 0.061628055 0.04496946 -0.0356698 -0.124416895
0.04838823 0.09099872 -0.019519653 0.011301213 -0.081731126 -0.10335677 -0.19939786 0.05740181
0.019321622 -0.104235694 -0.06496435 -0.011491954 0.03831122 0.03764669 0.082513124 0.0850732
-0.016210197 -0.076287806 -0.14425316 -0.10791756 0.097311564 -0.0027954676 0.03771282 0.081984855
-0.04271461 -0.0025746997 0.05595037 0.026855214 0.10212157 -0.027479338 0.06334759 -0.229022
0.027503058 0.09379241 0.011011735 -0.09286668 0.13602525 -0.016965821 0.13919494 0.057636797
0.054309156 -0.05142908 0.055069093 -0.09201613 -0.020984706 0.07201837 -0.025677374 0.1374783
00000000: 52d0 45bc 3410 423b 75c3 d83d c3c2 a03d
00000010: a6f7 7e3c 2d5d 7a3d b55b 103d d992 95bd
00000020: 310b 3dbd 3491 c03c 280a 13be 1c4c e9bd
00000030: 8ec4 bb3d 202d 3bbc d6a8 183e 9421 e0bd
00000040: f45d a8bc 7479 b0bd 7388 6bbd 4958 e43d
00000050: f85f 02bd efe1 943d 6c1c e13d 1b03 aebd
00000060: 2b9f 44be 589f a83d fb72 223e 7dd7 2bbd
00000070: 97cd 423d dd1f 533d 9bd5 563d ab3c 763d
00000080: 013a 0c3e dc8a cc3d 3877 c43d 3f81 9cbd
00000090: 100d 90bc 1ab5 5bbd 036c 903d fe41 303d
000000a0: d0e5 e83d d9c9 5b3d 438d be3c ee37 6e3d
000000b0: 297e a53c 58c4 d03d 3d37 133e 138b 7c3d
000000c0: c73c e0bd 5798 9e3d 0d05 febd 30b9 57bd
000000d0: 5dfa e1bc 8a87 50bd 57b3 ed3d 0fe6 563c
000000e0: aaac fdbc d9b5 c13d 976d 583d dc6f e6bd
000000f0: d3dd ce3d e8cc 363d 21a2 cb3c 60ef 7a3d
00000100: ef7c b2bb aa79 d4bc 7be6 df3d 033d 22be
00000110: 0fdb be3d 81ab d9bc 782f b93d 05c6 c43d
00000120: 3784 95bc f253 503d 2bbf 0cbe 2e27 6fbc
00000130: 9e5b 2cbe 404d 163d 0455 dc3d 76e4 c5bd
00000140: 2814 803d 14d6 0fbe 1590 113e 3ca5 a93d
00000150: 2aed 023e 471e cf3d 554f 09be 0380 59bc
00000160: 66ae 69bc 1272 b9bc 5cf3 2ebd 3613 49bd
00000170: ccce 9cbc 7799 fb3b f65e 0fbd 63af 85bc
00000180: 64f1 d0bd e129 983c d8f3 10bc a791 85bb
00000190: 9e4d dcbc b529 44be 1299 18be 1f0e b43c
000001a0: 9e2f 373d 93af 10be 9e6e 1a3d 94ca 3d3d
000001b0: 99b7 30bd 314d 7c3d 1c78 86bc 6696 b5bd
000001c0: 2a38 9b3d 4253 6dbb 7ea2 93bd 5484 bf3c
000001d0: 77d4 2bbd 5c9c 833b cae0 dc3b cd87 10be
000001e0: 7f56 a13d 3c3b 8c3a b97b 163d 3384 3ebd
000001f0: f4a3 583b ab31 573c 731a fcbc 7452 753d
00000200: bf43 afbd 16ad 47be 43e8 db3c 00d7 503d
00000210: 61dd 92bc f6c2 debc 324d 16bd 25bc a6bc
00000220: 07fb cfbc 9940 cf3d 0ff3 283d a2f0 323d
00000230: 30a9 ec3c 5c38 33be 0715 803d f6b4 3dbd
00000240: b441 39be 211b c0bd 66ff 9f3d c674 d8bd
00000250: 4d71 113e e7e4 82bd 85c4 0dbe 4e37 803d
00000260: c6eb 613d 016a 39be 78e2 ddbb 27b7 a23d
00000270: 097c 33bd 43e2 b2bd 9f2d a73c 687f 40bd
00000280: 5fc3 e6bd d837 283e 9d5c e0bd 5ebb 963d
00000290: 289d e1bd 6e4a c03d 6b3c 97bd f9d9 6dbd
000002a0: 54f0 873d 4431 c3bd 0b0c bdbd 0793 2dbe
000002b0: caa6 3fbd 1669 673d 9634 52be 3ac2 f2bc
000002c0: 5a98 97bd 061e ea3c 0eeb 463e 9ab6 a53d
000002d0: 6d29 07be 8ce6 ebbd 5071 93bd d7c2 d4bd
000002e0: c602 c0bd bbd5 623d 8ccd 2d3e 85e1 c53d
000002f0: f70d 263d 3705 bfbc 85d7 e1bc b93c 733d
00000300: 3415 5a3d e6c1 6dbd fa32 17bc 2d09 aabd
00000310: 5417 0d3e 9b30 173d 2e21 c4bd 27ca 99ba
00000320: 1455 073e 8f00 94bc c51f 503d e9f0 01be
00000330: b36d 7c3d e631 383d 7f1a 12bd 49ce febd
00000340: bd32 463d 895d ba3d aee7 9fbc b928 393c
00000350: a662 a7bd b7ac d3bd f42e 4cbe 291e 6b3d
00000360: 6148 9e3c 8679 d5bd 070c 85bd c048 3cbc
00000370: 3aec 1c3d 6a33 1a3d a4fc a83d dc3a ae3d
00000380: 3fcb 84bc c83c 9cbd 1ab7 13be e203 ddbd
00000390: 494b c73d 2a34 37bb c278 1a3d ade7 a73d
000003a0: 84f5 2ebd 4bbc 28bb 372c 653d 77ff db3c
000003b0: 1d25 d13d 591c e1bc 62bc 813d be84 6abe
000003c0: 184e e13c 3c16 c03d 906a 343c e330 bebd
000003d0: 344a 0b3e e8fb 8abc 1e89 0e3e 9014 6c3d
000003e0: 4773 5e3d 4da7 52bd 2190 613d f472 bcbd
000003f0: 1ee8 abbc 5e7e 933d 5b59 d2bc 1dc7 0c3e

rnn.weight_hh_l1 f4 [128, 128]
0.010922536 0.019882008 0.011983603 -0.012755334 0.048458345 0.044684567 -0.07846032 -0.08248648
0.08615289 -0.004185468 -0.07061139 -0.024982914 0.0077352524 0.016268075 0.0075517893 0.0768727
-0.07112364 0.0038965791 -0.08619763 -0.05838768 -0.038826276 0.063473694 -0.07106014 0.028215028
0.019337788 -0.018253736 0.065727554 -0.016698644 -0.06865054 -0.015162125 0.08049201 0.06500355
-0.080743805 0.043484323 -0.07829842 -0.03561175 -0.022078477 0.07546402 -0.08579752 -0.0159019
0.077902414 -0.067973405 0.010792933 -0.026598677 -0.04147765 0.026457101 0.047362037 0.08406711
-0.05111788 0.050461255 0.048331134 -0.08590704 -0.059341446 0.06182132 -0.029175788 0.02073972
-0.07933967 0.025811322 -0.05204805 0.019555628 0.0024961755 0.011888467 -0.061114162 0.081091605
0.0043864846 0.029882386 -0.080469534 -0.06293654 0.0069770813 0.08248291 -0.06665093 -0.0059905127
0.04235647 -0.03646659 -0.02115272 0.010358252 -0.03755596 -0.044070102 0.062409364 0.06260645
-0.016964369 0.014552623 0.013007581 0.053099148 0.038512878 -0.02721152 -0.045037825 -0.011116751
-0.012628987 0.06082598 -0.03997773 -0.055385962 0.04299859 0.07957115 0.068021156 -0.02303768
0.03892369 -0.017504394 0.03807243 -0.022777788 -0.008623242 0.03840054 -0.08021889 -0.038495455
-0.06558232 0.030753799 -0.0804742 0.021924607 -0.041202884 -0.028440587 0.042885803 0.0631075
0.050756715 0.06705623 0.05556742 0.019642591 -0.08747431 0.06307348 0.025924169 0.039945386
0.010442048 0.022774622 0.02098909 -0.026261237 -0.07792728 0.0031569973 0.01808691 -0.065647446
-0.06335512 -0.07219009 0.05764339 0.02278018 0.0142605975 -0.018080302 -0.059158105 0.032258965
-0.0025255159 -0.01716303 -0.07259235 -0.06757143 -0.028612126 -0.033278264 -0.07791598 -0.012825847
-0.08170811 -0.084999606 0.067302324 0.07538686 0.043833308 0.07709404 -0.059082672 0.012481354
-0.055468433 0.025710449 -0.043219958 0.05247692 -0.03307691 0.056987442 0.07174716 -0.07454394
0.012085721 -0.05028278 0.029478073 0.044740297 -0.023911797 0.030733101 -0.027899254 -0.07534379
-0.06710434 -0.06308293 0.019941583 -0.079470254 0.067807384 -0.024469845 0.06960795 0.0826075
-0.047040634 0.088117324 0.006995842 -0.026543241 -0.08697813 -0.073771395 -0.028073203 -0.0418351
0.062354855 -0.06787158 0.051446028 -0.052463952 -0.03972376 0.003185615 -0.048398204 -0.012793928
0.03868503 -0.012497626 0.025752842 0.052017696 -0.0009720549 -0.059927065 0.070532806 -0.046187043
-0.04923699 0.078459404 -0.06952657 0.0340404 -0.0067160353 -0.054895595 -0.07957345 -0.04912804
-0.07786057 -0.014285982 -0.034087136 -0.0392288 0.0010779351 -0.0783848 -0.019816466 0.0682674
0.058738835 0.008112341 0.07829832 0.027493171 0.06700828 0.021071792 -0.08538018 0.00828924
0.015100539 -0.018973455 -0.039714668 -0.054219358 0.011546612 0.041683815 0.07354856 -0.028990373
-0.03478722 -0.08148113 -0.021326192 0.08563114 0.07227259 0.05743114 0.07995067 -0.0552439
-0.04627527 0.008770861 0.07522359 -0.041087583 -0.080438375 -0.047984913 0.024239413 0.0280115
0.054762878 -0.03558082 0.034964025 -0.057891928 0.009293929 -0.020827085 -0.08119724 0.059508525
00000000: 70f4 323c 98df a23c e056 443c c0fb 50bc
00000010: 427c 463d 2a07 373d ceaf a0bd acee a8bd
00000020: ed70 b03d 4026 89bb b49c 90bd f8a8 ccbc
00000030: 0078 fd3b a044 853c 0075 f73b 6f6f 9d3d
00000040: 45a9 91bd c05d 7f3b 6288 b0bd ec27 6fbd
00000050: 4d08 1fbd 7ffe 813d fb87 91bd 3423 e73c
00000060: 486a 9e3c dc88 95bc 2b9c 863d 98cb 88bc
00000070: a898 8cbd 906a 78bc ffd8 a43d 9520 853d
00000080: 025d a5bd 9e1c 323d ec5a a0bd a0dd 11bd
00000090: ecdd b4bc e18c 9a3d 9cb6 afbd b444 82bc
000000a0: 4d8b 9f3d a435 8bbd d8d4 303c 78e5 d9bc
000000b0: 78e4 29bd 90bc d83c b2fe 413d 612b ac3d
000000c0: fb60 51bd 76b0 4e3d def6 453d 08f0 afbd
000000d0: 0410 73bd 5a38 7d3d 1002 efbc 58e6 a93c
000000e0: d67c a2bd 4472 d33c 5630 55bd 2033 a03c
000000f0: e096 233b d8c7 423c d852 7abd 5b13 a63d
00000100: 80bc 8f3b e8cb f43c 36cd a4bd dfe4 80bd
00000110: 00a0 e43b cdec a83d 4880 88bd 104c c4bb
00000120: fa7d 2d3d fe5d 15bd 7848 adbc a8b5 293c
00000130: 47d4 19bd da82 34bd f6a0 7f3d cf37 803d
00000140: dcf8 8abc 206e 6e3c c01d 553c 7e7e 593d
00000150: aebf 1d3d b2ea debc 9579 38bd 0823 36bc
00000160: d0e9 4ebc aa24 793d b0bf 23bd 64dc 62bd
00000170: 4a1f 303d 33f6 a23d ad4e 8b3d 84b9 bcbc
00000180: 726e 1f3d 6065 8fbc d6f1 1b3d 7c98 babc
00000190: 8048 0dbc e249 1d3d cd49 a4bd 69ad 1dbd
000001a0: 0650 86bd 64ef fb3c a8cf a4bd 3c9b b33c
000001b0: 5bc4 28bd 3cfc e8bc 06a9 2f3d 813e 813d
000001c0: 46e6 4f3d c754 893d aa9a 633d 80e9 a03c
000001d0: bb25 b3bd ab2c 813d ec5e d43c c69d 233d
000001e0: 2015 2b3c d891 ba3c 50f1 ab3c ce21 d7bc
000001f0: 5698 9fbd a0e5 4e3b 002b 943c 2b72 86bd
00000200: 54c0 81bd 66d8 93bd 7a1b 6c3d 809d ba3c
00000210: 48a5 693c 241d 94bc c54f 72bd fa21 043d
00000220: 2083 25bb 7c99 8cbc 4cab 94bd e462 8abd
00000230: fa63 eabc ca4e 08bd 6a92 9fbd 8023 52bc
00000240: 9556 a7bd 4614 aebd cdd5 893d 6d64 9a3d
00000250: 8e8a 333d 7be3 9d3d ac00 72bd 987e 4c3c
00000260: de32 63bd b89e d23c 6907 31bd 0af2 563d
00000270: a77b 07bd aa6b 693d 2df0 923d 7eaa 98bd
00000280: 3003 463c 51f5 4dbd 007c f13c 9a41 373d
00000290: ace2 c3bc fcc3 fb3c fa8c e4bc d84d 9abd
000002a0: 006e 89bd a031 81bd 885c a33c 4dc1 a2bd
000002b0: 99de 8a3d fc74 c8bc 9d8e 8e3d 1f2e a93d
000002c0: aead 40bd db76 b43d 603d e53b 3671 d9bc
000002d0: 9721 b2bd 7515 97bd c6f9 e5bc 485b 2bbd
000002e0: ce67 7f3d 4100 8bbd 12b9 523d 71e4 56bd
000002f0: 62b5 22bd c0c5 503b 323d 46bd a09d 51bc
00000300: 3274 1e3d d8c2 4cbc a0f7 d23c 8210 553d
00000310: 80d1 7eba 1576 75bd 8173 903d a02e 3dbd
00000320: baac 49bd 53af a03d f263 8ebd f26d 0b3d
00000330: 3012 dcbb 34da 60bd 68f7 a2bd 7c3a 49bd
00000340: 5d75 9fbd c00f 6abc f49e 0bbd 61ae 20bd
00000350: 8049 8d3a 3688 a0bd 2456 a2bc c7cf 8b3d
00000360: 2298 703d a0e9 043c df5a a03d 5c39 e13c
00000370: a33b 893d c09e ac3c cedb aebd 98cf 073c
00000380: 4068 773c 386e 9bbc d9ab 22bd 1e15 5ebd
00000390: 002e 3d3c a6bc 2a3d a1a0 963d 387d edbc
000003a0: 0b7d 0ebd 94df a6bd 44b4 aebc 615f af3d
000003b0: a703 943d ea3c 6b3d 2dbd a33d 6d47 62bd
000003c0: 238b 3dbd a8b3 0f3c d30e 9a3d 744b 28bd
000003d0: e0bc a4bd d48b 44bd bc91 c63c 6078 e53c
000003e0: 0a4f 603d 32bd 11bd 7036 0f3d 1620 6dbd
000003f0: 9045 183c 909d aabc bd4a a6bd 36bf 733d

rnn.bias_ih_l1 f4 [128]
0.002172676 0.011961781 -0.08294144 -0.02006965 0.12593292 -0.113178626 -0.09082869 -0.13759373
0.20467648 0.14173613 0.21113883 0.009642071 -0.10115926 -0.040709816 0.10239294 0.11424562
-0.2736247 0.26168227 -0.044184256 -0.15975937 -0.32711697 0.055258147 -0.053341944 -0.17976008
0.06672041 0.12352602 0.06629666 0.1714711 -0.19051126 -0.15139014 -0.046298273 0.23201357
0.20398298 -0.015648158 -0.16057792 0.056817185 -0.13358712 0.24110106 -0.13055047 0.23270899
-0.13442658 0.041374523 0.11097298 -0.2663779 0.11814114 -0.007848246 0.17523493 0.10798382
-0.2512328 -0.0464797 -0.04622841 -0.10046476 -0.06185521 0.2198253 -0.0031278122 -0.101866074
-0.118509255 -0.22054757 0.20453294 0.21480934 0.27019456 -0.25522164 0.11481057 -0.037198476
-0.105572045 -0.07156762 0.113093875 0.30818805 -0.06446839 -0.13565478 0.20902662 0.20654063
-0.20130083 -0.15050505 -0.011308484 -0.22308023 0.1792453 -0.11416186 -0.19695345 -0.20950417
-0.22504368 -0.15721092 -0.12111791 -0.1390883 -0.22267652 0.14124969 0.2575034 0.18057506
-0.17151071 0.22395936 -0.2026981 0.1051882 0.0037282049 -0.008415842 -0.19309162 -0.021801515
0.08725726 0.03356818 -0.20140724 -0.2104539 -0.04469831 -0.117297955 -0.11982801 -0.3265289
0.016316274 0.13449755 -0.3093203 0.19230282 0.016591838 -4.2623247e-05 0.25733706 0.067422025
0.04250851 -0.03572161 -0.16250426 0.15255931 -0.047180105 -0.18678994 0.13516998 -0.03459964
0.08206909 -0.07814949 -0.074684344 0.20876065 -0.2434431 -0.10558644 -0.22475429 0.13678806
00000000: 7463 0e3b 59fb 433c 34dd a9bd 1b69 a4bc
00000010: 8ff4 003e 32ca e7bd 6404 babd 5fe5 0cbe
00000020: b696 513e 4723 113e c734 583e c7f9 1d3c
00000030: 962c cfbd 56bf 26bd 64b3 d13d 9cf9 e93d
00000040: 8918 8cbe 38fb 853e 8dfa 34bd f697 23be
00000050: e07b a7be 5e56 623d 157d 5abd 0713 38be
00000060: b6a4 883d 36fb fc3d 8bc6 873d 1f96 2f3e
00000070: 6215 43be 0406 1bbe 42a3 3dbd f794 6d3e
00000080: eae0 503e 9130 80bc 8a6e 24be 23b9 683d
00000090: 10cb 08be 32e3 763e 06af 05be 444b 6e3e
000000a0: 1fa7 09be 5578 293d cd45 e33d af62 88be
000000b0: fbf3 f13d ee95 00bc c970 333e 9f26 dd3d
000000c0: 96a1 80be 7f61 3ebd 005a 3dbd 78c0 cdbd
000000d0: e45b 7dbd e219 613e fbfb 4cbb 299f d0bd
000000e0: fbb4 f2bd 39d7 61be 1571 513e fbf6 5b3e
000000f0: f156 8a3e 69ac 82be ce21 eb3d 6e5d 18bd
00000100: 2836 d8bd 0b92 92bd c39d e73d d3ca 9d3e
00000110: 0108 84bd 16e9 0abe 130b 563e 637f 533e
00000120: ce21 4ebe ff1d 1abe 3847 39bc 256f 64be
00000130: 148c 373e b1cd e9bd 2aae 49be 4388 56be
00000140: da71 66be e6fb 20be ab0c f8bd 2a6d 0ebe
00000150: 5005 64be c2a3 103e 7cd7 833e abe8 383e
00000160: 81a0 2fbe 9a55 653e 1790 4fbe e96c d73d
00000170: e654 743b 9ae2 09bc cfb9 45be 1799 b2bc
00000180: efb3 b23d ca7e 093d b33d 4ebe 3a81 57be
00000190: 9315 37bd e939 f0bd 6368 f5bd cc2e a7be
000001a0: b5a9 853c bab9 093e 3b5f 9ebe 08eb 443e
000001b0: 9beb 873c 5dc6 32b8 afc1 833e 8f14 8a3d
000001c0: 671d 2e3d d350 12bd 8467 26be 8238 1c3e
000001d0: ed3f 41bd dd45 3fbe 006a 0a3e 5ab8 0dbd
000001e0: d713 a83d d70c a0bd 1bf4 98bd 5ac5 553e
000001f0: 2649 79be b43d d8bd fd25 66be 2b12 0c3e

rnn.bias_hh_l1 f4 [128]
0.010318552 0.02048031 -0.060073867 -0.135793 0.08495499 -0.14900471 -0.17925897 -0.02714829
0.25705197 0.0934859 0.109220654 0.17344148 -0.14702407 0.048611905 0.020266283 0.20441681
-0.13107662 0.12609123 0.051681872 -0.15467067 -0.2624325 0.1444899 -0.051980134 -0.17669922
0.08653567 0.07588993 0.1119585 0.28771067 -0.074779965 -0.20272046 0.0466044 0.29725686
0.14246474 -0.15572831 -0.23298492 -0.046435215 -0.04766539 0.22668394 -0.11195667 0.15569168
-0.18211064 -0.006841478 0.097118 -0.31451932 0.021293273 0.046643045 0.19320951 0.076183304
-0.19129214 -0.15881918 0.0029937914 -0.011851587 -0.118331276 0.22774056 0.0017694955 -0.052551754
-0.08587425 -0.2045623 0.20793806 0.18587568 0.22500612 -0.22413549 0.08908066 -0.10540379
-0.057270907 -0.056715127 0.103121944 0.33711615 0.0089016175 -0.06680594 0.23855482 0.13165088
-0.18820558 -0.26543325 -0.022252597 -0.11146737 0.14390711 -0.13281822 -0.20852995 -0.17740364
-0.18769357 -0.20022306 -0.0801142 -0.17272735 -0.2773652 0.25182757 0.33495098 0.0802242
-0.16560392 0.23603104 -0.044901732 0.0005314122 -0.02077122 -0.063711286 -0.17200482 -0.044375293
0.12624303 0.14003672 -0.13611373 -0.14177904 -0.11800097 -0.14421171 -0.031681333 -0.21406668
-0.042828303 0.18182737 -0.30447403 0.21646336 -0.00046676112 0.13769689 0.149217 0.048459698
0.08331307 0.08639924 -0.11420591 0.14358321 0.05109508 -0.13917123 0.076220505 -0.07197895
0.068292536 -0.06689338 -0.013291378 0.21301323 -0.16356783 -0.019040616 -0.20658161 0.20556475
00000000: 250f 293c 53c6 a73c 0410 76bd 520d 0bbe
00000010: e2fc ad3d b194 18be aa8f 37be 1766 debc
00000020: 519c 833e 8975 bf3d 14af df3d a59a 313e
00000030: 7a8d 16be 471d 473d 7a05 a63c a452 513e
00000040: f338 06be 0f1e 013e 5fb0 533d fd61 1ebe
00000050: 8d5d 86be 29f5 133e 1fe9 54bd a4f0 34be
00000060: 9d39 b13d 2e6c 9b3d 804a e53d d04e 933e
00000070: 3d26 99bd f495 4fbe 41e4 3e3d 0d32 983e
00000080: 47e2 113e 3e77 1fbe 9993 6ebe da32 3ebd
00000090: c93c 43bd d61f 683e 8a49 e5bd a46d 1f3e
000000a0: 367b 3abe 7a2e e0bb cde5 c63d ad08 a1be
000000b0: 3b6f ae3c c70c 3f3d b7d8 453e fe05 9c3d
000000c0: 16e2 43be 7fa1 22be 7c33 443b 292d 42bc
000000d0: ab57 f2bd d234 693e 6bee e73a 8240 57bd
000000e0: d7de afbd c878 51be b7ed 543e 3256 3e3e
000000f0: 0168 663e c683 65be ec6f b63d f1dd d7bd
00000100: e694 6abd 1f4e 68bd 9931 d33d 7d9a ac3e
00000110: 17d8 113c 8dd1 88bd b747 743e 7dcf 063e
00000120: f7b8 40be dee6 87be 144b b6bc 0149 e4bd
00000130: 635c 133e 8001 08be e088 55be 4da9 35be
00000140: be32 40be 4607 4dbe ea12 a4bd 70df 30be
00000150: d002 8ebe 8bef 803e b27e ab3e 964c a43d
00000160: 1394 29be 1fb2 713e e1ea 37bd 784e 0b3a
00000170: 6828 aabc 107b 82bd 0822 30be dec2 35bd
00000180: da45 013e c965 0f3e 6661 0bbe 862e 11be
00000190: 7eaa f1bd 3cac 13be 49c4 01bd 4c34 5bbe
000001a0: bb6c 2fbd f430 3a3e 05e4 9bbe 92a8 5d3e
000001b0: 9eb7 f4b9 6a00 0d3e 57cc 183e ad7d 463d
000001c0: 0ba0 aa3d 16f2 b03d cae4 e9bd 7a07 133e
000001d0: 1349 513d e782 0ebe 7f19 9c3d b369 93bd
000001e0: f5dc 8b3d 65ff 88bd 14c4 59bc 2420 5a3e
000001f0: 537e 27be 11fb 9bbc 218a 53be 917f 523e

rnn.weight_ih_l2 f4 [128, 128]
0.13471353 0.16058199 -0.08171319 -0.039182186 -0.100829855 -0.0052613425 0.31885245 -0.08975253
0.17971954 -0.025497083 0.046101294 -0.040516995 0.050396692 0.07050733 -0.24817406 -0.04035828
0.075321935 0.0346191 0.19387898 0.17924899 -0.12046799 -0.05157665 0.2059363 0.07066133
-0.08610522 -0.021578472 0.0815909 0.16476409 0.14103921 -0.06368125 0.075348236 0.079371564
-0.04652754 -0.10214129 0.08902576 -0.08022003 0.0025353683 -0.0036138324 0.016287161 -0.0009621194
0.21870635 -0.115629554 0.062026557 -0.1161501 0.0025196483 0.15739915 -0.016549982 -0.047192965
0.18240939 0.1981409 -0.18457517 -0.06001268 0.049666177 -0.08217923 -0.027167818 -0.07240404
-0.03916415 -0.10985199 -0.11285105 -0.014901595 -0.13975187 -0.097864434 -0.105074696 -0.08642573
0.11257996 -0.013646037 -0.17049779 -0.013217179 0.08507588 0.077352054 -0.1230948 -0.13261071
0.078663774 0.016420633 0.041155633 0.008756486 0.15238494 0.043184273 0.07821611 0.17242575
-0.032270476 -0.14346623 0.026768913 0.030695455 0.18267371 0.029233733 0.10073189 -0.14415875
-0.071274206 -0.07687083 0.02374532 -0.0072528035 0.08636691 -0.016067568 0.040941067 0.057207443
-0.11221248 0.0032768385 0.13567208 -0.048931886 0.07839677 -0.030369064 -0.13660839 -0.038376417
-0.010578784 0.10584666 -0.07382629 -0.08808259 0.086030215 -0.018879376 1.2893869e-05 -0.19866136
0.06931952 -0.03205677 -0.1463083 -0.043634076 0.007384268 0.09129225 -0.03069284 -0.048260916
0.11955223 -0.038283095 0.08596582 0.05385282 0.009999561 0.226613 0.35013247 0.0065545985
-0.118085794 -0.05180807 0.03748675 -0.025423668 -0.022411788 0.12021585 0.011189284 -0.01769072
0.040988144 0.068747826 0.09893434 0.041322015 0.054713868 -0.003395634 0.16032717 0.08956342
-0.07100542 0.15989794 -0.027052686 -0.11685852 -0.30268127 0.37613273 0.086798474 -0.09127691
0.105941035 -0.034430005 0.17212225 0.08606159 -0.009398507 -0.13072003 -0.077146746 0.22878905
0.12276182 -0.20072629 -0.05459778 0.121110566 0.04448295 0.07817625 -0.11121933 0.07721291
0.04040386 -0.036063503 0.15612301 -0.12580952 0.19158562 -0.07268474 0.114093415 0.028757999
0.0011977926 -0.0940523 0.11869017 0.12456652 0.018870931 -0.022144528 0.03750935 -0.010717344
-0.031266484 -0.17533095 -0.02901579 0.06444436 -0.00909421 -0.19320935 0.061632637 0.12534177
-0.21979666 0.23581687 0.16856237 0.13608222 0.041191626 0.056321856 0.03412594 0.25589463
0.03755393 -0.18761803 -0.018290047 -0.0012960525 0.041640997 0.036079843 -0.21498363 -0.07689794
-0.054023415 -0.24342255 -0.091623336 -0.01912233 0.026746739 0.13580081 0.12639762 0.07321122
-0.17664778 0.068854935 -0.13288137 0.04850484 -0.0152357435 0.10638151 -0.052574877 0.033211965
0.016921902 0.15090518 0.072905965 -0.06742796 -0.06559786 -0.058468908 0.08715266 -0.15191144
-0.11904913 -0.07980194 -0.14327888 0.11842432 0.02308472 0.07199908 -0.02103654 0.07203977
0.080818035 0.030364143 0.056537136 0.11652586 -0.1580847 -0.08370989 0.09186059 0.027306044
0.22141623 0.0740793 0.022860633 0.010357894 -0.09489592 -0.18896285 -0.055883218 0.22658208
00000000: 58f2 093e 9b6f 243e 3f59 a7bd 807d 20bd
00000010: e27f cebd 5767 acbb a140 a33e 2dd0 b7bd
00000020: 6608 383e 42df d0bc b6d4 3c3d 26f5 25bd
00000030: c36c 4e3d 2666 903d 5721 7ebe b94e 25bd
00000040: 6342 9a3d c2cc 0d3d 3688 463e 0c8d 373e
00000050: ecb7 f6bd 0a42 53bd f7e0 523e e3b6 903d
00000060: ef57 b0bd 56c5 b0bc 2119 a73d ebb7 283e
00000070: 956c 103e 516b 82bd 2d50 9a3d 8f8d a23d
00000080: a993 3ebd 742f d1bd 2353 b63d 664a a4bd
00000090: 6c28 263b 0cd6 6cbb a76c 853c bd36 7cba
000000a0: 8ff4 5f3e 30cf ecbd 8f0f 7e3d 1be0 edbd
000000b0: af20 253b 3e2d 213e d493 87bc 694d 41bd
000000c0: 87c9 3a3e 73e5 4a3e 4601 3dbe dbcf 75bd
000000d0: c36e 4b3d 964d a8bd 0b8f debc 9248 94bd
000000e0: 966a 20bd 15fa e0bd 741e e7bd d225 74bc
000000f0: 1d1b 0fbe 266d c8bd 6731 d7bd f9ff b0bd
00000100: 5290 e63d a193 5fbc f996 2ebe de8c 58bc
00000110: 433c ae3d c16a 9e3d 2019 fcbd 1acb 07be
00000120: 791a a13d 9084 863c cf92 283d 5d77 0f3c
00000130: cc0a 1c3e fee1 303d c52f a03d 6090 303e
00000140: 0c2e 04bd d0e8 12be 7b4a db3c 0975 fb3c
00000150: d10e 3b3e 957b ef3c 854c ce3d 5a9e 13be
00000160: 36f8 91bd 746e 9dbd 8c85 c23c eda8 edbb
00000170: 22e1 b03d 22a0 83bc d2b1 273d 5a52 6a3d
00000180: a8cf e5bd 3ac0 563b 9fed 0a3e cd6c 48bd
00000190: 7c8e a03d 8bc8 f8bc 12e3 0bbe 9730 1dbd
000001a0: a352 2dbc 22c6 d83d 3d32 97bd a564 b4bd
000001b0: 9c30 b03d eca8 9abc bf52 5837 e26d 4bbe
000001c0: 64f7 8d3d f64d 03bd d8d1 15be a5b9 32bd
000001d0: bbf7 f13b 6ef7 ba3d 8d6f fbbc 3dad 45bd
000001e0: cdd7 f43d bcce 1cbd d90e b03d c694 5c3d
000001f0: 33d5 233c 3d0d 683e 9044 b33e f5c7 d63b
00000200: f7d6 f1bd b334 54bd b58b 193d 4c45 d0bc
00000210: ed98 b7bc ba33 f63d 4253 373c 21ec 90bc
00000220: 2fe3 273d a9cb 8c3d 169e ca3d 4641 293d
00000230: a61b 603d 4989 5ebb ce2c 243e 076d b73d
00000240: 4a6b 91bd 49bc 233e 989d ddbc 8553 efbd
00000250: 0af9 9abe 7894 c03e 66c3 b13d 63ef babd
00000260: 9df7 d83d 7a06 0dbd d140 303e 0f41 b03d
00000270: 32fc 19bc 79db 05be 1dff 9dbd ad47 6a3e
00000280: 8d6a fb3d 318b 4dbe eca1 5fbd d108 f83d
00000290: c133 363d df1a a03d f6c6 e3bd cd21 9e3d
000002a0: 857e 253d 53b7 13bd b6de 1f3e 36d4 00be
000002b0: 052f 443e bddb 94bd cfa9 e93d e595 eb3c
000002c0: 40ff 9c3a 7e9e c0bd d513 f33d bb1c ff3d
000002d0: 3697 9a3c 7168 b5bc 67a3 193d cc97 2fbc
000002e0: 4911 00bd f589 33be 86b2 edbc 68fb 833d
000002f0: e2ff 14bc acd8 45be 8172 7c3d 9859 003e
00000300: 6012 61be fa79 713e 9d9b 2c3e 2359 0b3e
00000310: 8db8 283d bfb1 663d a4c7 0b3d 9f04 833e
00000320: 26d2 193d f11e 40be 02d5 95bc 4ee0 a9ba
00000330: c08f 2a3d 75c8 133d ab24 5cbe ab7c 9dbd
00000340: a847 5dbd c343 79be 04a5 bbbd 6fa6 9cbc
00000350: fa1b db3c 5e0f 0b3e 616e 013e c4ef 953d
00000360: 28e3 34be d103 8d3d 0e12 08be 03ad 463d
00000370: 579f 79bc 8dde d93d c158 57bd 4509 083d
00000380: cd9f 8a3c e386 1a3e b94f 953d ac17 8abd
00000390: 2c58 86bd 187d 6fbd 187d b23d ac8e 1bbe
000003a0: 08d0 f3bd 336f a3bd b3b7 12be 7388 f23d
000003b0: 2b1c bd3c 4174 933d d254 acbc 9689 933d
000003c0: ed83 a53d 39be f83c 7c93 673d 1ca5 ee3d
000003d0: f5e0 21be 1770 abbd 6821 bc3d edb0 df3c
000003e0: f0ba 623e e3b6 973d 3946 bb3c 28b4 293c
000003f0: cb58 c2bd 7a7f 41be cde5 64bd 2205 683e
