src/rnn/models/user_10_model.pth (torch, 377630 bytes, 16 tensors)

rnn.weight_ih_l0 f4 [128, 11]
00000000: 61d0 aabe 79be a4be d74f aebe b80c f2be
00000010: d027 a5be 00f0 b4be ecb4 723d 6401 afbe
00000020: af35 a4be 8231 d2be c253 dfbe e785 053e
00000030: bd79 ecbd 7009 f7bd 8254 c23d e36f e8bd
00000040: 0983 a93e 2dbd f7bd bcf4 8ebd 84f1 973b
00000050: 8c79 2b3e eb81 b5bd 58db d83d 7810 92be
00000060: e3c4 a13d cedd 803d b4a2 c5be 3331 26bd
00000070: eaa4 1fbf f6e5 07be 737a 35be 6d1d 22bd
00000080: 6529 02bf e9f7 01bf 22f5 01bf 86f9 8cbe
00000090: d43d 03bf 65bf e1be e67d 05bf a04b 0dbf
000000a0: c290 e5be 587e 16bf 3533 1dbf f738 d5be
000000b0: 797e d83e 8041 cd3e aa36 f43e 19e3 0b3f
000000c0: 93aa 143f 739f b53e 680f 69bc 9000 da3e
000000d0: b0ef ed3e bac1 9d3e 9f91 0b3f bf6a 54bc
000000e0: d68a 183e a924 c73d 1c5d cc3d 30f4 143e
000000f0: 812f 023c fc69 6fbe 5a50 5e3e e1df 713d
00000100: 1906 f03d 2242 0c3e 7a5a eb3c 4758 0dbe
00000110: 7360 a33d d451 34be dead 8bbe 2e90 21bf
00000120: f66a 30bf 9411 c6be 195e 22be 1d63 a1be
00000130: 4182 b4be b409 a83e 903a db3e 76c2 923e
00000140: dae4 e63e 281a 773e 3e99 0d3f f214 a03e
00000150: 279a 033f c424 c53e c8df d83e 0752 be3e
00000160: 5396 be3e ccb3 ed3e 2834 9a3e 5ff6 af3e
00000170: 6838 cf3d 02b7 8e3e b493 95be d5bf da3e
00000180: 4fbb b73e d8ff 9a3e ff91 203e f5e4 e73e
00000190: 7be0 e23e 8166 9c3e a6d9 ce3e 1824 b63e
000001a0: 0e5c 0d3f fbe1 cd3e 0477 a23e e25a b23e
000001b0: c1f8 c73e 98e9 d93e 1ef6 0e3e 335d 343e
000001c0: f1aa 1d3e e0c1 f63d ce8a fd3c d1ca 7d3d
000001d0: d7d9 07bf 3553 303d 3bfb 593e ab21 633e
000001e0: a52c 09bd 6dbd 34be ae47 4fbe 932a bcbe
000001f0: 91e7 9ebe 9871 df3c b4e6 613b 67b6 003f
00000200: 87f3 1ebe 5c2f a4be 7f86 cebd 739a 813e
00000210: b5b5 c9be 4b57 b9be 18c5 9fbe ed64 e7be
00000220: 36f8 dbbe 4945 08bf cc57 e7be 0938 0bbf
00000230: e356 0abf 5f8b e9be 6702 dabe 2a89 71be
00000240: 4a7f d4be b2aa 85be 287d dbbe 6f7a ffbe
00000250: 4490 05bf 196f 1fbd f22e cbbe 8b40 98be
00000260: f9c6 99be e965 bfbe 28ca d43e 9943 e03e
00000270: 8281 be3e 0f3a ef3e 6243 cd3e 65ae ae3e
00000280: 1d45 26bd 616d 0c3f 22ab b03e 5896 f93e
00000290: af04 b23e b5ef 0d3f fd90 f53e e933 d63e
000002a0: 292b fc3e 9af6 093e 6ac2 ac3e 1aed 9fbe
000002b0: 4635 023f 2c8c c03e 667c 0d3f f4d3 a53e
000002c0: e156 c0be ddf3 aabe 6254 e0be edf7 b2be
000002d0: 01d1 a43c 99a4 bebe eb00 5b3e 4361 d7be
000002e0: 4986 b1be bb99 abbe edf4 203d ec60 01bf
000002f0: ead8 cdbe df38 8cbe 9d3e 00bf ad60 e7be
00000300: 994e 1cbf 34b5 cfbe 10df 03bf 4d0d b2be
00000310: 811e cdbe e143 eebe 1fd8 31bc 8591 43bc
00000320: 072f 5f3e 55b9 013e 59fe e43c 8483 12be
00000330: d957 a43d e1dc bf3e 57dd 773d 4837 96bd
00000340: 51fe ae3d a72b 1dbe 2691 16be baa7 93be
00000350: 8c8c 50bd 13db b33e 08ad ab3e f02f 253f
00000360: aeee 52be 7a4b 5dbe 3ea4 bb3c 47a5 773e
00000370: 9b8a 623e b4f1 953e 3031 e13e 6745 d13e
00000380: 4185 433e aeed 0e3e fcd9 9dbe 9313 d13e
00000390: cf5a c53e 7e52 693e c45d db3d c854 0abe
000003a0: 3c2b 74be b254 e6be 25f0 8bbe 6c3a 323e
000003b0: a0dc 093e c291 0d3f e996 95be a23b f1be
000003c0: 91cc 06be 9a9d 633e dc0d 05bf e29f fcbe
000003d0: 3a8f e9be 6699 f4be 637d bfbe 7bad cfbe
000003e0: 0f0d 04bd d1b3 eebe 6aa1 f1be 70a8 e5be
000003f0: 9296 89be 7dfe b4be 565e a6be e78c a6be
-0.33362105 -0.3217657 -0.34045288 -0.4727533 -0.32256937 -0.35339355 0.05925457 -0.34180748
-0.32072207 -0.41053396 -0.4361859 0.13039361 -0.11546657 -0.12062347 0.09488775 -0.11349466
0.33107784 -0.12096629 -0.06980273 0.004636945 0.16745585 -0.088626705 0.105887115 -0.2852819
0.07898881 0.06292306 -0.38600695 -0.040574264 -0.62361014 -0.13271317 -0.17722492 -0.039578844
-0.50844413 -0.50768906 -0.5076467 -0.2753412 -0.5126622 -0.44091335 -0.5214523 -0.5519352
-0.44837004 -0.58786535 -0.6140626 -0.41645023 0.4228399 0.40089035 0.47697955 0.546434
0.58072776 0.35473213 -0.014224865 0.42578554 0.4647193 0.30811864 0.54519075 -0.012964903
0.14896712 0.09723789 0.09978697 0.14546275 0.007945896 -0.23380274 0.21710339 0.0590514
0.11719913 0.13697103 0.028729666 -0.13803206 0.079773806 -0.1760934 -0.27281088 -0.63110626
-0.6891321 -0.38685286 -0.15856208 -0.3152093 -0.35255626 0.32819903 0.42818117 0.28663987
0.45096475 0.24131072 0.55311954 0.3126598 0.5140709 0.38504612 0.42358232 0.37171957
0.37224063 0.46426237 0.30117917 0.34367654 0.101181805 0.27874 -0.2921425 0.4272448
0.35885093 0.30273318 0.15680693 0.45291868 0.4431189 0.30546954 0.40400428 0.35574412
0.5521859 0.40211472 0.31731427 0.34834963 0.39056972 0.4256103 0.13961074 0.17613678
0.1539724 0.120486975 0.030949976 0.061961 -0.5306677 0.043048102 0.21287243 0.22180812
-0.033489842 -0.17650385 -0.20242187 -0.36751232 -0.31036046 0.027275845 0.0034469785 0.50278324
-0.15522586 -0.32067382 -0.10084247 0.25313148 -0.39396444 -0.36199412 -0.31205058 -0.45194188
-0.42962807 -0.5323072 -0.4518417 -0.5438238 -0.5403883 -0.45614144 -0.42579958 -0.2358748
-0.41503364 -0.26106793 -0.42868924 -0.49898097 -0.52173257 -0.03892431 -0.39684254 -0.29736742
-0.30034617 -0.3738244 0.41560483 0.43801573 0.37208182 0.46723983 0.40090472 0.34117427
-0.040593255 0.548544 0.34505564 0.48747516 0.34769198 0.5544389 0.4796218 0.4183648
0.4925168 0.13472977 0.33742076 -0.31235582 0.5086254 0.37606943 0.5526794 0.3238827
-0.37566283 -0.33389178 -0.4381438 -0.34954777 0.020119192 -0.37234953 0.21387069 -0.42066392
-0.34672764 -0.33515725 0.03929608 -0.50538516 -0.40204555 -0.2738714 -0.5009554 -0.45190945
-0.6105743 -0.40567935 -0.5151224 -0.34775773 -0.40062335 -0.46536162 -0.01085475 -0.01193655
0.21795283 0.12668355 0.027953314 -0.14307982 0.08024568 0.37473205 0.06051382 -0.07334763
0.08544601 -0.15348683 -0.14703807 -0.28838903 -0.050915286 0.35128078 0.3353045 0.6452627
-0.20598862 -0.21610823 0.022905465 0.24184142 0.22123186 0.29285967 0.4398284 0.40873262
0.19093801 0.13957855 -0.3083037 0.40835246 0.38545844 0.22785375 0.10711244 -0.13508904
-0.23844618 -0.44986492 -0.27331653 0.17405099 0.13463068 0.55300534 -0.29216698 -0.4711581
-0.13163973 0.22228089 -0.5197427 -0.4934073 -0.45617086 -0.47773284 -0.3740035 -0.40562043
-0.032239016 -0.46621564 -0.47193462 -0.4485507 -0.2687269 -0.3535041 -0.32493848 -0.32529375

rnn.weight_hh_l0 f4 [128, 128]
00000000: 040e bcbc 75be 04bd 58b0 ed3c 8b3a 10bd
00000010: 6a39 71bd a4eb 95bc 6477 91bd 7075 83bc
00000020: 608c 9ebc 67fb 54bd b687 643d b0ef 9f3b
00000030: 90b5 84bb 9ab8 3bbd c0d0 b3ba e759 b4bd
00000040: 3664 e8bc 00e8 e338 9ef4 efbc 4c7d b03c
00000050: 0de5 b0bd 1b50 aebd 62b4 fcbc 5070 12bc
00000060: 1406 af3c f8c1 a1bc a1bc 82bd 2ad0 483d
00000070: 68a7 62bc 3e54 713d 1406 2abd ad98 a23d
00000080: e369 a03d 701e 82bc f87d b53c b0ca 45bc
00000090: 82d9 423d 5da4 9bbd 9a10 583d 47a1 96bd
000000a0: 4022 a1ba 4693 123d 93e4 94bd ae0e 89bd
000000b0: a0ee 09bd 239d 1fbd d213 113d 6d48 28bd
000000c0: fef9 0b3d 3698 0e3d 4454 0dbd 702c c7bc
000000d0: e071 12bb 5016 babb 9062 77bc 64f7 52bd
000000e0: 53f0 7bbd ecf1 13bd 915e 37bd eafa 213d
000000f0: e786 823d b8db 86bc 8530 973d 5a97 4d3d
00000100: 17ba 44bd fcee d53c 67c7 9abd 004d a0bc
00000110: b5c2 a23d 72f3 a4bd 135c 953d e209 413d
00000120: d8e3 fc3c 7e03 383d 44e8 cebc f4a1 bd3c
00000130: bee4 733d 0b2f 5dbd c066 be3b 70d4 c43b
00000140: 9ea5 22bd fcc3 85bc ab87 1bbd 5e69 1abd
00000150: c460 63bd 8934 9e3d a669 6f3d f47b c5bc
00000160: 788d c93c c68c 393d ec41 5ebd d569 ae3d
00000170: 7e92 8dbd 36b2 a3bd 6c1b c33c ec49 d13c
00000180: 227b 303d c881 ebbc 5bbe 2abd 70a7 363c
00000190: d064 013d c0c9 73bd 69e6 60bd b228 adbd
000001a0: 8e0c e7bc 7205 163d 241f 82bd c31c 41bd
000001b0: 75e6 4bbd eeac 16bd e4d9 d73c b8bc 36bc
000001c0: 34d1 84bc f443 e6bc afac 3abd 68a3 cbbc
000001d0: c01a 70bd f2a5 453d e0b4 af3c 0633 2f3d
000001e0: 18f3 abbd 0c64 9ebd 9a65 433d eeb5 1fbd
000001f0: 9e18 8fbd bea0 5bbd 6885 1f3c 46ad 463d
00000200: f6c8 f7bc e213 dcbc f45e 873c db03 35bd
00000210: 5a24 463d 421a 243d b73c 84bd cc68 3dbd
00000220: 3aa9 73bd 2e23 483d d228 0d3d 802b 64bb
00000230: 2610 743d 7011 4e3c 8556 a43d b802 b13c
00000240: 2793 31bd 9038 913b 64b7 e93c c6a9 313d
00000250: 2e69 88bd 20e1 3e3b baea 6d3d 3a60 5f3d
00000260: e050 3bbc e01e ea3b b292 4c3d 2bb4 953d
00000270: 7a0f d5bc a3d0 a9bd 2f03 993d 6e2b 593d
00000280: 2d63 a83d c403 01bd 9888 11bd 820d 483d
00000290: 2938 993d daeb 273d da96 4f3d fadc 7dbd
000002a0: 106d be3c 2b0c 02bd 6ddb 7abd 802c e4bc
000002b0: ae22 9cbd 5ead 0a3d 401e cb3b fe3b 623d
000002c0: 7b78 05bd 7adb 7c3d 2a83 38bd 1cd7 f83c
000002d0: c899 fc3c 1b74 96bd f670 0fbd c0a0 113b
000002e0: 6212 633d 89fb 5abd fb39 9b3d 973e 973d
000002f0: 1212 3f3d 765d 7abd 0619 86bd a609 6bbd
00000300: a86b b53c 8099 2abd 307b 7fbc 0161 82bd
00000310: 5b68 7ebd 4064 8e3b 865e 203d b4c3 22bd
00000320: 6699 1a3d d421 fa3c 64a5 c83c ae20 2a3d
00000330: a2ea 6e3d 181a adbd f7e3 893d 5755 853d
00000340: 80b1 cf3b ee3d 56bd 8694 0d3d 82fa 5cbd
00000350: 60ad ce3c 5ed2 69bd 92cf 61bd 0fd7 5fbd
00000360: a035 1e3b 1126 6fbd f4d4 da3c 66bc 473d
00000370: 5189 9d3d 1e2e 753d c090 7d3c a2a3 193d
00000380: 9e31 413d 9005 973b 94ff 943c e4df c9bc
00000390: 375d 8d3d 82cc 6f3d d003 11bc 80a6 74bd
000003a0: 5023 a9bd 1600 2fbd 87ce 913d 5883 473c
000003b0: bc8f 56bd 584d ff3c 1013 d6bb 18cf 0dbc
000003c0: b719 903d b354 993d 0a03 3c3d 6ede 4d3d
000003d0: 9982 923d 5dbc 18bd 1888 5b3c 0740 22bd
000003e0: be6e 7a3d b249 19bd 0c0b 6abd dc49 993c
000003f0: dde6 983d 6ee1 aabd 1823 08bc cbe8 1ebd
-0.022955902 -0.032408196 0.029014751 -0.03521208 -0.058892645 -0.018300839 -0.0710285 -0.01604721
-0.019354045 -0.05199757 0.055793487 0.004880868 -0.0040499642 -0.045830347 -0.0013718829 -0.0880621
-0.028368097 0.00010867417 -0.029291447 0.021544121 -0.08637438 -0.08511373 -0.030847732 -0.00893791
0.021365203 -0.019745812 -0.06383634 0.049026646 -0.013833858 0.05891823 -0.041509703 0.07939277
0.07832696 -0.015883654 0.022154793 -0.01207225 0.047570713 -0.07599709 0.052750207 -0.0735498
-0.0012293532 0.035784982 -0.072701596 -0.06692253 -0.033674836 -0.038968217 0.035419293 -0.041084696
0.034173958 0.03481313 -0.03450419 -0.024313182 -0.0022345707 -0.0056789294 -0.015099183 -0.05150546
-0.061508488 -0.036119387 -0.04476792 0.03954593 0.06373387 -0.016462192 0.07382301 0.05019317
-0.04802903 0.026114933 -0.07557564 -0.019567966 0.07947294 -0.08054246 0.072929524 0.047128566
0.030870363 0.044925205 -0.025257237 0.023148514 0.059544317 -0.05399994 0.0058105886 0.00600677
-0.039708726 -0.016328804 -0.03797118 -0.037698142 -0.055512205 0.07724864 0.058450364 -0.024106957
0.02460359 0.045300268 -0.054262087 0.085162796 -0.06912707 -0.079929754 0.023816787 0.025547944
0.04308618 -0.028748408 -0.041685443 0.011148319 0.031590283 -0.059518576 -0.054907236 -0.08455028
-0.028204229 0.036626287 -0.06353596 -0.04714657 -0.049780328 -0.036786012 0.026349016 -0.0111533925
-0.016213037 -0.028108574 -0.04557484 -0.024858192 -0.05861926 0.04825396 0.021448553 0.04277327
-0.08395976 -0.07733926 0.047704317 -0.03899186 -0.06987117 -0.053620093 0.009736396 0.04850509
-0.030247193 -0.02686495 0.01652477 -0.04419313 0.04837451 0.040064104 -0.06456893 -0.04624252
-0.05948756 0.048861675 0.034462757 -0.0034815967 0.059585713 0.0125774 0.08024315 0.021607742
-0.043353226 0.0044317916 0.02852983 0.0433748 -0.066606864 0.0029125884 0.05808518 0.05453513
-0.011432856 0.007144794 0.049944587 0.07309755 -0.026008356 -0.082917474 0.0747131 0.053019933
0.08222041 -0.03149773 -0.035530657 0.048841007 0.07481415 0.04099641 0.050680973 -0.061978318
0.023245364 -0.031749886 -0.061244417 -0.02785325 -0.07623802 0.033856742 0.0061986744 0.055232994
-0.032585602 0.061732747 -0.045046963 0.03037601 0.030835047 -0.07346364 -0.035019837 0.0022221059
0.055437453 -0.05346254 0.07579418 0.07384985 0.046648093 -0.061124288 -0.065477416 -0.05738225
0.022146061 -0.041650295 -0.015593335 -0.06366158 -0.06211124 0.004345447 0.039152645 -0.03973742
0.03774395 0.030533709 0.024492927 0.041535072 0.058329232 -0.084522426 0.06732934 0.06510418
0.0063382983 -0.052305155 0.03456547 -0.05394984 0.025229156 -0.057085387 -0.055129595 -0.054648455
0.002414085 -0.058385912 0.026712872 0.048763655 0.07692207 0.059858434 0.015476406 0.037509568
0.04716646 0.0046088174 0.018188275 -0.024642892 0.06902545 0.058544643 -0.008851007 -0.0597291
-0.082586884 -0.04272469 0.0711947 0.012177311 -0.05238317 0.03116481 -0.006533034 -0.008655332
0.07036155 0.07486858 0.045901336 0.050260954 0.07153816 -0.037289012 0.0133991465 -0.039611842
0.06114077 -0.037423797 -0.05713944 0.018711977 0.07465909 -0.083437786 -0.008309148 -0.038796227

rnn.bias_ih_l0 f4 [128]
00000000: 1c5b cbbe deea 023e f88e 44bc c0b7 f7be
00000010: da31 c73e dd82 0f3e 75ba 63be 0808 e03e
00000020: 4a6c a23e 526a df3e 8717 353e 5f86 3bbe
00000030: d0c6 0ebf c8e3 e5be 9e73 ae3e 187b e33e
00000040: ca1c dcbe 297d dcbe 65d4 103e 9331 823d
00000050: 84e0 683e 18fc dabd d0a5 d3be 4928 0ebf
00000060: 7ac3 0fbf 29f4 7b3e 964a 443e 2859 54be
00000070: 7c70 943d 3c51 febe cc98 f3bd 2fb6 93be
00000080: 5385 41be 09ed fd3e 5006 933e 3c27 a53e
00000090: d95a 79be 0b7d f0be 3917 03bf d2e2 b8bd
000000a0: d1f4 8abe c747 25bc 47ef c13e 0328 0c3f
000000b0: 11f2 b8be 23b2 993e 8048 983d cf08 bbbd
000000c0: 2c34 753c b65d 97bc e3d4 8f3e e27d d4bd
000000d0: 0677 10be 8351 e5be e36e afbd f639 973e
000000e0: 84c3 d13e 026f 8dbe e329 9c3e 85b8 27bd
000000f0: e318 21bf 933f 07be e665 81be 5806 dabe
00000100: 8172 a6be 18fc 1b3e 0587 233e 02da 49be
00000110: 165a c03d caf1 ebbe e12f 56be 0abb 073f
00000120: 714b 73be 6e3b 813e 7fff 57be 4634 733e
00000130: cd64 7b3e 37c2 73bd c70f 49be eecb 14be
00000140: 6d79 9a3e 6589 a5bb a0c6 9d3e 6411 c7bd
00000150: cb62 bf3e dfa9 9fbd 75c7 ef3d e7eb a5be
00000160: ae6d 373e 921c dc3e bea5 133f 72c7 c03e
00000170: 4c2d d33c a0f7 f8bd 3ac9 f33d 4fcf a03e
00000180: abb2 82be 1270 6b3e c7b5 733e cedb 953e
00000190: 3b51 843e fe26 283e 07d6 01bf 74fa a1be
000001a0: 0735 81bd c0a7 dcbe 7f06 e23e 2f6d c6be
000001b0: 5c23 2bbd 7fd6 1b3e 4394 a1be 9f34 883d
000001c0: 0dab 8f3e 9afc 68bd 3bc1 673e 7abb ea3e
000001d0: c123 973e a288 433e 01d7 753e 331c d2bd
000001e0: de1f 153e fdb2 b9be 1945 c8bb 335c e73e
000001f0: c1a2 4a3e 3a67 97be 8373 25bf 409c d73d
-0.39717948 0.12784907 -0.011996977 -0.48382378 0.3890522 0.14014764 -0.22239096 0.43756127
0.31723243 0.43635803 0.17684756 -0.18312977 -0.55772114 -0.44900346 0.34072584 0.4442985
-0.42990714 -0.4306424 0.14143522 0.06357112 0.22741896 -0.10692614 -0.41337442 -0.5553022
-0.5615765 0.24604858 0.19169077 -0.20737135 0.07248017 -0.49671352 -0.11894378 -0.28849933
-0.18898515 0.49594906 0.28715754 0.32256496 -0.24351062 -0.469704 -0.5120731 -0.090276375
-0.27139905 -0.010087914 0.37877867 0.54748553 -0.36122182 0.3001872 0.07435703 -0.091325395
0.014966052 -0.018477302 0.28092107 -0.10375573 -0.14107904 -0.4478875 -0.08566072 0.29536408
0.4096948 -0.27623755 0.30500707 -0.040947456 -0.629286 -0.13207845 -0.25273055 -0.42582965
-0.32509235 0.15232885 0.15969475 -0.1971207 0.093921825 -0.46082908 -0.20916702 0.53019774
-0.23759247 0.25240654 -0.21093558 0.2375041 0.24550171 -0.05951139 -0.19634925 -0.14530918
0.30170766 -0.005051779 0.308156 -0.09720114 0.3738006 -0.07796072 0.11707965 -0.32406542
0.17912933 0.42990547 0.5767478 0.37652165 0.025778435 -0.12156606 0.11903615 0.31408164
-0.25526938 0.2299197 0.23799811 0.2926926 0.25843224 0.16421124 -0.50717205 -0.31636393
-0.06308942 -0.43096733 0.4414558 -0.38755175 -0.04178177 0.15218543 -0.31558427 0.06650662
0.2806019 -0.056881525 0.22632305 0.45846158 0.29519466 0.1909509 0.24007799 -0.10259285
0.14562938 -0.3626937 -0.0061117527 0.4518753 0.19788648 -0.29570943 -0.6462938 0.10527849

rnn.bias_hh_l0 f4 [128]
00000000: 1241 e8be a9d2 e33d cdf9 cdbd 7ab3 f4be
00000010: 26d6 cd3e e8cb a43d f480 9fbe d25f c93e
00000020: 5d09 d43e 7699 bf3e e173 323e 4e37 92be
00000030: 6641 d8be d0e4 a8be e2af ab3e eb02 f43e
00000040: df9b aabe 09aa 0bbf dae4 8f3b 2612 26bc
00000050: 489d 8b3e 0100 2bbe 6ed7 09bf 146e 05bf
00000060: c4fa fbbe e6a1 ab3e 0381 143e 68ea b9be
00000070: 46d5 193e d469 edbe 1c4d cb3c 0f35 8abe
00000080: afc3 02be b819 cf3e f3b0 8d3e 4c57 793e
00000090: b1ea 6bbe 6b43 f4be 71c4 04bf c7a3 7fbe
000000a0: 4348 9fbe 4835 483d 0eaa be3e c438 2b3f
000000b0: e8fa babe 0a39 933e eab1 203e 142b e7bd
000000c0: c787 98bc 9d92 5ebc d326 b03e ab6c 81be
000000d0: 764d 68be 8dbc adbe af1b 91bd ce5c 8b3e
000000e0: 6347 a63e 08c7 63be cf26 903e 3767 8c3d
000000f0: 3ebe 28bf cdf2 52be 9597 aabe d8d8 a8be
00000100: 37eb 9abe 2082 593e c0b7 993d e920 92be
00000110: 00f6 d03d ad18 05bf 94f2 89be 1b25 c03e
00000120: 52ae 8dbe cf22 c73e 3bdb 0abe 7422 2f3e
00000130: 7d40 913e 2f4c 04be c9fd 8cbe 0199 c4bd
00000140: 2df5 d03e e4f8 d6bd 433e 9c3e 6135 29be
00000150: 216e 733e 3022 5ebe 0113 1c3d 9e89 95be
00000160: 6522 963e 68ab 8b3e 0e37 213f 1ceb f43e
00000170: 11d2 cabd aec5 c5bd f638 043e b86e c83e
00000180: 7e3e 5cbe 9e52 733e 4f3d b83e 5473 793e
00000190: 3c2f 883e 40ec d03d 74d1 0abf e3bb 8abe
000001a0: e61b 753c 903a f4be 67bd ea3e 5214 f7be
000001b0: 67a6 ccbc 0ba2 1c3e 8247 d2be 3ff0 87bd
000001c0: 1e7b a33e 404a 39be 66d1 a23e f88f ca3e
000001d0: e7c2 963e 7062 8d3e 4179 4b3e cbc7 56be
000001e0: ac3e 3b3e a0f0 98be da84 1c3d 7e23 dd3e
000001f0: 2681 843e 5fd3 18be 2214 fabe 5bbc 1a3e
-0.45362145 0.111241646 -0.10057411 -0.4779318 0.40202445 0.080467045 -0.3115307 0.39330918
0.41413394 0.3742177 0.17427017 -0.2855782 -0.42237395 -0.3298707 0.33532625 0.47658476
-0.33322045 -0.5455633 0.004391295 -0.010136163 0.27268434 -0.1669922 -0.53844345 -0.5212109
-0.49214756 0.33521956 0.14502339 -0.3631165 0.15022764 -0.46369803 0.024817042 -0.26993605
-0.1276996 0.4044931 0.27674064 0.24349707 -0.23038746 -0.47707686 -0.51862246 -0.2496482
-0.3110982 0.048878938 0.37239116 0.6688349 -0.3651955 0.28754455 0.15692869 -0.112875134
-0.018619431 -0.01358476 0.3440462 -0.2527822 -0.22685799 -0.33932915 -0.07085358 0.27219242
0.3247634 -0.22243893 0.2815461 0.06855624 -0.65915287 -0.20600434 -0.33318773 -0.3297794
-0.3025758 0.21241045 0.07505751 -0.28540733 0.10203171 -0.5199078 -0.26942885 0.3752831
-0.27672058 0.38893744 -0.13560192 0.17102987 0.28369513 -0.12919687 -0.27537373 -0.09599496
0.40812054 -0.10496691 0.30516252 -0.16524269 0.2377248 -0.21692729 0.03810406 -0.29206556
0.29323116 0.2727921 0.6297463 0.47835624 -0.09903348 -0.09656845 0.12912354 0.39146972
-0.21508214 0.23761985 0.35984275 0.243604 0.26598537 0.10201311 -0.5422585 -0.2709647
0.014960265 -0.4770093 0.45847628 -0.4825769 -0.02498169 0.1529619 -0.4107018 -0.0663762
0.31929868 -0.1809473 0.31800383 0.39562964 0.29445574 0.27614164 0.19870473 -0.20974652
0.18285626 -0.29871082 0.038212635 0.4319114 0.25879782 -0.14924382 -0.48843485 0.15110914

rnn.weight_ih_l1 f4 [128, 128]
00000000: bd63 bdbe f444 bb3e f55a 993e 3927 b7be
00000010: dc6a d2be 4abc ddbe 21da a9be f8cd cebe
00000020: 26c2 58be 53e3 703e b8d3 ecbe 6173 ad3e
00000030: fdda a5be 55c4 443e fc6f cb3e 43f9 fd3e
00000040: f902 37be fb83 88be 700e 313c 4618 a43e
00000050: 9470 94be 327d 803e 586a 8abe 5119 8bbe
00000060: 0d9e d9be 55f9 3ebe cce6 86be f2d4 483e
00000070: 9b8e a23e 09e2 b23e 0655 833e e59a 6cbe
00000080: 4c2c a9be 18ed ce3e cf07 0bbf 956b 38be
00000090: f843 c5be 0973 a4be 2fde 01bf fbd5 71bc
000000a0: 2408 e3be 6e53 c0be 74b2 863e 7aac 7d3e
000000b0: 8895 9e3e 01b7 a53e c0fa dfbe 8f00 f5be
000000c0: 606f 863e 9cdd 9cbe 86e5 b2be fd7d c73e
000000d0: 62ef babe ffd0 66be dbca 88be 816e 5abe
000000e0: 6876 babe 4f96 d23e 0857 b13e 0583 e43d
000000f0: 0855 abbe 84af 03bf 5305 0abf 66a3 b4be
00000100: 35fe 973e 0c81 f2be 76ab b93e 2c0d e7be
00000110: b646 e73e 75ad e1be 2ae0 4fbe c1cc 923e
00000120: fbb7 debe 238e 8e3e ce29 d73d 264c 76be
00000130: 96f2 5cbe 4fcf d53e 8833 01bf 3f5e 063f
00000140: 05d0 bbbe eec9 3c3e 65d5 9b3e 4fa1 a23d
00000150: be12 8dbe fbdd 01bf d9f3 38be 9cc3 a93e
00000160: d1ff de3e 70aa 193f 6f25 8e3e 7e10 56be
00000170: 099a f7be e81d d8be bfa4 eabe a8fc a3be
00000180: 2860 b2be 27e1 adbe 359f d53d 9dc2 30be
00000190: 1c76 d93d 8bbc e2be 4793 87be 9654 c3be
000001a0: 82bc 943e d199 f6be 08b0 0b3f 72bb bbbe
000001b0: 2042 d23e 5cb8 803e eead f7be 4d8e 803e
000001c0: 61dd 7c3e f8c0 b23e 62d2 d43e 5227 be3e
000001d0: 44a0 c93e 8be0 80be 68f2 7d3e f774 af3e
000001e0: a0bb 7a3e 40da f6be 5c2d ca3e 96cd c73e
000001f0: 9ffa fabe 77d5 a83e 23b0 ddbe b36f 993e
00000200: 0e18 01bf 4aa1 35be 97ea a23e 6337 4a3e
00000210: 69d9 eebd 627e 26bd 8e86 093f aaef b7be
00000220: 1ec6 8bbe 1e2b fd3e 4038 443e ae95 93be
00000230: 3fb1 643e d5bb 4e3e bfdf c23e 011f f23e
00000240: 0ec0 7f3e 5410 a43e 1337 5cbe c8a6 1bbe
00000250: 6334 513e d1a6 f6be 7a55 143e 4745 803e
00000260: 9e07 0cbf 41d6 973e 2b87 af3e acdf 13be
00000270: dfe1 9dbe 0e6f c8be 0586 143e c788 dabe
00000280: d6ee 863e ddec 59be 5178 283e 54e7 ad3e
00000290: b278 743e c59c e63e f78b cf3e f367 31be
000002a0: 4e93 a63e 868d 5c3e 77bf 65be 5901 df3e
000002b0: 5eea b93c af38 14be 499b 02be 441e aebe
000002c0: 044b 7dbe 930a ad3e 9cb3 5f3e 8d17 c5bd
000002d0: d7d5 183e 262a 503e 29c2 c7be 8b3e 5dbe
000002e0: 3f34 9abe 2b4c 92be 168b aebe 4af1 51be
000002f0: 0a6e 9c3e bd3a 8d3e 9a9d 06bf 586a 97be
00000300: 1789 aebe e2bb 423e 6ad9 a9bd 0fbc e33e
00000310: f0fe 7cbe 50f1 8fbe 5370 e23e 017f 573e
00000320: 7b70 973e 82cc 77be 88f5 80be c05a 05be
00000330: 2d1b 9b3e 15cf e93e c853 3f3e a0e8 93be
00000340: 68c5 c43e 6874 f5be c562 c73e b763 423e
00000350: fe50 dbbe 08b7 02bf 25b1 3a3e 2ca5 2fbe
00000360: 1421 33be da43 06be 80a3 bdbe 1ce8 c53e
00000370: d565 953e bd08 2a3e 23b2 613e 011a acbe
00000380: 39a6 a83e 6559 a63e 7668 84be 1226 763e
00000390: 1b02 a1be f457 843e c139 b13e 9177 953e
000003a0: 1cbc efbe ace0 953e f70b 32be cc3b 3b3e
000003b0: 2f60 5abe ea1f 81be 29d3 f83e bc65 41be
000003c0: 52f4 803e 8827 2bbd d9b7 9dbe 9769 cbbe
000003d0: 040d cdbe 385b 1c3e 4482 653e 110c 7abe
000003e0: a50d cb3e 725d 733e 145d cabe 7856 96be
000003f0: 7e28 713e 7daf 8abe 2035 06bf 1cf4 8dbe
-0.36990157 0.36576045 0.29952207 -0.35772112 -0.41097152 -0.43307716 -0.33174232 -0.40391517
-0.21167812 0.23524217 -0.4625528 0.3387709 -0.32393637 0.1921552 0.39733875 0.49604234
-0.17872228 -0.26663193 0.010806665 0.3204977 -0.2899214 0.25095516 -0.2703426 -0.27167752
-0.42503396 -0.186498 -0.2634796 0.19612482 0.31749424 0.34938076 0.25650805 -0.23105963
-0.33041608 0.40415263 -0.5430879 -0.1800979 -0.3852842 -0.32119015 -0.5072965 -0.01476049
-0.44342148 -0.37563652 0.26308024 0.24772826 0.30973458 0.32366183 -0.43745995 -0.4785199
0.26256847 -0.30637825 -0.34940737 0.3896331 -0.3651076 -0.22540663 -0.26717266 -0.21331216
-0.36418462 0.411303 0.34636712 0.111578025 -0.3346331 -0.5143969 -0.53914374 -0.35280913
0.29686132 -0.4736408 0.36263627 -0.45127237 0.45171136 -0.4407765 -0.20300356 0.2867184
-0.4349974 0.27842817 0.105060205 -0.24052486 -0.21576914 0.41759726 -0.50469255 0.5248756
-0.36682144 0.18436405 0.30436245 0.079409234 -0.27553362 -0.5072934 -0.1806177 0.3315705
0.43554547 0.6002569 0.27762935 -0.20904729 -0.48359707 -0.42210317 -0.45828816 -0.320287
-0.34838986 -0.3396084 0.10430757 -0.17261739 0.10618231 -0.44284472 -0.2647955 -0.3815047
0.2905007 -0.48164228 0.5456548 -0.36666447 0.41066074 0.25140655 -0.48374885 0.25108567
0.24693824 0.34912848 0.4156676 0.37139374 0.39380085 -0.25171313 0.24799502 0.34268925
0.24485636 -0.48213387 0.3948773 0.39024037 -0.49019334 0.3297536 -0.43298444 0.29968032
-0.5042733 -0.17737308 0.31819603 0.19747691 -0.116625614 -0.04064787 0.5372094 -0.35925037
-0.2729959 0.49446958 0.19162083 -0.28825134 0.22333239 0.2018884 0.3806133 0.4728928
0.24975607 0.32043707 -0.21505384 -0.15200341 0.2043014 -0.48174146 0.14485732 0.25052854
-0.5469912 0.2965565 0.34282812 -0.14440793 -0.30836388 -0.39147228 0.1450425 -0.42682478
0.26354092 -0.21281762 0.16452147 0.33965552 0.23874167 0.4504148 0.40536472 -0.1732481
0.3253426 0.21538362 -0.2243632 0.43555716 0.022694763 -0.14474748 -0.12754549 -0.34007466
-0.24735647 0.3379713 0.2184586 -0.096236326 0.14925323 0.20328578 -0.3901532 -0.2160589
-0.30117986 -0.28573737 -0.3409049 -0.205022 0.30552703 0.27583876 -0.5258423 -0.2957332
-0.34088966 0.19016984 -0.082934216 0.44479415 -0.24706626 -0.28113794 0.44226322 0.21044542
0.29578003 -0.24199107 -0.25187325 -0.130229 0.3029417 0.45665804 0.18684304 -0.28888416
0.3843186 -0.47940373 0.38942543 0.1898335 -0.4283523 -0.51060534 0.18231638 -0.17152852
-0.17493087 -0.13111821 -0.37038803 0.38653648 0.29179254 0.16604896 0.2204061 -0.3361359
0.32939318 0.32490078 -0.25860947 0.2403796 -0.3144692 0.25848353 0.34614375 0.29192784
-0.46823204 0.29272974 -0.17387377 0.1828453 -0.21325754 -0.2521966 0.48598602 -0.18886465
0.25186402 -0.041785747 -0.30804327 -0.39728996 -0.40048993 0.15269172 0.22412974 -0.24418665
0.39658847 0.23766115 -0.39524138 -0.29362845 0.23550603 -0.27087012 -0.5242481 -0.27725303

rnn.weight_hh_l1 f4 [128, 128]
00000000: 7685 45bd 4100 833d b842 96bd 9833 9dbc
00000010: aa59 1c3d 2965 a03d 8ba6 883d 6c43 8ebc
00000020: 42d5 343d e8d6 65bd db8b 94bd 6f0a 6bbd
00000030: 60bc d2bc a7a7 1bbd 6abf 6e3d 7ced ab3c
00000040: 8036 e13c 38f1 9f3c dd78 2cbd b331 913d
00000050: 0ae5 7e3d 2916 a23d 9ce2 ab3c b388 8a3d
00000060: 1e09 a6bd b25c 453d 7ac7 103d 8a41 8fbd
00000070: 0f3a a53d c237 3cbd d0c3 693c 9035 8c3c
00000080: 501a 3ebc b174 9abd e085 7cbc d3bb 2fbd
00000090: 80ee 86bb 050f 9ebd b384 b3bd 5f38 8c3d
000000a0: ed75 0cbd f82d 6dbc 7a70 7f3d e8fb f4bc
000000b0: d40e 0d3d 2e2e 70bd 00e4 8f38 72a8 393d
000000c0: 44c6 af3c 46b1 3e3d 6636 453d e8dd f3bc
000000d0: c41b 67bd deca 503d d057 acbd c090 97bd
000000e0: a492 36bd dfd8 993d 394e 8d3d 885a c3bc
000000f0: 88aa 6cbc eeae 01bd 5c3d 8bbd 6009 503c
00000100: f0b6 86bd 00f4 90ba 9f25 9f3d f2db 3e3d
00000110: d35b 9b3d e6eb 723d 926e a6bd f8f0 26bc
00000120: 0963 23bd eb42 3ebd 983f 33bc eed1 5f3d
00000130: 9454 fabc e470 d33c ccc9 8e3c 20f1 a9bd
00000140: e45c 95bc fc4e ccbc 8235 e6bc 1079 bf3c
00000150: d0e0 503c 4900 8e3d d322 a23d 580e bc3c
00000160: 4c0e bdbc a095 ce3c 40ef 5ebd 4821 d23c
00000170: f83b 253c 844a ab3c 207c d73b 3a8c 3b3d
00000180: 8dc5 a93d 6871 69bc 24b8 4bbd 521c 313d
00000190: 7d56 a1bd 9db6 32bd 3004 d0bb 5368 843d
000001a0: 8df4 8f3d 15b4 923d 0fd9 a83d 836b b1bd
000001b0: f7b0 9fbd 8ccc 103d 70ec 9bbc c6a2 283d
000001c0: 5e29 adbd 70e2 a53b d3ff 873d 803f 01bb
000001d0: 838e 813d 76d0 2c3d b8b3 56bc 1cc3 9fbd
000001e0: 00fd 1d3c a3ce 8e3d 3fc8 00bd 8009 21ba
000001f0: 9c30 f1bc d88e 96bc 0aa6 50bd e2d3 5e3d
00000200: 9331 a13d 10e0 be3b bdb7 843d 59da 8cbd
00000210: 002d 72ba 32f8 b3bd 5ab7 24bd 8609 7fbd
00000220: b357 b43d 40ea 09bc 1506 a7bd 83b9 18bd
00000230: 510b 8d3d a2f2 373d 8a44 473d 002c a0bc
00000240: a4df a83c 003e 3dbc b8b0 77bd aee0 3cbd
00000250: b83c 273c 90f6 e23c 62de 303d c02a bfba
00000260: 803d 043c aeb8 373d 14a6 a4bd 62c3 13bd
00000270: d01c 85bb 80ab fe3a e4ac b4bc 4dbd b3bd
00000280: 15bb 883d 27b2 993d 8854 823c adb8 823d
00000290: 12b3 3c3d 0681 afbd 40b7 043d baab 6a3d
000002a0: e292 4b3d 9653 6e3d 400f b1bb 2ad0 6f3d
000002b0: 74a5 17bd 2229 163d fec1 183d cd38 ad3d
000002c0: 4456 0fbd 6038 df3b e62c 4e3d 86e0 4dbd
000002d0: fa5d 663d 50f0 10bc e64e 333d 7c33 a03c
000002e0: 0724 2fbd 22ca 6a3d 84d9 f63c 4467 b03c
000002f0: 42f2 3d3d 5a74 7dbd f924 aa3d fd2b 60bd
00000300: a9aa 883d 4a95 193d 1053 7f3c 619d a13d
00000310: 0839 bf3c 9894 e5bc 8e57 783d a65a 4e3d
00000320: 24c1 70bd 5675 f8bc 4076 5c3c 5a06 4f3d
00000330: 8364 963d dcd9 d23c b699 243d f78d a6bd
00000340: 6ae1 9bbd c796 9dbd 161c a1bd a041 d83c
00000350: 7fd2 993d 8c86 e0bc b0e5 9fbc a874 29bc
00000360: 0064 ccb8 2809 4dbc c7ad 813d ddeb 913d
00000370: 4cd3 36bd 9048 0a3d e801 aabc a8e5 94bd
00000380: 7a4c 6d3d ed21 a53d 09a7 9d3d a08c f73c
00000390: 6077 74bb 1583 56bd f8ba 60bd 10b3 80bc
000003a0: a6fa 433d 96d3 49bd f21a 743d b453 cebc
000003b0: 403f fc3c 30da 253c 881d afbc 4002 d4bc
000003c0: eefc adbd d4d2 b9bc 6c4a 18bd b4a3 b0bc
000003d0: 766c 7bbd 0957 b3bd f0bb 87bd 9cb6 b03c
000003e0: 8047 8fba 4824 b1bd 0ba8 a0bd 2034 003b
000003f0: ec92 59bd d00a 5fbc 7e19 1c3d afe1 833d
-0.04822298 0.06396533 -0.07336944 -0.01918964 0.038171448 0.07831795 0.066723906 -0.017366134
0.04414869 -0.056113154 -0.07253238 -0.057382997 -0.02572459 -0.038001683 0.058288015 0.020987265
0.027491808 0.019524202 -0.04210745 0.070895575 0.062230147 0.07914383 0.02098208 0.067643546
-0.08107208 0.048184104 0.035346486 -0.069949225 0.080677144 -0.045951612 0.014267877 0.017115384
-0.011602953 -0.07541788 -0.015412778 -0.042903733 -0.004117787 -0.077177085 -0.08765545 0.068466894
-0.03429215 -0.014476292 0.062363125 -0.029905275 0.03443797 -0.05863779 6.86124e-05 0.045326658
0.021456845 0.04655578 0.04814758 -0.0297689 -0.056422964 0.05097472 -0.084151864 -0.07400656
-0.04457344 0.07512068 0.068996854 -0.02384688 -0.014444955 -0.031660967 -0.06798813 0.012697548
-0.06577861 -0.0011059046 0.077708475 0.046596475 0.075858735 0.059307 -0.08126558 -0.010189287
-0.03988937 -0.046450537 -0.010940455 0.054643564 -0.030557908 0.025810666 0.017430209 -0.08297944
-0.01823277 -0.024940006 -0.028101686 0.023373157 0.012748912 0.06933648 0.079167984 0.022956058
-0.023078106 0.025217831 -0.054427385 0.025650635 0.010085098 0.020909555 0.006576076 0.045788027
0.08289633 -0.01424823 -0.049736157 0.0432399 -0.078778245 -0.043631185 -0.0063481554 0.06465211
0.07029066 0.07163254 0.08244526 -0.08663084 -0.07797425 0.03535132 -0.01903364 0.041170858
-0.08455156 0.005062394 0.066405915 -0.0019721687 0.0632601 0.04219099 -0.013104372 -0.07800886
0.009642839 0.069730066 -0.03144097 -0.0006143078 -0.029442124 -0.01837866 -0.050939597 0.054401286
0.07870784 0.00582505 0.06480358 -0.06877584 -0.0009238273 -0.08787574 -0.04021392 -0.06226494
0.0880579 -0.008417666 -0.08155457 -0.037286293 0.06886924 0.044909127 0.04864935 -0.01955223
0.020614453 -0.0115504265 -0.060471267 -0.04611271 0.010207348 0.02770546 0.04318083 -0.0014584884
0.008071303 0.04485386 -0.080394894 -0.036075003 -0.0040622726 0.0019429773 -0.022055097 -0.08776341
0.06676308 0.07504683 0.015909448 0.0638288 0.046069212 -0.08569531 0.032401323 0.057292677
0.049700625 0.058185183 -0.0054034293 0.05854813 -0.037023023 0.03666032 0.03729438 0.084580995
-0.03499438 0.0068121403 0.050335787 -0.05026295 0.056241967 -0.008846357 0.043776415 0.0195558
-0.042758968 0.057321675 0.030133016 0.021533616 0.046373613 -0.06187854 0.08307833 -0.05472945
0.06673176 0.03749589 0.0155837685 0.07891346 0.023342624 -0.028024957 0.060630374 0.050379418
-0.058777943 -0.030329388 0.013455927 0.050543167 0.0734339 0.02573865 0.040185653 -0.081325464
-0.07611354 -0.07694774 -0.07866685 0.02639848 0.07510852 -0.027407907 -0.019518703 -0.010342754
-9.7461045e-05 -0.01251439 0.063319735 0.071250655 -0.044635102 0.033760607 -0.020752862 -0.07270366
0.05793426 0.080631115 0.07697875 0.030218422 -0.0037302598 -0.052371103 -0.054865807 -0.015710384
0.04784646 -0.04927405 0.05959601 -0.025186397 0.030791879 0.010122821 -0.021376386 -0.02587998
-0.08495508 -0.022683538 -0.03718035 -0.021562435 -0.061382733 -0.08756835 -0.06627643 0.02157145
-0.0010931343 -0.08649498 -0.07844552 0.001956232 -0.05311863 -0.013613418 0.03811025 0.0643953

rnn.bias_ih_l1 f4 [128]
00000000: e7a5 9f3e f8ef 91be c8df 623d 0dd2 b13e
00000010: 266e dcbe a8e8 233e ee46 e2be 7f9e a2be
00000020: a14e d93e f248 803e d822 04bc 4c20 4d3e
00000030: 9199 cabe 2053 cfbe 6e42 74be 443d ccbe
00000040: ac3d a63e b206 c6be 2217 9bbe 5a23 d53e
00000050: 3ba5 08be 7e38 60be 90a3 ad3e 7e88 7e3e
00000060: 9bf3 7dbe caf6 a03e 2063 093c bb96 23be
00000070: f577 cebe 9912 31be e03e b63e 1035 4ebd
00000080: b3f8 a3be 4ae8 cdbe 8985 cebe aa87 cb3e
00000090: 3b55 033e a579 a73e 3732 87bd 8b92 c53e
000000a0: 4de8 02bf 0554 fd3d 0224 cdbe 1da1 dd3e
000000b0: d471 b53e 13b2 aabe 24fd 9d3e 4a66 b93e
000000c0: d5db ff3e 060a 18be f39f 983e 56f9 e2be
000000d0: 13e0 9e3e f265 79be 008d d53e 075d 883e
000000e0: 471d a43d 9682 f1be 25e0 b63e 4c94 e9be
000000f0: e35e d2be 60ca d6be 6ca3 a33e 60f3 f9be
00000100: 4ba6 793e 0e55 8e3e 7e4a c5be b882 a63e
00000110: f472 e93e 5838 dcbe 6dc1 743e f5a2 863e
00000120: cf7f bf3e 21e0 993e 49ec a03d b5ec e7be
00000130: 4496 9dbe 738c 0ebe db8e 55be ccfc 193e
00000140: 58e9 a93e 3753 933e 78c5 993e b560 dd3e
00000150: 4794 ba3e 4383 363e d0c3 b0bd 6598 d2be
00000160: 8852 c93e 7fc0 d93e c1c6 893e 2a46 9bbe
00000170: 51a9 0b3e 4061 a43e a73c 963d 2afd 303e
00000180: 63c8 32be 22de 403e c9ce b3be 9513 ca3e
00000190: 85a0 8d3e 121f 1ebe 628b 44be bcb2 ed3e
000001a0: 7ed3 c5bd fe06 91be 7e52 cebe a698 f9be
000001b0: c02a 27bc 310c 07bb 9181 813e eb92 ec3d
000001c0: 1dc0 d4be 84cb 6bbe 7bac c93e 91a8 b3be
000001d0: 756d e83e 837e ae3e ff2e 4bbe 314a fabe
000001e0: d771 133f cff7 47be f205 fc3e e610 9fbe
000001f0: 7593 de3e 49ff 713e af84 aebe 76db 053e
0.3118126 -0.28503394 0.055389196 0.3473057 -0.43052787 0.1600672 -0.4419474 -0.31761548
0.42442802 0.25055653 -0.008064948 0.20031852 -0.39570287 -0.40493107 -0.23853466 -0.39890492
0.32468927 -0.38676983 -0.30291086 0.41628534 -0.1334428 -0.2189655 0.3391385 0.24856755
-0.2479996 0.31438285 0.00838545 -0.15975468 -0.40325895 -0.1729225 0.35594845 -0.050343573
-0.3202568 -0.40216285 -0.40336254 0.3975194 0.12825482 0.32709995 -0.066013746 0.38588366
-0.5113571 0.12369541 -0.40066534 0.43286982 0.35438406 -0.33338985 0.30857193 0.36210853
0.49972406 -0.14847574 0.29809532 -0.44330853 0.3103033 -0.24355295 0.41709137 0.26633474
0.08013397 -0.47169942 0.35717884 -0.45620954 -0.41088018 -0.41951275 0.31960618 -0.48818493
0.24379842 0.27799267 -0.38533396 0.32521605 0.45595515 -0.43011737 0.23901911 0.262962
0.37402198 0.3005381 0.07857568 -0.4529778 -0.30778706 -0.13920765 -0.20855276 0.1503784
0.3318584 0.28774425 0.3003347 0.43237844 0.36441252 0.1782351 -0.08631098 -0.41131893
0.3932078 0.42529675 0.2690945 -0.30326968 0.13638808 0.32105446 0.07335787 0.17284074
-0.17459254 0.18834737 -0.35118702 0.39468065 0.2766153 -0.1544154 -0.19193795 0.46425426
-0.096594796 -0.28325647 -0.40297312 -0.48749274 -0.0102030635 -0.0020606632 0.25294164 0.1155146
-0.4155282 -0.23026854 0.39389405 -0.35089543 0.4539601 0.34080896 -0.19842146 -0.4888473
0.5759558 -0.19528125 0.49223286 -0.3106758 0.43471876 0.2363254 -0.34085605 0.13071999

rnn.bias_hh_l1 f4 [128]
00000000: a3ff be3e 53bc 69be 839c 3a3e 6c52 f73e
00000010: 9f2b fbbe 1da7 033e 8a61 a7be 786d 87be
00000020: 8789 cd3e 19c9 c23e ebf2 8b3c 8d8d fd3d
00000030: 6b11 dcbe a0fe f0be 22f3 b0bd 9ce3 d8be
00000040: ffc0 a53e 39fd 98be 1b87 5bbe defb c63e
00000050: a165 5cbe 12fd 3cbe b05b d13e 4dce 983e
00000060: ff4a 88be 0572 a43e c77c bf3c cabd 48be
00000070: 9707 febe 1389 1bbe 8a2b f43e 64a7 35bd
00000080: 7fbc 37be 7415 bcbe 3dff 9dbe e69b f63e
00000090: 1358 4a3e 9ae9 963e 616a 753c c6a7 a63e
000000a0: b0d7 debe 627f 263e 74e7 95be 6c8d 053f
000000b0: 34d3 9e3e c0dd 6fbe 0e5b 913e 5e5b 553e
000000c0: 6053 fb3e 5ac6 0fbe 12bb ad3e a57b dabe
000000d0: c5cc bd3e f781 84be f09f d43e 97d0 863e
000000e0: e970 433e 0c53 ccbe 390b c13e 380d edbe
000000f0: 2eef a5be 6b7e a0be c943 f23e ab96 adbe
00000100: adb3 833e 7ae0 a03e dbbc 9ebe 3038 923e
00000110: e10b 033f 003e ebbe a631 993e b808 ba3e
00000120: 5923 ae3e 9b1d 9e3e 3588 a83c c3d6 cebe
00000130: b9d3 7bbe a92a 73be f930 99be 1227 0e3e
00000140: 05f1 c53e 4fe4 b93e 4530 973e 0863 db3e
00000150: b101 ed3e 26a7 a23d ef7f 333d bd9e c6be
00000160: eab3 963e f073 ba3e 7d23 cc3e 1737 dabe
00000170: 27f9 ad3d 921e 5e3e f75c a3bc 71fa 9b3e
00000180: 03c3 91be 45be 373e 2594 cebe bd41 b93e
00000190: afe0 8e3e 4ba3 62be 3da7 46be 9501 f23e
000001a0: 1694 66be 1fee adbe c144 b2be 1340 06bf
000001b0: e917 44bd 14eb 2fbb 5e94 553e cba9 fc3d
000001c0: d562 f5be f2d5 9dbe 5308 bb3e bcf5 88be
000001d0: c0a6 ab3e f8dd c13e 9bf7 f2bd 87dc bfbe
000001e0: a81c 133f 11e3 64be 0618 013f b231 91be
000001f0: d160 e93e f9b7 263e 1540 b2be a33f 4b3e
0.3730441 -0.22825746 0.18223767 0.4830507 -0.49056718 0.12856717 -0.32691604 -0.26450706
0.40143988 0.3804405 0.017083606 0.12380514 -0.4298204 -0.47069263 -0.08640124 -0.42361152
0.32373807 -0.29880694 -0.21438257 0.38864034 -0.21523143 -0.18455914 0.40890265 0.29844895
-0.26619717 0.3211824 0.023374928 -0.19603649 -0.49615166 -0.15189008 0.47689468 -0.04434909
-0.17943 -0.36735117 -0.30858794 0.48165816 0.1976016 0.294751 0.014978976 0.32549876
-0.43523932 0.1625953 -0.29278147 0.5216892 0.3102051 -0.23424435 0.28389782 0.20835635
0.49087048 -0.14040509 0.33931786 -0.42672458 0.3707029 -0.25880405 0.41528273 0.26331016
0.1908604 -0.3990711 0.37703875 -0.46299148 -0.32409042 -0.3134645 0.4731734 -0.33904013
0.2572302 0.31421262 -0.3100346 0.28558493 0.5119 -0.4594574 0.2992069 0.36334777
0.34011343 0.30881962 0.020572761 -0.40398225 -0.24592485 -0.23746742 -0.29920176 0.13882092
0.38660446 0.36306998 0.29529014 0.42848992 0.46290353 0.07942037 0.04382318 -0.38792983
0.2943414 0.36416578 0.39870825 -0.42620155 0.08494788 0.21691349 -0.01994179 0.3046451
-0.28469095 0.17943676 -0.403474 0.36182967 0.27905795 -0.22132604 -0.19399734 0.47266832
-0.22517428 -0.33970734 -0.3481808 -0.5244152 -0.047874365 -0.0026842998 0.20857379 0.12337073
-0.47926965 -0.3082729 0.36529788 -0.2674998 0.33525658 0.3786466 -0.11863633 -0.37472937
0.574656 -0.22352244 0.5042728 -0.28358227 0.45581678 0.16281117 -0.34814516 0.19848494

rnn.weight_ih_l2 f4 [128, 128]
00000000: fccb 5f3e 07f5 74be 54ae 1cbe 4e9d 7f3e
00000010: 6eea e43e 9634 b7be f3e0 b43e 6ab8 afbe
00000020: b2e6 b0be 1b75 f6be e9f8 ce3e 8482 9c3e
00000030: af3a 5c3e f92c d43e e10e da3d f868 8c3e
00000040: 4a37 97be 4cd6 ab3e bf46 a33e fec1 d3be
00000050: 8d31 9a3e 058b 9dbe 478e b7be 983a a03e
00000060: 4f7a 47be 236f 5cbe e24c bcbe d7dc af3e
00000070: 5866 ef3e f54f 513e 645b 933e 4d3e f53e
00000080: 9c5c dc3e 2bd7 ef3e c9ae 0f3f 768a 28be
00000090: f5bd 9c3e b130 8ebe 5166 bd3e 235a c1be
000000a0: 0f29 af3e 7e4f adbe 5d63 a43e c89c 73be
000000b0: 27ab a8be 589e 583e 97c0 683e 879f 74be
000000c0: de44 b5be 9feb a93e 0da1 90be c387 8e3e
000000d0: b730 adbe 42ae 7b3e 9cdf 00bf bee3 88be
000000e0: d840 5f3e 7f5b b53e 6397 99be db1e 903e
000000f0: fa09 023f fa2e c53e e6ec 9fbe 121e 013e
00000100: ca74 90be 7406 53be 807f 033f 22b7 a73e
00000110: 7fd3 d4be b35b 36be 4b94 63be ad3a 89be
00000120: f5c1 81be de6f 413e d19c a83d b561 ab3e
00000130: c193 503e 1ab0 2b3e 16c0 21be 8fda aabe
00000140: a2b8 febe c18a 963e 44b3 7e3e 9fdb b7be
00000150: 9523 e8be 810d 72be df1d e63d 5c35 703e
00000160: a582 8bbe 895a abbe 9e7f b9be a2b9 363e
00000170: 5383 a9bd b78a bbbe 7705 a43e 5998 a5bd
00000180: 2791 4a3e de3f b43e 5bf2 b03e 4f00 99be
00000190: c8de 90be afc6 93be 4c59 f13e 0fcf c3be
000001a0: 5420 00bd 5105 ef3e 9dea af3e 5d0c 943e
000001b0: bc2b 96be d020 cd3e 8639 a03e bc29 80be
000001c0: a0ed a0be 7970 8b3d 3e43 c4be 004c c13e
000001d0: 89ce a3be 36f9 a73e 4923 b23e 38dd c33e
000001e0: 7733 abbe e938 ae3e 3d07 b7be d1c3 973e
000001f0: 484e 5e3e 46e8 593e 1cb6 8a3e cdfc 313e
00000200: 9508 593e 57e0 9bbe 5183 e2bd 0dbf a73e
00000210: 4659 18be dcfb ffbd 7bf5 c33e 825e 033f
00000220: fae2 3b3e 5e83 77bc 0d08 ae3d 5325 bdbe
00000230: bec0 80be 40b8 dbbd fd8e d53e 5e0d 03bf
00000240: 8c85 973e 567f e2be 5a07 87be 086c ae3d
00000250: 2d6a ee3e 6ba3 be3e b71d 3b3d fe6c dfbe
00000260: 0af7 e4bd 323c 59bd d67a aebe 1965 063f
00000270: 8471 88be fca9 c1be 1386 1cbf 31f7 9e3e
00000280: 8593 04be fb28 993e 8a29 8dbe 893d 03bf
00000290: a09d 953e 7068 423e d8b1 64be 39df 3e3e
000002a0: c051 b63e 2630 8a3e b1a6 46be a289 823e
000002b0: a2fb 0fbf f131 96be b07d 443e e169 0bbe
000002c0: 6602 d63e e6a8 b1be 003c a7be 60b2 05bf
000002d0: 23a2 b73e a8c7 75bd 83a1 dcbe 6442 993e
000002e0: d9be d5be df95 3abe 4192 0c3e 2d02 043f
000002f0: 43fe 1fbe 1e88 27be 0af5 88bd 55cd 2ebd
00000300: 4dff 54be 4414 f5be 1e5d 28be ad54 cabe
00000310: eb2e 413e 8fae 0a3f 87a1 a53e d67b c83e
00000320: d326 9d3e 950e e43e e20d a53d ad93 66be
00000330: 5049 713e 65e6 e03e 0f97 18be 5f9b 14bf
00000340: 7d91 363e 6993 3c3e d714 8f3e 902b a43e
00000350: cdee 663e 96ba 2a3e a158 b7be 39e1 c33e
00000360: fdd3 203e 2980 523e 6280 d43e 64b7 0e3f
00000370: 85d3 d43e c7df afbe 53e7 9c3e 98ea e93e
00000380: aab7 5e3e c111 253e c5de 3dbe ec6c 11bf
00000390: 9480 e73d 23bb 20be 96b0 a2be e316 3e3e
000003a0: eda9 b73e 18b0 e03e 24a5 7f3e 5709 b0be
000003b0: eae5 d33e 0ce7 36be 4c31 3c3e c428 79be
000003c0: 25d5 76be bcc7 85be 902b af3d 8683 f33e
000003d0: 2b85 953e 1954 c53d 5997 8fbe 85a6 c5be
000003e0: b736 733e 29f7 e23e bedc a2bd 84c6 8b3e
000003f0: a377 4b3e 206c 393e c055 fb3c f51f c9be
0.21855158 -0.23921596 -0.15300876 0.2496235 0.44710106 -0.35782307 0.35327873 -0.34320384
-0.34551007 -0.4813622 0.40424278 0.30568326 0.21506761 0.4144056 0.10647369 0.27423835
-0.2953437 0.33561933 0.31889912 -0.41358942 0.3011593 -0.30770126 -0.35850736 0.31294703
-0.19480251 -0.2152677 -0.36777407 0.34348175 0.4675777 0.20440657 0.28780663 0.47899094
0.43039405 0.46843848 0.56126076 -0.16459069 0.30613676 -0.27771524 0.36992124 -0.3776408
0.34211013 -0.3384971 0.32107058 -0.23790276 -0.3294308 0.21154153 0.22729717 -0.2388898
-0.35404104 0.33187577 -0.28247872 0.27837953 -0.3382623 0.24578193 -0.503412 -0.26736253
0.2180208 0.35421368 -0.2999831 0.2814854 0.50796473 0.38512403 -0.31235427 0.12609127
-0.28214103 -0.2060793 0.51366425 0.32756907 -0.4156761 -0.17808418 -0.22224538 -0.2680258
-0.2534329 0.1889033 0.08233035 0.33472982 0.20368864 0.16766396 -0.15795931 -0.33369872
-0.4975024 0.29402736 0.24873072 -0.35909745 -0.45339647 -0.23637964 0.11236166 0.23457855
-0.2724811 -0.3346751 -0.36230177 0.17844251 -0.08277001 -0.3662927 0.3203542 -0.08085699
0.19781934 0.35204977 0.34559903 -0.29883048 -0.2829497 -0.2886252 0.4713844 -0.3824391
-0.03128083 0.46683744 0.34358683 0.28915682 -0.29330242 0.40064096 0.31293887 -0.2503184
-0.31431293 0.06808562 -0.38332552 0.37753296 -0.3199351 0.3280732 0.34792545 0.38254714
-0.33437702 0.34027794 -0.3574771 0.29641584 0.2170955 0.21280012 0.27092063 0.17381592
0.2119468 -0.30444595 -0.11060203 0.32762948 -0.14877805 -0.1249921 0.38273224 0.5131608
0.18348303 -0.015107004 0.08497629 -0.3694254 -0.2514705 -0.10728502 0.41710654 -0.5119227
0.29594076 -0.44237775 -0.26372796 0.08516699 0.4656538 0.37234053 0.045682635 -0.43637842
-0.111799315 -0.053035922 -0.3407809 0.5249801 -0.26649106 -0.37825 -0.6114208 0.31047967
-0.12946899 0.29914078 -0.27570754 -0.5126577 0.2922182 0.18985152 -0.22333467 0.1863984
0.35609245 0.2698986 -0.19399525 0.2549563 -0.56243336 -0.29334977 0.19188571 -0.13614608
0.41798705 -0.34699172 -0.32662964 -0.52225304 0.35865888 -0.06000486 -0.43091974 0.29933465
-0.41747168 -0.18221234 0.13727666 0.5156582 -0.15624337 -0.16360518 -0.066873625 -0.04267629
-0.20800515 -0.47867024 -0.16441771 -0.39517727 0.18865554 0.54172605 0.32349798 0.3915698
0.30693683 0.44542375 0.080592886 -0.22517271 0.23563123 0.43925777 -0.14901374 -0.5804958
0.17828937 0.18415608 0.27945587 0.32064486 0.22552033 0.1667274 -0.35809806 0.3825777
0.15705867 0.20556702 0.41504198 0.5574858 0.41567627 -0.34350416 0.30645236 0.45686793
0.2174975 0.16120054 -0.18542011 -0.56806827 0.11303821 -0.15696387 -0.3177535 0.18563418
0.3587183 0.4388435 0.2496534 -0.34382126 0.41386348 -0.17861575 0.1837818 -0.24331957
-0.24104746 -0.26128948 0.08553231 0.47561282 0.29203162 0.09635181 -0.28045157 -0.38603607
0.23751341 0.44329193 -0.079522595 0.27299893 0.19869857 0.18107653 0.030680537 -0.39282194

rnn.weight_hh_l2 f4 [128, 128]
00000000: 1824 ae3c 48e2 e33c b4f3 a5bc 44cc 0d3d
00000010: ca44 a5bd e0f8 57bb 0cdc afbd bcc3 013d
00000020: b233 073d 84d6 8b3c d068 a4bc 3c38 d0bc
00000030: 8034 76bb 0648 303d 54e3 843c a0b6 60bc
00000040: d2c5 7e3d 28e7 9dbd b6af 8ebd 1085 e4bc
00000050: fac4 86bd 60ca 1cbb ea94 703d 6106 ab3d
00000060: c400 f6bc c9b1 9ebd ac60 96bd 3994 843d
00000070: 09b2 8b3d f89e 5cbc 326e 5c3d 4869 94bc
00000080: aa04 4a3d 0596 803d a025 853b e02b 61bc
00000090: ca90 2c3d dabe 493d d222 193d f0b0 af3b
000000a0: f19a a13d 4e08 193d c46b 33bd ee6a abbd
000000b0: 1a26 723d 059c a63d 2ae9 263d a51f ac3d
000000c0: b861 bcbc d0bf a3bc 7d5c aa3d 0128 42bd
000000d0: b8f7 7c3c 0aa5 93bd 10dd 3dbc 00a9 13bd
000000e0: b7ab 97bd 1216 84bd c024 d33c 76e4 2a3d
000000f0: a634 3a3d 3a14 413d f0a5 f6bc 55be 943d
00000100: 64e7 78bd 36cb 40bd b5a9 8a3d 7015 eabb
00000110: c2f8 733d 0787 b23d 0701 9e3d 0ab2 5f3d
00000120: 65df 86bd d6ec 24bd 1775 20bd 9cb4 8ebc
00000130: 8087 cebb e537 a43d ba66 303d 3d1b 8b3d
00000140: 28e9 c7bc e3a6 89bd 777d a23d 8c9e a8bc
00000150: 468f 1c3d 8caa f43c 09c3 8a3d 88ba 603c
00000160: 45b8 893d 7ea3 233d 9ea6 23bd e844 25bd
00000170: e5bd a23d d8c3 53bc 1f6b 49bd 82e4 6a3d
00000180: d8a1 653c e51d 18bd 2134 4cbd 41da 8ebd
00000190: 2d42 9a3d 40bf 58bb d76c 8a3d ded7 383d
000001a0: a485 14bd 14a0 51bd 2477 7cbd bc7b 6fbd
000001b0: 78b1 c9bc 6f1a 36bd a8e9 bc3c 404a a9bd
000001c0: 190a 863d 06fb 493d dab9 06bd 80e5 133c
000001d0: 8e97 333d 6994 66bd a461 8d3c 00bb 04bb
000001e0: e6fd 423d 6aed 1d3d 817b 8b3d 1815 8d3c
000001f0: f819 3cbc 7b6d 863d afbb 92bd 0491 e53c
00000200: 6893 33bc e4e6 07bd a003 5ebb d5f7 a43d
00000210: b0e8 58bc fd5f 923d 2481 93bd 6a21 793d
00000220: 8a52 acbd df1b a7bd 7ceb 97bc 313d 993d
00000230: e0c4 69bb 7e99 743d 5043 bdbb 2298 633d
00000240: 3090 ca3c 9a56 693d 87e0 813d faa0 563d
00000250: ea3a 513d 912c 7bbd dc3c d3bc 2266 6f3d
00000260: dda9 b23d e0d0 58bd cc91 8fbd 30f7 bcbb
00000270: 04fb c0bc 9a56 5cbd 3c64 db3c 401a de3b
00000280: d4ad 84bd 8e45 1e3d 72bc 383d a848 13bc
00000290: 144a 72bd 40ae 9fbd 7a82 b1bd ee7d 1abd
000002a0: b2af 74bd 22e6 02bd 006a fb39 1e24 3f3d
000002b0: 0406 dabc 8606 1a3d 9eb5 92bd 1051 e9bc
000002c0: 4ef8 313d f1c2 04bd b84e 05bd f10a 88bd
000002d0: fca4 b93c ec04 8dbd 5208 5d3d ce20 0fbd
000002e0: 0658 81bd df14 9fbd e7cc 943d f6d7 1d3d
000002f0: 6ba5 833d 138d 3ebd 298f 853d de86 523d
00000300: 0a42 e0bc 0cf0 3abd e4b2 8fbc 3041 a93c
00000310: 469f 163d 9049 00bd 3aa0 073d eca0 953c
00000320: 60f4 2abb 6b88 82bd 1408 a53c 6a6a 4c3d
00000330: 78dd 48bd 16ca 8cbd d381 aabd 02bd 583d
00000340: e488 b5bc 564a 433d c250 183d e2b3 163d
00000350: b027 ff3b cf1d 8e3d a238 8cbd f014 243c
00000360: 5581 9a3d b78b 8c3d 683f 36bc 107e 11bc
00000370: 25ed 933d 343f b7bc e0cb 23bd b8ce 39bc
00000380: a161 88bd 3ed5 363d 72e5 7cbd 4ae0 763d
00000390: 7af5 a5bd d229 733d 7bea b33d 0060 a13c
000003a0: 1341 a0bd 0463 cbbc 6616 2f3d b458 8abc
000003b0: 2b3b 913d 8043 6abb e6ea 613d 007d ec3a
000003c0: e4b1 b83c bcd5 e53c 5503 97bd 7a0f 93bd
000003d0: b8c7 d03c a8bb 10bd 5c2b b83c f0ed c23c
000003e0: 20e6 71bd bd87 b23d 49ee 8c3d 4e6e 303d
000003f0: c045 00bd 3abd 1abd 6385 b23d 3b12 52bd
0.021257445 0.02781786 -0.020257808 0.03461863 -0.08069761 -0.0032954738 -0.085868925 0.031680807
0.033008285 0.017070062 -0.02006951 -0.02541744 -0.0037567914 0.043037437 0.01622168 -0.013715416
0.062200375 -0.07710105 -0.06967108 -0.02789548 -0.06580539 -0.0023924336 0.058735766 0.08350826
-0.030029662 -0.077487536 -0.073426574 0.06473584 0.06821067 -0.0134656355 0.053816028 -0.018116608
0.049320854 0.06278614 0.004063323 -0.013743371 0.04213027 0.049254276 0.037386723 0.0053616688
0.07890881 0.037361436 -0.043803945 -0.083700046 0.059118368 0.08135227 0.040749706 0.08404473
-0.022995815 -0.019988924 0.08318422 -0.047401432 0.01543992 -0.07209213 -0.01158835 -0.036049843
-0.07405799 -0.06449522 0.02577436 0.041721784 0.045460366 0.04713843 -0.030108422 0.072628655
-0.060767546 -0.047068797 0.0677065 -0.007143669 0.059563406 0.08717161 0.0771504 0.05461315
-0.06585578 -0.040264927 -0.039174166 -0.017420106 -0.006302774 0.080184735 0.043066718 0.06792305
-0.02440317 -0.06721284 0.07934087 -0.020583414 0.038222574 0.02986648 0.06775481 0.0137163475
0.067246 0.03995084 -0.03995382 -0.040348917 0.07946376 -0.012925111 -0.049174424 0.05734683
0.014015637 -0.037137885 -0.0498544 -0.069752224 0.07532153 -0.0033072978 0.06759041 0.045127742
-0.036260262 -0.051178053 -0.06163706 -0.05846761 -0.024620757 -0.044458803 0.023060635 -0.08266115
0.06544895 0.04931166 -0.032892086 0.009026885 0.043845706 -0.05629388 0.017258473 -0.0020253062
0.047605418 0.038556494 0.06810666 0.017221972 -0.011480801 0.065638505 -0.07164704 0.02802325
-0.010960437 -0.03317918 -0.0033876672 0.08055083 -0.013239071 0.071472146 -0.07202366 0.06082288
-0.084141806 -0.08159613 -0.018544905 0.074823745 -0.0035670325 0.059716694 -0.0057758465 0.055565007
0.024726957 0.056967355 0.06341653 0.052399613 0.051081575 -0.0613218 -0.025785856 0.05844701
0.08723805 -0.052933574 -0.070102304 -0.0057667717 -0.023557194 -0.053793527 0.026781194 0.0067780316
-0.064784676 0.03864055 0.04510159 -0.008989491 -0.059152678 -0.077969074 -0.086674646 -0.037717752
-0.05973787 -0.031957753 0.00047953427 0.046665303 -0.026614197 0.037603877 -0.07163547 -0.028481036
0.043449692 -0.032412473 -0.032545775 -0.06642712 0.022661678 -0.068857044 0.053963013 -0.034943394
-0.06315617 -0.07767653 0.072656445 0.038536035 0.06428035 -0.046521258 0.06521446 0.05139815
-0.02737524 -0.045639083 -0.017541356 0.020660967 0.03677299 -0.031320155 0.03311179 0.01826521
-0.00260856 -0.06373676 0.020145454 0.04990617 -0.049039334 -0.06874482 -0.08325543 0.052914627
-0.022160001 0.047678314 0.03718639 0.036792643 0.0077867135 0.06939279 -0.06846739 0.0100147575
0.075441994 0.06862586 -0.011123516 -0.008880153 0.07222966 -0.022369005 -0.039989352 -0.0113407895
-0.06659246 0.044636957 -0.061742254 0.060272492 -0.081034616 0.059366055 0.08784958 0.019699097
-0.07824912 -0.024827488 0.04274597 -0.016888 0.070913635 -0.00357458 0.055155657 0.0018042624
0.022545762 0.028056018 -0.073736824 -0.07180686 0.025485858 -0.035335213 0.022481613 0.023795098
-0.059057355 0.08717296 0.06881387 0.043073945 -0.03131652 -0.037778117 0.08716848 -0.051286917
