src/rnn/models/user_7_model.pth (torch, 377610 bytes, 16 tensors)

rnn.weight_ih_l0 f4 [128, 11]
0	0xbe3e4fd4	-0.1858514
1	0xbd9c7920	-0.0764029
2	0xbddbadfc	-0.10726544
3	0xbe2543b7	-0.16139112
4	0x3d9b1df8	0.075740755
5	0x3dc45b74	0.09587756
6	0x3e12d72d	0.14339896
7	0x3b0126ce	0.0019706967
8	0x3e06ee60	0.1317687
9	0xbe87a16f	-0.26490352
10	0xbb8f6fc3	-0.0043773367
11	0x3e2f6cc2	0.17131332
12	0x3ed69c64	0.41916192
13	0x3e1a4c40	0.1506815
14	0x3e932d5f	0.28745553
15	0x3dacb4c4	0.08432916
16	0x3eb163e3	0.3464652
17	0x3dca327a	0.09872909
18	0x3e8c30aa	0.27380878
19	0x3eccd342	0.40004927
20	0x3e80723b	0.2508715
21	0x3df3dff7	0.11907952
22	0x3e448042	0.19189551
23	0xbc94c4df	-0.018160282
24	0x3e5f7203	0.21820836
25	0x3e42c345	0.19019802
26	0xbd052e04	-0.032514587
27	0xbe88d880	-0.26727676
28	0xbe5978d3	-0.21237497
29	0x3d8e106a	0.069367245
30	0xbdc59dab	-0.096492134
31	0x3ea9ff5f	0.33202645
32	0xbce145fd	-0.027499193
33	0xbe72ef77	-0.23724161
34	0x3dc5bd29	0.0965522
35	0xbd179dba	-0.037015654
36	0xbe03e326	-0.12879619
37	0x3d71a0fd	0.05899142
38	0x3e41b8a6	0.18918094
39	0xbdf5efd2	-0.12008633
40	0xbdb7d81e	-0.08976768
41	0x3de27d87	0.11059099
42	0xbed7c415	-0.42141786
43	0x3d1b1241	0.037859205
44	0x3e0abed5	0.13549359
45	0x3ea8c8f8	0.32965827
46	0x3e7c9e52	0.2466977
47	0x3dd92234	0.10602227
48	0x3de62e49	0.11239297
49	0x3e50108c	0.20318812
50	0x3e3d88e9	0.18509258
51	0x3d49d058	0.049270958
52	0x3e9a04e9	0.3008187
53	0x3bfc09ae	0.0076915836
54	0x3e1cd814	0.15316802
55	0x3edffd25	0.4374782
56	0x3e0bf6b2	0.13668326
57	0x3e83e1a2	0.25758082
58	0x3eb3dea3	0.35130796
59	0x3e3d8472	0.18507555
60	0xbe53d383	-0.20686154
61	0xbe0e2e19	-0.13884772
62	0x3e3a29f7	0.18180071
63	0xbde29394	-0.110633045
64	0x3e9ddf04	0.3083421
65	0x3eb219f2	0.3478542
66	0xbe6f2ba7	-0.23356496
67	0xbea16979	-0.31525782
68	0xbeaf781d	-0.34271327
69	0xbeb283a4	-0.3486606
70	0xbdfe0ed2	-0.124051705
71	0xbe9cb8c7	-0.30609724
72	0xbedf5f3c	-0.43627346
73	0xbebbc7ed	-0.3667597
74	0xbeb808db	-0.35944256
75	0xbec169b4	-0.37775958
76	0xbe146459	-0.14491405
77	0x3e7cd13d	0.24689193
78	0xbc8d6817	-0.017261548
79	0x3eaa9cbd	0.33322707
80	0x3e5c26e2	0.21499208
81	0x3d0c9723	0.034323823
82	0xbe0249da	-0.12723485
83	0xbe042800	-0.12905884
84	0x3e518180	0.20459557
85	0xbe65d22e	-0.22443458
86	0x3ed32083	0.41235742
87	0x3c43e650	0.011956766
88	0xbd63005c	-0.055420265
89	0xbeafdbc9	-0.3434737
90	0xbe800594	-0.25004256
91	0xbea6ed86	-0.3260309
92	0xbe841fb3	-0.25805435
93	0xbb60184c	-0.003419417
94	0xbc116045	-0.00887305
95	0xbec16b00	-0.37776947
96	0xbec3cd85	-0.38242736
97	0xbe114e67	-0.14190064
98	0xbe78c6eb	-0.24294631
99	0x3e8af827	0.2714245
100	0x3e7a8440	0.24464512
101	0x3e8453e7	0.25845262
102	0x3eab5eb9	0.33470705
103	0x3ec00a52	0.37507874
104	0x3ef1b1c1	0.47205928
105	0x3eea0015	0.45703188
106	0x3e89f50f	0.26944777
107	0x3eb4bb5a	0.35299188
108	0x3ed4adac	0.4153875
109	0x3e927461	0.28604415
110	0x3f116b25	0.56804115
111	0x3ee4d58e	0.4469418
112	0x3eeeedc1	0.46665767
113	0x3f17e08f	0.59327024
114	0x3f32c23c	0.6982763
115	0x3eca7f7b	0.39550385
116	0x3ec8ab92	0.39193398
117	0x3ebfecee	0.3748545
118	0x3ec2a29a	0.3801468
119	0x3f059a34	0.5218842
120	0x3ef9158e	0.48649257
121	0xbeb9623b	-0.36207756
122	0xbeddf9aa	-0.4335454
123	0xbedf9d1c	-0.43674552
124	0xbecfc178	-0.40577292
125	0xbf073d0f	-0.52827543
126	0xbe955bec	-0.29171693
127	0xbec31477	-0.3810155
128	0xbeea0c03	-0.4571229
129	0xbea7a340	-0.32741737
130	0xbebd8f80	-0.37023544
131	0xbead386d	-0.33832112
132	0xbeafbff5	-0.3432614
133	0xbebc8b80	-0.3682518
134	0xbeb9ede4	-0.3631431
135	0xbec7ae9a	-0.39000398
136	0xbeff44c3	-0.4985715
137	0xbe36c336	-0.17847905
138	0xbee453a0	-0.4459505
139	0xbec6c5f5	-0.38822904
140	0xbebfa0b8	-0.37427306
141	0xbea13e58	-0.31492877
142	0xbebfd8fa	-0.37470227
143	0xbf320897	-0.6954436
144	0xbef3506d	-0.47522298
145	0xbf248064	-0.6425841
146	0xbf24de1b	-0.64401406
147	0xbf100b40	-0.56267166
148	0xbebae03e	-0.36499208
149	0xbedd6634	-0.43242037
150	0xbf22d78e	-0.6361016
151	0xbf07daaa	-0.5306803
152	0xbf2d93ca	-0.67803633
153	0xbf14e6aa	-0.58164465
154	0xbe7b3707	-0.2453271
155	0x3cbbb0f4	0.022911526
156	0xbda26f50	-0.079313874
157	0xbda4287a	-0.08015533
158	0x3d74c9e4	0.05976285
159	0x3dfe812a	0.1242698
160	0x3e1ceb21	0.1532407
161	0xbdb48029	-0.08813507
162	0x3e22dbf2	0.15904215
163	0xbe30490a	-0.17215362
164	0x3b15e5c7	0.0022872554
165	0x3e95c60c	0.2925266
166	0x3ef68122	0.48145396
167	0x3f0404be	0.51569736
168	0x3ee08d8c	0.43857992
169	0x3ec9d263	0.39418325
170	0x3dc45bef	0.095878474
171	0x3d835a86	0.0641375
172	0x3f02c172	0.51076424
173	0x3f00c876	0.5030588
174	0x3ebcb56b	0.3685716
175	0x3e9f0f04	0.31066144
176	0x3eddf83a	0.43353444
177	0x3e99158f	0.2989926
178	0x3ed2d156	0.41175336
179	0x3ecbc368	0.3979752
180	0x3f360e39	0.7111545
181	0x3e9c8558	0.30570483
182	0x3e97796f	0.29584834
183	0x3ef6685c	0.48126495
184	0x3eb4be2f	0.3530135
185	0x3ea28bd4	0.31747305
186	0x3f0a09f7	0.53921455
187	0x3e37477f	0.17898367
188	0xbcebe6bb	-0.028796544
189	0x3df4419b	0.11926576
190	0x3cd48716	0.02594332
191	0xba9f2bde	-0.0012143811
192	0xbd18499f	-0.037179586
193	0x3cf94c9d	0.03043204
194	0x3e06e4b8	0.13173187
195	0xbe64b7a5	-0.2233568
196	0x3ea70fc4	0.32629216
197	0x3e37493e	0.17899033
198	0xbe18593a	-0.14877787
199	0xbe7bdd31	-0.24596097
200	0xbe32fbc7	-0.17478858
201	0xbde8cb95	-0.11366955
202	0xbd08f516	-0.033436857
203	0xbe86ff7a	-0.26366788
204	0xbe25e4aa	-0.1620051
205	0xbe82375c	-0.2543286
206	0xbea538ef	-0.3227
207	0xbceb37a8	-0.028713062
208	0xbdb35b1a	-0.087576106
209	0x3e1ef6f0	0.15523887
210	0x3e64c84a	0.22342029
211	0x3d3f4469	0.0466961
212	0x3eabaf20	0.33532047
213	0x3e8a3d36	0.26999825
214	0xbf00624c	-0.5014999
215	0x3f0f713c	0.56032157
216	0x3e9b8dca	0.30381614
217	0x3e1781d4	0.14795619
218	0x3e94dc85	0.29074493
219	0x3e9a44c0	0.30130577
220	0xbf16d954	-0.58925366
221	0xbec9eb56	-0.3943736
222	0xbf13491a	-0.5753342
223	0xbef9792c	-0.4872526
224	0xbf311efd	-0.6918791
225	0xbe5bc8a0	-0.21463251
226	0xbebc5994	-0.36787093
227	0xbecd9a96	-0.40157002
228	0xbec8276b	-0.39092574
229	0xbeea32d4	-0.45741904
230	0xbf029286	-0.5100483
231	0x3ee18c04	0.44052136
232	0x3e033dc4	0.1281653
233	0x3e98828a	0.29787093
234	0x3e9abf84	0.3022424
235	0x3ea84f87	0.32873175
236	0xbe835e30	-0.25657797
237	0x3e093d62	0.13402322
238	0x3e6a3a54	0.22873813
239	0x3c0d5808	0.008626945
240	0x3ef85b2f	0.48507068
241	0x3ebb48cf	0.36578986
242	0x3eafe561	0.3435469
243	0x3e031ba6	0.12803516
244	0x3e613e88	0.2199651
245	0x3e8f4eed	0.27989903
246	0x3ece9d4e	0.4035439
247	0xbdf0c987	-0.11757188
248	0x3e013c44	0.12620646
249	0x3e59b403	0.21260075
250	0x3df27c2c	0.1184009
251	0x3e814bb4	0.2525307
252	0x3e91d027	0.2847912
253	0x3e6d7b1f	0.23191498
254	0x3e8241b5	0.25440755
255	0x3e67a48f	0.22621368

rnn.weight_hh_l0 f4 [128, 128]
0	0xbd24a5cb	-0.040197175
1	0x3d60fc3a	0.054928042
2	0x3d8f7079	0.07003874
3	0xbd496e1d	-0.049177278
4	0x3db42fd3	0.08798184
5	0x3c6df358	0.01452335
6	0x3d9f8e37	0.07790797
7	0xbcfa691c	-0.030567698
8	0x3d8ae0cd	0.067811586
9	0x3d72bb7a	0.059260823
10	0xbced696a	-0.02898093
11	0xbc2eb478	-0.010663144
12	0x3d0b5d18	0.034024328
13	0xbd92ab72	-0.07161607
14	0x3d9a2e1d	0.07528327
15	0xbcbbb4b4	-0.022913314
16	0x3d348fb6	0.044082366
17	0x3d1bee86	0.03806927
18	0xbb566680	-0.0032714903
19	0x3d4f9e3e	0.05068802
20	0x3d01841e	0.031620137
21	0xbcca08e0	-0.024662435
22	0xbdadc0ce	-0.0848404
23	0xbd26ac20	-0.040691495
24	0xbba0f4d0	-0.0049119964
25	0xbcd3d094	-0.025856294
26	0x3da1a4e3	0.07892778
27	0xbd62a07a	-0.055328824
28	0x3b699400	0.0035641193
29	0x3d80c483	0.06287482
30	0xbd29ef60	-0.04148805
31	0xbc740748	-0.014894314
32	0x3d9d57c1	0.07682753
33	0xbdadbd11	-0.08483327
34	0xbd76266e	-0.060095243
35	0x3b762e80	0.0037564337
36	0xbd60167a	-0.054708935
37	0xbd0a9a8d	-0.033838797
38	0x3d91ee63	0.07125547
39	0xbcacfc6c	-0.021116458
40	0x3c60b650	0.013715342
41	0x3d4cfac2	0.05004383
42	0xbd6975cb	-0.0569971
43	0xbd25e9f3	-0.040506314
44	0xbc4fe9d0	-0.012690023
45	0x3d692c56	0.056927048
46	0xbca7f350	-0.020501763
47	0x3d83712f	0.064180724
48	0x3d5b0ebe	0.053480856
49	0x3d6d00da	0.05786214
50	0x3d11968c	0.035543963
51	0x3cb22b20	0.02174908
52	0x3d8ab801	0.06773377
53	0x3cb82e40	0.022482991
54	0x3d2b279e	0.04178583
55	0xbcc11b7c	-0.023572676
56	0xbd96aeb5	-0.073575415
57	0xbbd24140	-0.00641647
58	0xbd240d5e	-0.04005181
59	0x3ce5d2e8	0.02805467
60	0xbc4f50a8	-0.012653507
61	0x3c7b8718	0.015352033
62	0x3d5cb76e	0.05388587
63	0xbd6911b7	-0.05690166
64	0x3c9c1ec0	0.019057631
65	0xbd106747	-0.035254743
66	0x3d898c19	0.06716175
67	0x3cd900c4	0.026489623
68	0x3c037c18	0.008025192
69	0x3d009f42	0.03140188
70	0x3d88e129	0.06683571
71	0x3db1befb	0.08679005
72	0x3dac65f5	0.08417884
73	0xbd280260	-0.04101789
74	0x3d8c22f3	0.068426035
75	0xbca2fb14	-0.019895114
76	0x3c480530	0.012208268
77	0x3d367142	0.044541605
78	0xbd6b497c	-0.057443127
79	0x3c274530	0.010209367
80	0x3c49a2c0	0.012306869
81	0xbd9357ea	-0.07194503
82	0x3d9f77f3	0.077865504
83	0x3daa1971	0.08305634
84	0xbd3fe671	-0.046850625
85	0x3d35a742	0.044348963
86	0x3c8d5920	0.017254412
87	0xbd006310	-0.031344473
88	0x3ce9fa44	0.028561719
89	0x3d3f860e	0.046758704
90	0xbaa28d40	-0.0012401715
91	0xbd9ed297	-0.077550106
92	0xbbebd7c0	-0.0071973503
93	0xbd894549	-0.06702668
94	0x3d7d149a	0.061787225
95	0xbd75febb	-0.060057383
96	0x3da13cbd	0.07872913
97	0xbc9275a8	-0.017878368
98	0xbd1853f7	-0.03718945
99	0xbd60ab2e	-0.05485075
100	0x3c0dd7f8	0.008657448
101	0xbd79bbb6	-0.06097003
102	0x3d70945a	0.05873523
103	0xbd0e00a3	-0.034668576
104	0x3d5445ae	0.051824264
105	0xbd4d5b61	-0.050135974
106	0xbc6bca40	-0.014391482
107	0xbc313100	-0.010814905
108	0x3d9baec7	0.076016955
109	0xba7af780	-0.00095736235
110	0xbd539412	-0.051654883
111	0xbd872992	-0.06599726
112	0xbd8c78e9	-0.06858999
113	0x3dac1d9f	0.08404087
114	0xbdaced1b	-0.08443662
115	0x3d978023	0.07397487
116	0xbb0990e0	-0.0020990893
117	0xbd6c0246	-0.057619356
118	0x3d3c78f6	0.046013795
119	0xbced7056	-0.02898423
120	0xbd595882	-0.053062923
121	0x3d75f5de	0.06004893
122	0xbca1019c	-0.019654088
123	0xbd3a8f92	-0.045547076
124	0xbd8e21ee	-0.06940065
125	0x3caa757c	0.020807974
126	0x3cc61bec	0.024183236
127	0xbd2956f8	-0.041342705
128	0xbb46ffe0	-0.0030364916
129	0xbc96b42c	-0.01839646
130	0x3db002d9	0.08594293
131	0x3d12d270	0.03584522
132	0x3d2a25ce	0.04153996
133	0x3cbd00c8	0.023071662
134	0x3d66a01e	0.056305043
135	0x3c2b74d0	0.010464862
136	0xbd839742	-0.064253345
137	0x3d2b4002	0.04180909
138	0x3da4895b	0.08034011
139	0xbcb300c4	-0.021850951
140	0xbd834893	-0.06410327
141	0xbca1e71c	-0.019763522
142	0x3d2ee886	0.04270222
143	0x3d67e412	0.05661399
144	0x3d81d8db	0.0634019
145	0xbd87bfe5	-0.06628398
146	0x3aae5740	0.0013301149
147	0x3d9a219b	0.07525941
148	0xbccaefb4	-0.024772502
149	0x3d8cf4a9	0.06882603
150	0x3d739ac6	0.059473775
151	0x3dad7619	0.08469791
152	0xbd4c0e08	-0.04981807
153	0x3ca33328	0.019921854
154	0xbb179ea0	-0.002313532
155	0xbc1f7358	-0.00973209
156	0x3d326416	0.04355248
157	0xbc5aacf8	-0.013346903
158	0xbd2e0965	-0.042489428
159	0xbd4fc933	-0.050728988
160	0x3d9f2451	0.07770599
161	0xbd1593d8	-0.036517948
162	0x3d1c1e8a	0.03811506
163	0x3d5a9cda	0.05337224
164	0xbd868489	-0.06568248
165	0x3b176ea0	0.002310671
166	0xbb0bec40	-0.0021350533
167	0x3d965f2b	0.073423706
168	0x3b776760	0.0037750825
169	0x3d29a2ae	0.04141491
170	0xbd95bd72	-0.073115245
171	0x3db466d9	0.08808679
172	0x3c419520	0.011815339
173	0xbd438bb1	-0.047740642
174	0xbd06ee19	-0.03294191
175	0xbda826dd	-0.082105376
176	0xbd1d2753	-0.03836758
177	0x3d01f9ce	0.031732373
178	0x3db24bcd	0.08705864
179	0xbcdfb166	-0.02730627
180	0xbd7f9a1a	-0.062402822
181	0xbd62c4c2	-0.055363424
182	0xbcc2a7e0	-0.02376169
183	0xbda0ecf6	-0.07857697
184	0x3d9461cd	0.072452165
185	0xbd01c7d5	-0.031684715
186	0x3ca90d20	0.020636141
187	0x3d23d0f6	0.039994203
188	0x3d5ad19e	0.053422563
189	0xbd88e172	-0.06683625
190	0xbd37fee9	-0.044920836
191	0x3dab31ed	0.08359132
192	0x3cb05054	0.021522678
193	0xbd060f79	-0.0327296
194	0xbc52e7c0	-0.012872636
195	0xbd8a49b7	-0.06752341
196	0xbd3f764f	-0.046743687
197	0x3d38f0aa	0.04515139
198	0xbc3e8480	-0.01162827
199	0xbcdba374	-0.026811339
200	0xbd8e6ab4	-0.06953946
201	0x3cb65960	0.022259414
202	0xbdaaefb0	-0.08346498
203	0xbd1b6e01	-0.037946705
204	0x3d941dff	0.07232284
205	0xbda8f356	-0.08249538
206	0x3d53fc8a	0.051754512
207	0x3d085932	0.03328819
208	0x3d0b0a10	0.033945143
209	0x3c8b3430	0.016992658
210	0x3b1dab60	0.0024058446
211	0xbd8daaae	-0.0691732
212	0x3c777298	0.015103005
213	0xbd92e019	-0.071716495
214	0xbd4d2fe7	-0.05009451
215	0x3d9a7ec7	0.07543712
216	0xbc7e6e50	-0.01552923
217	0xbd9bd576	-0.07609074
218	0xbd9d6e18	-0.07687014
219	0x3c3b2610	0.011422649
220	0xbd4d0a4e	-0.050058655
221	0xbd382b76	-0.044963323
222	0xbdab0a39	-0.08351559
223	0x3da43967	0.08018761
224	0xbbf1c2c0	-0.0073779523
225	0x3d650536	0.055913173
226	0x3d49b8be	0.04924845
227	0x3d518e9e	0.0511614
228	0x3b429640	0.0029691607
229	0xbd0f262f	-0.034948524
230	0xbbf55de0	-0.0074879974
231	0xbd44ce6b	-0.048048418
232	0xbd30b114	-0.043137625
233	0x3d19942e	0.03749483
234	0x3d96316d	0.07333646
235	0xbc405940	-0.011740029
236	0xbcc7df38	-0.024398431
237	0xbca5161c	-0.020152144
238	0x3d752f62	0.05985964
239	0x3daf7f2d	0.08569179
240	0xbda9236a	-0.08258708
241	0xbd6a9f3e	-0.05728077
242	0xbc235be0	-0.009970635
243	0xbbad58b0	-0.0052901134
244	0x3c8d75b8	0.017268047
245	0xbc828ea8	-0.015937164
246	0xbd837d17	-0.06420343
247	0xbc8cdf3c	-0.01719629
248	0xbd799696	-0.060934626
249	0xbd90eece	-0.070767984
250	0x3cf8808c	0.030334733
251	0xbc83e060	-0.016098201
252	0xbd29bf61	-0.04144228
253	0xbdb20a97	-0.08693426
254	0x3cb75264	0.022378154
255	0x3db3c905	0.08778576

rnn.bias_ih_l0 f4 [128]
0	0xbc893157	-0.01674716
1	0x3ebb9049	0.36633518
2	0x3db297b1	0.08720339
3	0xbdf38ea5	-0.11892442
4	0x3dc0ff3f	0.09423684
5	0x3e541393	0.20710592
6	0xbe89a94b	-0.26886973
7	0x3e18457d	0.14870258
8	0xbe28e0be	-0.16491982
9	0x3eb2ecbf	0.34946248
10	0x3ee70159	0.45118216
11	0xbece6adf	-0.4031591
12	0xbe81dbe4	-0.25363076
13	0xbf128319	-0.5723129
14	0x3ca554c5	0.020182023
15	0x3e9c9556	0.30582684
16	0x3ed54750	0.4165597
17	0x3d01c9c2	0.031686552
18	0xbe3962e0	-0.18104124
19	0x3e93cf5c	0.2886914
20	0xbef33ae4	-0.47505867
21	0x3e8fbdc2	0.2807446
22	0x3e4bdddf	0.19908856
23	0x3e681fab	0.2266833
24	0xbf0a0a34	-0.5392182
25	0x3e0f9ec4	0.14025408
26	0x3f05d881	0.52283484
27	0x3d51c7f3	0.051216077
28	0xbeb75837	-0.3580949
29	0xbe9d2bca	-0.3069747
30	0x3e996472	0.29959446
31	0x3e76da3a	0.24106684
32	0x3e135930	0.14389491
33	0xbe9a3c8f	-0.30124328
34	0x3ea414d4	0.3204714
35	0xbeaf44b2	-0.34232098
36	0xbec364ec	-0.38162935
37	0x3f150230	0.5820646
38	0x3df91dcf	0.12163889
39	0xbc93e59f	-0.018053828
40	0x3e9cf8be	0.30658525
41	0xbeba6b67	-0.36410066
42	0xbee2360b	-0.44181857
43	0x3d6f8933	0.058480453
44	0xbc858a36	-0.016301256
45	0x3de07e81	0.10961629
46	0xbf2288b3	-0.63489836
47	0xbf06d4da	-0.52668536
48	0xbe839b89	-0.257046
49	0x3f15db6d	0.5853794
50	0x3f236a9f	0.63834566
51	0xbf1db970	-0.6161108
52	0xbea11592	-0.3146177
53	0xbec9420a	-0.39308196
54	0xbf240791	-0.64074045
55	0x3ebea6fa	0.37236768
56	0x3ebe56d7	0.3717563
57	0x3d282466	0.041050337
58	0x3da41daf	0.08013474
59	0xbdb62444	-0.08893636
60	0xbf1119aa	-0.56679785
61	0x3ea8eb19	0.32991865
62	0xbd436b5e	-0.047709815
63	0xbebbee26	-0.3670513
64	0xbf091650	-0.5354967
65	0x3dc1d044	0.09463552
66	0xbd672e8c	-0.056440875
67	0xbdab2811	-0.083572514
68	0x3f1226ab	0.5709025
69	0x3e8d2a56	0.27571362
70	0xbf3d3ace	-0.73917854
71	0xbbaa328f	-0.0051940153
72	0xbea792e2	-0.3272925
73	0xbb6f1b2e	-0.0036484706
74	0xbe4ca2bb	-0.19983952
75	0x3def3b6b	0.11681255
76	0x3e76bd35	0.24095614
77	0xbf2f8b48	-0.685719
78	0xbf0cd74c	-0.55016017
79	0xbeb39d04	-0.3508073
80	0xbe977636	-0.29582375
81	0x3f2eaa75	0.68228847
82	0x3ebbfe77	0.3671758
83	0xbf2078fc	-0.6268461
84	0x3ef05950	0.4694314
85	0x3e55b4d4	0.20869762
86	0xbe8fbbe7	-0.28073046
87	0x3e78526e	0.24250194
88	0x3ed303d7	0.41213867
89	0xbf05a64f	-0.5220689
90	0x3dcdc200	0.10046768
91	0xbeb97ad7	-0.36226532
92	0x3e8e4a0d	0.2779087
93	0xbd562dbf	-0.05228972
94	0xbe923e3a	-0.285631
95	0xbe2bbbd2	-0.16770867
96	0xbf303e00	-0.68844604
97	0xbf2c8e0a	-0.67404234
98	0x3ed8d402	0.4234925
99	0x3df71f0e	0.1206647
100	0xbf34b57c	-0.70589423
101	0x3e913def	0.28367564
102	0x3cb27202	0.021782879
103	0xbcbfe290	-0.023423463
104	0x3f17d0ee	0.59303176
105	0x3ec0dbe5	0.37667766
106	0x3e0da14c	0.13831061
107	0x3f2c1bc8	0.6722989
108	0xbe478571	-0.19484498
109	0x3de29205	0.11063007
110	0xbeb325fa	-0.3498991
111	0x3e74c2a2	0.23902372
112	0x3eb417a7	0.35174295
113	0x3ceb5373	0.028726315
114	0x3ed934ed	0.42423192
115	0xbe32e9eb	-0.17472045
116	0x3d79745b	0.06090198
117	0xbf1d9903	-0.615616
118	0x3ed263e6	0.4109184
119	0x3ad2378a	0.001603828
120	0xbea2a25f	-0.31764504
121	0x3c8a8578	0.016909346
122	0xbf2bd3a9	-0.6711984
123	0x3ea27a16	0.3173377
124	0xbea212b9	-0.3165491
125	0xbd6b583d	-0.057457197
126	0xbe53914b	-0.20660894
127	0x3f2aac95	0.6666959

rnn.bias_hh_l0 f4 [128]
0	0xbd334e51	-0.04377586
1	0x3ea64e8b	0.324818
2	0x3c555661	0.013021083
3	0xbd7c1328	-0.061541706
4	0x3d0452ef	0.032305654
5	0x3e996d24	0.2996608
6	0xbe614ba4	-0.22001511
7	0x3e0b286c	0.13589638
8	0xbd8168ff	-0.063188545
9	0x3ea7fbcd	0.32809296
10	0x3f1517a9	0.5823923
11	0xbea2e43a	-0.31814748
12	0xbeaf5169	-0.342418
13	0xbf2da39c	-0.67827773
14	0x3c2a3dbb	0.010390694
15	0x3e87ca92	0.26521736
16	0x3e9b0158	0.30274463
17	0x3e400198	0.18750608
18	0xbe56e637	-0.20986257
19	0x3e8727af	0.26397464
20	0xbf08dd3d	-0.5346258
21	0x3ed595b3	0.41715774
22	0x3ea33f6a	0.3188432
23	0x3e3c272d	0.1837432
24	0xbf0163f6	-0.50543153
25	0x3dbd2d44	0.09237149
26	0x3f01c5df	0.5069255
27	0x3e10841b	0.14112894
28	0xbef80f4a	-0.48449165
29	0xbea4852a	-0.32132846
30	0x3ea13ea6	0.3149311
31	0x3dfcb22c	0.12338671
32	0x3def8752	0.11695732
33	0xbec79a5d	-0.38984957
34	0x3e91ab28	0.28450894
35	0xbe9355fa	-0.28776532
36	0xbecb3373	-0.3968769
37	0x3f37baaf	0.7176923
38	0x3db77aa8	0.08958942
39	0x3bb41108	0.0054951943
40	0x3e686404	0.22694403
41	0xbe9c1f80	-0.30492783
42	0xbed4b7d7	-0.4154651
43	0x3e29f657	0.16597877
44	0x3dfd3704	0.12364009
45	0x3e28785c	0.16452163
46	0xbf2e297f	-0.6803207
47	0xbf046870	-0.5172186
48	0xbe7b5aa3	-0.24546294
49	0x3f1a3764	0.6024077
50	0x3f178bf7	0.59197944
51	0xbf34612b	-0.70460767
52	0xbec3fae4	-0.38277352
53	0xbecaea6a	-0.3963197
54	0xbf23dacb	-0.64005727
55	0x3ec81a86	0.39082736
56	0x3e9f279d	0.3108491
57	0x3d95a923	0.07307651
58	0x3e201248	0.15631974
59	0xbd28031e	-0.041018598
60	0xbf22afee	-0.635497
61	0x3ebe2ed9	0.37145117
62	0xbe1e42eb	-0.15455215
63	0xbe903540	-0.28165627
64	0xbeecb572	-0.46232182
65	0xbbd53af7	-0.0065072733
66	0xbd0119df	-0.031518813
67	0x3d8286fd	0.06373403
68	0x3f12a638	0.5728488
69	0x3e33df19	0.17565574
70	0xbf3543f9	-0.70806843
71	0xbcf5f0a9	-0.030021982
72	0xbebefc1f	-0.37301728
73	0x3cbc1ba0	0.022962391
74	0xbea9b4e1	-0.33145812
75	0x3daeeb24	0.08540943
76	0x3ebcbe0f	0.36863753
77	0xbf147b2f	-0.58000463
78	0xbf205a8a	-0.6263815
79	0xbea2f640	-0.318285
80	0xbea4bf56	-0.32177228
81	0x3f17ad66	0.5924896
82	0x3ea1915e	0.3155622
83	0xbf209f10	-0.6274271
84	0x3ec4007a	0.38281614
85	0x3e811950	0.25214624
86	0xbe5505c7	-0.20802985
87	0x3e5a81bd	0.21338554
88	0x3ec8097c	0.39069736
89	0xbf04eb26	-0.5192131
90	0x3cecf22b	0.028924068
91	0xbea252a3	-0.31703672
92	0x3eac5c50	0.3366418
93	0xbde51c5d	-0.111870505
94	0xbe5b78ce	-0.21432802
95	0xbc9d3911	-0.01919225
96	0xbf3536f2	-0.70786965
97	0xbf308470	-0.68952084
98	0x3efe2af4	0.49642146
99	0x3e02bb1b	0.12766688
100	0xbf3eefd4	-0.745847
101	0x3ea41bb8	0.32052398
102	0x3d8d39d6	0.06895797
103	0x3d710083	0.05883838
104	0x3f10e722	0.5660268
105	0x3e8f75fa	0.28019696
106	0x3e365422	0.17805532
107	0x3f0a5901	0.5404206
108	0xbdadb4cf	-0.08481752
109	0x3d29f4c9	0.04149321
110	0xbea84084	-0.32861722
111	0x3e89117e	0.26771158
112	0x3f028e28	0.50998163
113	0x3c20c000	0.009811401
114	0x3ee3620a	0.44410735
115	0xbe878a82	-0.2647286
116	0x3d17058c	0.036870524
117	0xbf1c63d3	-0.6108982
118	0x3eb3beb3	0.3510643
119	0x3d094379	0.033511613
120	0xbe980fb8	-0.29699492
121	0x3db0a75f	0.086256735
122	0xbf20d8db	-0.62830895
123	0x3ed455f1	0.41471818
124	0xbea47dc1	-0.32127193
125	0x3aefb8a0	0.0018289275
126	0xbe6d7cd3	-0.23192148
127	0x3f328eff	0.69749445

rnn.weight_ih_l1 f4 [128, 128]
0	0x3dc42bab	0.095786415
1	0x3e9f9216	0.31166142
2	0x3d8ee857	0.06977909
3	0x3d0e5747	0.034751203
4	0xbd518494	-0.051151827
5	0x3d7ee12c	0.06222646
6	0x3da6820f	0.081302755
7	0xbcc0e938	-0.023548707
8	0xbc842d1a	-0.016134787
9	0x3ed4061f	0.4141092
10	0x3f233c71	0.637641
11	0xbf177f0f	-0.5917825
12	0xbe92c42f	-0.286653
13	0xbf219f19	-0.6313339
14	0xbd72a8ef	-0.05924314
15	0xbe95d265	-0.2926208
16	0x3f0baf1a	0.5456406
17	0x3de56ce5	0.112024106
18	0x3a5bc2e4	0.0008383228
19	0x3c017fac	0.0079039745
20	0xbf18654c	-0.59529567
21	0x3e19278e	0.14956495
22	0x3ee82dfe	0.4534759
23	0x3caca632	0.021075342
24	0xbf02fb04	-0.5116427
25	0xbf2962ff	-0.6616668
26	0x3f1d4864	0.61438584
27	0x3d1e50c2	0.038651235
28	0xbefbea3c	-0.49202144
29	0xbeb346d9	-0.3501499
30	0xbc25d96a	-0.010122636
31	0xb9de7222	-0.00042428175
32	0xbd74ee03	-0.0597973
33	0x3dd630b5	0.10458509
34	0x3eb0ee6f	0.3455691
35	0x3eb22241	0.3479176
36	0xbf1adcd3	-0.604932
37	0x3eecf008	0.4627688
38	0x3dbebc23	0.09313228
39	0xbaf83fec	-0.0018939949
40	0x3dee8759	0.11646909
41	0xbe26a505	-0.16273887
42	0xbeab92c5	-0.33510414
43	0xbd3849bb	-0.04499219
44	0xbb1d1c93	-0.002397333
45	0xbed9b764	-0.42522728
46	0xbf1ba7f6	-0.60803163
47	0xbf3c68a0	-0.73597145
48	0xbd9658c5	-0.0734115
49	0x3f12551f	0.57161134
50	0x3f1c6bdf	0.611021
51	0xbf37f405	-0.7185672
52	0xbf3c79d9	-0.73623425
53	0xbe413c53	-0.18870668
54	0xbf1774c9	-0.59162575
55	0x3e4c039f	0.19923256
56	0x3dd939d1	0.10606731
57	0xbd536235	-0.05160733
58	0xbe0974c1	-0.13423444
59	0xbc755fe1	-0.014976473
60	0xbf26819b	-0.6504151
61	0x3f022b33	0.50847167
62	0x3ba8d6c8	0.005152557
63	0x3e678f3e	0.22613236
64	0xbd6c4110	-0.057679236
65	0x3cffd192	0.03122786
66	0x3c4c38bb	0.0124646975
67	0xbc71378d	-0.014722717
68	0x3f15e09a	0.5854584
69	0xbec7f46a	-0.3905366
70	0xbf363efd	-0.7118986
71	0x3d86dd94	0.065852314
72	0xbe909547	-0.2823889
73	0xbe883cc6	-0.26608866
74	0x3ea98194	0.33106673
75	0xbd6dd74a	-0.058066644
76	0xbeae5333	-0.3404785
77	0xbf3bcfab	-0.7336375
78	0xbf241b7a	-0.64104426
79	0xbf28e5ee	-0.65975845
80	0x3e96bbe2	0.29440218
81	0x3dd22550	0.10261023
82	0x3e146139	0.14490213
83	0xbe1cd9e8	-0.153175
84	0x3e5f8b9d	0.21830602
85	0xbecfe062	-0.40600878
86	0x3e9d200e	0.30688518
87	0x3dbc5dd0	0.09197581
88	0x3e806261	0.25075057
89	0xbe0382d9	-0.12842883
90	0x3c1c9cec	0.009558897
91	0xbebd7c11	-0.37008718
92	0x3ea07963	0.3134261
93	0xbc951050	-0.018196255
94	0x3e8942f9	0.2680891
95	0xbaf9146c	-0.0019003279
96	0xbf1d6158	-0.6147666
97	0xbf267291	-0.65018564
98	0x3f23fcae	0.64057434
99	0xbed850fe	-0.42249292
100	0xbf3c928e	-0.73661125
101	0x3e96bb99	0.2944
102	0x3e230184	0.15918547
103	0xbcb11b7d	-0.021619553
104	0x3f2dfa3a	0.6795994
105	0xbea06413	-0.3132635
106	0xbcdee866	-0.027210426
107	0x3f004ec3	0.5012018
108	0xbd18dba1	-0.03731883
109	0xbf02fa00	-0.5116272
110	0x3d044358	0.032290787
111	0x3e85c097	0.26123497
112	0x3ec90fec	0.3926996
113	0x3d0ecc6d	0.034862924
114	0x3ec56e28	0.38560605
115	0xbddfe11f	-0.1093161
116	0x3d3b93b6	0.045795165
117	0xbf2e9ad7	-0.68205017
118	0x3f22a0af	0.63526434
119	0x3cb17b32	0.02166519
120	0xbe9187d5	-0.28423944
121	0x3dc86632	0.09785117
122	0xbe5b27aa	-0.2140185
123	0xbc6d4b3f	-0.014483272
124	0x3e9eaf8b	0.30993304
125	0x3da5e96d	0.08101163
126	0xbeed9ff8	-0.4641111
127	0x3f242926	0.6412529
128	0xbee464a0	-0.4460802
129	0x3c8347dc	0.016025476
130	0x3f0b9666	0.54526365
131	0xbf03912b	-0.51393384
132	0xbf2e18ee	-0.6800679
133	0x3f0ea43a	0.5571934
134	0x3edd726a	0.43251354
135	0x3f1ab6a0	0.60434914
136	0x3f09941f	0.5374164
137	0x3eeabafc	0.45845783
138	0x3e4f563e	0.20247743
139	0xbd9a02bf	-0.07520055
140	0xbecf88c9	-0.40534046
141	0xbd23789f	-0.039909955
142	0xbefe7442	-0.49698073
143	0x3de6414e	0.11242925
144	0x3e7ea3c0	0.24867153
145	0x3efc156c	0.49235094
146	0x3f1ca488	0.61188555
147	0x3e131278	0.14362514
148	0xbdd95d94	-0.10613552
149	0x3f35694d	0.708638
150	0x3e6f71c6	0.23383245
151	0xbecb4c7c	-0.3970679
152	0xbeaf3a9e	-0.3422441
153	0xbc364c5b	-0.011126603
154	0x3dc3350e	0.09531604
155	0x3ef6ddbb	0.48216042
156	0xbd8e1472	-0.069374934
157	0xbeb9431c	-0.36184013
158	0xbf0e0bf9	-0.5548702
159	0xbe83acf9	-0.25717905
160	0xbeee8e31	-0.46592858
161	0x3dc4972c	0.09599146
162	0x3f3b2229	0.73099
163	0x3cba2127	0.022720886
164	0xbd393bae	-0.04522293
165	0x3e6eb055	0.23309453
166	0x3f154cd8	0.5832038
167	0xbf129584	-0.5725939
168	0x3f185c8f	0.59516233
169	0xbecaba87	-0.39595434
170	0xbeb4fd9f	-0.35349748
171	0xbef8ccf8	-0.4859388
172	0x3f0d5bb2	0.5521804
173	0x3c837e59	0.016051458
174	0x3d48dd61	0.04903925
175	0xbde14491	-0.10999406
176	0xbf116de3	-0.568083
177	0x3c7793c0	0.01511091
178	0x3d6e95b3	0.058248233
179	0xbe0b3ef8	-0.1359824
180	0xbd383445	-0.044971723
181	0xbed6ac35	-0.4192826
182	0x3d0cb84d	0.03435545
183	0x3ef4d3d5	0.47817865
184	0x3f1b0998	0.60561514
185	0xbf10f54a	-0.5662428
186	0xbf1bd595	-0.60872775
187	0x3f161cc2	0.5863763
188	0xbdd7869e	-0.10523723
189	0x3e1cced9	0.15313281
190	0xbf1c729b	-0.61112374
191	0xbe30eae9	-0.17277111
192	0xbf12c894	-0.5733731
193	0xbea8d8cf	-0.32977912
194	0xbe5030ab	-0.20331065
195	0x3e355849	0.1770946
196	0x3e079e92	0.13244084
197	0xbec7ba8d	-0.39009514
198	0x3cd3002e	0.025756922
199	0xbec706a5	-0.38872257
200	0xbf0ed5d4	-0.55795026
201	0xbf04b136	-0.518329
202	0xbd295c62	-0.04134787
203	0xbedcc948	-0.43122315
204	0x3dffe57f	0.12494945
205	0xbc84aa53	-0.016194498
206	0x3d18f235	0.03734036
207	0xbd251b73	-0.04030938
208	0xbda16244	-0.07880071
209	0x3ee38e43	0.44444475
210	0x3ef73664	0.48283684
211	0xbe9df8cc	-0.3085388
212	0x3e58d7c4	0.21176058
213	0xbdf36f4c	-0.118864626
214	0xbeabd4e2	-0.33560854
215	0xbef50e02	-0.4786225
216	0x3e4cfd95	0.20018609
217	0xbf495116	-0.7863935
218	0xbf055409	-0.5208135
219	0xbf009703	-0.50230426
220	0x3f015335	0.5051759
221	0xbf168914	-0.58802915
222	0x3e5ef6bd	0.2177381
223	0x3f06329a	0.5242096
224	0x3d81c941	0.06337214
225	0xbcbe3677	-0.02321933
226	0x3d248711	0.040167872
227	0xbe48ec2c	-0.19621342
228	0x3dac32c5	0.08408121
229	0x3f04ca51	0.5187121
230	0x3f16773a	0.58775675
231	0xbeffdafe	-0.49971765
232	0xbadb1601	-0.0016714932
233	0xbf1b5915	-0.60682803
234	0xbf015e81	-0.50534827
235	0x3ea9df45	0.33178154
236	0xbf1ea107	-0.6196446
237	0xbd9b1735	-0.07572786
238	0xbf197f56	-0.59959924
239	0x3f029d48	0.5102124
240	0x3e9a7b54	0.30172217
241	0x3f11fdd5	0.5702794
242	0x3eaf65a4	0.34257233
243	0x3e00d4a3	0.12581114
244	0xbf28e6c9	-0.6597715
245	0xbe865714	-0.2623831
246	0x3dd00361	0.101568945
247	0x3ee7861c	0.45219505
248	0xbeecced6	-0.46251553
249	0x3efe1445	0.4962484
250	0xbe9b15d9	-0.30290106
251	0xbeecda08	-0.46260095
252	0x3e8ecdfd	0.27891532
253	0x3f12ab45	0.57292587
254	0xbe3fe8c4	-0.18741137
255	0x3d82cac9	0.063863344

rnn.weight_hh_l1 f4 [128, 128]
0	0xbd551215	-0.052019197
1	0x3cbd26b8	0.023089752
2	0x3d02e1c2	0.03195358
3	0x3cb1595c	0.021649055
4	0xbd2180a5	-0.039429326
5	0x3c8644b0	0.016390175
6	0xbcfa607e	-0.03056359
7	0xbd57dc8c	-0.052700564
8	0xbd880ee3	-0.066434644
9	0x3d5ac7fa	0.05341337
10	0xbda5c0ed	-0.08093438
11	0xbd951950	-0.072802186
12	0xbd34c5e5	-0.04413404
13	0xbb5c43c0	-0.0033609718
14	0xbba3d6f0	-0.004999988
15	0xbd979249	-0.074009486
16	0x3d4be75e	0.049781196
17	0xbd45e6fc	-0.048315987
18	0xbd89bc4b	-0.06725367
19	0xbd57f960	-0.052728057
20	0x3d4ede3a	0.0505049
21	0x3cabffd4	0.020996012
22	0xbda059a6	-0.07829599
23	0xbd009692	-0.031393595
24	0xbcdc0fb4	-0.026862957
25	0x3d705db2	0.058683105
26	0xbd8c22a6	-0.06842546
27	0xbb8b9440	-0.004259616
28	0xbd1104b5	-0.03540488
29	0x3cc30b88	0.02380921
30	0x3cf2ffe0	0.029663026
31	0x3d1718de	0.03688895
32	0x3d5bb032	0.05363483
33	0x3a5dcd80	0.0008461103
34	0x3d86f647	0.065899424
35	0x3d3dc32a	0.0463287
36	0xbd88517d	-0.06656168
37	0xbd4e837d	-0.050418366
38	0xbd234342	-0.039859064
39	0x3d1b0162	0.037843116
40	0x3d1e9fde	0.03872668
41	0x3d372ac6	0.044718526
42	0xbd8db24c	-0.06918773
43	0x3d93f8e3	0.07225206
44	0x3c15a560	0.009133667
45	0x3d590302	0.052981384
46	0x3bd93b50	0.006629385
47	0x3ccdb638	0.025111303
48	0xbc555168	-0.013019897
49	0x3da2ac15	0.07942978
50	0x3cb04d2c	0.021521173
51	0x3d3f2936	0.04667016
52	0x3d469cc2	0.04848934
53	0x3d90f63b	0.07078215
54	0xbda96186	-0.08270554
55	0xbc1bfde8	-0.009520985
56	0x3caab5a0	0.020838559
57	0x3d08706c	0.03331034
58	0xbdb0e500	-0.08637428
59	0x3d3bcce6	0.045849703
60	0x3a816100	0.0009870827
61	0xbd7b05bb	-0.061284762
62	0x3d5461d2	0.0518511
63	0x3d0eb918	0.034844488
64	0x3da81735	0.082075514
65	0xbdb0ecdb	-0.086389266
66	0xbd9e6419	-0.07733936
67	0x3d7899ba	0.06069348
68	0x3c9c3ba4	0.019071408
69	0xbae1c3c0	-0.0017224476
70	0x3d3941f2	0.045228906
71	0x3c311ef8	0.010810606
72	0x3d4d1ae2	0.050074466
73	0xbd8c00e8	-0.0683611
74	0xbd556164	-0.052094832
75	0xbd8b5825	-0.068039216
76	0xbd88d9cb	-0.06682166
77	0xbd84b62f	-0.06480061
78	0x3c4b6130	0.012413308
79	0x3cbf5de8	0.023360208
80	0x3d816df3	0.06319799
81	0x3c69c078	0.0142670795
82	0xbca7801c	-0.02044683
83	0x3c0651f8	0.008198254
84	0x3cbadfc4	0.022811778
85	0x3d0801a0	0.033204675
86	0x3d80646b	0.06269153
87	0x3db0799d	0.08616946
88	0x3d75ec76	0.06003996
89	0x3daa7545	0.08323149
90	0xbce0ce56	-0.027442139
91	0xbca04a84	-0.019566782
92	0x3d4c9b86	0.049953006
93	0xbd8cc546	-0.068735644
94	0x3d36dfc6	0.044647
95	0xbc8be6f0	-0.017077893
96	0xbd37b2be	-0.044848196
97	0xbd7be9dc	-0.061502323
98	0xbcf2c8c8	-0.029636756
99	0x3d80a02d	0.06280551
100	0xbda5541d	-0.08072684
101	0x3bd09430	0.0063653216
102	0xbc5e60b0	-0.013572857
103	0x3b23f8e0	0.0025020167
104	0xbd4abb5f	-0.049495097
105	0xbdb08978	-0.0861997
106	0x3c215928	0.009847917
107	0xb9f97400	-0.00047579408
108	0xbd3e3096	-0.046433054
109	0xbd9b9ba5	-0.07598046
110	0xbd5bf360	-0.053698897
111	0x3d034000	0.032043457
112	0xbd8e75d0	-0.06956065
113	0x3d9df875	0.07713405
114	0xbd6cd6d9	-0.057822082
115	0xbd7ce622	-0.06174291
116	0x3ca8337c	0.020532362
117	0x3c841118	0.016121432
118	0x3d00ce30	0.031446636
119	0x3da5a449	0.080879755
120	0x3d0fcf6c	0.035109922
121	0x3d09c3a0	0.03363383
122	0xbca8daf8	-0.020612225
123	0xbbfbb250	-0.0076811686
124	0x3c9cc4ec	0.019136868
125	0x3d58c246	0.05291965
126	0xbd15c84a	-0.036567964
127	0x3c947ab4	0.018124916
128	0x3c527c88	0.012847073
129	0xbcb52e78	-0.022116885
130	0x3d86ffdd	0.06591771
131	0x3d4d1cc2	0.050076254
132	0xbce40480	-0.027834177
133	0x3c0b9b90	0.008520976
134	0xbd15103e	-0.036392443
135	0x3d62078e	0.055182986
136	0xbbef12f0	-0.0072959587
137	0xbd095e7f	-0.033537384
138	0x3c964328	0.01834257
139	0xbda3f36c	-0.080054134
140	0xbd757914	-0.059929922
141	0xbd42c580	-0.047551632
142	0xbd435f2d	-0.04769819
143	0x3cdd3210	0.02700141
144	0xbd0bebb5	-0.034160335
145	0xbcd050e4	-0.025429197
146	0xbd6beb32	-0.057597347
147	0x3ba0e280	0.0049098134
148	0x3a84ecc0	0.0010141358
149	0x3d60fbe2	0.054927714
150	0x3c69f598	0.0142797455
151	0x3d9b217b	0.07574745
152	0xbd926a81	-0.0714922
153	0xbd3971f2	-0.045274682
154	0xbd294430	-0.041324794
155	0x3d867e1b	0.065670215
156	0x3cf68968	0.030094817
157	0xbcbce478	-0.023058161
158	0x3b47f180	0.0030508935
159	0x3c202008	0.009773262
160	0x3cd1d040	0.025611997
161	0xbcfbf2c4	-0.030755408
162	0x3d3fd986	0.046838306
163	0x3d1a3b76	0.037654363
164	0xbced4868	-0.02896519
165	0xbd64667b	-0.055761795
166	0x3d8640f9	0.06555361
167	0xbc79d730	-0.015249059
168	0xbd5fb43c	-0.054615244
169	0x3d087480	0.033314228
170	0xbd0aa284	-0.033846393
171	0x3cbc63b4	0.02299676
172	0x3d69fd6e	0.057126455
173	0x3d6cae26	0.05778327
174	0x3d588d8a	0.052869357
175	0x3c8f8f38	0.017524347
176	0xbc74a170	-0.014931068
177	0xbd6feab2	-0.058573432
178	0x3b14bc80	0.0022695363
179	0xbd1247ae	-0.03571289
180	0x3d2b9692	0.041891642
181	0xbce5689e	-0.028003987
182	0xbd42a55c	-0.04752098
183	0xbda76d59	-0.08175153
184	0xbd33f462	-0.043934233
185	0xbd8f8879	-0.07008452
186	0x3d4d5b3a	0.05013583
187	0xbc105f50	-0.008811787
188	0xbd152e02	-0.03642083
189	0xbd9bdd85	-0.07610611
190	0xbcd11460	-0.02552241
191	0x3cd11fc8	0.02552785
192	0xbcb2ae9c	-0.021811776
193	0xbc0bb7b8	-0.008527689
194	0xbcbaf820	-0.022823393
195	0x3d562242	0.052278765
196	0x3da3895f	0.07985186
197	0x3d302442	0.04300333
198	0xbcd638dc	-0.02615016
199	0xbcd12f44	-0.025535233
200	0x3d009d36	0.031399928
201	0x3cfe77ac	0.031062923
202	0xbcac3b10	-0.021024257
203	0xbd960ffa	-0.07327266
204	0x3d1b5a26	0.03792777
205	0xbd973040	-0.0738225
206	0x3c9e7454	0.019342579
207	0x3c3b6df0	0.011439785
208	0x3c8f1404	0.017465599
209	0x3d1750de	0.036942355
210	0x3d5e0612	0.054205008
211	0xbd05904b	-0.03260831
212	0xbc9e1e20	-0.019301474
213	0xbd94db06	-0.07268338
214	0xbd9ec837	-0.07753032
215	0xbcfdbc6c	-0.030973636
216	0x3cf526ac	0.029925667
217	0xbc1e6058	-0.009666525
218	0x3cb1c378	0.021699652
219	0xbd17ab1a	-0.03702841
220	0x3d3da8b6	0.046303473
221	0x3d33aeae	0.04386776
222	0xbc25ead0	-0.010126784
223	0x3d6b2e86	0.057417415
224	0x3d71e34a	0.05905465
225	0xba0acd00	-0.00052948296
226	0xbcd06210	-0.025437385
227	0xbdb176ce	-0.08665238
228	0x3bff7f00	0.007797122
229	0xbd23bc68	-0.0399746
230	0xbd8608ee	-0.06544672
231	0xbd24db91	-0.040248457
232	0x3c407de0	0.011748761
233	0xbd32e5de	-0.04367625
234	0xbd81284e	-0.06306516
235	0xbc35c380	-0.011093974
236	0xbd26751b	-0.040639024
237	0xbd92b33b	-0.07163092
238	0xbc220350	-0.009888485
239	0xbd356740	-0.04428792
240	0x3da28593	0.079356335
241	0xbd0f4d7f	-0.034986015
242	0xbaa54780	-0.001260981
243	0x3d8344e3	0.064096235
244	0xbd9f8992	-0.07789911
245	0x3da9e41b	0.08295461
246	0x3d416ea2	0.04722465
247	0x3d5cb9f6	0.053888284
248	0xbd17639b	-0.036960226
249	0xbdadfc8e	-0.084954366
250	0x3d2065c2	0.039159544
251	0xbba00420	-0.0048833042
252	0x3d92dcad	0.07170997
253	0xbb891790	-0.004183717
254	0xbd3cb2d1	-0.04606897
255	0x3d34ce76	0.04414221

rnn.bias_ih_l1 f4 [128]
0	0x3f1c8178	0.61135054
1	0x3cf3ffae	0.029785004
2	0x3d94d6f8	0.072675645
3	0xbee90852	-0.4551416
4	0xbe9289b1	-0.28620675
5	0xbe799d7a	-0.24376479
6	0x3eaf729f	0.34267136
7	0xbe11f8eb	-0.14255111
8	0x3e9cf92c	0.30658853
9	0x3ee7f02a	0.45300418
10	0xbed5425d	-0.41652194
11	0x3ee86e19	0.45396498
12	0x3d549970	0.051904142
13	0xbee2ba97	-0.44282982
14	0x3eb0a5e9	0.3450158
15	0xbebfce9f	-0.37462327
16	0x3e921140	0.28528786
17	0x3e6adbe7	0.22935449
18	0x3e43b4e4	0.19111973
19	0x3eae195a	0.34003717
20	0x3eab5d7a	0.33469754
21	0xbf09c57d	-0.5381697
22	0xbea7aeb3	-0.32750472
23	0xbec6b7bb	-0.3881205
24	0xbeda612f	-0.4265227
25	0xbec499cf	-0.38398597
26	0xbec43fa1	-0.38329795
27	0xbea1f31f	-0.316308
28	0xbf3d7389	-0.7400442
29	0xbee11080	-0.439579
30	0xbeebff43	-0.46093187
31	0xbe78667d	-0.24257846
32	0xbed4939f	-0.41518876
33	0xbe9489c0	-0.29011345
34	0x3edc155c	0.42985046
35	0x3ed4d66a	0.41569835
36	0xbe087d92	-0.13329151
37	0xbe784b3d	-0.24247451
38	0x3ec6722c	0.3875898
39	0xbefb2726	-0.49053305
40	0xbef44c58	-0.47714496
41	0xbe716a99	-0.2357582
42	0xbe9a1185	-0.3009149
43	0x3ee53299	0.44765165
44	0xbf41a5a4	-0.7564337
45	0x3ec081b1	0.37598947
46	0x3ee4eb01	0.44710544
47	0xbecb5151	-0.39710477
48	0x3e702c27	0.23454343
49	0xbec94847	-0.39312956
50	0x3e636d60	0.22209692
51	0x3e496626	0.19667873
52	0xbc523e60	-0.012832254
53	0xbea2935c	-0.3175305
54	0x3d72b7f0	0.059257448
55	0x3f07bad2	0.5301944
56	0xbefc7ec6	-0.4931547
57	0x3e7ca2bb	0.24671452
58	0xbee79bef	-0.45236155
59	0x3d9f46f8	0.07777208
60	0x3effee00	0.49986267
61	0x3e39ef88	0.1815778
62	0x3ed43db0	0.41453314
63	0x3ea8e52b	0.3298734
64	0x3e81f06e	0.25378746
65	0x3ec7592f	0.3893523
66	0x3eb74431	0.35794213
67	0x3e897b81	0.26852039
68	0x3f1a3f15	0.60252506
69	0x3f17cfba	0.5930134
70	0xbef2b66b	-0.474048
71	0xbe9cc920	-0.30622196
72	0xbece0c54	-0.4024378
73	0x3ee82137	0.4533784
74	0xbe52f054	-0.2059949
75	0xbe4e8c1f	-0.2017064
76	0xbf0a19fe	-0.5394591
77	0xbe115407	-0.1419221
78	0xbed1450d	-0.40872994
79	0x3e8af9b3	0.2714363
80	0x3ece564b	0.4030021
81	0xbf14e130	-0.5815611
82	0xbc7360c4	-0.014854614
83	0xbef4b060	-0.47790813
84	0x3ee0bf77	0.43896076
85	0xbcc290a3	-0.023750609
86	0x3e9f544a	0.31118995
87	0xbe1657ef	-0.14681982
88	0x3f21737e	0.6306685
89	0xbecbdd22	-0.39817148
90	0x3ee1e725	0.44121662
91	0xbe7e69e9	-0.24845089
92	0xbe8842f8	-0.26613593
93	0xbf047de9	-0.51754624
94	0xbedfe1a1	-0.4372683
95	0x3ecb213d	0.39673796
96	0x3edb8dc1	0.42881587
97	0x3eac985d	0.33709994
98	0x3e759266	0.23981628
99	0x3f26257b	0.6490094
100	0x3ec77acd	0.38960877
101	0xbec2cacf	-0.38045356
102	0xbdac55ba	-0.084147885
103	0x3ee080f9	0.43848398
104	0xbde7df57	-0.113218956
105	0x3f3d9597	0.7405638
106	0x3d3ac58c	0.04559855
107	0xbe8d8215	-0.27638307
108	0x3ea6ab69	0.3255265
109	0xbe801273	-0.25014076
110	0x3f088603	0.53329486
111	0xbf009fa7	-0.5024361
112	0xbf0331d1	-0.5124789
113	0x3e91fc12	0.28512627
114	0xbef8d9e0	-0.48603725
115	0xbed92db5	-0.42417684
116	0x3ee00eec	0.43761384
117	0x3f097822	0.53698933
118	0xbeacbaa9	-0.3373616
119	0x3eea2b7f	0.4573631
120	0x3eb8a6a5	0.3606464
121	0x3ea3e031	0.32006982
122	0x3e85537a	0.2604025
123	0xbeb42d25	-0.35190693
124	0x3ed9fef6	0.42577332
125	0xbd544bc5	-0.051830072
126	0xbed089b4	-0.4073006
127	0x3f0b10e5	0.54322654

rnn.bias_hh_l1 f4 [128]
0	0x3f26d89a	0.6517426
1	0xbc3094e1	-0.010777683
2	0x3d8b4308	0.067998946
3	0xbee5fd6c	-0.44919908
4	0xbe667798	-0.22506559
5	0xbebb5cf6	-0.3659436
6	0x3ea30613	0.31840572
7	0xbdcaa20c	-0.09894189
8	0x3edb21d6	0.42799252
9	0x3ee2bea7	0.4428608
10	0xbed4513c	-0.41468227
11	0x3eb9a448	0.3625815
12	0x3d88d41a	0.0668108
13	0xbefd224d	-0.49440232
14	0x3ea08b5c	0.31356323
15	0xbf0bd1cd	-0.54617006
16	0x3eaa8aaf	0.33308932
17	0x3e751135	0.23932345
18	0x3e82bca4	0.25534546
19	0x3ed208fb	0.41022477
20	0x3eb513e2	0.35366732
21	0xbf14a803	-0.58068866
22	0xbe5cc897	-0.21560894
23	0xbe93e4fd	-0.28885642
24	0xbe993326	-0.29921836
25	0xbecd5288	-0.4010203
26	0xbeed9915	-0.46405855
27	0xbebb95a7	-0.36637613
28	0xbf3e628c	-0.7436912
29	0xbec9f0dc	-0.39441574
30	0xbedf9545	-0.4366857
31	0xbe911e2c	-0.28343332
32	0xbe910688	-0.28325295
33	0xbec756ae	-0.3893332
34	0x3eb0caa7	0.3452961
35	0x3ebc158a	0.36735183
36	0xbe2e1ed2	-0.17003945
37	0xbea0c1f3	-0.31397972
38	0x3e6f355a	0.23360196
39	0xbeed443d	-0.46341124
40	0xbf007a32	-0.50186455
41	0xbea29f08	-0.31761956
42	0xbe9ae3ee	-0.30252022
43	0x3ed9fa84	0.4257394
44	0xbf3337f4	-0.7000725
45	0x3ebe8e38	0.3721788
46	0x3eeba8c7	0.46027204
47	0xbed7fa0d	-0.4218296
48	0x3e7cb891	0.24679781
49	0xbed353e0	-0.4127493
50	0x3e889223	0.26673993
51	0x3e670360	0.22559881
52	0x3d037161	0.03209055
53	0xbe44308b	-0.19159143
54	0x3d8acd5f	0.06777453
55	0x3ed2a761	0.41143325
56	0xbedb04e6	-0.42777175
57	0x3e84e6db	0.2595738
58	0xbedbfbe7	-0.42965624
59	0x3d5b47bf	0.05353522
60	0x3f040178	0.5156474
61	0x3dd3bd0a	0.10338791
62	0x3ed113ae	0.40835327
63	0x3e5f2ba0	0.21793985
64	0x3e872d49	0.26401737
65	0x3ef7d6ca	0.4840606
66	0x3e9a5c53	0.30148563
67	0x3ea069ea	0.31330806
68	0x3f33302b	0.69995373
69	0x3f2b998c	0.6703117
70	0xbecb2235	-0.39674535
71	0xbe918403	-0.2842103
72	0xbeabb42a	-0.33535892
73	0x3eabe1cb	0.33570704
74	0xbe6c8906	-0.23099145
75	0xbe4a4689	-0.1975347
76	0xbf200b37	-0.6251711
77	0xbe218b69	-0.15775837
78	0xbeb8573d	-0.36004058
79	0x3e8e854a	0.27836066
80	0x3ee276f1	0.4423137
81	0xbf022d78	-0.5085063
82	0xbe212bde	-0.1573939
83	0xbefbd705	-0.49187484
84	0x3eba5ceb	0.36399016
85	0x39dc6fd1	0.0004204498
86	0x3e9356a2	0.28777033
87	0xbe900809	-0.2813113
88	0x3f37243a	0.7153965
89	0xbebc9fab	-0.36840567
90	0x3ee0c9fb	0.439041
91	0xbe6593b7	-0.2241963
92	0xbea2fb40	-0.31832314
93	0xbf0f4c99	-0.55976254
94	0xbed88f72	-0.4229694
95	0x3e9cb579	0.30607203
96	0x3ee07467	0.43838808
97	0x3ed0e147	0.40796873
98	0x3e53c71b	0.20681421
99	0x3f1a2478	0.60211897
100	0x3ec6890d	0.38776436
101	0xbee39d0f	-0.44455764
102	0xbdd8987f	-0.10575961
103	0x3ecc530e	0.39907116
104	0xbe76b621	-0.24092914
105	0x3f1931a2	0.5984136
106	0xbbe00b80	-0.0068373084
107	0xbea6f2b9	-0.32607058
108	0x3e978035	0.29590002
109	0xbe61f69f	-0.22066735
110	0x3f1fe217	0.6245436
111	0xbf016660	-0.50546837
112	0xbecc7de0	-0.39939785
113	0x3ebce2e5	0.36891857
114	0xbed3bbb5	-0.41354147
115	0xbecd1e62	-0.40062243
116	0x3f14b2c5	0.5808528
117	0x3f0965a4	0.53670716
118	0xbece92e6	-0.4034645
119	0x3ef18074	0.47168314
120	0x3e879e92	0.26488167
121	0x3e35fb6f	0.17771696
122	0x3eb9210a	0.3615802
123	0xbeb98429	-0.36233643
124	0x3ec142d5	0.377463
125	0xbde756b8	-0.11295837
126	0xbebc9dde	-0.36839193
127	0x3f019a3f	0.50625986

rnn.weight_ih_l2 f4 [128, 128]
0	0x3e17550c	0.14778537
1	0xbeb78485	-0.35843292
2	0x3ed247bb	0.4107035
3	0x3edfe78e	0.4373135
4	0xbe01ac7d	-0.12663455
5	0xbc361ff3	-0.011116016
6	0xbe5b0316	-0.21387896
7	0x3eddcbda	0.4331959
8	0xbeb30550	-0.3496499
9	0xbe3c950c	-0.18416232
10	0x3ecbc7a8	0.39800763
11	0xbec48ee2	-0.3839026
12	0x3e5c5b57	0.21519218
13	0x3f036fc3	0.5134241
14	0x3e0d4976	0.13797554
15	0x3eadaf27	0.33922693
16	0xbcdf7a33	-0.027279949
17	0x3e8346ea	0.2564004
18	0xbf03cf86	-0.5148853
19	0xbe8ea317	-0.27858803
20	0x3a100837	0.0005494388
21	0x3d8cc552	0.06873573
22	0x3cb04c57	0.021520777
23	0xbea74a4e	-0.32673877
24	0xbe7bb8c0	-0.24582195
25	0xbe9d7595	-0.3075377
26	0x3f0e8ec6	0.55686605
27	0xbd4e2680	-0.050329685
28	0x3ef0effd	0.47058097
29	0xbd9c68a4	-0.07637146
30	0xbc9b856d	-0.01898452
31	0xbdae3c46	-0.0850759
32	0x3d2ef47b	0.042713623
33	0x3eb8a80c	0.3606571
34	0xbc69ee47	-0.014278001
35	0xbef6f3ac	-0.48232782
36	0x3f372896	0.71546304
37	0xbdbaa42a	-0.09113343
38	0x3d804429	0.062630005
39	0x3eee970b	0.46599612
40	0xba7b5d4c	-0.00095887925
41	0xbe4d8dc8	-0.20073617
42	0x3e3d26be	0.1847181
43	0xbe15f129	-0.14642777
44	0x3f23de52	0.6401111
45	0x3e4f11b9	0.20221604
46	0xbe9520a3	-0.29126462
47	0x3f25b120	0.64723396
48	0x3e115cb3	0.14195518
49	0xbe8f6d1b	-0.28012928
50	0xbecd0395	-0.40041795
51	0xbe9a2b32	-0.3011108
52	0x3d492e84	0.049116626
53	0x3e7ccf8e	0.24688551
54	0x3ee62187	0.44947454
55	0x3e1dde74	0.1541689
56	0x3e95326f	0.2914004
57	0x3e00e7d3	0.12588434
58	0x3f0d51ea	0.55203116
59	0x3f10aea9	0.5651651
60	0xbe9a239b	-0.3010529
61	0xbe0f31d0	-0.13983846
62	0xbee0676e	-0.4382891
63	0x3ee64a12	0.44978386
64	0x3e1ca71d	0.15298124
65	0x3e1825e6	0.14858207
66	0x3e5677f5	0.20944197
67	0xbe950902	-0.29108435
68	0xbd58958e	-0.052877
69	0x3e3fe521	0.1873975
70	0x3eb0d905	0.34540573
71	0x3eac2ae5	0.33626476
72	0x3d686e47	0.056745794
73	0xbe0211b9	-0.12702073
74	0xbeb3b903	-0.3510209
75	0x3f033e6d	0.5126713
76	0x3f4d9a9a	0.8031403
77	0x3f133ae3	0.5751173
78	0x3e955d1b	0.29172596
79	0x3ea39419	0.31948927
80	0x3d9ba267	0.07599335
81	0xbe26adb8	-0.16277206
82	0x3e0da329	0.13831772
83	0x3dca6236	0.098820135
84	0x3e4af8e2	0.19821504
85	0xbeccad9e	-0.3997621
86	0xbeed0f31	-0.46300653
87	0x3ee8c9d6	0.4546649
88	0xbf24cf35	-0.6437867
89	0xbd35c233	-0.044374656
90	0xbf331410	-0.6995249
91	0x3eb7f3d5	0.35928217
92	0x3f19088b	0.5977866
93	0x3f2aed8b	0.6676871
94	0xbe91057f	-0.28324506
95	0x3e7bc602	0.24587253
96	0xbd82d292	-0.06387819
97	0xbe8f2307	-0.2795641
98	0x3e88030c	0.26564825
99	0xbb87285b	-0.004124684
100	0x3ebd004c	0.3691429
101	0x3b3b2663	0.0028556816
102	0x3ea95552	0.33072907
103	0xbac8cfe4	-0.0015320745
104	0xbe1c117c	-0.15241045
105	0xbf147535	-0.57991344
106	0xbd23a408	-0.039951354
107	0x3eb8f5ce	0.36125034
108	0xbe23fa63	-0.16013484
109	0x3e685c44	0.22691447
110	0xbf4970f7	-0.78687996
111	0x3e8cd686	0.27507418
112	0x3f3a79d3	0.7284214
113	0xbf315779	-0.692741
114	0x3f16670c	0.5875099
115	0xbd0a9995	-0.033837873
116	0xbf0b734e	-0.54472816
117	0xbf1ada96	-0.60489786
118	0x3d3e8cb0	0.04652089
119	0x38e48d8d	0.00010898253
120	0x3eb0c504	0.3452531
121	0xbeea1abb	-0.4572352
122	0x3e197ab6	0.14988217
123	0xbe4c01a2	-0.19922498
124	0x3c8d6366	0.01725931
125	0x3d778bad	0.06043594
126	0x3d07c7ea	0.033149637
127	0x3c49de7e	0.012321113
128	0xbde810c7	-0.11331325
129	0xbf0a397f	-0.5399398
130	0x3ec5fe0a	0.3867038
131	0x3ed159b9	0.40888765
132	0xbd202d53	-0.039105725
133	0x3d57e4c5	0.052708406
134	0xbe9e9be5	-0.30978313
135	0x3f2ae86e	0.6676091
136	0xbee62ef9	-0.44957712
137	0xbea831e7	-0.32850572
138	0x3ea1d440	0.31607246
139	0xbed40237	-0.4140794
140	0x3dc69c7e	0.09697817
141	0x3f08896b	0.53334683
142	0xbb31629a	-0.0027066828
143	0x3eef53c9	0.4674361
144	0x3dc066e3	0.09394624
145	0x3e6a1804	0.22860724
146	0xbee4ab38	-0.4466188
147	0xbeeb2e97	-0.45933983
148	0x3dd7f8b9	0.10545487
149	0xbdacab13	-0.08431067
150	0x3c8514db	0.016245296
151	0xbe1987eb	-0.14993255
152	0xbe1bb7fb	-0.15206902
153	0xbe5f2028	-0.2178961
154	0x3f14260a	0.57870543
155	0x3dc60ec6	0.096707866
156	0x3ecc865e	0.39946264
157	0xbe5f0795	-0.21780236
158	0x3d94d4f5	0.07267181
159	0xbe14f328	-0.14545882
160	0x3e452e58	0.1925596
161	0x3ec4c6e1	0.38432983
162	0x3df852f5	0.12125198
163	0xbf5bf5ae	-0.8592175
164	0x3f11cda2	0.56954396
165	0x3cc76361	0.02433938
166	0x3e78b902	0.24289325
167	0x3ed801a5	0.42188755
168	0x3dc0b1ce	0.094089136
169	0xbcb8286e	-0.022480216
170	0x3eaaa79d	0.33331004
171	0xbeb05cc1	-0.34445766
172	0x3f3f4571	0.74715334
173	0x3e9ba895	0.30402055
174	0xbece602a	-0.40307742
175	0x3f341eac	0.703593
176	0x3e5dac01	0.21647646
177	0xbebb1e88	-0.3654673
178	0xbf310f87	-0.6916432
179	0xbeb80ef4	-0.35948908
180	0x3db5a69b	0.08869668
181	0x3ee2d70c	0.44304693
182	0x3eedbfe6	0.4643547
183	0x3ea36fa4	0.31921113
184	0x3ee1f746	0.44133967
185	0x3db44674	0.088025
186	0x3f14301e	0.5788592
187	0x3ef7e2e2	0.48415285
188	0xbeada1a4	-0.33912385
189	0xbe7b51d6	-0.24542937
190	0xbec0cd9b	-0.37656865
191	0x3efee556	0.49784344
192	0x3e984f9c	0.29748237
193	0xbe6284ed	-0.2212102
194	0x3eafebaa	0.34359485
195	0xbed52fa6	-0.41637915
196	0xbcfe2b16	-0.031026404
197	0xbddfe820	-0.10932946
198	0x3e3c409b	0.1838402
199	0x3ecaf1b6	0.39637536
200	0xbe7f9780	-0.24960136
201	0xbe55fee4	-0.20898014
202	0xbe3e024e	-0.18555567
203	0x3f07f8c6	0.53113973
204	0x3f2cbb87	0.67473644
205	0x3ee66ab3	0.4500328
206	0x3e9e16b4	0.30876696
207	0x3e1d4236	0.15357289
208	0xbc314834	-0.010820437
209	0xbe22bc77	-0.15892206
210	0x3e0a480c	0.13504046
211	0x3e8fd0be	0.28088945
212	0x3e8d2c99	0.27573088
213	0xbf1b3dbc	-0.60641074
214	0xbf2c3aaf	-0.67277044
215	0x3f08352c	0.53206134
216	0xbf5aca95	-0.85465366
217	0xbd40feb6	-0.04711791
218	0xbf0ccd7f	-0.5500106
219	0x3ec27462	0.37979418
220	0x3f112f46	0.5671276
221	0x3f67b175	0.9050515
222	0xbe055c5e	-0.13023517
223	0x3e894089	0.2680705
224	0xbd093f6b	-0.033507746
225	0xbf110b96	-0.56658304
226	0x3e8d9a4b	0.2765678
227	0xbd113b03	-0.03545667
228	0x3e6ff168	0.23431933
229	0x3dc6d78c	0.09709081
230	0x3f13a24c	0.5766952
231	0x3db79873	0.08964624
232	0xbdcfe680	-0.10151386
233	0xbf388a36	-0.72085893
234	0x3c17ee00	0.009273052
235	0x3ee97596	0.45597523
236	0xbe6ee45f	-0.23329304
237	0x3eff627b	0.49879822
238	0xbf3ee133	-0.74562377
239	0x3e3a4c97	0.18193279
240	0x3f42cc20	0.7609272
241	0xbf1af0a5	-0.60523444
242	0x3f210a28	0.6290612
243	0xbd9bde69	-0.07610781
244	0xbf6d3ccd	-0.926709
245	0xbf27e5bb	-0.65584916
246	0x3db1556f	0.08658873
247	0x3dcc3664	0.09971312
248	0x3ed7c3fc	0.42141712
249	0xbefa8952	-0.48932892
250	0x3e4e97a7	0.20175038
251	0xbd795bdb	-0.060878616
252	0xbcf9984b	-0.030468127
253	0x3c65cd85	0.01402605
254	0x3c03104d	0.007999492
255	0xbd64da05	-0.055871982
