src/rnn/models/user_3_model.pth (torch, 377610 bytes, 16 tensors)

rnn.weight_ih_l0 f4 [128, 11]
000000 25 24 be 3e 30 3a ca 3e 3c 4b d1 3e d1 13 b8 3e
       0.3713695 0.3949752 0.40877712 0.3595262
000010 bd 1b d2 3e 9a a5 e9 3d 93 69 ca 3e fe f4 96 3e
       0.41036788 0.11408539 0.39533672 0.2948379
000020 84 e3 79 3e d1 b4 a3 3e 16 b6 c9 3e 81 79 97 be
       0.24403197 0.3197389 0.39396733 -0.29584888
000030 a5 5e 3c be 5b 21 cc bd a1 f9 56 be 4d 77 68 bd
       -0.18395479 -0.099672996 -0.20993663 -0.0567544
000040 5c 0d b0 be 6c d5 b8 3d 10 02 6a be 02 00 49 be
       -0.34385192 0.09025082 -0.2285235 -0.19628909
000050 3a 7c 8f be bd f8 39 be e7 d2 ed 3e bf 59 f2 3e
       -0.28024465 -0.18161292 0.46449968 0.47334096
000060 de db c0 3e d3 81 f6 3e 64 12 0b 3f 67 95 31 3e
       0.37667745 0.48145923 0.54324937 0.17342149
000070 14 67 4f 3e e8 77 e6 3e f7 dd bf 3e 83 9f c0 3e
       0.20254165 0.45013356 0.37474033 0.37621698
000080 0b 28 11 3f 6f b8 03 be 59 14 af be a8 67 88 be
       0.56701726 -0.12863325 -0.34195212 -0.26641583
000090 59 d2 a6 be d4 f4 4b be 38 ed cc 3d b7 71 98 be
       -0.32582358 -0.19917613 0.100061834 -0.29774258
0000a0 f3 d9 06 be f4 80 7a be 90 16 1e be e7 2e bc bd
       -0.13169079 -0.24463254 -0.15438294 -0.091886334
0000b0 d7 7a a7 3e 66 a4 fa 3e a9 85 db 3e 09 29 c7 3e
       0.32710907 0.4895355 0.42875412 0.38898495
0000c0 d2 68 0b 3f 18 da 58 3c f4 7c 68 3e e7 45 c8 3e
       0.5445682 0.013235591 0.22703916 0.3911583
0000d0 5d 01 06 3f 39 ce 03 3f 50 cf f4 3e 0d 51 13 be
       0.5234583 0.51486546 0.47814417 -0.14386387
0000e0 12 e7 b6 be b4 67 c6 be 75 81 8b be 57 9b 8b be
       -0.35723168 -0.38750994 -0.27247205 -0.27266952
0000f0 d2 18 10 3e 3e a8 bb be 8a 38 65 be 1b 34 9e be
       0.14071968 -0.36651796 -0.22384849 -0.30899128
000100 76 66 99 be e6 c7 80 be f5 59 32 be 79 0b be bd
       -0.29960984 -0.2515251 -0.17417128 -0.09279532
000110 c4 fc 9a bd 30 71 9e bd 72 6c af bd 1f c5 36 bd
       -0.075677425 -0.077364326 -0.08565606 -0.044621583
000120 f8 34 a1 3d 97 cc 2e be a9 4d 9f bd 5c 3a d4 bd
       0.07871431 -0.17070232 -0.077784844 -0.10362694
000130 da 1a 21 be b8 44 38 be 67 36 b2 be 16 4a be be
       -0.157329 -0.17994964 -0.3480713 -0.37165898
000140 be 8b 79 be 4d 85 fe be 08 90 ec 3d ac ff 8b be
       -0.24369714 -0.49711075 0.11550909 -0.273435
000150 db 2e 6f be d4 1d 71 be 34 71 16 be 8d b5 cd be
       -0.23357718 -0.23546535 -0.14691621 -0.40177575
000160 17 f7 f2 be 4e ab aa be db 7c ab be 13 1c ba be
       -0.4745414 -0.3333382 -0.33493695 -0.36349544
000170 8e 4d d6 be f8 c6 ae be 8c d5 fb be 2d 23 f4 be
       -0.41856045 -0.34136176 -0.4918636 -0.47683087
000180 9d b9 90 be 1e c8 d5 be b2 76 99 be 42 ec a8 3e
       -0.28266612 -0.4175424 -0.2997337 0.3299275
000190 78 57 c2 3e 7b 46 cd 3e a6 14 c4 3e f8 fc 0e 3e
       0.37957358 0.40092835 0.38297004 0.13963687
0001a0 e5 05 f8 3d 89 e7 b2 3e 7f a1 d3 3e be f1 e4 3e
       0.12110499 0.34942272 0.4133415 0.44715685
0001b0 08 67 a3 3e fb 66 3d 3e 93 d0 46 bd 3a 62 6d be
       0.31914544 0.18496315 -0.048538756 -0.23182002
0001c0 8e 39 a1 be ec 8b 6d be 51 ec c8 bd f6 22 7f 3e
       -0.31489223 -0.23197907 -0.09810699 0.2491568
0001d0 f4 c8 3e be af 83 31 be a1 52 85 be 83 2f 8c be
       -0.18631345 -0.1733539 -0.26039603 -0.2738
0001e0 bd 37 59 be bf b4 ea 3e 1f 46 e7 3e 13 2d d9 3e
       -0.21212669 0.45841023 0.45170686 0.424172
0001f0 5b 25 8f 3e 32 73 04 3e c8 50 8c 3e 32 41 4e 3e
       0.27958187 0.12934569 0.2740538 0.20142058
000200 26 8a a3 3e ec d9 ad 3e 19 e5 9d 3e 23 ef 05 3e
       0.31941336 0.33955324 0.3083885 0.13079505
000210 3d c4 dc 3e 54 f2 ce 3e 71 9d a0 3e 42 da ac 3e
       0.43118468 0.40419257 0.31370118 0.33760267
000220 e1 cd 2b 3e ac b2 a4 3d 64 ac dc 3e 9e e3 0a 3e
       0.16777755 0.080418915 0.43100274 0.13563392
000230 e5 84 cc 3d 09 f1 b0 3e a6 4c 43 3e 3b d6 ce 3e
       0.09986285 0.34558895 0.19072208 0.4039782
000240 34 48 95 3e a9 56 eb 3e a7 57 ac 3e 46 63 cf 3e
       0.2915665 0.45964554 0.33660623 0.40505427
000250 f3 cf 48 3d e5 57 9f 3e bb 2b a6 3e 83 53 c5 3e
       0.04902644 0.31121746 0.3245524 0.38540277
000260 68 ee 64 3e 03 d2 bf 3e 32 af b6 be 70 22 bb be
       0.2235657 0.37464914 -0.35680538 -0.3654971
000270 f5 19 8f be 32 14 ae be 7e 70 be be 4e 52 fd bd
       -0.2794949 -0.33999783 -0.371952 -0.12369214
000280 47 2c 0a bf 89 78 c2 be c5 fb 7d be 86 e5 bc be
       -0.5397381 -0.37982586 -0.24803074 -0.36893862
000290 31 6c f3 be f6 a3 89 be 82 4c d0 be 94 26 e0 be
       -0.4754348 -0.26882905 -0.4068337 -0.43779433
0002a0 8e 92 ee be a4 98 e3 be cb 4c 10 3e 36 84 b4 be
       -0.46596187 -0.44452393 0.14091794 -0.3525712
0002b0 fa 48 a0 be 30 6d ed be 83 24 c8 be d2 a2 f5 be
       -0.31305677 -0.46372366 -0.39090356 -0.47975785
0002c0 8d 40 2c 3e b1 11 67 3e f0 e8 9f 3e e5 04 88 3e
       0.16821499 0.22565342 0.31232405 0.26566234
0002d0 1e 18 b1 3e 22 2b 84 3d 66 5b 00 3f 48 ec 35 3e
       0.34588712 0.064535394 0.5013946 0.17765915
0002e0 76 91 97 3e dc 5c 86 3e 55 6c b7 3e ce d0 65 3e
       0.29603165 0.2624272 0.35824838 0.22442934
0002f0 0d 38 8f 3e 4a ae dd 3e 48 df 98 3e 63 97 fd 3e
       0.2797245 0.43297035 0.2985785 0.4952956
000300 eb 67 32 be d3 e3 a4 3e 99 5e af 3e f4 46 7b 3e
       -0.17422454 0.32205066 0.3425186 0.24538785
000310 19 6e 81 3e 25 a7 cb 3e d8 f9 8f 3d ac f7 64 3d
       0.2527931 0.3977596 0.07030076 0.05590026
000320 0d 45 76 bd b6 ea c0 3c 04 ca dc 3c cd ca 81 bc
       -0.060124446 0.023549419 0.026951797 -0.015843773
000330 01 68 5a 3c 16 d7 1b 3e 2b 86 fd bc 75 70 f8 3d
       0.0133304605 0.15218768 -0.030947765 0.121308245
000340 29 14 b5 bc dc 31 97 be 9f 3c cd be 4c a3 8f be
       -0.02210434 -0.29530227 -0.40085313 -0.28054273
000350 b9 65 ab be 53 d9 b6 be d8 7b 5f 3c a9 f9 f1 be
       -0.33476046 -0.3571268 0.0136403665 -0.47260788
000360 fb 25 51 be 4d c0 5b be 86 94 d9 be 8b 78 17 be
       -0.20424645 -0.21460076 -0.42496127 -0.14792077
000370 c3 32 65 be 48 88 8d be 61 4c f3 be e6 3c c6 be
       -0.22382645 -0.27643037 -0.4751921 -0.38718337
000380 76 2b f8 be dc fb 4e 3e e9 8b 74 be 09 af 58 be
       -0.48470658 0.20213264 -0.23881496 -0.2116052
000390 36 35 d8 be ab 46 6d be 3a 5b b7 be 1a e6 78 be
       -0.42228097 -0.23171489 -0.35811788 -0.24306527
0003a0 27 e8 64 be dd 2f c2 be eb 19 81 be c1 3a 88 be
       -0.22354184 -0.37927142 -0.25215086 -0.26607326
0003b0 b5 f9 4b 3e 63 d1 df be ff 26 8c be 0b 5e b4 be
       0.19919474 -0.43714437 -0.27373502 -0.35228
0003c0 96 cb 94 be 21 3e 5c be 2e 6f 93 be 1d c3 32 be
       -0.29061574 -0.21508075 -0.2879576 -0.17457242
0003d0 3d e7 4a be 75 02 d6 bd ca 65 42 bc a7 fe 1a be
       -0.19814773 -0.104496874 -0.011865089 -0.15136205
0003e0 1d 13 e8 bd 41 33 81 be 27 a8 6a bd 51 7d 18 be
       -0.113317706 -0.25234416 -0.05728927 -0.14891554
0003f0 09 bc 99 bb d2 b8 14 be 57 25 ae be 6d 47 b6 be
       -0.004691605 -0.14523628 -0.34012863 -0.3560137

rnn.weight_hh_l0 f4 [128, 128]
000000 c1 7a 89 3d dd d8 87 3d aa a9 2f 3d b0 b3 ab bb
       0.067128666 0.0663316 0.042886414 -0.0052399263
000010 48 7e 46 bc 2e c2 86 bd 7c 46 e8 bc 28 74 9a bc
       -0.012115069 -0.065800056 -0.028353922 -0.018854216
000020 ba f8 36 3d e6 9e 67 3d f2 8f 27 3d d3 85 2c bd
       0.044670798 0.05654802 0.04090876 -0.042119812
000030 1f 6f 8b 3d 02 a1 83 bd 00 12 b5 ba 50 09 1f bc
       0.06808304 -0.06427194 -0.0013814569 -0.00970681
000040 1f 60 6e bd 87 c8 23 bd 93 5b a8 3d b3 e7 ab 3d
       -0.058197137 -0.03998616 0.082205914 0.083938025
000050 56 5d 8e bd 48 a8 31 3c 29 5d a6 3d b3 50 ab 3d
       -0.06951396 0.010843344 0.08123238 0.083650015
000060 dc c7 81 bd 32 b9 9b bd ff 9a 87 3d 18 7f d4 bc
       -0.06336948 -0.076036826 0.0662136 -0.02593951
000070 64 e3 91 3c 7c 51 bf bc 19 1b aa bd dd 9d 61 bd
       0.017808624 -0.023354284 -0.0830595 -0.05508219
000080 f0 68 7f bd 3a cd 1f 3d 84 df 8e 3c a0 4e 21 bb
       -0.062355936 0.03901408 0.017440565 -0.0024613515
000090 e0 c6 8e 3b 3c e7 80 bc 80 1d 0d ba 5f 35 aa bd
       0.004357204 -0.015735261 -0.0005383119 -0.08310961
0000a0 48 bf 0b 3d 5a d9 46 3d 5f d7 43 bd f3 54 1c bd
       0.034117967 0.048547126 -0.047812816 -0.03816695
0000b0 aa 71 7d bd 46 35 4e 3d e0 64 b1 bc 82 e7 a5 bd
       -0.061875977 0.050343774 -0.021654546 -0.08100797
0000c0 46 ed 54 3d f3 0b 90 bd a0 85 bb 3b 4e 33 72 3d
       0.051984094 -0.07033529 0.0057227165 0.05913096
0000d0 80 55 00 3a 5a e4 a1 bd 74 e5 8a bc be 6a 4d 3d
       0.0004895553 -0.07904883 -0.016955115 0.050150625
0000e0 18 b3 16 3c 76 08 42 3d b2 d3 b2 bd d0 5a fb 3b
       0.009197973 0.04737135 -0.08731784 0.007670738
0000f0 af f6 8f 3d 49 8e a2 3d d8 d2 00 3d 47 c2 8a bd
       0.07029473 0.07937295 0.031451076 -0.06775337
000100 d6 2f 28 3d 25 9b 93 bd c1 aa 8c bd 38 e6 fe 3c
       0.041061245 -0.07207326 -0.06868506 0.031115636
000110 f6 00 85 bd 86 ab 7c 3d e0 8d be bc 1d f9 06 bd
       -0.06494324 0.061687015 -0.02326101 -0.032952417
000120 e8 03 5a 3c 16 b8 73 3d d1 0c 8a bd c6 e4 80 bd
       0.013306595 0.05950173 -0.06740726 -0.06293635
000130 10 87 18 3c 24 f0 ab 3c d8 be 8e bd 37 f7 1f bd
       0.009309545 0.020988531 -0.06969994 -0.03905412
000140 e8 26 d5 3c e9 d0 96 3d 4b 6b ad 3d eb 26 97 3d
       0.026019529 0.07364065 0.0846773 0.0738047
000150 55 07 a7 3d ac ef 12 bd e2 ca 5c 3d 10 c6 24 bc
       0.08155695 -0.0358731 0.05390442 -0.010056987
000160 37 06 8d bd f0 96 0e bc 70 17 ff bb c6 a0 2b 3d
       -0.06885951 -0.0087029785 -0.0077847764 0.041901372
000170 5a e6 55 3d 80 b2 30 3c 74 35 f9 3c c8 b6 23 bd
       0.052221633 0.010784745 0.030420996 -0.039969236
000180 84 1e 94 bc 23 10 36 bd 4f 21 85 3d 9b 55 04 bd
       -0.018080957 -0.044448983 0.06500494 -0.032308202
000190 ee ce 67 bd 2a ec 82 bd 68 86 0b bd a9 82 3b bd
       -0.056593828 -0.06392701 -0.034063727 -0.045778904
0001a0 a0 b1 6f bb 6a 34 45 3d f0 8b 75 bd b6 d7 48 bd
       -0.0036574379 0.04814569 -0.059947908 -0.049033843
0001b0 79 a5 b1 bd c0 07 1a bc b2 02 00 3d 7c 25 e5 3c
       -0.086741395 -0.009401262 0.03125257 0.027971976
0001c0 4f 67 60 bd c4 73 8a 3c 0d 20 a3 bd 4f d4 9d bd
       -0.054786023 0.016900904 -0.079650976 -0.0770651
0001d0 10 56 c4 bc c0 12 75 3c 16 b6 75 3d f0 dc b4 3c
       -0.023966819 0.014958084 0.059988104 0.022078007
0001e0 90 55 15 bd f5 c8 9c 3d fc bc 35 bd 4c 0e c5 3c
       -0.036458552 0.07655517 -0.044369683 0.024054669
0001f0 60 29 9a bd f0 0d d4 3c 16 48 48 3d f0 b0 bc bc
       -0.07527423 0.025885552 0.04889687 -0.02303359
000200 0a b3 52 3d c0 77 04 3d 85 bd 82 3d 72 42 2a 3d
       0.051440276 0.032340765 0.06383804 0.041567273
000210 be 00 61 bd 14 ef eb 3c 64 b1 a0 bc a4 b3 78 bd
       -0.05493235 0.028800525 -0.019615836 -0.060718194
000220 80 8e 64 ba 86 86 22 3d 85 fa 43 bd d4 c8 fb 3c
       -0.0008718744 0.039679073 -0.047846336 0.03073541
000230 58 f9 39 bd b2 f6 2d 3d 7c f2 b7 3c 68 85 66 3c
       -0.04540381 0.042471595 0.022454493 0.0140698925
000240 fe c1 89 bd bd 0c 83 3d 5a 2e 2f 3d 30 a6 bd 3c
       -0.06726454 0.06398914 0.042768814 0.023150533
000250 e6 ac a2 bd c2 23 4c 3d 57 5e 9c 3d 9d c6 a7 3d
       -0.07943134 0.04983879 0.076351814 0.08192179
000260 9e d0 33 bd f0 60 a8 bc c0 62 3c bc b5 88 28 bd
       -0.043900125 -0.020554036 -0.011498153 -0.041146
000270 ed cf 9c bd da 0e 34 3d 75 56 99 bd a5 07 ab 3d
       -0.07656846 0.043959476 -0.074871935 0.083510675
000280 a2 60 3f bd c0 7b 9d bb c9 b9 8f 3d aa d6 6b bd
       -0.046723016 -0.004806012 0.070178576 -0.057577766
000290 90 b7 ef bb da 05 2e 3d a0 76 69 3b f6 b8 b3 bd
       -0.0073155835 0.04248605 0.0035623685 -0.08775513
0002a0 0e d2 6d 3d 36 db 41 3d 28 c2 e2 3c f2 0c 73 bd
       0.058061652 0.047328196 0.027680472 -0.059338517
0002b0 e7 7e 57 bd 78 ea 60 3c 52 05 dc bc 79 98 85 bd
       -0.052611258 0.013727777 -0.026858006 -0.065232225
0002c0 0a cd 55 3d 7d f2 ae 3d 06 40 0d 3d 8f b7 81 3d
       0.052197494 0.08542345 0.034484886 0.06333839
0002d0 58 3a 13 3c e6 f9 78 3d 41 7e 80 3d 50 90 6a bc
       0.008986078 0.060785197 0.06274081 -0.014316633
0002e0 77 cd 9c 3d 26 e9 49 3d 80 a0 7b 3c 58 45 43 bd
       0.07656377 0.049294613 0.01535809 -0.047673553
0002f0 69 a1 93 3d 66 1c 35 3d d0 1a d0 3c d6 7e 37 3d
       0.07208521 0.044216536 0.02540341 0.044798695
000300 00 98 65 ba 26 b7 46 3d 08 a3 4c 3c 82 d3 5b 3d
       -0.00087583065 0.048514508 0.012490042 0.053668506
000310 d2 4d 10 3d fc b2 a5 bc 80 e6 8b 3a 01 64 ab 3d
       0.035230465 -0.020226948 0.0010673553 0.083686836
000320 d9 c2 87 3d 30 88 c4 3c 32 cb 04 bd 70 80 2f bd
       0.06628961 0.02399072 -0.032420345 -0.042847097
000330 02 19 42 3d df 59 26 bd 9e fe 38 3d e8 bf e4 3c
       0.04738713 -0.04061305 0.045164697 0.02792354
000340 a9 ed a7 3d 79 83 91 3d 60 34 fb bb 40 1d 9c bd
       0.08199627 0.071051545 -0.0076661557 -0.076227665
000350 22 2c 6e 3d f6 fb 3a 3d 02 36 56 bd d0 48 06 bd
       0.058147557 0.045650445 -0.0522976 -0.032784283
000360 a1 a1 a3 3d 5e 35 34 3d a8 37 a1 bd 49 1d 3a bd
       0.07989813 0.043996207 -0.07871944 -0.045438085
000370 58 a6 c6 bc 4a fe 25 bd 98 01 97 3c 32 3d 3f 3d
       -0.02424924 -0.040525712 0.018433377 0.04668922
000380 b8 62 bf bc d8 0e 05 3d 3e 65 69 bd cf dc 5c bd
       -0.023362502 0.03248486 -0.056981318 -0.053921517
000390 1a c1 26 3d 94 62 bd 3c 56 73 49 3d 60 d8 a4 bb
       0.0407115 0.023118295 0.04918226 -0.0050306767
0003a0 54 f3 49 bd 90 98 b0 3c a6 33 18 3d 72 cd 0b 3d
       -0.04930432 0.021557122 0.03715863 0.034131475
0003b0 57 09 a6 3d 40 de 7b 3b 90 6d a6 bc 00 1c 53 3a
       0.0810725 0.0038432032 -0.020315915 0.00080531836
0003c0 4c 09 af bc 00 0f d6 bb f4 ef 63 bd b7 a7 1a bd
       -0.021366738 -0.00653255 -0.05564876 -0.0377576
0003d0 a0 78 8b bd 80 4b 02 ba b4 6a bf bc 44 26 bb bc
       -0.06810117 -0.0004970357 -0.02336631 -0.022845395
0003e0 02 b5 35 bd 0b 19 a8 bd 12 e8 53 3d c2 57 45 3d
       -0.044362076 -0.082079016 0.05173499 0.048179395
0003f0 f0 89 d0 3c 71 8f aa 3d 80 11 f2 ba dd 8a 25 bd
       0.025456399 0.083281405 -0.001846835 -0.040415633

rnn.bias_ih_l0 f4 [128]
000000 25 c6 d8 3e af 65 7c be 41 52 e5 3e 6b 63 e6 bd
       0.42338672 -0.24648164 0.44789317 -0.11249431
000010 94 ea c7 3e fb cb 5d be 60 f9 72 be d7 6a d8 bd
       0.39046156 -0.21659844 -0.23727942 -0.10567253
000020 07 8a 10 bf 44 da cd 3e 03 6e d0 bd f7 09 f2 3e
       -0.56460613 0.40205586 -0.10177233 0.47273228
000030 17 8e e0 3e 4f 95 b7 3e 83 f4 c7 be af 47 6b be
       0.43858406 0.358561 -0.39053735 -0.22976564
000040 bc 0b 2e 3e 68 21 55 3e 49 a1 40 3e f3 5d b3 be
       0.16996664 0.20813525 0.18811525 -0.35032615
000050 ee 6f 35 be 93 d0 c8 bd cb 8f a4 be 02 0f 39 be
       -0.17718479 -0.098054074 -0.32140955 -0.18072131
000060 6a 78 c4 be 94 f3 ab bc 73 f6 5a 3e 69 78 a9 be
       -0.3837312 -0.02099017 0.21383075 -0.33099678
000070 99 53 b9 be 36 4c b9 bd af 7f d9 3e d6 bf a9 be
       -0.36196592 -0.09047739 0.42480227 -0.33154172
000080 81 41 02 bf 57 5f de 3e 18 57 12 bd 7a a1 bc bc
       -0.508812 0.43432114 -0.03572759 -0.023026217
000090 9f 06 ac be 1c be 52 3e 7f e5 6f 3e 92 e5 66 bd
       -0.33598801 0.20580333 0.2342739 -0.05637128
0000a0 c9 61 85 be c1 d7 56 bd 23 3c 0d be ee d7 13 3e
       -0.26051167 -0.052451853 -0.13792472 0.1443784
0000b0 e4 3d 84 be 06 d3 88 be 6a 98 c4 be 94 13 20 3e
       -0.2582847 -0.26723498 -0.38397533 0.15632468
0000c0 eb 22 67 be 2e 4b 79 3e 68 21 bb 3e d6 ba ab be
       -0.22571914 0.24345085 0.36548924 -0.33540982
0000d0 8b 20 5d 3e 92 07 83 3d 18 ba c0 3e c6 b5 8c be
       0.21594445 0.06397928 0.37641978 -0.27482432
0000e0 3f 3c 34 be f3 f3 5f be 31 a7 16 bd d9 99 8e be
       -0.17601107 -0.21870403 -0.03678054 -0.2785175
0000f0 6e bd 12 be df e9 05 3f 20 dd 13 bf c3 23 30 3e
       -0.14330074 0.52309984 -0.57759285 0.17201142
000100 ff 6f 2f 3e 86 dd b4 3e a4 43 15 3f 57 f2 bf 3e
       0.17132567 0.3532526 0.58306336 0.37489578
000110 c6 62 b7 3e 75 06 11 bf 11 82 13 3f 07 6c 49 be
       0.35817546 -0.5665048 0.5762034 -0.19670115
000120 fb 2e bf bc 5e 16 b1 be 64 f1 61 3e 81 56 de bc
       -0.023337832 -0.34587377 0.2206474 -0.027140858
000130 77 f5 40 be 3d d9 01 3f ca 9f a7 be 3b dc 06 be
       -0.18843637 0.50722104 -0.32739097 -0.13169949
000140 f1 56 20 3e 05 a7 db 3e 32 1f 75 3e 57 41 e7 be
       0.15658166 0.42900863 0.23937681 -0.45167038
000150 c6 3a bd 3e 17 a6 1d be cf 29 5a 3d 21 95 1f be
       0.36958903 -0.1539539 0.053262528 -0.15584232
000160 b1 32 7d bd 23 25 98 3e da fa 76 bd af b2 0c be
       -0.06181592 0.29715833 -0.060297824 -0.13740037
000170 c1 9c ac 3e be 3f b2 3e 69 fe cd 3e d5 17 ba 3d
       0.33713344 0.34814256 0.40233162 0.09086577
000180 ac 03 e1 3e 06 ab ae bd 29 61 4d 3e f9 2d a9 3e
       0.43948114 -0.08528714 0.20056595 0.33042887
000190 3c 37 e0 3e cf 54 00 bd 1a da 8d be 55 fa 3d be
       0.4379214 -0.03133088 -0.2770546 -0.18552525
0001a0 13 cf 4b be a2 77 e1 3e 94 dc db be d9 c0 67 bc
       -0.19903211 0.44036585 -0.42941725 -0.0141451
0001b0 fd ce 78 be 63 4a dc 3e 16 f6 d0 3d 24 b7 da be
       -0.2429771 0.43025503 0.10203187 -0.4271785
0001c0 d0 74 94 3e 03 93 a0 3e ca 83 f4 3e 88 35 65 3e
       0.2899537 0.3136216 0.47756797 0.22383702
0001d0 0c 6f 49 be 66 86 80 bd c6 14 87 3e 34 ba ae 3d
       -0.19671267 -0.062756345 0.26383036 0.08531609
0001e0 83 b3 59 be e0 02 b5 bc 77 8e 71 be b6 b8 22 be
       -0.21259885 -0.022096097 -0.23589502 -0.15890774
0001f0 f3 12 92 3e 14 92 ac bd 64 59 c5 be c7 a4 29 be
       0.28530082 -0.084263 -0.38544762 -0.16566764

rnn.bias_hh_l0 f4 [128]
000000 c1 e9 e8 3e af a1 8d be ec 86 0c 3f 79 82 1c be
       0.4549084 -0.27662417 0.54893374 -0.15284146
000010 f6 8c e9 3e 03 d1 16 be 6b 74 83 be bb 02 16 be
       0.45615357 -0.14728169 -0.25674757 -0.14649479
000020 23 d6 ec be 44 dc 96 3e d0 3f 33 be 9b 3b df 3e
       -0.46257123 0.29464924 -0.17504811 0.43600163
000030 46 ec ba 3e 72 ac 85 3e 63 b2 d8 be 61 6f 64 be
       0.36508387 0.26108128 -0.42323598 -0.22308113
000040 ba 7f 82 3e 59 63 2b 3e a4 d9 26 3e 5e a4 8b be
       0.25488073 0.16737117 0.16293961 -0.2727384
000050 0f 91 39 be 5e a7 0c be 3c 66 79 be 91 d5 55 be
       -0.18121742 -0.1373572 -0.24355406 -0.2088225
000060 cb aa a3 be d5 1e 47 3b 86 5c 9c 3e f1 e3 a9 be
       -0.31966242 0.0030383368 0.3053934 -0.33181718
000070 34 53 ac be d6 23 54 be 21 ee f5 3e 17 d6 e5 be
       -0.3365723 -0.20716795 0.4803324 -0.448899
000080 90 57 1b bf 22 89 ad 3e 61 b1 21 be ab 5a 1c bd
       -0.60680485 0.33893687 -0.15790321 -0.038172405
000090 99 1e bb be 0a 66 fb 3d fd 18 82 3e 0e 54 b4 bc
       -0.36546782 0.12275322 0.2540969 -0.022012737
0000a0 c8 38 5c be 7e 04 30 bd 7e 13 bd bd c1 e2 1d 3e
       -0.21506035 -0.042973034 -0.092322335 0.15418531
0000b0 b0 42 ac be 3a ac 92 be 02 8b f0 be f0 54 ae 3d
       -0.3364463 -0.28647023 -0.46981055 0.08512294
0000c0 33 13 36 be 17 d1 90 3e 98 d7 70 3e 42 ad d2 be
       -0.17780761 0.28284523 0.23519742 -0.4114781
0000d0 ed 8b 77 3e 75 68 2c bd 3f b0 89 3e ab 0a 4e be
       0.24174471 -0.042091805 0.26892278 -0.20121257
0000e0 04 f6 50 be 32 62 80 be e1 c0 a5 bd 5a 5d b7 be
       -0.20406348 -0.25074917 -0.08093429 -0.3581341
0000f0 91 20 05 be d9 f6 c0 3e 1e 1c 09 bf c1 1b 86 3e
       -0.13000704 0.3768833 -0.5355853 0.2619305
000100 85 91 19 3e b1 44 ba 3e d1 51 1d 3f d0 36 0b 3f
       0.14996918 0.36380532 0.61452967 0.5438051
000110 ee 27 96 3e 53 6e dc be e4 3b fa 3e 1a 4b f5 bd
       0.2932734 -0.4305292 0.48873818 -0.11977215
000120 80 dc 57 bd ef ea a5 be a6 b8 0a 3e 43 35 fc bd
       -0.05270052 -0.32405803 0.13547 -0.12314846
000130 a4 bc 7a be f8 a9 fe 3e 6e a9 51 be 8a f8 0f be
       -0.24486023 0.4973905 -0.20474789 -0.14059654
000140 76 c5 07 3e 16 95 06 3f 1c 7a 7a 3e e0 00 c3 be
       0.13258919 0.5257124 0.24460644 -0.38086605
000150 90 d8 b5 3e 52 c4 b6 bd 64 a7 d6 3d cf 3d 86 bd
       0.35516787 -0.08924164 0.10481146 -0.06554758
000160 4a 28 30 be 7a bd 90 3e ea 9c 78 bd e8 c2 61 be
       -0.17202869 0.2826956 -0.06069652 -0.22047007
000170 5e 77 74 3e 95 e0 e6 3e 47 32 9f 3e 05 3e da 3d
       0.2387366 0.45093217 0.31093046 0.106563605
000180 a4 45 e2 3e ed d8 6f be 88 7d 55 3e 4f c8 8d 3e
       0.44193757 -0.23422594 0.20848668 0.27691886
000190 85 82 c2 3e 2c b6 39 3d a6 08 3c be e9 7b 82 be
       0.37990203 0.04533975 -0.18362674 -0.2548516
0001a0 c1 74 7f be 2d bc d6 3e 44 fa ba be 3f 0d ee bd
       -0.24946882 0.41940442 -0.36519063 -0.1162362
0001b0 d2 f0 53 be a8 1a 02 3f b2 47 f6 3c 5a 37 f1 be
       -0.20697334 0.50821924 0.030063484 -0.47112542
0001c0 c5 78 53 3e 65 58 b2 3e 2a bd 0a 3f e6 03 85 3e
       0.20651539 0.34833065 0.5419489 0.25979537
0001d0 8e ec 1f be 07 80 18 be 24 73 5a 3e af 9f 01 3d
       -0.15617582 -0.14892589 0.21332985 0.031646427
0001e0 5d f8 89 be 69 a9 05 bc bd 71 84 be a9 c1 47 be
       -0.269473 -0.008158066 -0.25868025 -0.19507469
0001f0 70 75 21 3e 96 5a f8 3c 57 e8 9f be 29 d4 31 be
       0.15767455 0.030316632 -0.3123195 -0.17366089

rnn.weight_ih_l1 f4 [128, 128]
000000 3e 7a b9 be bc 18 55 be a3 75 e1 be 7b 28 b0 be
       -0.36226076 -0.20810217 -0.44035062 -0.34405884
000010 d5 26 0e bf 23 3e 6e be 7b 40 b2 3e e0 df 03 be
       -0.55528 -0.23265891 0.3481482 -0.1287837
000020 49 a5 cb 3e 53 6f d3 be 2f be c3 be 33 41 eb be
       0.3977454 -0.4129587 -0.38231036 -0.4594818
000030 30 9f ab be d1 1c b1 be 8c 9e db 3e fe 5d f2 3e
       -0.33519888 -0.34592298 0.428944 0.47337335
000040 90 24 31 3e 81 92 65 3e 99 10 2d bd 77 c0 dc 3e
       0.17299104 0.22419168 -0.042252157 0.4311559
000050 46 0e 22 be 75 ad 6f be b6 66 d5 3d 13 6d 08 bd
       -0.15825757 -0.23406012 0.10419981 -0.033307146
000060 de ce d0 3e 14 0d 0b be 6f 5b 93 be 57 17 ee 3d
       0.40782827 -0.13579208 -0.28780696 0.116255455
000070 a4 19 c8 3e 85 df 57 be 45 0e ea be fc 58 a3 3e
       0.39082062 -0.2108136 -0.45714012 0.31903827
000080 20 16 00 3f c7 ba ab be 34 d9 ab 3e bf 43 96 3e
       0.5003376 -0.33540937 0.3356415 0.2934856
000090 54 58 00 3f 4f 52 c5 3e e0 ef 88 3e 46 af 9e be
       0.5013478 0.3853936 0.2674551 -0.30993098
0000a0 91 47 d2 3e 35 a1 0f bc f4 ef 60 be 88 c5 ba 3e
       0.41070226 -0.008766462 -0.21966535 0.3647883
0000b0 2c 55 fc 3e 7e 7a 98 3d 5e 3a ee 3e 07 f1 82 3d
       0.4928373 0.074452385 0.46528906 0.063936286
0000c0 a5 63 08 be 80 42 c6 3d a4 fb 88 3e 96 8a 8d 3e
       -0.13319261 0.096806526 0.26754487 0.27644795
0000d0 50 f8 a2 3b a2 3a a9 be 90 56 d0 be 70 1c 1e bd
       0.004973449 -0.33052546 -0.40691042 -0.03860134
0000e0 ad 9d 4b be 76 be c9 3e 0e 5d 1e bd e4 5a 6c 3e
       -0.19884367 0.39403123 -0.038662963 0.23081547
0000f0 e6 3b 6d be 4d c7 d6 be 38 14 b7 3e 92 68 a9 3e
       -0.2316738 -0.4194893 0.35757613 0.33087593
000100 e2 63 9a 3e 1d 1e e1 be a9 00 ff be cd 2e d4 be
       0.3015433 -0.43968287 -0.4980519 -0.41441956
000110 7b bc 9b 3e 41 01 e5 3e 3a de db be 69 4b c7 3c
       0.30417237 0.4472752 -0.42942983 0.02432795
000120 e3 eb a2 3d cf b5 94 3d c6 34 f1 bc 79 3d c1 be
       0.07955148 0.0726124 -0.02944411 -0.37742212
000130 8f 0e 94 be be 94 a5 be 14 cc 83 be 64 ea a7 3d
       -0.28917357 -0.32340044 -0.25741637 0.08199003
000140 be 91 69 3e 28 00 cb be 93 07 bd be 24 13 c0 3e
       0.22809502 -0.39648557 -0.3691984 0.37514603
000150 f2 18 cf be dc ea a4 bd ef ef 4b be 62 c3 de bb
       -0.4044872 -0.08052608 -0.19915746 -0.006798194
000160 44 fa f4 3e 12 f5 c6 be 07 4f 96 be c6 42 63 be
       0.47847188 -0.3885885 -0.29357168 -0.22193441
000170 9d 69 c2 3e ee e2 cf be 91 28 e2 be 24 7d 5f 3e
       0.37971202 -0.4060282 -0.44171575 0.21825081
000180 d8 a8 f0 be 0f e3 6c be 3d 6e a5 3e 29 f8 08 bf
       -0.47003818 -0.23133491 0.32310668 -0.5350366
000190 94 e4 d6 be 5b 4c 9f bd f1 08 64 3d eb 80 cd 3e
       -0.41971266 -0.077782355 0.05567259 0.4013742
0001a0 b0 be 74 3e 35 83 bd be 40 c3 7d 3e 75 ea e1 3d
       0.23900867 -0.37014166 0.24781513 0.11031047
0001b0 99 03 3b be bb 98 9c be e3 d4 8f 3e 97 40 c8 3e
       -0.18263091 -0.30585274 0.28092107 0.39111778
0001c0 13 8a 92 3d 7c 76 0a bf 01 1e 10 bf 2c b9 b1 be
       0.07155242 -0.5408704 -0.5629578 -0.34711587
0001d0 aa f1 56 be 94 8c b3 be 39 db 10 3e 3c 3f 06 be
       -0.20990625 -0.3506819 0.14146127 -0.1311006
0001e0 a8 5d 19 be 10 9a 82 be 21 b5 a5 be 6a 5a aa be
       -0.14977133 -0.25508165 -0.32364753 -0.33272105
0001f0 33 c0 4c 3e aa 8b c1 bc a9 68 dd be 8b 5b 5a be
       0.19995193 -0.023626167 -0.43243912 -0.21323983
000200 c1 fc 8e 3e 56 d0 c1 3e a4 e3 9a 3e 2a a3 a4 3e
       0.2792721 0.3785426 0.302518 0.32155734
000210 43 04 63 3d 29 3c 35 3d 3d 8c c8 bd fb d6 07 3e
       0.055423986 0.044246826 -0.09792373 0.13265602
000220 b9 29 10 3e a1 e4 dd 3c d7 3d fd 3d 94 c6 8d 3e
       0.14078416 0.027086558 0.12365311 0.27690566
000230 ca 69 a1 3d 53 47 a8 3d 40 86 0d be f3 a5 9d be
       0.07881506 0.08216729 -0.13820744 -0.30790672
000240 b9 99 4c bd a7 60 a7 3e 27 52 59 3e ff 71 e8 bd
       -0.04995129 0.32690927 0.21222745 -0.11349868
000250 27 ff ad bd 8a e5 93 3d aa 67 aa 3d 82 8c b6 be
       -0.08495932 0.072215155 0.083205536 -0.35654074
000260 d4 8f 88 bb 84 ab bb 3a 7d 12 9b 3d 52 0c 36 be
       -0.0041675363 0.0014318083 0.07571886 -0.17778137
000270 e3 b1 f8 bd db 9c 99 be 6c a2 54 3e be 4e ce bd
       -0.12143304 -0.30002484 0.20765084 -0.10073613
000280 39 22 8f be f3 77 36 3d bf 26 e2 bc 7e 19 36 3b
       -0.27955797 0.044547986 -0.027606366 0.002778619
000290 d9 32 81 bd 6a 45 f4 bd e1 1c 5b bd 03 fd 68 3e
       -0.063085265 -0.11927302 -0.053494338 0.22752766
0002a0 5f f6 cd bc 42 2e 7d bd 15 bd 7d 3d c3 34 ee bd
       -0.025141893 -0.061811693 0.0619479 -0.11631157
0002b0 85 b0 da bd 1e 3b e7 bd 13 bc 7c bd 80 e5 ee bd
       -0.106782 -0.112905726 -0.0617028 -0.116648674
0002c0 97 c4 5e be 90 bf 51 3e b9 d2 e4 3c 83 0d ee 3d
       -0.2175468 0.20483232 0.027932512 0.11623671
0002d0 dd 89 ca 3d 9a 0b 92 3d 6e 51 63 bd b8 af 5e 3e
       0.098895766 0.07131119 -0.05549758 0.21746719
0002e0 72 be bc be 3f 17 75 be b0 47 78 3e 99 49 8a 3d
       -0.36864048 -0.23934649 0.24246097 0.06752319
0002f0 cf 44 d5 3d cc 26 85 3e 2f 94 71 be 65 f8 a3 bd
       0.10413515 0.26006162 -0.23591684 -0.08006362
000300 8d eb 80 3e 69 4f 0d 3e dd 26 b2 3e 65 1d 51 3e
       0.2517971 0.13799824 0.34795275 0.2042137
000310 b9 ea f1 3d 3c 1f c2 be 5f c6 c0 3e ee 03 89 be
       0.11812348 -0.37914455 0.37651345 -0.2676081
000320 12 1c bc 3e 19 2e 10 be 17 41 8c ba a4 a2 d6 3d
       0.36740166 -0.14080085 -0.0010700551 0.1048024
000330 68 45 d1 be 94 9f 9d 3e bd 97 62 be 31 52 fc bd
       -0.40873265 0.3078581 -0.22128196 -0.12320364
000340 6a 7e 96 3d cf 38 13 3e b1 19 18 3e 04 5a 8a be
       0.0734833 0.1437714 0.1485355 -0.270218
000350 5e af a4 3e ad 0f 19 3e 49 51 81 3e 94 8a c6 bd
       0.32165045 0.14947386 0.25257328 -0.096944004
000360 07 c7 f6 be 28 f5 4f bd a3 38 b1 3e 5d dc 3e 3e
       -0.4819872 -0.05077091 0.34613523 0.1863875
000370 12 12 c0 bd 5f 5d 9c 3e 76 29 08 3d 5d 39 95 3d
       -0.09378447 0.30539986 0.033242665 0.07286332
000380 ac ed 58 3e f2 85 04 be 69 81 61 be f1 5a ea 3c
       0.21184415 -0.12941721 -0.22022022 0.028607817
000390 8e 59 be 3d 06 82 32 3d 64 cd c8 3d 13 88 1d be
       0.09294425 0.04358103 0.098048 -0.1538394
0003a0 50 9f b5 bd a5 e1 9e 3d cc 8e 1e be 26 6b 0f be
       -0.08868277 0.07757882 -0.1548416 -0.14005718
0003b0 1f c8 f2 bd ce ea 3b 3e 3f 7b 6a be 91 1d 87 bc
       -0.11854576 0.1835129 -0.22898577 -0.01649359
0003c0 8a 2b 4d be 20 0e 76 3e 24 44 bb 3e 5b 3c a9 3e
       -0.2003614 0.24028826 0.36575425 0.3305386
0003d0 07 ca 6b be 1d 7c c6 3e 03 2f 85 3d 35 b2 25 3e
       -0.23026286 0.38766566 0.065031074 0.16181262
0003e0 31 cb 3d 3e 8e 42 16 3c 62 75 bc bc c0 88 91 bd
       0.18534543 0.009171141 -0.023005191 -0.07106161
0003f0 49 cc 17 3e 55 54 87 3d b3 1f a4 3e 3d c8 2e be
       0.14824022 0.06607882 0.32055435 -0.17068572

rnn.weight_hh_l1 f4 [128, 128]
000000 c0 5a d7 bc ba 95 3e 3d a4 74 08 3d f6 eb 9e bd
       -0.02628839 0.04652951 0.033314362 -0.0775985
000010 2f 73 81 bd 96 b7 6f bd b8 dc d1 bc 58 97 66 3c
       -0.06320798 -0.05852469 -0.025617942 0.014074169
000020 aa ee 56 bd aa c7 41 3d ac d2 c1 3c 98 9e ea 3c
       -0.0524737 0.047309555 0.023660026 0.028640077
000030 d0 47 2b 3c a3 11 98 bd ee 40 66 3d 08 99 9e 3c
       0.010454133 -0.07425239 0.056214266 0.01936008
000040 b0 5b 87 bd 8e 48 e1 bc d4 cc 42 bd 92 9e 60 3d
       -0.06609285 -0.027500417 -0.04755862 0.054838724
000050 52 e0 39 3d 7e ed 1c 3d 5f 8f 85 3d 38 da 0b bd
       0.045379944 0.038312428 0.065214865 -0.034143656
000060 4c fc a0 bd c0 08 2f bd 1d d4 1d bd 20 c4 e6 3b
       -0.07860622 -0.042732954 -0.038532365 0.007042423
000070 52 5f 59 3d 50 ac e7 bb 59 40 8b 3d e2 72 8b bd
       0.05306942 -0.007070102 0.06799383 -0.068090215
000080 80 45 42 ba e4 fa 72 bd 5d a4 1d bd 75 a0 80 3d
       -0.0007410869 -0.0593213 -0.038486827 0.06280605
000090 3e 10 67 bd ee 91 a8 bd 00 57 79 3c 66 f7 a4 bd
       -0.056411974 -0.08230959 0.015218496 -0.08055
0000a0 59 12 af bd 04 09 f0 3c 88 58 26 bd 3e 9a 73 3d
       -0.085484214 0.029301174 -0.040611774 0.05947327
0000b0 82 6e 05 3d f2 0a a4 bd 46 ac 7f 3d 1a 23 1c 3d
       0.03257609 -0.080099 0.062420152 0.038119413
0000c0 ca e4 85 bd 6d c3 1a bd 14 70 bd 3c d9 8f ad 3d
       -0.06537779 -0.03778403 0.023124732 0.084747024
0000d0 ef 39 a2 3d 31 c1 8a 3d 70 fd f2 3c e3 e2 1f bd
       0.07921206 0.067751296 0.029661864 -0.039034735
0000e0 30 f5 a5 bc a8 b6 6d bd 28 f5 3d bd 8e 5d 76 3d
       -0.020258516 -0.058035523 -0.046376377 0.060147814
0000f0 ca fe 69 3d d5 db 8c bd d4 0e 20 bd e5 87 97 3d
       0.05712775 -0.06877867 -0.03907664 0.07398967
000100 76 b7 95 bd e0 56 b2 3c 00 ea 02 39 3a 50 fa bc
       -0.07310383 0.02176994 0.00012484938 -0.030555833
000110 48 e7 0a 3c 50 94 dd bb 68 ac 38 3c 96 c7 a6 bd
       0.008477993 -0.006762065 0.011271574 -0.08143537
000120 28 a4 94 bd 4c 18 cb bc ce 00 39 3d c8 c9 02 bd
       -0.07257873 -0.02479186 0.045166783 -0.031930715
000130 1e c2 61 3d e1 a3 7b bd e0 6d 70 bd 03 10 b2 3d
       0.055116765 -0.061435584 -0.058698535 0.0869446
000140 b0 8d b5 bc d6 63 23 3d 4f ec b4 3d 40 34 88 bb
       -0.022162288 0.039890133 0.08834135 -0.0041566193
000150 79 63 8f 3d ac 32 ce 3c ca b8 5a bd 28 7b a3 bc
       0.07001395 0.025170647 -0.053398885 -0.019956186
000160 ba 03 73 3d d0 26 39 3c fe 7b 6c 3d 66 0f 8f bd
       0.059329726 0.0113007575 0.057735436 -0.06985359
000170 ee 0b 84 bd cc 94 ae 3c 00 d1 8a bd 65 3e 28 bd
       -0.06447588 0.021311186 -0.06778145 -0.04107513
000180 5a bd 6a 3d b7 36 a0 3d 72 83 1a 3d 9a 86 39 3d
       0.057309486 0.07822936 0.037723012 0.04529438
000190 71 1e 00 bd 96 0a 04 bd be d7 77 bd 14 52 84 bc
       -0.03127903 -0.032236658 -0.060508482 -0.01615242
0001a0 58 32 97 3c 34 ad d1 3c 70 95 aa 3c 60 74 7e bd
       0.018456623 0.025595285 0.02082321 -0.062122703
0001b0 c8 3b 15 3c d8 a9 65 3c 9b db 1d bd 99 29 20 bd
       0.009108491 0.014017545 -0.03853951 -0.03910217
0001c0 07 ec a8 bd 8e d6 98 bd 50 00 e7 bc 32 f9 83 bd
       -0.08248144 -0.07462798 -0.028198391 -0.064440146
0001d0 f6 a4 57 3d 96 c9 75 bd e6 12 92 bd 0f 33 9e bd
       0.052647553 -0.0600067 -0.07132511 -0.077245824
0001e0 8a 3e 17 bd 21 05 a7 bd 9f 2a 4d bd a5 71 46 bd
       -0.036924876 -0.08155275 -0.050089475 -0.048448224
0001f0 1f a4 27 bd 58 e2 89 3c da 1b 07 bd fe c0 28 3d
       -0.040928002 0.016831562 -0.032985546 0.041199677
000200 9c 45 ea 3c ac 1d 97 3c e2 67 1a 3d c5 d9 90 3d
       0.028597645 0.018446766 0.037696727 0.07072786
000210 b7 28 a0 bd 00 31 83 39 44 84 8f bc 1a 7e 67 3d
       -0.07820266 0.00025022775 -0.017519124 0.056516744
000220 cd 97 8b bd 20 6d a2 3c 4a 9a 0a 3d fc 55 8f 3c
       -0.06816063 0.019827425 0.033838548 0.017497055
000230 82 fb 33 3d 8a e6 4c 3d 0a 39 16 3d 7e f5 fe bc
       0.04394103 0.050024547 0.03667549 -0.03112292
000240 03 13 84 3d 82 50 79 bd b1 52 b2 3d b0 69 f1 bc
       0.06448939 -0.060867794 0.087071784 -0.029469341
000250 c0 fe ac ba 2c 2a 85 bd ff 12 b1 bd 58 dc 85 3c
       -0.001319848 -0.06502184 -0.08646201 0.01634042
000260 0e c1 66 3d 95 8c 76 bd 20 79 54 3c ec 1b fd 3c
       0.056336455 -0.060192663 0.012968332 0.030897103
000270 94 a5 bc 3c 00 a0 78 3c a3 67 35 bd 50 d3 9d bb
       0.023028173 0.015174866 -0.04428829 -0.00481645
000280 10 6f 0c bc 60 ec 0c 3c b3 85 13 bd e0 21 c9 bc
       -0.008571401 0.008601278 -0.036016177 -0.024552286
000290 e5 a3 a8 3d 42 61 43 3d 80 38 8f 3a 64 e6 21 bd
       0.082343854 0.047700174 0.0010926872 -0.03952636
0002a0 3c 83 a9 bc 8e 66 55 3d 43 f1 85 3d 0c 5c e4 3c
       -0.02069246 0.052099757 0.06540158 0.027875923
0002b0 3c 9a 82 bd 9e af 28 3d 59 dd 2e bd 2e 8f 67 3d
       -0.06377074 0.041183107 -0.042691562 0.05653303
0002c0 52 f9 f0 bc 0a 13 64 3d 3d d8 95 3d d8 7c bd 3c
       -0.02941576 0.05568222 0.07316635 0.02313082
0002d0 68 66 4f 3c de 1e 21 3d 0e 68 a1 bd d8 c6 ab bd
       0.012658693 0.039336078 -0.07881175 -0.08387536
0002e0 30 d3 91 bd b8 4f 62 3c bc 0b 9f bd 02 c5 20 bd
       -0.07120359 0.013812952 -0.0776591 -0.03925038
0002f0 90 00 83 bb 19 0e 07 bd e5 fc 97 3d 99 79 85 3d
       -0.00399787 -0.03297243 0.07421283 0.065173335
000300 b8 d5 dc 3c e5 88 b1 bd 25 b8 a2 3d eb 62 78 bd
       0.026957378 -0.08668689 0.07945279 -0.06064121
000310 88 a4 55 bd 2a 80 7b 3d 90 51 17 bd 10 64 21 bc
       -0.052158862 0.061401524 -0.03694302 -0.009850517
000320 0d 9d a0 3d 54 4c 0e 3d b1 92 8b 3d 1c d1 bb bc
       0.07842455 0.03474076 0.068150885 -0.02292686
000330 34 92 d0 3c 90 b5 39 3c 13 e7 06 bd ea 9c 1a 3d
       0.02546034 0.011334792 -0.032935213 0.0377473
000340 20 7f 50 3c 80 4f 25 3a 3c 6d f6 3c 40 2d 5e bd
       0.012725621 0.0006306097 0.030081384 -0.054242373
000350 7f f7 9c bd 95 cf 7c bd de 23 25 3d 40 01 6a bb
       -0.07664394 -0.061721403 0.04031741 -0.0035706311
000360 b8 a0 73 bd 28 c5 1c bc ba 61 8f bd 77 cc a0 bd
       -0.059479445 -0.00956849 -0.07001062 -0.078514986
000370 ce c6 34 3d 2c 09 ce bc 13 31 b0 bd 99 3e 66 bd
       0.044134907 -0.025150858 -0.0860311 -0.05621204
000380 48 39 34 bd 42 e7 90 bd 20 c3 ce 3b 78 81 b4 bc
       -0.04399994 -0.07075359 0.006309882 -0.022034392
000390 c2 bc 7c bd 1b 41 23 bd c1 85 0b bd 02 0c 9c bd
       -0.06170345 -0.03985701 -0.034063105 -0.07619478
0003a0 30 57 8d bc 96 69 33 3d 94 fc ef 3c 66 c1 21 3d
       -0.017253488 0.043801866 0.029295243 0.03949108
0003b0 ca d7 60 3d e0 26 f2 bb f9 f2 8e bd da d1 65 3d
       0.054893292 -0.007389888 -0.06979937 0.056108333
0003c0 da 81 56 3d b4 2c ca bc c0 a8 01 bc 90 d8 f9 3b
       0.05236993 -0.02467952 -0.007913768 0.007624693
0003d0 9b 4f 22 bd 7c 57 f5 3c 6b b2 88 3d 04 6c 9c bd
       -0.0396267 0.029948942 0.066746555 -0.0763779
0003e0 04 12 4f bd 73 75 9a 3d 4e d0 42 3d 1a e6 49 bd
       -0.05055429 0.07541933 0.047561936 -0.049291708
0003f0 d0 81 a7 bd 90 7e a6 bc 5a f1 48 3d 34 74 c8 3c
       -0.08179057 -0.020324022 0.049058296 0.024469472

rnn.bias_ih_l1 f4 [128]
000000 f8 bc eb be 11 a7 96 3e f3 3a cd 3e fd b1 40 be
       -0.4604261 0.29424337 0.40084037 -0.18817897
000010 2c b0 2a be 7f c7 8e be 5c 5d e9 be d6 b9 0b be
       -0.16668767 -0.27886578 -0.4557904 -0.1364511
000020 c0 f4 77 3e cc ba 92 3e f5 44 b6 bd 3f 7f e3 3d
       0.24214458 0.2865814 -0.08899871 0.11108255
000030 80 ec 19 3e a4 c4 c5 be be f0 10 be 25 cc 9f 3e
       0.15031624 -0.38626587 -0.14154336 0.31210437
000040 b7 94 ac 3e 77 1d 75 be fa aa 4b 3e 4b 75 67 3e
       0.3370721 -0.23937021 0.19889441 0.22603337
000050 7c 61 97 3e 2a 42 cb be 29 28 0e 3c 56 14 56 be
       0.29566562 -0.39698917 0.008676567 -0.20906195
000060 79 3d eb 3d 15 21 9e bd 23 7f b2 3e c9 c3 26 be
       0.11486334 -0.07721154 0.34862623 -0.16285624
000070 84 e8 88 be a4 a1 c7 3e 70 e4 93 be 96 ad 9d 3e
       -0.26739895 0.3899051 -0.2888522 0.30796498
000080 dd 84 f8 bc 40 38 98 3e 8b d5 1b bc 8f f0 b9 bc
       -0.030336792 0.29730415 -0.009511362 -0.022697715
000090 32 08 a1 3e 0f 7b a1 3d 03 3b 86 3e 98 b2 36 3e
       0.31451565 0.078848 0.26216897 0.17841566
0000a0 a5 fb df 3d 88 af a8 3e ba bb ba 3d d4 54 65 3e
       0.10936669 0.3294642 0.09117837 0.2239564
0000b0 a3 26 b2 3e d4 32 d2 3e 26 f2 3e 3d 18 79 62 be
       0.34795102 0.41054404 0.04661765 -0.22116506
0000c0 c5 26 06 be 16 ae a0 3e 04 1e 96 be 42 a5 95 3e
       -0.13100727 0.31382817 -0.29319775 0.29227644
0000d0 94 3b 0e bd 5a cb 8c be 57 bf ca 3e 1e dc 22 3e
       -0.034724787 -0.27498895 0.39599106 0.1590428
0000e0 49 65 e0 be be dc 86 3e 1c 75 3e 3e 1f 42 df be
       -0.43827274 0.26340288 0.18599361 -0.43605134
0000f0 70 8e a2 be 94 2b ff be 05 80 c9 3e e6 e7 2e be
       -0.31749296 -0.49837935 0.39355484 -0.1708065
000100 33 d7 e6 be 7c ba 61 be cd 08 05 3e 6e 8e 4f be
       -0.4508606 -0.22043794 0.12991638 -0.20269176
000110 90 2b 09 3e ce 8a de be 6e 5d c3 be 0f 55 e4 3e
       0.13395524 -0.43465275 -0.3815722 0.44596145
000120 3d 25 e4 be 95 4f e5 3e 3d c1 ba 3e 43 e1 61 3e
       -0.4455966 0.4478728 0.36475554 0.22058587
000130 b7 50 c4 be fa b9 80 be 8c df 08 be 5e 20 f9 3e
       -0.3834283 -0.2514189 -0.13366526 0.48657507
000140 c5 c9 ae 3d 52 32 da 3e 4d 2d e2 be 69 a8 c7 3e
       0.08534578 0.42616516 -0.44175187 0.38995674
000150 1c 71 a8 be 3d 5b 53 3e fd 6b aa be 7f cc 63 be
       -0.32898796 0.20640273 -0.33285514 -0.22245978
000160 aa 32 35 3e 96 2e b3 3e 1e 13 31 3e ec b7 1b 3e
       0.17695108 0.3499648 0.17292449 0.1520688
000170 b8 aa 83 3e eb 35 1d 3e 33 f0 ec be cd ce 88 bd
       0.25716186 0.153526 -0.46277007 -0.06680069
000180 9e 49 de be 5d bc ca be 8e e0 96 be 68 9c b7 3e
       -0.4341554 -0.39596835 -0.29468197 0.35861516
000190 42 95 99 3e 21 60 54 3e ee 34 c6 be 39 f4 8d be
       0.29996687 0.20739795 -0.38712257 -0.2772539
0001a0 4f 92 ad 3e 89 23 2d 3e ce 6f 60 3e f5 c1 8e 3e
       0.33900687 0.16908087 0.2191765 0.27882352
0001b0 bd 4b 26 3e 44 b1 9c 3e 0b 7f 3a 3e 71 bb ef 3e
       0.1623983 0.30603993 0.18212526 0.46822694
0001c0 3f 3b be be 65 70 74 be ac 59 4a 3e 75 fb 7e be
       -0.37154576 -0.23871 0.1976077 -0.2490061
0001d0 78 86 69 3e 2e b8 fd 3e 9b 25 b5 3d 90 ed d8 3e
       0.22805202 0.4955458 0.08845063 0.42368746
0001e0 75 b9 c5 3e 19 ba c0 3e ec 3f 10 3e 13 16 eb be
       0.38618055 0.3764198 0.14086884 -0.4591528
0001f0 48 73 c9 be 2f de df 3e a9 8c ee 3e e9 b3 ad 3e
       -0.39345765 0.437242 0.4659169 0.33926323

rnn.bias_hh_l1 f4 [128]
000000 fa 1d b2 be fa b2 54 3e 1d e5 df 3e 6b b4 e0 bd
       -0.34788495 0.20771399 0.43729487 -0.10971912
000010 43 1a 01 be 8e 5e 86 be 52 79 08 bf 37 52 15 be
       -0.12607674 -0.26244015 -0.5331012 -0.14582144
000020 3f 5a ed 3d 3b 3f cc 3e ae 75 0f bd a6 ae 2e 3e
       0.11589479 0.3989199 -0.035024337 0.1705881
000030 d8 33 57 3e c1 3c 89 be ce aa 0c be e4 15 68 3e
       0.2101587 -0.26804164 -0.13737032 0.226646
000040 2b 59 83 3e a6 e3 40 be ce db ed 3d 5f 01 67 3e
       0.25653967 -0.18836841 0.1161419 0.22559117
000050 19 52 73 3e dd a8 ad be a1 0e 52 3d 8b 42 b9 be
       0.23761787 -0.33917895 0.051283482 -0.3618358
000060 0f 47 ac 3d f8 90 e8 bd 4a 72 d2 3e 41 3c 52 be
       0.08411991 -0.113557756 0.4110282 -0.20530798
000070 ec 4b c5 be ea 23 db 3e f1 21 a3 be 55 c5 d4 3e
       -0.38534486 0.42800838 -0.31861833 0.41556802
000080 ac 3c 93 3d cb 11 9f 3e fb 46 0f be b8 52 ea 3d
       0.071893066 0.31068262 -0.1399192 0.114415586
000090 c6 59 90 3e c2 e1 79 3e 57 ca c1 3e 51 87 50 3e
       0.28193492 0.24402526 0.37849686 0.20364119
0000a0 2f a5 ce 3d a2 e4 d1 3e 48 0d 4c 3e a6 35 a2 3e
       0.100901 0.40994745 0.19926941 0.31681556
0000b0 c1 15 c7 3e a1 bc f6 3e 34 4a 27 3c ba ed ac be
       0.38883784 0.48190787 0.0102105625 -0.3377512
0000c0 71 75 ca bd 1e 06 c0 3e f8 c5 91 be ee 5f 9e 3e
       -0.098856814 0.37504667 -0.2847135 0.30932564
0000d0 14 4c 28 be a8 3a aa be f5 0f df 3e eb e2 55 3d
       -0.16435272 -0.33247876 0.43566862 0.05221836
0000e0 ca 4b b6 be 7f a6 9e 3e d8 58 6a 3e 2d 1f c9 be
       -0.35604697 0.309864 0.22885454 -0.39281598
0000f0 50 c9 1b be 87 de f0 be 97 b3 d7 3e 5b f2 51 be
       -0.15213513 -0.47044775 0.42129204 -0.20502608
000100 99 7f e3 be a7 66 ea bd ae 4a 8f 3e 34 cc 2d be
       -0.44433287 -0.11445361 0.27986664 -0.16972429
000110 d8 00 65 3e f4 4d b8 be 35 64 c6 be d7 c6 ba 3e
       0.22363603 -0.35996974 -0.38748327 0.36479828
000120 d7 18 d8 be 17 70 b1 3e b5 06 b8 3e 7f 3d 6f 3e
       -0.4220645 0.3465583 0.35942617 0.23363303
000130 1b cb f4 be e4 3a 9c be 5b 50 f9 bd 76 26 00 3f
       -0.47811207 -0.3051368 -0.1217353 0.50058687
000140 63 e9 72 3d c6 1f 98 3e cd 45 ce be a5 07 ca 3e
       0.059304606 0.2971174 -0.4028763 0.39458957
000150 13 af a7 be 04 63 9f 3e d4 f2 7a be 83 cf 5a be
       -0.3275076 0.3113023 -0.24506694 -0.21368222
000160 51 c8 4f 3e b8 5d 56 3e c7 3c 69 3e 29 85 9a 3e
       0.20291258 0.20934188 0.22777091 0.30179718
000170 21 c2 be 3e ff 5f 20 3e a3 60 db be 2d f5 04 3d
       0.37257484 0.1566162 -0.42847165 0.03246038
000180 cf 72 9a be 19 51 cc be bc 17 a7 be fc ce eb 3e
       -0.30165717 -0.39905623 -0.32635295 0.46056354
000190 bb fc 2a 3e fb c3 f6 3d 7f 1c cf be 89 df da be
       0.16697972 0.12049099 -0.40451428 -0.4274867
0001a0 58 61 ef 3e a0 cf 6b 3e e5 44 b4 3e 02 09 20 3e
       0.46753955 0.23028421 0.35208812 0.15628436
0001b0 8a e4 17 3e 35 1f 6c 3e a3 b7 8a 3d 43 66 ec 3e
       0.14833274 0.2305878 0.06773307 0.4617177
0001c0 3d 56 ff be 82 1b c8 be 55 49 d4 3d 1f 2e 98 be
       -0.49870482 -0.39083487 0.103655495 -0.29722688
0001d0 c4 f4 27 3e 02 30 b0 3e 2b b5 ed 3d 85 a5 a5 3e
       0.16401964 0.34411627 0.11606821 0.32352844
0001e0 09 9b 9d 3e ff 10 a4 3e de 76 c9 3d a8 a0 e3 be
       0.30782345 0.32044217 0.09837125 -0.44458508
0001f0 10 ce c6 be 22 c7 a8 3e 64 d1 c4 3e 4f a5 9f 3e
       -0.38829088 0.32964426 0.38441002 0.31180808

rnn.weight_ih_l2 f4 [128, 128]
000000 f1 10 0e be d8 59 52 3d 66 bd d3 3d fe 0b 57 be
       -0.1387365 0.051355213 0.10338859 -0.21000668
000010 63 1e 9e 3c 34 32 28 be 86 ff 48 be a0 d1 7b 3d
       0.019301599 -0.16425401 -0.19628724 0.06147921
000020 73 da ef 3d cc 2a d5 3d 30 cf 48 3d 66 fd a0 3d
       0.11711588 0.104085535 0.049025714 0.07860832
000030 03 ac f3 3d 68 41 26 3d c9 6c 60 be 81 2c 57 ba
       0.11898043 0.04058972 -0.21916498 -0.0008208231
000040 08 22 b3 bd 5c 7f b6 3d 90 d4 de bd 19 2a 2d 3e
       -0.08746725 0.089110106 -0.10880387 0.1691059
000050 88 0e b4 3d dc 23 85 be 9b 85 90 bd b4 5d 3e 3e
       0.08791834 -0.2600392 -0.07056733 0.18590432
000060 34 26 02 3d 2b 2e 5d be 9c 5f 3d 3e 8e b1 dd bd
       0.031774715 -0.21599643 0.18493503 -0.108248815
000070 82 c8 ce bd eb 2c ea 3d 2c 8a 46 3d 43 92 e6 3d
       -0.100968376 0.11434349 0.048471615 0.11258366
000080 ba ec e5 bd d0 6a 7e bd e3 13 af bd 9a 5c 8a 3d
       -0.11226793 -0.062113583 -0.08548715 0.067559436
000090 70 cb ba bd ab 98 ef bd b9 9c ef 3d f1 03 52 bb
       -0.09120834 -0.11699041 0.11699814 -0.0032045806
0000a0 21 8f 81 3d c7 4d 03 3e 50 18 d5 3c 23 f6 a4 3d
       0.06326128 0.12822638 0.02601257 0.08054759
0000b0 21 62 92 3d 3c 05 49 3e ed d5 01 bd 60 20 8d bd
       0.07147623 0.19630903 -0.031698156 -0.06890941
0000c0 e4 98 29 be 22 ba 76 3e 7f d9 82 3c f7 93 c7 bd
       -0.1656223 0.24094442 0.01597285 -0.09745019
0000d0 26 75 5b 3d 32 e7 58 bd 3c 8b 3e 3d a7 22 0a 3e
       0.05357852 -0.05295486 0.046519503 0.13489781
0000e0 89 73 b2 be ba 71 f5 3d 43 e8 62 3c e0 54 18 bd
       -0.3485377 0.11984582 0.013849321 -0.037190318
0000f0 1d 78 e7 3d 50 2f 5d be 89 2d 0d 3e e8 50 a3 be
       0.11302207 -0.2160008 0.13786902 -0.31897664
000100 1f 54 a0 bc eb 9b 6c bc 31 45 32 3e 09 b8 da 3d
       -0.019571362 -0.014441471 0.17409207 0.10679633
000110 b6 cf 02 bd d3 92 42 bd 04 71 f7 bd e9 6b 11 3e
       -0.03193637 -0.047503304 -0.12082103 0.1420132
000120 a7 2a 28 3d 6f 4e 16 3e de 36 07 3e f1 df 99 bd
       0.0410563 0.14678358 0.13204524 -0.075134166
000130 cc af 22 be 21 c0 2d be 2e 4b 76 bc 47 dc c2 3d
       -0.15887374 -0.16967823 -0.015032573 0.09514671
000140 ce 46 4d 3d 56 fe d0 3d b1 ba ea bd 49 72 8e 3d
       0.050116353 0.10204761 -0.1146139 0.06955392
000150 8d d8 a5 bd 8f 44 62 3c 55 ee 36 3e a2 3c c5 bd
       -0.080979444 0.013810291 0.17864354 -0.096307054
000160 da 88 06 bc ac 3b d7 bd 79 a4 64 3e b4 f3 47 3e
       -0.008211339 -0.105094284 0.22328366 0.19526559
000170 a3 0a 95 3c 49 03 25 bd ab 79 1c be 82 44 07 3e
       0.018193549 -0.040286336 -0.15280788 0.13209727
000180 95 c3 bb bc d2 5b a3 bd 50 df c4 3d aa d6 3a 3e
       -0.02292041 -0.07976498 0.09612906 0.1824595
000190 67 30 41 be 55 20 7e 3d 30 20 10 3e 6a 09 ec bd
       -0.1886612 0.062042553 0.14074779 -0.11525233
0001a0 93 06 e0 3d 10 04 b2 3c e7 84 e0 3d bb 7d a7 3d
       0.10938754 0.021730453 0.10962849 0.08178278
0001b0 9e 55 45 3d 2b 89 5f bc 43 03 25 bc d2 13 22 3e
       0.048177354 -0.013643543 -0.010071578 0.15827873
0001c0 ae a2 0f be 96 47 13 be c2 57 1e 3e 46 4f d1 3c
       -0.14026901 -0.14382777 0.15463164 0.025550496
0001d0 ff 64 3e 3e da 7d 51 3d 04 f6 66 3d 5a d7 44 3e
       0.18593214 0.051145412 0.056386963 0.19222775
0001e0 82 b4 6b bd 26 58 d3 3d af 78 a9 3d bd a4 0c be
       -0.057545193 0.10319547 0.08274972 -0.13734718
0001f0 73 07 91 bc b7 4d be 3d 7e 87 38 bd e7 c1 2f be
       -0.017703747 0.09292167 -0.04505109 -0.17163812
000200 38 50 ba be f1 43 67 3e b4 d4 f4 3d 67 1f 3b bd
       -0.36389327 0.22584511 0.119546324 -0.045684244
000210 68 b8 0d be e2 52 f8 3d b3 0c 4a be af 56 cb 3d
       -0.13839877 0.12125184 -0.19731407 0.09928643
000220 db 6b 22 3e 74 d1 0c 3e bc 36 c5 bd e7 b2 06 3e
       0.15861456 0.13751775 -0.096295804 0.13154183
000230 e4 48 e2 3c bd 09 8a 3e 97 63 c2 be 2a f9 bb 3d
       0.027622648 0.26960555 -0.37966606 0.09178384
000240 e9 dc 64 be b5 86 5c be a9 0c d5 bd e8 72 81 3e
       -0.22349896 -0.21535762 -0.10402805 0.2528298
000250 69 c8 1c b7 b6 8c bb bd b7 31 79 bd 3a 2c 13 3e
       -9.344986e-06 -0.09157698 -0.060838427 0.1437234
000260 81 26 0c 3e 71 7f e3 bc 3a 95 39 3e 10 de 6a be
       0.13686563 -0.02777073 0.18123332 -0.22936273
000270 45 f6 82 be 5d b2 52 3e bf d9 b3 bc 35 05 c6 3c
       -0.25578514 0.20575853 -0.021954415 0.024172405
000280 0b a0 a6 bd 9e 8e 9c bd ae f7 a6 bd 08 4e ac bd
       -0.081359945 -0.076443896 -0.0815271 -0.08413321
000290 d5 c0 42 3d eb 85 b6 3d 3a 54 bd 3d 6c 4b 8a 3d
       0.04754718 0.089122616 0.092445806 0.06752667
0002a0 00 ae 23 3e 2b 67 41 3e 2d 80 88 3d 9a e8 e7 3d
       0.15984344 0.18887012 0.066650726 0.11323662
0002b0 8d 82 40 3d fe e7 e4 bc 7f 3b 5e bc 9e ec 07 3d
       0.046999503 -0.027942654 -0.01356399 0.03318464
0002c0 06 31 13 be ef bc 8a 3e d9 02 15 bd 90 d4 d2 3d
       -0.1437417 0.2709727 -0.03637967 0.10294449
0002d0 e4 20 a1 be 8b f2 1d be c1 33 31 3e c7 b1 0b 3e
       -0.31470406 -0.15424554 0.17304899 0.13642035
0002e0 8f 5c 6e be 67 11 48 3e 02 05 d5 bd b4 53 66 be
       -0.23277496 0.19537888 -0.10401346 -0.22492868
0002f0 0f fb 3e 3b 07 ec 57 be 12 74 c4 3d c8 fe db bc
       0.0029141342 -0.21086131 0.09592451 -0.026854888
000300 57 37 8a be 4f bc 94 be 8e 1d 43 3e a7 5e 01 bb
       -0.26995346 -0.29049918 0.19054243 -0.0019740255
000310 39 39 20 3e e6 95 1f be 0e ff f3 3c 1e 01 22 bc
       0.15646829 -0.15584525 0.029784705 -0.009887962
000320 e9 bb 88 bd 27 17 7a 3e 25 35 ce 3d 5d 35 2d be
       -0.06676466 0.24422894 0.1006873 -0.16914888
000330 11 0b 6b 3c 68 d6 29 be 88 50 d9 bb 89 6f 04 3e
       0.0143459 -0.16585696 -0.0066319145 0.12933172
000340 8c 9b 01 3d c4 f1 c3 3d 63 be 4f be 39 6e fa 3d
       0.03164248 0.095675975 -0.2028747 0.122280546
000350 61 eb b2 3c fe 44 30 bd f3 48 7b bd e5 89 cf bd
       0.021840753 -0.043034546 -0.061348867 -0.10133723
000360 ca 02 07 3e 02 9c d1 3c 79 49 81 3e 3a 81 05 3e
       0.13184658 0.025587086 0.25251368 0.13037577
000370 a7 ae 0b bd ee 97 8e 3d 6e e4 9a be 2a 2c 72 3d
       -0.03410211 0.06962572 -0.30252403 0.05912415
000380 c8 4f a9 3d bd 0a cb bd aa f5 42 bd 55 ef 68 3e
       0.0826717 -0.099141575 -0.047597565 0.22747548
000390 70 09 c3 bc a4 46 28 3d 6d ab 8d 3c 59 35 76 be
       -0.023808211 0.041082993 0.017293656 -0.24043788
0003a0 d2 1e 62 3d aa 81 bf 3c a1 e1 33 bd 4b 57 3b 3e
       0.055205174 0.023377258 -0.04391635 0.18295018
0003b0 d7 f3 1a bd fa 67 91 3c 69 fb 5d 3e 26 39 c9 3d
       -0.0378302 0.017749775 0.21677937 0.09825353
0003c0 0d af 48 be 45 39 f4 bd 3f 53 71 3c 73 3a 2e be
       -0.19598027 -0.11924986 0.01472932 -0.17014484
0003d0 64 7a 1c 3d 11 93 35 3e 38 0c 39 3e c1 3d a5 3d
       0.03820266 0.17731883 0.18071067 0.08068419
0003e0 b7 f7 2b 3e 44 7b 87 3e 79 78 cb 3d 5d 8a fd bd
       0.16793714 0.26461232 0.09935088 -0.12379906
0003f0 ac c0 69 3d 06 44 1e 3e 16 96 bb 3e b6 15 82 3d
       0.05706851 0.15455636 0.36637944 0.06351797
